src/GRU_model_10_2.pt (torch_old, 742938 bytes, 11 tensors)

weight_ih_l0 f4 [384, 58]
000000 50 70 0c 3e b1 90 ec bb d8 a0 1b 3e de b7 65 3d
       0.13714719 -0.007219397 0.15198076 0.056083553
000010 1e 5f 77 bd 55 cd a2 3c e5 a0 c2 bc 9a 3f e6 bd
       -0.060393445 0.0198733 -0.023758361 -0.112426
000020 e0 ad c4 3d 98 28 20 3c 97 fd 01 bd ad 61 9c 3d
       0.096034765 0.009775303 -0.031735983 0.07635818
000030 0d 5c 09 be 0e 99 d2 bd 85 52 22 be 34 f5 98 3d
       -0.13414021 -0.10283099 -0.15851791 0.07468644
000040 3b 8c 7a bd f1 e9 40 be 38 18 14 be e8 ec bb 3d
       -0.06116889 -0.18839242 -0.14462364 0.09176046
000050 8d 4d 02 be 5f c5 1a 3d 48 bb 34 bd 27 d1 88 3d
       -0.12724896 0.037785884 -0.044123918 0.06680518
000060 b3 8d 5c 3d 5f db 87 bb 2f f7 52 3b ae 14 7d b9
       0.053846072 -0.004146024 0.003219079 -0.00024135664
000070 6f 06 ce bd 03 b6 21 3d 48 51 ba bd bc 10 9a 3d
       -0.10059821 0.03948022 -0.090975344 0.07522723
000080 5d d6 f3 bc 5b 9c 7f bd d2 92 b1 bd 2f d2 a2 3d
       -0.029765302 -0.06240497 -0.08670582 0.079502456
000090 7c 8d 8b 3d 24 80 42 bc 5b c9 94 bd bf 0d 49 bd
       0.068140954 -0.011871371 -0.07264968 -0.049085375
0000a0 4f 0d a2 bc 18 82 90 3d 70 a3 94 bc ce a0 b0 3a
       -0.019781737 0.070560634 -0.01814434 0.0013475658
0000b0 95 29 b7 bd 48 f5 ad bd 8e a2 19 3c fe 51 90 bd
       -0.08943478 -0.08494049 0.009377135 -0.07046889
0000c0 b6 fb 45 3c c1 1f a7 3a 3d a7 b4 3d f3 97 8c 3d
       0.012083938 0.0012750552 0.08820961 0.068649195
0000d0 84 12 c8 3d 8a 34 f3 3b 66 d1 12 3d 00 62 c9 b9
       0.097691566 0.0074220346 0.03584423 -0.00038410723
0000e0 9b 6d 43 3d 1c c9 7a 3d 8e d6 d9 3b 1e a9 87 be
       0.04771195 0.06122695 0.0066478914 -0.26496214
0000f0 0d b2 99 bd 5b 96 05 bd 17 4d c4 3e 8d 09 f1 3a
       -0.075046636 -0.032614093 0.38340065 0.0018389687
000100 20 4e c1 3d b0 4e 9a 3c dc 8b 92 bd 5a 49 cf 3b
       0.09438729 0.01883635 -0.07155582 0.006325883
000110 2c 71 09 3e e1 a8 a4 3c bc 40 ea 3c 3e 88 d7 3d
       0.13422078 0.020100059 0.02859532 0.10524033
000120 2c f2 a6 3d e7 da 0e bb fe ab bc bd cb 72 c6 3c
       0.08151659 -0.0021797956 -0.092124924 0.02422466
000130 06 56 e8 3d b2 58 a0 bd 76 eb 0d 3d 09 5f 8b be
       0.11344533 -0.07829417 0.03464838 -0.27220944
000140 0e 2a 9f bd f8 2c d4 3c 6b b2 e3 bc aa 01 a8 bc
       -0.07771693 0.025900349 -0.027795037 -0.020508606
000150 10 ba e6 bc 87 e1 97 3c b4 e3 b1 bd 5e 37 e4 3c
       -0.028164893 0.018540157 -0.08686009 0.027858432
000160 20 0e 98 bd 70 ea 8c 3d 20 68 0d 3d dd d8 03 3d
       -0.07424569 0.06880653 0.03452313 0.03218924
000170 00 e7 9e 3d 47 b4 1a 3c bc f0 d1 bd 97 10 15 bd
       0.077589035 0.0094423955 -0.102509946 -0.036392774
000180 c5 04 9e bd 5c 48 9d bd cb 58 01 bd 1e 0d c6 3b
       -0.077157535 -0.07679817 -0.03157882 0.006044044
000190 f1 1b b9 bd 5d a2 b7 3d 13 52 e3 3c 52 8c ca 3b
       -0.090385325 0.08966515 0.027749097 0.0061812783
0001a0 b4 bc 19 bd c9 de 6b 3d 7b bd 2f bd 18 fd 85 bd
       -0.037533477 0.05758551 -0.042905312 -0.065424144
0001b0 6b 6b f2 3c ed 41 2b 3d 86 95 51 bd 2d 69 30 3c
       0.029592237 0.04181092 -0.051167987 0.010767263
0001c0 6e b2 48 3d 5b 19 94 3d d2 d0 aa bd b5 56 1e 3d
       0.04899829 0.07231399 -0.083406106 0.03865691
0001d0 40 02 14 bd bb a1 2c 3c ac 7f 9c bd 68 a3 c9 3c
       -0.03613496 0.010536606 -0.07641539 0.024614051
0001e0 58 a7 28 3e 38 b8 d3 bd 21 2a 08 bd 98 d2 89 3c
       0.16470087 -0.10337871 -0.033243302 0.016824052
0001f0 8c b9 f8 bc 31 d9 22 bd cc 45 01 3d bf 06 5a be
       -0.030361913 -0.03975791 0.031560704 -0.21291636
000200 f1 14 3c bd cd ae 39 3e 8b d8 18 bd 56 94 9c bd
       -0.04591841 0.18133087 -0.037315886 -0.0764548
000210 a0 41 f7 bc 2c 3c 2e 3d 7a 67 95 bd 70 19 e2 bd
       -0.03018266 0.042537853 -0.07295127 -0.11040008
000220 b7 d9 4c bd e1 3c 20 3d 5b ad 70 3d 6e 6a 15 bd
       -0.050012317 0.03912056 0.058759075 -0.036478452
000230 8b ea a9 3c 51 52 93 3d f7 b6 4c 3d 56 2c a2 bd
       0.020741722 0.07193435 0.049979176 -0.07918613
000240 67 48 07 bd 9e 2e cb 3d d7 ee 6d ba e5 e8 a5 3d
       -0.033028033 0.09921001 -0.00090764224 0.08101062
000250 dd 8b 16 3d ba fb 83 3d fc bd 88 bd b6 a4 71 3c
       0.036754478 0.064444974 -0.06676862 0.014748743
000260 75 37 18 bc cc 41 30 bd 6a 8e b8 bd a4 79 1b 3d
       -0.009290566 -0.0430315 -0.09011538 0.037957802
000270 ed a9 4b 3c ea 02 9b bd 77 4e 3a 3d 0f 2d 93 3a
       0.01243065 -0.07568915 0.045484986 0.0011228638
000280 86 a4 b8 bc 77 82 74 bd 52 d2 6b bd 2b dd 70 3d
       -0.022539388 -0.059694733 -0.057573624 0.058804672
000290 3c f6 6b 3d 34 4f 77 bb f0 78 79 bc e4 69 08 3d
       0.057607874 -0.0037736418 -0.015226588 0.03330411
0002a0 e9 4d f5 bc 5d ae a9 3d ca b7 a3 bb 52 c2 5e 3d
       -0.029944377 0.0828521 -0.0049962746 0.054384537
0002b0 05 c8 61 bd 9a 60 8a 3d 3f 9a 2b 3e 84 68 d6 bb
       -0.055122394 0.067567065 0.16758059 -0.006543221
0002c0 aa e6 83 bd 87 c3 62 bd 29 30 c6 3c 55 e1 f7 3c
       -0.0644048 -0.05536225 0.024192886 0.030258814
0002d0 a4 20 d6 3c 38 14 cc 3c 44 64 0c 3e 27 33 9a 3c
       0.026138611 0.024911985 0.13710123 0.01882322
0002e0 ee 55 83 bd dc 66 b0 bc 46 b4 99 3d ef 08 21 3c
       -0.06412874 -0.021533422 0.075050876 0.00982879
0002f0 7a 80 80 bd 66 2b 9e bd 1e 81 9a bd d8 b8 2f be
       -0.06274505 -0.07723121 -0.075441584 -0.17160356
000300 c1 fc 58 bd 4f 7e be 3c ad 03 f7 bd ac 1a aa bd
       -0.05297542 0.023253588 -0.12061248 -0.083058685
000310 f7 94 61 3d da 55 07 3d ee 1a 17 3e 63 58 4d bb
       0.055073705 0.03304086 0.14756367 -0.00313332
000320 02 37 52 3d 2b 88 40 3c f5 ac 10 bd c0 de 20 3d
       0.05132199 0.011751215 -0.035321195 0.03927493
000330 d4 bd ce bc d7 e6 ec 3c b4 a4 1f 3d 0c d6 23 3d
       -0.025237001 0.028918667 0.038975433 0.039999053
000340 c2 6d 00 bd 89 ad cd 3c 7c 10 91 bd 92 bf ab 3d
       -0.031354673 0.025107162 -0.07083222 0.083861485
000350 73 50 c1 bd ef b7 81 bd 0a 0f 10 3d 72 22 9f 3d
       -0.094391726 -0.06333911 0.035170592 0.07770242
000360 72 94 97 3d 42 db 9a 3d 21 33 df bd 4d 4d 84 bd
       0.074013606 0.07561351 -0.10898424 -0.064600565
000370 08 4c 86 3d 6b 95 6b 3c 88 0e ab bd 97 70 19 3d
       0.065574706 0.014378886 -0.08352381 0.03746089
000380 a4 87 bb 3c 6b dd 85 bc f5 3e 8a bb aa 8d 23 3c
       0.022891827 -0.016340932 -0.004218931 0.009982506
000390 99 9f a2 3d 5c cb f4 3c c2 6c 91 bd de 44 99 3b
       0.07940597 0.029882126 -0.07100822 0.004677399
0003a0 8a 9f 29 be 84 f3 fc bd 86 1f 6f 3d 74 b4 ed bc
       -0.16564766 -0.123511344 0.058379672 -0.02901671
0003b0 85 90 82 be ea 8b bd bd 9e 25 cf 3d 33 e3 be bd
       -0.25500885 -0.09255202 0.10114597 -0.093206786
0003c0 7c 0b 4f 3e 52 f1 96 3d 7d a6 60 bd 2a 8c ee 3d
       0.20219225 0.07370247 -0.054846276 0.11647828
0003d0 07 c9 3d 3d 9a d2 0a 3d 64 b2 b7 3c cd 42 68 3d
       0.046334293 0.03389225 0.02242393 0.05670433
0003e0 2c 4a a2 3d 97 40 e7 3d 8f 5a b0 bd ca f8 ae 3d
       0.079243034 0.112916164 -0.08611023 0.085435465
0003f0 f1 45 06 3e 25 45 84 3c 1e 51 d6 bd 3b 3b b8 3d
       0.13112618 0.016146252 -0.104646906 0.08995672

weight_hh_l0 f4 [384, 128]
000000 20 68 2f bd 6d 42 9c 3c 85 c2 69 3c 4e ec f4 bd
       -0.04282391 0.019074643 0.0142675685 -0.11959134
000010 74 77 cd bc 7e e3 67 be 41 e4 b8 3d b7 bc 8e 3e
       -0.025081374 -0.22645375 0.09027911 0.27878353
000020 0e 8e ab 3d 9c 66 9f 3c b1 d0 fc bc 72 e6 8c bd
       0.08376704 0.019458108 -0.03086123 -0.068798915
000030 94 20 ed bd 1c 20 c6 bc d6 cb 4e 3e b4 bf fd 3c
       -0.115784794 -0.024185233 0.20194945 0.0309752
000040 11 ee 4a bd 4a 54 55 3e c6 a1 1d 3d ff 46 79 be
       -0.049543444 0.20832935 0.038484357 -0.24343489
000050 e4 b8 0c bd be 62 95 bc 34 b6 78 bd 52 09 ae bc
       -0.034356013 -0.01823556 -0.060720637 -0.021244679
000060 a9 12 6c 3d 4d d1 fd 3d 83 6e 48 bb 74 b2 ca bd
       0.057634983 0.123934366 -0.0030583448 -0.098973185
000070 5e bb 1d bc b5 d3 2d be 7d 3f 4d 3c 4b 19 55 3d
       -0.009627191 -0.16975291 0.012527344 0.052026074
000080 b0 23 88 bc a0 ec a4 bd 07 4b 33 3e 32 22 27 3e
       -0.01661858 -0.08052945 0.1750909 0.16321638
000090 14 91 47 3d 09 c4 8a 3e 0e f1 fd bc fe 83 02 3d
       0.04872234 0.27102688 -0.030998733 0.03186416
0000a0 2d 0c b3 bd 0e 0d fb 3c ad cc 48 be 6d 31 43 bd
       -0.08742557 0.030645873 -0.19609328 -0.047654558
0000b0 da 6b 2c 3e a1 5f 2e 3d 54 8a b6 3e 7f 76 9a bd
       0.16838017 0.042571668 0.3565241 -0.075421326
0000c0 b9 3d 0c be cf 3c 0e 3e 71 3b 5a be 16 77 a5 bc
       -0.1369542 0.13890384 -0.21311738 -0.020198386
0000d0 c2 d1 28 bd 3c 6c 0e 3e f1 c9 92 3e 8a 94 d4 bc
       -0.041215666 0.13908476 0.28669694 -0.025949735
0000e0 3f 3b 5c 3e 57 89 54 3d 18 12 e9 3c bf 80 b5 bd
       0.21506976 0.05188879 0.02845101 -0.08862447
0000f0 f8 36 0c 3e 08 15 dd bc 39 1f 9b 3d 63 db 2b bd
       0.13692844 -0.026987568 0.075743146 -0.04195727
000100 d6 4a 10 3c fe b9 90 bd 51 0c dd bc 44 f5 94 bd
       0.008806905 -0.07066725 -0.026983412 -0.07273343
000110 68 26 38 bd 86 b0 4f bd 78 b2 44 3e a0 2b 2f 3d
       -0.044958502 -0.050705455 0.19208705 0.042766213
000120 35 a4 b4 bd 25 f7 49 bd 51 a4 8b bd 52 3a a4 bd
       -0.088203825 -0.04930796 -0.0681845 -0.08018936
000130 8b d3 e0 3d 79 f0 d8 3d a1 cc dd 3c c2 59 83 3c
       0.109778486 0.105927415 0.027075114 0.01603401
000140 f9 d4 21 be da 9a f2 3d 38 83 a5 3d 8d 48 dc 3b
       -0.15803899 0.11845942 0.080816686 0.006722516
000150 7e cb 83 3c 28 9b 60 be 8d 8b 94 3d 05 e4 47 3e
       0.016088244 -0.21934187 0.0725318 0.19520576
000160 32 45 5d be 39 25 8d bc 52 2a b0 bc b4 7f 58 3d
       -0.21608427 -0.017229663 -0.021504555 0.052856162
000170 2c 7b 75 bd c3 39 c3 3c f4 4c 2e be e0 d3 ab bd
       -0.05993192 0.023831254 -0.17021543 -0.08390021
000180 78 48 6a bd e8 20 d4 3d ae 30 04 3c e6 d1 49 be
       -0.057198018 0.10357839 0.008068247 -0.19708976
000190 80 27 03 3d 29 6d 20 3e 36 87 54 3d c7 c3 8a 3d
       0.032020092 0.15666641 0.05188676 0.06775623
0001a0 d6 9e 16 3e 1a 1c c4 bd ff 74 8c 3c 9d 96 e4 bd
       0.14709029 -0.095756724 0.017145632 -0.1116154
0001b0 77 d8 70 3e 17 5b 98 bd 15 42 0b be 9a 5f 30 3d
       0.23520075 -0.07439249 -0.13599427 0.043059923
0001c0 3f a7 29 bd de e8 82 3d c1 71 45 bd 4c bd d6 3c
       -0.041419264 0.06392072 -0.048204187 0.02621331
0001d0 32 3a 2a 3e 2f cc 00 3e 43 cd 35 3d 9d b9 21 bc
       0.16623762 0.1257789 0.044385206 -0.009870914
0001e0 5a d6 a8 3e 8b f3 00 3e dc 0c 1a be e2 76 89 be
       0.32976037 0.12592904 -0.15043968 -0.26848513
0001f0 63 c7 c2 3d 7e f3 20 3d 74 c6 9c 3d f7 cc 15 3e
       0.09510686 0.039294712 0.076550394 0.14628969
000200 eb e2 e7 3d f8 47 6a 3d 48 e9 23 be ce c2 95 3d
       0.11322578 0.05719754 -0.16006958 0.07312547
000210 5f f7 b3 3c 37 65 dc bd 91 45 46 3d 86 29 c2 3d
       0.021968542 -0.10761493 0.048406187 0.09480576
000220 98 49 68 bd 0f b7 39 3e 44 ca 1c be ef 32 1c 3e
       -0.05671081 0.18136238 -0.15311533 0.15253805
000230 39 5c 1b 3e 25 ca db 3d d2 0b 1c be 61 2c 2f bd
       0.15171899 0.107319154 -0.15238884 -0.042766932
000240 0e 76 44 3d 6d 4f d1 3d d9 45 ca bc 34 14 25 3e
       0.04796415 0.102202274 -0.02469151 0.16120988
000250 af 95 af bd 3d 46 8f bc 0a 9c 67 be bb 58 45 3e
       -0.08573472 -0.017489547 -0.22618118 0.19272129
000260 45 46 6a bd 1c 9d 1d be da 56 0d 3e 40 99 4a bd
       -0.05719592 -0.15391964 0.13802662 -0.049462557
000270 b6 21 22 bd 2c 87 45 b9 bd 7c 7f bd d4 97 42 3d
       -0.03958293 -0.0001883774 -0.06237482 0.047508076
000280 be 29 aa bd 69 ce e1 bd 46 9e 79 be 55 2e 7a bd
       -0.08308743 -0.11025698 -0.24376783 -0.061079342
000290 f1 dc 23 be df f2 fc bd 6d ca 77 3c 81 ed e0 3d
       -0.16002251 -0.123510115 0.015123946 0.109828
0002a0 24 c6 52 3d d2 ee 78 be 30 86 87 3e e5 9f 68 3d
       0.051458493 -0.24309853 0.26469564 0.056793112
0002b0 2b 07 6c 3d 1b e5 f4 3c 7a 15 27 be d5 df 96 bd
       0.057624023 0.029894402 -0.16316786 -0.07366911
0002c0 d6 59 b1 be b9 d2 9b 3d db 52 59 be 7e f6 5b bd
       -0.34638852 0.076085515 -0.21223013 -0.05370187
0002d0 f8 10 d6 3d 6c 5d 55 3d 30 f4 1b be de 56 0e 3d
       0.10452455 0.052091047 -0.15229869 0.03475081
0002e0 25 d0 fd bd 7b 8a a1 bb ca a5 af 3d 0b 91 9b 3e
       -0.12393216 -0.0049298382 0.08576544 0.30384097
0002f0 5f 14 0a 3e 88 60 a2 3c 80 cf 88 be c8 a5 12 bd
       0.13484333 0.01982142 -0.2672081 -0.035802633
000300 fe b0 6b bc 13 e0 94 3d f2 6e 90 bd b1 a1 02 be
       -0.01438546 0.07269301 -0.07052411 -0.12756993
000310 85 ac 66 be c0 4a 0a 3e b6 db 70 3e 11 76 f3 bd
       -0.22526748 0.13505077 0.23521313 -0.11887754
000320 b0 03 4c bd 5c fc ff 3d 06 f1 f7 3d 76 2f bc 3d
       -0.049808204 0.124993056 0.121065184 0.0918874
000330 c7 ed 5b be 96 a4 0b be ac f3 c8 3d f0 2c 00 be
       -0.21477424 -0.13637003 0.09812102 -0.12517142
000340 7f f9 e4 3c 2c 1a 8a 3c 7d ae 33 3d 42 28 f4 3d
       0.027951 0.016858183 0.043867577 0.11921741
000350 14 ce eb bd 5c c5 1f 3e b1 c1 ee bc ac 0a 0c 3e
       -0.11513916 0.1560263 -0.029145094 0.13675946
000360 e7 2d 71 3e 23 0d 05 be 37 4f 2e 3e 19 85 fd bc
       0.23552667 -0.12993293 0.17022406 -0.030947255
000370 69 8e 37 bd 41 7c 77 3e 19 4f 55 be b3 f8 c4 bb
       -0.044813547 0.24168493 -0.20830955 -0.0060110926
000380 7a d9 c1 bc e6 8e f4 3d f6 ef 8f 3e d7 c0 e9 3d
       -0.023663271 0.11941318 0.28112763 0.114137344
000390 19 7c e2 bd a2 e8 c4 3d cb 82 96 bd c4 06 2b 3e
       -0.11058826 0.09614684 -0.073491655 0.167018
0003a0 e4 21 23 bd f2 63 41 be 4a b3 b7 3d 5b 29 f2 bd
       -0.039827242 -0.18885782 0.089697435 -0.11824294
0003b0 98 20 c0 bb c9 80 21 be 6b b4 05 be 4f 35 e7 3d
       -0.0058632605 -0.15771784 -0.13057105 0.11289465
0003c0 86 c0 08 bc 11 e3 c5 bd 57 44 8d 3d 87 38 50 be
       -0.008346682 -0.0966245 0.068978004 -0.20334063
0003d0 e7 38 0a 3e 33 c6 9a 3d 1c 5d 1f be 0a 56 24 3d
       0.13498269 0.07557335 -0.15562862 0.040121116
0003e0 c3 8e 0f be 4f 35 98 3d ec f1 d0 3c 2a 21 b9 3d
       -0.14019303 0.07432043 0.025505982 0.09039529
0003f0 1d c1 99 bc 79 c6 6a be 42 45 ff bd 7d 88 74 bd
       -0.018768841 -0.22927274 -0.12464382 -0.059700478

bias_ih_l0 f4 [384]
000000 1a 0e cb bd 9f be a5 3d e9 3a 12 be b8 ab c4 3d
       -0.09914799 0.08092999 -0.14280285 0.09603065
000010 79 5b a8 bc 8b a9 2e 3e 4e d4 da bc 0b ba 5d be
       -0.02055143 0.17056863 -0.026712563 -0.21653001
000020 4d 2b 49 3c 1e fd 40 3d c7 6c 6b bd f6 d3 16 be
       0.01227839 0.04711639 -0.057476785 -0.14729294
000030 1a d4 88 be f6 45 f8 3c b6 fc 37 be 00 13 e7 3d
       -0.2672432 0.030306797 -0.17967495 0.11282921
000040 2f 31 60 bc f6 4e 2a be 52 60 40 be d0 5f 27 bd
       -0.013683601 -0.16631684 -0.18786743 -0.04086286
000050 01 4e 44 be d8 8c 99 be 63 f8 9a be 1a 27 ff bd
       -0.19170381 -0.29990268 -0.3026763 -0.1245863
000060 06 92 66 bd 9d 71 7e 3d 2c 02 51 39 b9 3f 3e be
       -0.056291603 0.06212007 0.00019932602 -0.18578996
000070 82 37 b7 bd 96 9e 94 3d 7c d9 67 be ba af d5 bd
       -0.08946134 0.0725681 -0.22641557 -0.10433908
000080 08 fc 6d be 56 08 40 3e f1 ef 95 bd 70 74 56 be
       -0.23240674 0.1875318 -0.07321156 -0.20942855
000090 87 95 2c be 2d 1e a5 bd d4 9c b2 3d e4 38 69 be
       -0.16853915 -0.08062396 0.08721319 -0.22775608
0000a0 13 72 b8 3d 7c 0c 03 be d7 c1 74 bd aa d2 8e bd
       0.09006133 -0.12797731 -0.059755173 -0.06973775
0000b0 6c 8d 5c be ea 88 bd bd 60 9b 94 be 2a d0 d8 3d
       -0.21538323 -0.0925463 -0.29024792 0.10586579
0000c0 92 b5 94 3e 8a c9 fc bd 7e 83 51 bd ab 7a 50 3d
       0.29044777 -0.12343128 -0.05115079 0.050898235
0000d0 f6 7c 82 be 9a 95 a6 bd 41 6b e2 3d d4 c8 46 bc
       -0.25485963 -0.08134003 0.11055613 -0.012132842
0000e0 60 ff 8e be 85 f4 92 be 27 c0 b5 bd 8b 61 b8 be
       -0.2792921 -0.2870218 -0.08874541 -0.3601192
0000f0 75 25 cb bd f6 64 93 39 0d 22 60 bd 60 64 0f 3d
       -0.09919254 0.00028113247 -0.054719973 0.035007834
000100 41 a5 36 bc b5 36 64 be ca f2 18 be b2 ef 7e bd
       -0.011147798 -0.22286494 -0.14936367 -0.06224031
000110 ff f8 3e bd 27 55 0c 3d 29 a4 9e be 4d c0 1c bd
       -0.04662418 0.034260895 -0.3098462 -0.03826933
000120 32 14 73 be 7c b6 10 be 45 d5 ea bc de 8b 93 3d
       -0.23738173 -0.14132112 -0.028666148 0.07204412
000130 3c c7 65 be b2 1a 0d be 74 07 0c bb 22 c9 2a 3e
       -0.22439283 -0.13779715 -0.0021366747 0.16678289
000140 45 30 93 be 5f d6 27 be 11 5e b8 bd 08 96 47 bc
       -0.28747764 -0.1639037 -0.09002317 -0.012181766
000150 0c 60 3f be 5b 69 18 be 3b 93 de bd c4 32 d1 bc
       -0.18688983 -0.1488394 -0.10867926 -0.025536902
000160 56 c0 0d be f5 3f 8c be 5d b5 8e be 2c fb 32 3e
       -0.13842902 -0.27392545 -0.27872744 0.17478627
000170 25 86 41 bd fa 95 34 be 77 32 46 bd 97 79 51 be
       -0.04724707 -0.17635337 -0.04838797 -0.20456539
000180 14 c8 07 be 2c fa ba bd 87 90 ad bd a9 4e 56 be
       -0.13259917 -0.09129748 -0.08474832 -0.20928444
000190 fc 01 9b bb 67 0e d0 bd ca f5 59 3e 42 5a 03 bd
       -0.004730461 -0.10158997 0.21285167 -0.0320685
0001a0 32 a1 a3 bd 7e 51 95 be 1e 83 17 be f3 c9 94 bd
       -0.0798973 -0.29163736 -0.14796111 -0.07265081
0001b0 00 63 dc bd 7e f5 84 be 79 05 6e bd 4d 5f 4c be
       -0.1076107 -0.25968546 -0.058110688 -0.1995823
0001c0 7a 3a fc bd cd 3a 5b be 55 24 74 be 01 35 8a 3d
       -0.12315841 -0.2140915 -0.23841985 0.06748391
0001d0 0d 26 02 3e 35 a7 97 be 17 71 c6 bd 3f cd 01 3e
       0.12709828 -0.29619756 -0.09689539 0.12675951
0001e0 0a d9 51 3d 15 78 5a be 06 2e 07 be 35 0e d2 3c
       0.051232375 -0.2133487 -0.1320115 0.02564154
0001f0 5d 10 03 3d ba 4a d8 bd a0 6e b3 3d 84 6b 8c 3c
       0.031998027 -0.10561128 0.087613344 0.017141111
000200 41 9b a9 be a5 e6 90 be 62 9c e3 3d 0f 5b 96 3e
       -0.33126262 -0.28300968 0.11113812 0.29366347
000210 86 32 25 be 08 c5 ae be bc 3b de be 74 11 31 3e
       -0.16132554 -0.34134698 -0.4340495 0.17291814
000220 76 20 01 bf 5b c3 0a bc ef 16 79 bd 2e 81 34 3d
       -0.50440156 -0.008469428 -0.060812887 0.044068508
000230 1f ea e0 be 1e a5 64 be ae 58 2c 3e 2f 14 f4 3c
       -0.4392862 -0.22328612 0.16830704 0.02979478
000240 ff 92 2a bf ad 83 2a bf e4 55 57 be ec c5 09 bf
       -0.6663055 -0.6660717 -0.21028858 -0.5381763
000250 82 e4 b5 3d ae c2 80 3c da b8 70 bf 3e 33 91 3d
       0.08881475 0.01571783 -0.9403206 0.07089852
000260 5c ca 98 be 8c 26 08 bf 5d d3 f0 3d aa dc b5 be
       -0.29841888 -0.5318382 0.11759064 -0.35519916
000270 f9 c8 b3 3d f8 87 f1 3c e6 c0 08 be 4e d8 c9 3d
       0.08778567 0.02948378 -0.13354835 0.0985571
000280 bc e6 0f be b0 27 96 bf 38 45 99 3d 98 98 bb be
       -0.14052862 -1.1730862 0.074839056 -0.36639857
000290 0a 7b 81 3e 70 49 fe bc ea 61 0f be f3 ce 06 bf
       0.25289184 -0.031040877 -0.14002195 -0.5265953
0002a0 80 58 48 bf db 3a 8e be d5 d1 1f bf 66 5c 32 bd
       -0.7826004 -0.27779278 -0.62429553 -0.04354515
0002b0 ff a9 b5 bd 59 6e 39 be 96 bd 8e be 89 23 81 3e
       -0.08870315 -0.181085 -0.27879018 0.25222424
0002c0 99 7c 9e be 5c 10 a8 be 31 88 ce be 56 24 6b be
       -0.30954435 -0.3282498 -0.4033828 -0.2296308
0002d0 42 06 70 bd 04 4f 05 3e 63 03 75 3e 2e a0 01 be
       -0.058599718 0.13018423 0.23927073 -0.1265876
0002e0 37 20 d1 be 73 db 1a bf e1 c1 de be 69 51 41 be
       -0.4084489 -0.604911 -0.43507293 -0.18878712
0002f0 77 7b f1 be 86 ca 18 3e 66 af 4c be 84 b6 14 be
       -0.4716451 0.14921007 -0.19988784 -0.14522749
000300 cb de a3 be dd cf b2 be cc bb e1 be 2f d6 c3 bd
       -0.32005915 -0.34924212 -0.4408859 -0.09562337
000310 92 35 37 be b5 57 73 be cd 53 64 3d e6 17 55 bc
       -0.17891529 -0.23763926 0.05574398 -0.013006186
000320 13 fd a7 3e 55 9b f2 be d3 b6 b8 3d 9f 10 84 be
       0.32810268 -0.47384134 0.09019246 -0.2579393
000330 1b ff 03 bf 14 69 ea be b5 09 25 3e 86 78 65 3e
       -0.51561135 -0.45783293 0.16116984 0.22409257
000340 a6 75 3b bd 4f 28 54 3c 52 e9 b0 be 79 e9 4c be
       -0.045766495 0.012949063 -0.3455301 -0.20010938
000350 1e aa fd be 3e 0a ba be aa df f1 3d 1e 62 1c be
       -0.49543852 -0.3633594 0.11810239 -0.15271804
000360 fc eb a6 3e 3f 31 81 bd 8e 48 80 bd e6 41 19 bf
       0.32601917 -0.06308221 -0.06263839 -0.5986618
000370 e7 07 60 be 90 b7 5c be ad ac 1a 3e 46 36 bc be
       -0.21878015 -0.21554399 0.15104933 -0.36760157
000380 75 3e 49 be ec 24 1d bf 73 1f 84 3d a6 b1 76 be
       -0.19652732 -0.61384463 0.06451311 -0.24091205
000390 33 c6 63 be 96 1f ef bd 5f 27 11 bf 39 7e 07 bf
       -0.22243576 -0.116759464 -0.567007 -0.52926975
0003a0 f6 18 0a 3d 4f 14 cc 3c d1 59 62 3e 17 a3 a7 be
       0.03371521 0.024912028 0.22104575 -0.32741615
0003b0 f7 6c ac 3d 58 f4 a8 3d 28 2f 7a be 08 68 04 3e
       0.08419221 0.0824973 -0.24432051 0.1293031
0003c0 de 44 23 bd 0a 2c b1 3c d5 4a 03 be 4c 33 13 3e
       -0.0398606 0.021627445 -0.12821515 0.14375037
0003d0 c9 99 fc be c3 a8 ab be f5 f5 1c bf 6a b7 b7 be
       -0.4933608 -0.33527192 -0.613128 -0.3588212
0003e0 6a 1a 0c 3d ae ef 20 bf 83 da 55 bd 3e b6 0f bf
       0.034204878 -0.6286572 -0.052210342 -0.56137455
0003f0 fb d6 85 be 7c b1 39 be e9 d3 cd be 9f ac 38 bc
       -0.2614058 -0.18134111 -0.40200737 -0.011271625

bias_hh_l0 f4 [384]
000000 76 cd 22 3d 3c f8 58 bd 3d d5 66 bd 66 4f f2 3d
       0.039746724 -0.05297111 -0.056355704 0.1183155
000010 d2 ed 36 be 5a d1 fd 3d db 2a 3c 3d a3 3e 59 be
       -0.17864159 0.12393446 0.045939308 -0.212153
000020 37 78 12 3c a0 1d 56 3d 09 9f 15 be f8 c7 1e be
       0.008939794 0.052274346 -0.14611448 -0.1550597
000030 98 1a 97 be 60 ca 67 3d 28 a8 e8 bd a6 b2 53 3d
       -0.29512477 0.056589484 -0.11360198 0.051684044
000040 02 ae 14 3d ae 4d 13 be aa 4f 81 be 34 ca 02 3d
       0.03629876 -0.14385101 -0.2525609 0.031931117
000050 eb bd 52 be 5e 40 93 be b5 e3 97 be 41 ff 39 bd
       -0.2058026 -0.28760046 -0.29665914 -0.045409445
000060 fe 63 40 bd 12 df 8a 3d 39 1b 9c 3d cf 95 4a be
       -0.04697036 0.067808285 0.0762238 -0.1978371
000070 9b ef f4 bd fe 75 6e 3d 9f 5b b6 bd 36 3b 9e bd
       -0.119597636 0.058217995 -0.08904194 -0.07726137
000080 e0 02 38 be 2a e6 6a 3e c3 7d a0 bd 2a 0b 4a be
       -0.17969847 0.22939363 -0.07836487 -0.19730821
000090 cb fb 1e be 3d 61 ff bd 10 88 3b bd 66 19 10 be
       -0.15525739 -0.124697186 -0.045784056 -0.14072189
0000a0 08 e4 93 3b 10 d4 d5 bd 82 fb 8e bd 7c a0 12 be
       0.0045132674 -0.10440838 -0.06981565 -0.14319032
0000b0 23 50 78 be 3a 97 c7 bd b0 4a 94 be 3d 5b 5f 3d
       -0.2424932 -0.09745641 -0.28963232 0.05453037
0000c0 10 39 49 3e 62 31 44 be 81 cb 89 3d 2a 1c bc 3d
       0.19650674 -0.19159463 0.067282684 0.09185059
0000d0 a4 86 a9 be aa a9 ed bd ee 42 66 3d 80 6e 09 be
       -0.33110535 -0.116046265 0.056216173 -0.13421059
0000e0 46 02 a8 be a3 b6 8a be a7 09 44 3d 7b 6f c1 be
       -0.32814234 -0.27092466 0.047860768 -0.37780365
0000f0 ea d5 85 bd d7 1c c4 3d 16 74 2e 3c 2c dc 1e 3d
       -0.065349415 0.09575813 0.010647794 0.03878419
000100 7a 60 13 3e c7 b5 7a be ae 0d 2b be 56 96 e9 bd
       0.14392272 -0.24483405 -0.16704437 -0.114056274
000110 17 12 e6 bd 73 7a 68 3a 27 93 97 be 5b 3c 0f be
       -0.11233919 0.0008868344 -0.29604456 -0.13987868
000120 8a 69 6f be e8 aa 63 be 9c bf fe 3c 64 da d5 3d
       -0.23380104 -0.22233164 0.031097226 0.10442045
000130 58 61 4a be da 0d 19 be a8 e4 a2 3a e0 df 06 3e
       -0.19763696 -0.1494669 0.0012427764 0.13171339
000140 60 6a 6e be e7 fe fe bd d9 8b 68 be b6 ed 9b 3d
       -0.23282766 -0.124509625 -0.22709598 0.07613699
000150 7c f5 20 be 9f 22 6b be a1 c2 8a bd 0f 8e cf bd
       -0.15718645 -0.22962426 -0.06775404 -0.101345174
000160 01 78 c5 bd 42 ce 68 be ab d5 ae be 07 5a ad 3d
       -0.096420296 -0.22734931 -0.3414739 0.08464437
000170 21 29 a7 3d 2a 0e 2f be 38 7e 9e bd 99 4a 17 be
       0.081621416 -0.17095247 -0.07738918 -0.1477455
000180 3e 1a 4a be 7e 47 33 bd 40 56 20 bc f1 66 71 be
       -0.19736573 -0.043769352 -0.009786189 -0.23574425
000190 5d 8b 93 3c f4 81 28 3c 46 8e 15 3e 4a 49 0b 3d
       0.01801079 0.0102848895 0.14605054 0.03400544
0001a0 78 66 0c bd 0c c0 a0 be ac bd 08 be 4d f8 9e bd
       -0.03427741 -0.3139652 -0.13353604 -0.07762203
0001b0 72 2b 56 bd f0 8b dd bd 56 98 a7 bd dd c1 78 be
       -0.052287526 -0.108177066 -0.08183353 -0.24292703
0001c0 09 23 b7 bc 65 05 11 be 0e 0c 65 be 37 5b 99 3d
       -0.022355573 -0.14162214 -0.2236788 0.07488101
0001d0 ac 46 14 3e 3b 6c 94 be 30 7c 0b be b0 80 24 3d
       0.14480084 -0.28988823 -0.13621593 0.04016179
0001e0 74 4f 66 bd d0 c7 7e be 05 ca f4 bd 04 74 04 3d
       -0.056228116 -0.2488091 -0.11952595 0.032337204
0001f0 40 88 21 3e 5d 4f 79 be 14 0d 98 3d c0 e3 22 3e
       0.15774632 -0.24346681 0.074243695 0.15907192
000200 6f 11 bb be f1 0c 1c be 79 2b 2e 3e 39 df 70 3e
       -0.36536738 -0.15239312 0.17008771 0.23522653
000210 8a 70 33 be 8c 35 8b be da 6c f9 be d0 47 7e 3e
       -0.17523399 -0.2718929 -0.4871586 0.24832082
000220 83 15 0a bf 69 f5 18 bb 89 53 df 3c c3 b0 b8 ba
       -0.53939074 -0.0023339635 0.027261512 -0.0014090765
000230 84 83 05 bf 78 0e c5 be 7a 35 8c 3d c3 ce 52 bc
       -0.521538 -0.384876 0.06846137 -0.012866679
000240 b3 c8 26 bf 71 79 2d bf 82 2e 8f be 6c 38 12 bf
       -0.6514999 -0.6776343 -0.2796517 -0.5711734
000250 db a3 6f 3d 8d 8f 06 3a a0 3d 58 bf d2 ef 96 3d
       0.058505874 0.0005133085 -0.8446903 0.07369961
000260 90 82 99 be 98 84 fb be 08 0d 07 3e bc ca 77 be
       -0.29982424 -0.49124599 0.13188565 -0.24198431
000270 04 7a 7e 3d 2e 2a 46 bd f6 8a 91 be 22 74 b7 3b
       0.062128082 -0.04838007 -0.2842633 0.005598561
000280 7f f2 5d bd 9a 66 90 bf 0a 0d ad 3d 5e a8 a1 be
       -0.05418634 -1.1281312 0.08449753 -0.31573766
000290 fa ef a6 3e b0 dd 70 bd a0 89 2a bd 8d 51 18 bf
       0.32604963 -0.058805168 -0.041635156 -0.59499437
0002a0 3a aa 3d bf 5b dc a0 be c9 8e 13 bf b6 40 fd bd
       -0.7408787 -0.31418118 -0.5763975 -0.12365858
0002b0 5b 87 3e be 9b d4 77 be 72 e2 8b be c8 18 9a 3e
       -0.18606322 -0.24202196 -0.27321202 0.30097032
0002c0 c5 49 89 be 61 71 5a be 00 92 00 bf 2a 8d 2b be
       -0.26814094 -0.21332313 -0.5022278 -0.16753069
0002d0 33 a9 08 be 2c 71 c2 3d 2f 5a 6b 3e 33 a6 51 be
       -0.13345794 0.09494242 0.22983621 -0.20473556
0002e0 dd b3 d1 be cb 5d 14 bf d7 e5 92 be b1 85 09 be
       -0.40957537 -0.57955617 -0.2869098 -0.13429905
0002f0 f6 81 00 bf 4e 43 47 3e 60 43 9b be 74 49 1e be
       -0.50198305 0.19459268 -0.3032484 -0.15457708
000300 af 29 e5 be a3 7c ba be 3b e0 fb be 55 3b 30 be
       -0.44758365 -0.36423215 -0.49194512 -0.17210133
000310 7e f0 42 be 33 85 4b be 25 c9 ce 3c 07 d0 d1 bc
       -0.19037053 -0.1987503 0.025242398 -0.02561189
000320 23 32 8d 3e 8b 3e f7 be 57 a5 07 3e 22 dd 5c be
       0.27577314 -0.48289904 0.13246666 -0.2156873
000330 63 cc 0a bf 1c 1d c1 be d4 d0 9e 3e 96 f5 73 3e
       -0.5421812 -0.3771752 0.31018698 0.23824152
000340 02 6a 93 3d 24 e0 88 3c 12 b3 83 be ea 6e 82 be
       0.07197954 0.016708441 -0.25722557 -0.25475246
000350 16 27 0a bf 0c d4 d4 be cd c9 dd 3b 52 5d fb bd
       -0.5396589 -0.4156803 0.0067684413 -0.12273659
000360 5c a4 c6 3e 62 97 05 bd bc 97 92 bd 4e 11 32 bf
       0.3879727 -0.032615073 -0.07157847 -0.69557655
000370 b7 bf 71 be d8 90 14 be ef 1e 2a 3e 2e c1 b0 be
       -0.2360829 -0.14508379 0.16613363 -0.34522384
000380 6d 03 07 be fa f0 23 bf d1 00 ab 3d ef 97 be be
       -0.131849 -0.64039576 0.08349765 -0.3722529
000390 b1 e4 61 be 6e 43 87 bd 9b 45 1d bf 79 d4 16 bf
       -0.22059895 -0.06604658 -0.61434335 -0.5891796
0003a0 3d 03 d4 3d 73 a4 a5 bc 6b 5f 37 3e 2b f2 9f be
       0.1035218 -0.020220017 0.17907493 -0.31239447
0003b0 38 3d 04 3e 2a 5f bd 3c 07 26 de bd 2c 5e 31 3e
       0.12913978 0.023116667 -0.10847097 0.1732108
0003c0 e2 a2 24 be 4b 4d 6c bd 1b 4f 01 be 6c 5c e3 bc
       -0.1607776 -0.0576909 -0.12627833 -0.027754031
0003d0 83 4d dd be d1 9e af be a9 94 0c bf 6c 91 c8 be
       -0.432232 -0.34300855 -0.5491434 -0.39173448
0003e0 4b 49 e9 3c 3e 8a 0f bf 43 78 87 bd ee 1d 08 bf
       0.028477332 -0.56070316 -0.06614735 -0.5317067
0003f0 ef d5 bb be 88 d6 23 be f9 ab d1 be 96 f6 ef bd
       -0.36686656 -0.15999806 -0.40951517 -0.117169544

weight_ih_l1 f4 [384, 128]
000000 e0 3c a6 3b e5 2f 84 3d 2b c0 af 3d b0 ae 97 bd
       0.005073175 0.06454448 0.08581575 -0.07406366
000010 c3 a1 1c bd b2 fb 75 3d e1 cf 8f 3d 7c 2f 2b bd
       -0.038240205 0.06005449 0.07022072 -0.04179333
000020 80 c4 11 3d 53 23 2e bd d0 a7 14 3d 3c 34 ca bc
       0.035587788 -0.042514157 0.03629285 -0.02468311
000030 d0 d2 07 3c 46 fe 59 3d 58 09 64 bd 20 e4 7e bb
       0.008290008 0.05322101 -0.055672973 -0.0038893297
000040 d1 5a 46 bd a0 10 71 bc ea 47 92 bd ec 4f f5 3c
       -0.048426453 -0.014713436 -0.07142623 0.029945336
000050 40 8e 9f bd 45 67 33 bd e6 69 8d bd 5a 53 6e 3d
       -0.07790804 -0.043799657 -0.06904964 0.05818496
000060 df a7 96 3d c3 78 96 3d 5b 07 89 3d 40 09 90 3c
       0.073562376 0.07347252 0.06690856 0.017582536
000070 10 93 54 bc 83 8d 89 3d 66 2b 3e 3d 97 02 88 bd
       -0.012974516 0.06716444 0.046428107 -0.06641119
000080 f8 8e 2a 3c f5 c8 8e bd fe bd 7d 3d 00 89 f9 3b
       0.010410063 -0.06971923 0.06194877 0.0076152086
000090 93 1b 80 3d 9e 59 00 3d cf f4 8b 3d e0 1d 81 bd
       0.06255259 0.031335466 0.06833803 -0.06304526
0000a0 de f5 75 3d a7 a2 55 bd 1a 3e 83 bd bb 82 af 3d
       0.06004893 -0.05215707 -0.06408329 0.08569857
0000b0 92 35 43 3d 26 6e 47 bd 70 16 7d bc 91 11 a6 3d
       0.04765851 -0.04868903 -0.015447244 0.08108819
0000c0 e4 65 a1 bd 42 57 a9 bd 44 48 40 bd 00 98 9a 3c
       -0.07880762 -0.08268596 -0.046943918 0.018871307
0000d0 b6 11 63 3d ca bc 73 bd b9 58 97 3d 4d b9 0c bd
       0.055436812 -0.059506215 0.073899694 -0.034356404
0000e0 5d 77 8e 3d 54 da c1 3c 55 a0 9d 3d 36 97 6c bd
       0.069563605 0.023663677 0.076965965 -0.057761393
0000f0 e0 d6 87 bc f8 9f 2d bd 22 82 0a 3d d7 93 b0 bd
       -0.016581953 -0.042388886 0.03381551 -0.08621948
000100 aa 24 43 3d 00 2b 9d bc b2 cd 5f 3d 4e 9d d7 bc
       0.047642387 -0.019185543 0.054639526 -0.026320126
000110 e6 f0 a3 bd 94 29 bb 3c 40 4d 81 bb b6 04 10 bd
       -0.08004932 0.022846974 -0.0039459765 -0.035160743
000120 f8 43 fd 3c 00 91 d7 b9 58 46 ff 3c 6e 9c 45 bd
       0.0309162 -0.0004111603 0.031161472 -0.048244886
000130 3c 00 d3 3c 20 36 53 bd 90 16 2c bd 89 dd 93 3d
       0.025756948 -0.05156529 -0.042013705 0.07219989
000140 d3 e1 9a 3d f4 03 98 bc 00 93 dd ba c4 e3 5f bd
       0.07562604 -0.018556572 -0.0016904771 -0.054660574
000150 5a e2 62 3d b5 c6 97 3d 13 d1 86 3d 1c a9 28 bd
       0.055391647 0.07410947 0.065828465 -0.0411769
000160 9a cc 22 3d 42 77 0d 3d 58 fd 6e bc b2 3c 4a 3d
       0.039745905 0.03453756 -0.014586769 0.04937429
000170 28 c3 a9 bc a5 58 a9 3d 22 a3 27 3d 74 b3 9b 3c
       -0.02072294 0.08268861 0.04092706 0.019006468
000180 14 bc 8d bc 1c 8e 9b 3c 30 19 94 bb 2e e0 77 bd
       -0.017301597 0.018988661 -0.004519604 -0.06051653
000190 6a 07 32 3d a0 f3 02 bb c4 18 a9 bd 53 11 0d bd
       0.0434641 -0.0019981638 -0.08256677 -0.03444035
0001a0 d0 d2 e1 bb 22 99 78 3d d0 ac 23 bc f6 e2 4b 3d
       -0.006891586 0.060692914 -0.009989932 0.049776994
0001b0 0b 58 95 bd de ae 2e bd 20 df 66 3c c6 ed 9a bd
       -0.072921835 -0.042647235 0.014091283 -0.07564883
0001c0 60 94 5e 3b 78 f7 ad bd 89 a0 9f bd 72 e9 1e bd
       0.003396295 -0.084944665 -0.077942915 -0.03879685
0001d0 b4 75 54 bd 80 03 de ba 00 3e 46 ba 44 66 b8 bc
       -0.051870063 -0.0016938299 -0.00075623393 -0.022509702
0001e0 db a4 0d bd 39 88 89 bd ce 1f 60 bd 4e bb 41 3d
       -0.034581047 -0.067154355 -0.05471783 0.04729777
0001f0 d4 4e 9e bd 7e 7b 86 bd 5a 3b 43 3d a4 54 93 bd
       -0.07729879 -0.06566523 0.047664024 -0.07193878
000200 ce 33 2f bd 8e 54 5a 3d 28 89 92 bc 28 25 37 bd
       -0.042774014 0.053303294 -0.017887667 -0.04471317
000210 29 4e 9a 3d f6 be 5e 3d a8 cd b2 bd 8c 01 7f bd
       0.07534439 0.054381333 -0.08730632 -0.062257335
000220 02 9a 27 3d 60 c7 fb 3b 8b 54 ac 3d 0c f1 f1 3c
       0.040918358 0.0076836795 0.08414563 0.029533885
000230 5c 49 16 bd f2 fc 43 3d 63 8a 95 3d 87 0c 8d 3d
       -0.036691055 0.04784865 0.07301786 0.06887155
000240 b8 3a 93 bd 40 27 2e bb 9e 19 2d bd b0 d1 10 3c
       -0.07188934 -0.0026573688 -0.04226076 0.008839056
000250 7c 5f 65 bd 60 89 ff bb 00 cd 27 bc 38 97 63 3c
       -0.055999264 -0.007798359 -0.010241747 0.013891034
000260 30 27 6e bc a4 4f b9 3c a1 1f 05 bd af 1b a8 3d
       -0.01453571 0.022620983 -0.032500867 0.08208405
000270 20 72 2f 3b 00 93 1d bb 35 c3 a3 bd d8 29 8d 3c
       0.0026770905 -0.0024043918 -0.07996217 0.017231867
000280 6e 6c 72 3d de 4b aa bd 99 33 2a bd 3e 8c b0 bd
       0.059185438 -0.08315252 -0.041553114 -0.08620499
000290 b5 33 3b bd 31 48 a4 3d 75 a1 9b 3d 84 bd cc bc
       -0.04570361 0.08021582 0.07599155 -0.024992712
0002a0 a8 de 7c bc ac 9c 2a bd ff 76 96 bd 14 d9 bf 3c
       -0.015433945 -0.04165332 -0.073469155 0.02341894
0002b0 58 26 68 3c 10 a8 ca bb 7c 01 ab bc 71 c6 af bd
       0.014169298 -0.0061845854 -0.020874731 -0.085827716
0002c0 a5 5e b3 3d 3e 15 fb bc a6 7d 01 3d 24 7d 0c bd
       0.087582864 -0.030649778 0.03161397 -0.03429903
0002d0 37 a3 10 bd 8f 46 9f 3d b8 a7 58 3c 3e a3 39 bd
       -0.035311904 0.0777713 0.013223581 -0.045321696
0002e0 e0 28 60 3b 25 93 85 3d 11 cb a4 bd 50 b7 01 bc
       0.003420405 0.06522206 -0.08046544 -0.00791724
0002f0 03 8b 99 3d 18 b1 d5 3c b5 0b b1 3d 40 d5 07 bb
       0.074972175 0.026085421 0.08644811 -0.0020726472
000300 68 17 05 3c 32 72 19 3d 50 08 8f bc a0 43 f3 3c
       0.008123256 0.03746242 -0.017460018 0.029695332
000310 1a 33 5a 3d b4 02 8f bd fb 8f 14 bd d0 a0 88 3c
       0.05327139 -0.069829375 -0.036270123 0.016678244
000320 13 53 9b 3d 48 04 be bc cc 47 8b 3c 56 93 29 3d
       0.075842045 -0.0231954 0.017002009 0.041400276
000330 28 95 98 bd e3 8a 8c 3d 44 ab 87 bc c0 8d 95 3c
       -0.07450324 0.06862428 -0.016561158 0.018256068
000340 64 66 60 bd 9b a5 a1 bd bf 4d 9c 3d a1 05 9f 3d
       -0.054785147 -0.07892915 0.076320164 0.077647455
000350 87 b2 a2 bd 11 a6 79 bd 2e e5 d4 bc 0a d4 78 3d
       -0.07944208 -0.06094939 -0.025988188 0.06074909
000360 13 56 8d bd 2b 31 67 bd ee 07 65 3d 48 66 4d bd
       -0.06901183 -0.056443375 0.055915765 -0.05014637
000370 3b b2 a7 bd 06 88 1e 3d d6 06 57 3d e2 f6 1e 3d
       -0.08188292 0.03870394 0.052496754 0.038809665
000380 83 db 59 bd f2 f3 10 3d f1 e1 18 bd b0 cc b5 3b
       -0.05318786 0.035388894 -0.03732485 0.0055480823
000390 18 df a6 bd 7c 73 b1 bd 84 86 ae 3c e6 af 52 3d
       -0.081480205 -0.08664605 0.021304376 0.05143728
0003a0 c2 48 0d 3d a9 61 a9 3d c8 04 c9 bc 39 9d 50 bd
       0.034493215 0.0827058 -0.024538413 -0.05093119
0003b0 be 25 76 3d 6e 3f 6f 3d 71 f0 9f bd b6 2b 72 3d
       0.060094588 0.0584101 -0.078095324 0.059123717
0003c0 9d b2 93 3d 51 f7 93 3d d8 05 09 bd 40 1f bc bc
       0.07211802 0.07224906 -0.03345284 -0.02296412
0003d0 30 83 fe 3c 08 58 8b bc 50 c5 9b bd 42 1c 29 3d
       0.031068414 -0.01700975 -0.07605994 0.041286714
0003e0 95 08 a8 3d f0 4f 87 bc 3a b9 8d bd 61 d0 94 3d
       0.08204762 -0.01651761 -0.06920095 0.072663076
0003f0 9a c1 36 3d 70 a9 dc 3b a0 61 8e 3c b0 be 4a bc
       0.044618227 0.0067340657 0.017380536 -0.012374565

weight_hh_l1 f4 [384, 128]
000000 c4 1e e6 3c c8 27 30 bc d0 0e 77 bc 50 c8 85 3c
       0.028090842 -0.010751672 -0.015079215 0.016330868
000010 3a 5d 18 3d 48 a6 ab bd e0 99 e8 bb 3e fb 59 bd
       0.037198283 -0.08381325 -0.0070984215 -0.05321812
000020 00 73 7d bd a2 24 76 3d c8 f8 8c bd cf 66 96 bd
       -0.06187725 0.06009353 -0.06883389 -0.07343828
000030 96 37 18 3d 85 ec 84 bd 98 ca 2e bc f0 63 1e 3c
       0.037162386 -0.06490425 -0.010668419 0.009667382
000040 35 c9 a2 3d a0 30 d3 bc 8c a3 b5 3c 0a 95 6f 3d
       0.079485334 -0.025780022 0.022172712 0.058491744
000050 1c d8 d6 3c 62 0e 86 bd 93 a3 9a 3d 91 7a 58 bd
       0.026226096 -0.06545712 0.075507306 -0.052851263
000060 96 85 f6 bc d8 8e bf 3c 70 2d e2 3b b2 d5 5b 3d
       -0.030092996 0.023383543 0.006902389 0.053670593
000070 00 f1 a1 bc 98 4f b0 bd df 23 9e 3d 14 e3 e7 3c
       -0.019768238 -0.08608931 0.077216856 0.028306521
000080 60 24 83 bc 5a f0 7e bd a2 3a 71 3d 4e 74 01 3d
       -0.016008556 -0.062240936 0.058893807 0.031605057
000090 f8 70 13 3d c4 ef ad 3c c6 3d 3f bd 81 2b a5 bd
       0.035996407 0.021232493 -0.04668977 -0.08064938
0000a0 d4 a6 ae 3c f0 3e 65 bc ac 96 74 bd 6e c8 16 bd
       0.021319784 -0.013992056 -0.059714004 -0.03681224
0000b0 b3 d1 a5 3d 20 4b 02 3d 28 b5 ec 3c 96 f1 30 3d
       0.080966376 0.031809926 0.028894976 0.043199144
0000c0 12 08 4d 3d 68 fd 8b bd ab 54 86 3d 26 35 47 bd
       0.050056525 -0.06835443 0.06559118 -0.04863467
0000d0 e0 6c c4 3c 55 9c a7 bd 82 c7 7f 3d a2 e7 45 3d
       0.023977697 -0.08184115 0.062446125 0.048316605
0000e0 c7 c9 92 3d 06 74 4e bd 1c 21 9e bc 46 8d 18 bd
       0.07167392 -0.050403617 -0.019302897 -0.037244104
0000f0 e9 58 13 bd 15 69 92 3d ec 17 85 bd 08 2c db 3c
       -0.035973463 0.07148949 -0.06498703 0.026754394
000100 9e ea 4a bd 6b 14 80 bd 26 b8 4a 3d 6a cf 9b bd
       -0.049540155 -0.062538944 0.049492024 -0.076079205
000110 a6 d5 08 3d d2 89 3e 3d ff 31 91 bd 58 5e 6e bd
       0.033406876 0.046518154 -0.07089614 -0.058195442
000120 73 49 81 3d f2 17 61 3d 00 60 9d 3a b4 a5 84 bc
       0.063128375 0.054954477 0.001200676 -0.016192295
000130 14 6a 95 bd a5 fb 8c 3d d9 80 59 bd a1 41 86 3d
       -0.072956234 0.06883935 -0.053101394 0.065554865
000140 47 49 6b bd 56 b6 6c 3d b1 ed a4 3d 9e aa 0a 3d
       -0.05744293 0.057791077 0.080531485 0.03385412
000150 d0 1e fe 3b e4 82 d5 bc 60 de 3b bd 68 1c 7e 3c
       0.007755138 -0.02606339 -0.04586637 0.015509702
000160 58 03 4f bd a4 5d f0 3c 68 48 b6 3c a5 dd 8b bd
       -0.0505403 0.029341526 0.022251323 -0.06829385
000170 b4 f4 48 bd b8 47 a6 3c 4a 20 36 3d a2 64 71 3d
       -0.049061492 0.02029787 0.044464387 0.05893386
000180 d6 85 8f bd 2c e5 a4 3c 60 5b 9a bc 36 21 20 3d
       -0.07007949 0.020128809 -0.0188424 0.039094172
000190 fc 5b a6 3c de 92 05 3d 42 f4 29 bd 78 1b 9b 3c
       0.020307533 0.032610767 -0.041492708 0.018933997
0001a0 d5 8e 94 bd ca 4c 8e bd fc 2a ca bc 42 13 68 3d
       -0.072538055 -0.0694824 -0.0246787 0.05665899
0001b0 88 4d 1d bd 82 aa 72 3d bc 31 ca 3c b2 3f 6f 3d
       -0.038404018 0.05924464 0.024681918 0.058410354
0001c0 34 59 e8 bc 2b 86 b0 bd 69 de b4 3d 84 20 8e 3c
       -0.028362848 -0.086193405 0.08831484 0.017349489
0001d0 83 98 66 bd 7f 7f aa bd 18 2e 7c 3c a0 b9 41 bb
       -0.05629779 -0.08325099 0.015391849 -0.0029560104
0001e0 50 3c 8f bd 5a 7c 7d 3d 8f 47 97 3d 02 24 04 3d
       -0.069939256 0.06188617 0.073866956 0.032260902
0001f0 a1 f4 a7 3d d4 a0 9a 3c 1a 8b 21 3d 1e 64 2b bd
       0.08200956 0.018875517 0.0394393 -0.041843526
000200 70 bf 05 bd b6 98 28 3d 3b 65 a2 3d 92 08 7b bd
       -0.032653272 0.04116126 0.079294644 -0.06128747
000210 5a 66 7a 3d 60 67 5f bb 8a 7e a3 bd 36 b0 1b 3d
       0.061132766 -0.0034088716 -0.0798312 0.038009845
000220 00 87 71 3c 59 e4 3a bd b3 ca 92 3d 3b 68 98 bd
       0.014741659 -0.045627926 0.07167568 -0.074417554
000230 ee 34 4d 3d 50 4d 9a 3b 72 62 30 bd 6a a1 8e bd
       0.050099306 0.0047089234 -0.043062635 -0.06964381
000240 88 46 79 3c 74 13 bc bc 77 60 85 3d c0 d4 57 3c
       0.01521457 -0.022958495 0.0651254 0.013173282
000250 b0 88 ce bc d0 f5 00 3d fe 27 3b 3d ca 66 19 bd
       -0.025211662 0.031484425 0.045692436 -0.037451543
000260 80 28 7c 3b df 1d a2 bd 5e 99 61 3d 8b 1b 39 bd
       0.0038476288 -0.07915854 0.055077903 -0.045192283
000270 1c 63 bc 3c 4a 1e 37 3d 52 83 4b 3d 1f a4 84 3d
       0.022996478 0.04470662 0.049685784 0.06476616
000280 72 34 00 3d 48 e4 0e 3d 10 2b 8c bc 0e 41 6b bd
       0.031300016 0.034885675 -0.017110378 -0.057435088
000290 4f 8c 6d bd 82 b2 1e 3d e4 2b a8 bd 4c 33 96 bd
       -0.057995137 0.038744457 -0.082114965 -0.07334003
0002a0 9c ae c1 bc 52 f0 4d 3d 66 17 74 bd 88 b7 a2 bc
       -0.02364283 0.050278015 -0.059592627 -0.019862905
0002b0 80 fc c3 3b cf a3 3d bd 7d 55 a7 bd 52 b2 8a bd
       0.005981028 -0.0462988 -0.081706025 -0.06772293
0002c0 72 2c 63 3d 00 75 4e bc 98 47 3b bc bc 97 e4 3c
       0.05546231 -0.012601137 -0.0114306435 0.027904384
0002d0 da 99 00 3d fc 16 af 3c 70 9f e6 bb 88 c7 c8 3c
       0.031396724 0.021373264 -0.0070380494 0.024509206
0002e0 0c 9a 2b bd 1f 0e 20 bd 00 90 45 b9 00 04 84 3b
       -0.041894957 -0.039075967 -0.00018841028 0.004028797
0002f0 10 8f aa bd e5 d2 86 3d 30 19 db 3c 95 bd 96 3d
       -0.08328068 0.06583194 0.026745409 0.07360379
000300 fe c3 25 3d b0 1c a3 bd 3e 38 33 3d 24 d0 8e bc
       0.040470116 -0.07964456 0.04375481 -0.017433234
000310 b8 66 a5 bc 70 a3 c3 3c 7e 1f 02 3d 7b 11 94 bd
       -0.020190582 0.023881644 0.031768315 -0.07229897
000320 75 d0 0a bd 22 62 6b 3d c5 8f 01 bd f3 88 91 3d
       -0.033890206 0.057466634 -0.03163125 0.07106199
000330 86 76 3d 3d 35 dc 97 3d a8 89 1c 3c 58 50 aa bc
       0.04625561 0.07415048 0.009554304 -0.020790264
000340 42 f8 6b 3d c0 90 70 bc 66 30 36 bd 45 6d 90 3d
       0.057609804 -0.014682949 -0.04447975 0.070520915
000350 4c 8a 9d 3c c2 f4 13 bd ab 7e 44 bd 7d 8b 4a bd
       0.019230984 -0.03612209 -0.047972362 -0.049449433
000360 a0 40 96 bd ba 46 9d bd d2 34 09 3d 10 ed 71 bc
       -0.07336545 -0.07679506 0.03349764 -0.014765993
000370 c7 80 9e 3d a2 e4 4e 3d e4 d1 93 bd 37 55 98 3d
       0.07739406 0.05051101 -0.07217768 0.074381284
000380 0a 54 6f 3d 72 06 af bd 8c bd a8 bc 8a 26 a5 bd
       0.058429755 -0.08546151 -0.020598195 -0.08063991
000390 c6 99 3c 3d 9a 6b 65 bd 11 7c b4 3d 28 83 ea bc
       0.046045087 -0.05601082 0.08812726 -0.028626993
0003a0 06 d3 30 3d 7f 6a 11 bd 4f 20 28 bd c0 e9 fc 3c
       0.043169998 -0.035501953 -0.041046437 0.03087318
0003b0 f2 79 91 bd 56 16 64 bd 02 6b 0a bd e4 ba a9 3c
       -0.07103337 -0.055685364 -0.033793457 0.020719
0003c0 77 99 92 bd b8 3e 13 3c 2a 94 8b bd 64 71 fb 3c
       -0.07158177 0.008987121 -0.068153694 0.030693717
0003d0 ee 42 72 3d aa c9 53 3d 98 ec 96 bc b3 27 28 bd
       0.05914586 0.051705994 -0.018423364 -0.041053485
0003e0 88 7a 81 3c 16 16 43 3d 51 10 05 bd c2 f3 4e 3d
       0.015805498 0.047628485 -0.032486264 0.050525434
0003f0 be 1a d5 bc a1 57 90 3d 10 41 b2 bd 4f 14 69 bd
       -0.026013728 0.07047964 -0.08703816 -0.056904133

bias_ih_l1 f4 [384]
000000 40 3f c9 bc 70 71 e0 bc 0e 6d 30 bd 8c c9 e0 3c
       -0.024566293 -0.027397841 -0.043072753 0.027439855
000010 d8 5b 0e 3d 91 81 af 3d 55 54 6c bd 48 f7 85 3c
       0.034755558 0.08569635 -0.057697613 0.016353264
000020 ae 85 1a 3d 27 cf a0 3d 6e 90 96 bd 84 ba cc bc
       0.037725143 0.07852011 -0.073517665 -0.024991281
000030 23 5e af bd e0 ef 22 3c a0 47 66 3b 36 45 e7 bc
       -0.08562877 0.009944886 0.0035137907 -0.028231245
000040 6c 95 19 bd 4d e1 83 3d 15 91 aa 3d 6c 45 95 bd
       -0.037496015 0.06439457 0.083284535 -0.07288632
000050 89 78 8a 3d 46 b6 2a 3d 80 48 0f bc d2 bc 27 3d
       0.067612715 0.041677736 -0.008745313 0.040951557
000060 b6 4e 90 bd 0c 24 34 bd 29 c3 9e bd 10 32 9d 3c
       -0.07046263 -0.04397969 -0.077520676 0.01918891
000070 80 c7 c1 3b ae f0 b3 bd 53 b6 a6 3d 20 ce a0 bd
       0.005913675 -0.087861404 0.08140244 -0.07851815
000080 9b 20 a6 3d c8 25 49 bc 5c dc 70 bd 2a 55 92 bd
       0.08111688 -0.012277074 -0.0588039 -0.0714515
000090 40 5a ac bc 88 a4 1e bc 9c fe cd 3c 40 d7 a8 3c
       -0.021039128 -0.009682782 0.025145821 0.020610452
0000a0 fa e1 39 3d a5 d8 90 3d fc 9f 70 bd 0a b9 33 bd
       0.045381524 0.07072572 -0.058746323 -0.04387764
0000b0 08 cb d1 3c 65 4b a6 3d ef 16 af 3d 78 dc 35 3c
       0.025609508 0.08119849 0.08549296 0.011099927
0000c0 a3 27 32 bd 1a 9f 6a 3d 31 bb 2d bd fc 1e a8 bc
       -0.04349483 0.057280637 -0.042414848 -0.020522587
0000d0 60 96 b2 bd f8 bd f0 3c da 41 46 3d f9 0f 6a bd
       -0.08720088 0.02938746 0.048402645 -0.05714414
0000e0 b8 c5 67 bc 99 ab a5 3d 2a ae 84 bd 3f a8 b0 bd
       -0.014146261 0.0808937 -0.06478532 -0.086258404
0000f0 ba 3a 5a bd 9c f8 10 3d a2 d5 57 3d ac 36 4b bd
       -0.053278662 0.035393342 0.05269397 -0.049612686
000100 49 da b4 3d 05 f5 8f 3d 8b 51 88 3d e7 43 ab bd
       0.08830697 0.07029156 0.06656178 -0.08362561
000110 6a c6 8c bd 98 22 20 bc 06 b6 2f 3d 10 1b 21 bd
       -0.06873782 -0.009773873 0.0428982 -0.03933245
000120 52 ce 66 3d ed 9b a2 3d 3b ca b3 bd e3 79 4a bd
       0.056349106 0.07939897 -0.08778807 -0.049432646
000130 97 61 9c 3d de 38 0f 3d 30 a2 a8 bb ec 3b ba 3c
       0.07635801 0.034966342 -0.0051462874 0.022733651
000140 28 38 a4 bc 33 b7 af 3d 0a 1d 7f 3d 52 27 20 3d
       -0.020046309 0.08579864 0.062283553 0.0391
000150 ab 60 93 3d 57 c9 91 3d 0b 1a 69 bd dd 7c a6 3d
       0.07196172 0.07118481 -0.056909602 0.081292845
000160 50 f5 17 bc a2 20 56 3d 4a 2b 27 3d b6 02 73 3d
       -0.009274796 0.052277215 0.040812768 0.059328757
000170 20 33 15 bb 84 01 91 bc 8f 35 91 bd d0 90 57 bc
       -0.0022766069 -0.017700918 -0.070902936 -0.013157085
000180 56 34 59 bd ad 01 b2 3d da dc 6d 3d 72 32 55 3d
       -0.053028427 0.08691726 0.05807195 0.05205006
000190 98 87 f6 3c ac 09 87 bd e8 e2 e0 3c 2e 3f 62 3d
       0.030093953 -0.06593642 0.027451947 0.055236034
0001a0 e1 e9 a4 3d 80 2f 38 ba e9 86 29 bd be 67 23 3d
       0.08052421 -0.0007026121 -0.041388426 0.039893858
0001b0 6b 92 69 bd 6e f3 96 bd 5c 89 eb bc c0 9b a8 bb
       -0.0570244 -0.07370649 -0.028752021 -0.00514552
0001c0 a1 51 17 bd a0 e3 52 bb 80 57 e0 3a cf 0e 82 3d
       -0.03694308 -0.0032179132 0.0017115921 0.06350481
0001d0 b0 0d 10 bc 5d db 29 bd 00 fa 6e 3b 56 06 12 bd
       -0.008792326 -0.041468967 0.003646493 -0.035650574
0001e0 b2 37 af bd c0 18 85 3c e1 db 7e bd 58 a2 fc 3c
       -0.08555545 0.016247153 -0.06222141 0.03083913
0001f0 53 8b 97 3d 6b 40 93 3d bf 95 88 bd 4a 4f 76 3d
       0.07399621 0.07190021 -0.06669187 0.06013421
000200 ec f8 ce 3c 77 4c 93 3d b0 2a db 3c 58 84 92 bc
       0.02526518 0.07192319 0.026753753 -0.017885372
000210 8b f4 92 bd a0 59 a4 3b 94 81 de 3c 85 8c a4 3d
       -0.07175549 0.005015567 0.027161397 0.080346145
000220 10 7a 9c bb 78 f6 84 bc 68 db 57 bc fb 66 8b 3d
       -0.004775293 -0.016230807 -0.013174869 0.06806751
000230 a2 e4 8c bd ae b6 57 3d ca 86 4c 3d 90 44 c7 bb
       -0.06879546 0.05266445 0.049933232 -0.0060811713
000240 ab be 8c 3d e0 07 20 bd b2 e5 f5 bc 90 fb ae 3b
       0.068723045 -0.03907001 -0.030016754 0.005340047
000250 02 8a 2f 3d 66 9c 2c 3d ec 7c 71 bd 86 27 35 3d
       0.042856224 0.04214134 -0.058957025 0.044227146
000260 6b 5f 8c 3d ee be 1e bd 80 76 ec 3c 88 a4 c6 3c
       0.06854137 -0.038756303 0.028865099 0.024248376
000270 fe 5a 77 3d 6f 47 85 3d 78 55 97 bd b1 5d 76 bd
       0.06038951 0.065077655 -0.07389349 -0.060147945
000280 b4 f0 b0 bd c8 37 8a bc 18 c8 31 bc 2e 0f 42 bd
       -0.086396605 -0.016872302 -0.010850929 -0.047377758
000290 57 b7 76 bd 32 01 26 bd 92 67 36 3d 08 6b 90 3c
       -0.06023344 -0.040528484 0.044532366 0.017629161
0002a0 75 38 61 bd f8 41 35 bc 5e 62 95 bd 1d 29 a2 3d
       -0.054985482 -0.011063091 -0.07294153 0.07917998
0002b0 a1 5b 86 bd 08 24 6a 3c 80 2f 2a ba 26 cb 93 bd
       -0.065604456 0.014290817 -0.00064920634 -0.07216482
0002c0 00 f5 61 bd 00 96 3a ba 76 6e 95 bd 19 a5 a4 3d
       -0.05516529 -0.00071176887 -0.072964594 0.080393024
0002d0 d0 cd e7 3c 48 b3 ab 3c 79 15 a5 bd 00 9e ef b9
       0.028296381 0.020959511 -0.08060736 -0.00045703351
0002e0 00 ec 25 ba e0 23 8e 3b 02 2b 91 bd 21 e3 21 bd
       -0.0006329417 0.0043377727 -0.07088281 -0.039523248
0002f0 89 b0 87 3d 98 b4 a2 bd 1d c8 b1 3d 2f b3 9c bd
       0.06625468 -0.07944602 0.08680747 -0.07651364
000300 a0 7f 2f bb 20 7c 50 bc ea 73 4a 3d 8a 41 a1 bd
       -0.0026778951 -0.012724906 0.04942695 -0.07873829
000310 40 56 c4 ba 0e 39 6d 3d 62 b7 5b bd ae 1b f2 bc
       -0.0014979318 0.05791574 -0.053641684 -0.029554214
000320 b2 c1 17 3d 84 57 6c bd e9 61 8f 3d af 8f 8f 3d
       0.037049957 -0.05770065 0.07001097 0.07009827
000330 2f 9d 9e 3d 97 41 53 bd 95 d8 8f 3d 7e ac 88 bd
       0.07744824 -0.051576223 0.070237316 -0.06673525
000340 14 76 d1 bc 11 ba 35 bd 68 5b 4c bd e4 40 a9 bc
       -0.025569 -0.0443669 -0.04989186 -0.020660825
000350 60 2b 34 3b 00 f3 fa b9 a7 4e a2 3d c8 b3 e7 3c
       0.0027491674 -0.00047864765 0.07925158 0.028283969
000360 05 04 b1 bd c8 7e e6 3c 40 2d 08 bc 00 fc 9a bc
       -0.08643345 0.028136626 -0.00831157 -0.018918991
000370 8e 45 1b bd 64 98 f5 3c 4b 67 96 3d 9a 54 80 bd
       -0.03790813 0.029979892 0.0734392 -0.062661365
000380 3b 32 5e bd 7f cc a6 3d e5 33 22 bd fd 4a 7e bd
       -0.054247122 0.08144473 -0.03960027 -0.062083233
000390 c6 7c 7b 3d 68 20 af bc 48 f0 bd 3c 14 ff 81 3c
       0.06139829 -0.021377757 0.023185864 0.015868701
0003a0 82 fa 43 3d fe 31 56 3d d5 06 a5 3d 8a 00 1b 3d
       0.047846325 0.05229377 0.08057944 0.03784231
0003b0 5a d9 a1 bd 36 4d 2f 3d 21 9f a7 3d 22 fe 4b bd
       -0.07902785 0.042798243 0.08184648 -0.049802907
0003c0 09 2f 19 bd e0 f7 9c 3b 89 25 7e bd 10 bb f6 3c
       -0.03739837 0.004790291 -0.062047515 0.030118495
0003d0 05 5e 8e 3d 7b 5c 89 3d 05 8d a2 bd 2a 81 ee bc
       0.069515266 0.067070924 -0.079370536 -0.029114325
0003e0 c0 7a 70 bd 93 b3 81 3d c2 ba 5f 3d be a3 51 3d
       -0.058710814 0.06333079 0.054621466 0.051181547
0003f0 4d c5 27 bd ba 1a 73 3d 03 10 7e bd 32 2d 77 3d
       -0.040959645 0.05935166 -0.06202699 0.060345836
