src/LSTM_model.pt (torch_old, 425593 bytes, 6 tensors)

weight_ih_l0 f4 [512, 58]
0	0xbc26badf	-0.0101763895
1	0xbd0511af	-0.032487568
2	0xbd432a75	-0.047647912
3	0x3c84f6d1	0.016230972
4	0xbc9ff828	-0.01952751
5	0xbd9f8d65	-0.07790641
6	0x3d0580fc	0.032593712
7	0xbbb726a9	-0.0055893254
8	0xbd4edd5d	-0.050504077
9	0x3ba49c1b	0.005023492
10	0xbc87ae38	-0.016562566
11	0xbdbed121	-0.09317232
12	0xbbf11322	-0.007357017
13	0xbcd0ff16	-0.02551226
14	0x3cfb15d2	0.030650053
15	0x3da165e3	0.078807615
16	0x3d015b58	0.031581253
17	0x3d56473d	0.052314032
18	0x3da4f29e	0.08054088
19	0xbc07d98f	-0.008291616
20	0xbc953f6f	-0.018218724
21	0xbd58fa2f	-0.05297297
22	0xbb2fce57	-0.002682587
23	0xbbb2674b	-0.0054444424
24	0xbd7caeb8	-0.061690062
25	0xbd19d6cc	-0.037558362
26	0x3d3e2622	0.046423085
27	0x3d8941e5	0.067020215
28	0xbd29e849	-0.04148129
29	0x3d71071f	0.05884468
30	0x3ccb5d22	0.024824683
31	0x3d3447ab	0.04401366
32	0xbdac6c18	-0.08419055
33	0x3d45634c	0.0481904
34	0x3d26c645	0.04071643
35	0xbda1aeba	-0.078946546
36	0x3d4646ae	0.04840725
37	0xbd0baee5	-0.03410234
38	0x3daa83e1	0.08325935
39	0xbc9a875f	-0.018863378
40	0xbcc7b1a0	-0.02437669
41	0x3c4c184c	0.012456965
42	0xbd04cbbb	-0.032420855
43	0x3cd70c47	0.026250971
44	0xbd9b9ffb	-0.07598873
45	0x3d8f42e2	0.06995179
46	0xbbd11b68	-0.006381441
47	0xbd8e667b	-0.0695314
48	0xbc229734	-0.009923745
49	0x3d67a9f8	0.05655858
50	0x3d0b98ba	0.0340812
51	0xbd9e2b01	-0.07723046
52	0x3d44516f	0.047929224
53	0xbc94d0d5	-0.018165985
54	0x3d14d590	0.03633648
55	0x3d843ed7	0.06457298
56	0x3cbe6548	0.023241654
57	0xbd9e162f	-0.07719075
58	0x3d143e0c	0.036191985
59	0xbd9b1561	-0.07572437
60	0xbcb2b25e	-0.021813568
61	0x3da897df	0.08232092
62	0xbd1713c4	-0.036884084
63	0xbd994b78	-0.07485098
64	0xbd7f9d94	-0.062406138
65	0x3d780b7c	0.060557827
66	0x3c8957a4	0.016765423
67	0xbd469831	-0.048484985
68	0x3dacdd7d	0.08440683
69	0x3d6c9ff6	0.05776974
70	0x3d0f9245	0.035051603
71	0x3d1d5764	0.03841342
72	0xbd281f79	-0.04104564
73	0x3d511b9e	0.05105173
74	0x3c2935b4	0.010327745
75	0xb9ed6a44	-0.00045283337
76	0x3d2b3a1b	0.04180346
77	0xbd98b620	-0.074566126
78	0x3db55836	0.088547155
79	0xbd775e18	-0.06039247
80	0xbd5af805	-0.053459186
81	0xbc32072f	-0.0108659705
82	0x3d2b8e24	0.041883603
83	0xbd790d24	-0.060803548
84	0xbd4db1fa	-0.05021856
85	0x3d545f11	0.051848475
86	0x3b661e65	0.0035113331
87	0x3d03fb88	0.0322223
88	0xbcdec7be	-0.027194854
89	0xbcdd9b84	-0.027051695
90	0x3d8d37eb	0.06895431
91	0xbd62df02	-0.055388458
92	0x3c77b010	0.01511766
93	0x3d0d9630	0.034567058
94	0x3d47d7ac	0.048789665
95	0xbd849c1e	-0.064750895
96	0x3c562ab9	0.013071709
97	0xbda7134b	-0.08157977
98	0xbd86bcd1	-0.065789826
99	0x3ce64c07	0.028112425
100	0xbd9a94a7	-0.075478844
101	0x3d49b286	0.04924252
102	0xbca82da9	-0.020529585
103	0xbd8f850a	-0.07007797
104	0xbd2f585e	-0.042808883
105	0xbd608388	-0.054812938
106	0x3c6509dc	0.013979401
107	0xbc9c42ca	-0.019074816
108	0xbcece049	-0.028915541
109	0xbcca61ed	-0.024704898
110	0xbcf092e2	-0.029366914
111	0xbda3d6e9	-0.07999975
112	0xbcecf1ac	-0.028923832
113	0xbd861239	-0.065464444
114	0xbd86188c	-0.06547651
115	0x3d5f92da	0.054583408
116	0xbcd1ad9f	-0.025595484
117	0xbd10ac33	-0.035320472
118	0x3c2a9115	0.010410567
119	0xbdb2db3e	-0.087332234
120	0xbd168580	-0.03674841
121	0xbb17d788	-0.0023169238
122	0xbcc305fa	-0.02380656
123	0x3d946d7e	0.072474465
124	0xbd9d1057	-0.07669132
125	0x3da4f0c6	0.080537364
126	0xbcbb0841	-0.022831084
127	0x3d8df49d	0.06931422
128	0xbd4599e6	-0.048242472
129	0x3d6a8a13	0.057260584
130	0x3d22f2f7	0.03978249
131	0x3da0ce73	0.07851877
132	0xbda3b145	-0.07992796
133	0xbd749a8a	-0.059717692
134	0x3c275511	0.0102131525
135	0xbd8afead	-0.06786857
136	0x3d749740	0.059714556
137	0x3d4163bb	0.04721425
138	0x3d1b3771	0.03789467
139	0x3d098048	0.033569604
140	0x3d92a276	0.07159893
141	0xbd272796	-0.040809236
142	0x3c64b935	0.013960172
143	0xbc79d15a	-0.015247667
144	0x3ccd04b2	0.025026653
145	0xbc359b79	-0.011084431
146	0x3d11951b	0.03554259
147	0xbdaee11d	-0.08539031
148	0x3d6adb4a	0.057338037
149	0xbd572285	-0.052523155
150	0x3c87da15	0.016583482
151	0x3db13c29	0.08654053
152	0x3c42fdd7	0.01190134
153	0xbccda404	-0.025102623
154	0xbd2cb267	-0.042162325
155	0x3d655e94	0.0559984
156	0x3d512377	0.051059213
157	0xbcc81ed8	-0.02442877
158	0x3b027d41	0.0019911083
159	0xbd77390c	-0.06035714
160	0xbbe3a20b	-0.0069468073
161	0x3d9b4204	0.07580951
162	0xbd5c07ac	-0.053718254
163	0x3c80fe56	0.015746277
164	0xbd15c9fc	-0.03656958
165	0xbd8ac6b6	-0.06776182
166	0xbc82ea66	-0.01598091
167	0x3d8ea378	0.06964773
168	0xbd4f32f3	-0.0505857
169	0xbda9ee09	-0.08297355
170	0xbcac68b5	-0.021046022
171	0x3da67fb9	0.0812983
172	0xbd835a6f	-0.06413733
173	0x3d48fee0	0.049071193
174	0xbd9422ae	-0.07233177
175	0x3c8be140	0.017075181
176	0x3d8348e3	0.064103864
177	0x3db6bd16	0.08922784
178	0xbcf4c3db	-0.029878547
179	0x3d0ea567	0.03482571
180	0xbcc83dfc	-0.024443619
181	0xbc7cd09b	-0.015430595
182	0xbb38c3d4	-0.0028192895
183	0x3d917f66	0.071043774
184	0x3d21a5b2	0.03946466
185	0x3d9bc0f2	0.07605161
186	0xbd9f65ac	-0.07783064
187	0xbbafcb99	-0.005364847
188	0x3c883928	0.016628817
189	0x3d33b0b6	0.043869697
190	0x3cac583e	0.02103817
191	0x3d22af28	0.039717823
192	0xbd679d06	-0.056546234
193	0xbd999229	-0.07498581
194	0xbd23d281	-0.039995674
195	0xbd8d34f6	-0.06894867
196	0x3cf22a83	0.029561287
197	0xbcea6876	-0.028614264
198	0xbc8cc8a1	-0.017185511
199	0xbcf87229	-0.030327873
200	0x3d667942	0.056267984
201	0x3d8ebc27	0.06969481
202	0x3d8a78e5	0.0676134
203	0x3d8a2a51	0.067463525
204	0x3d452aef	0.048136648
205	0xbd8ed01d	-0.06973288
206	0xbd9ee9ae	-0.077594146
207	0xbd9ffea1	-0.078122385
208	0x3db0362a	0.08604081
209	0xbbb2e4d7	-0.0054594087
210	0x3d6329ed	0.055459905
211	0xbd9d61cf	-0.07684671
212	0xbd5908af	-0.052986797
213	0xbd926ccf	-0.0714966
214	0x3d7e44e3	0.062077414
215	0x3d9164d6	0.07099311
216	0x3c08479f	0.008317857
217	0x3d97d7ea	0.07414229
218	0xbdb203fb	-0.086921655
219	0x3bd271a8	0.0064222403
220	0x3d998a0f	0.07497036
221	0x3d0037ec	0.03130333
222	0xbd3d0500	-0.046147346
223	0x3d0817b4	0.03322573
224	0xbcda8103	-0.026672846
225	0xbc0f4779	-0.008745068
226	0xbd1810e5	-0.037125487
227	0x3d41e324	0.04733576
228	0x3cce33f8	0.025171265
229	0xbd6ac8d6	-0.05732044
230	0x3c3ee957	0.011652312
231	0xbb49b867	-0.0030780078
232	0x3c175795	0.00923719
233	0x3c9a1d4d	0.0188128
234	0xbcf20fd7	-0.029548569
235	0x3d48ed4e	0.049054436
236	0x3d2ce1b6	0.042207442
237	0x39375448	0.00017483637
238	0x3cc8aa3c	0.024495237
239	0x3d00a2ca	0.031405248
240	0x3d4761fe	0.048677437
241	0xbc851094	-0.016243257
242	0x3d7b722f	0.06138819
243	0xbd844a4e	-0.06459485
244	0xbd7e54f8	-0.06209275
245	0x3cca3e9b	0.024688056
246	0x3dab4d71	0.0836438
247	0xbaec26dc	-0.0018016952
248	0xbda09652	-0.07841171
249	0x3c9d5b93	0.019208705
250	0xbc2380e1	-0.009979458
251	0xbcb84f26	-0.022498678
252	0xbd856780	-0.06513882
253	0x3d58abdc	0.052898273
254	0x3da7c068	0.081909955
255	0xbd39017c	-0.04516743

weight_hh_l0 f4 [512, 128]
0	0x3c0b2221	0.008492024
1	0xbb10b9eb	-0.0022083472
2	0x3d6410fc	0.05568026
3	0x3d8c29ef	0.06843936
4	0x3db9dd77	0.09075444
5	0x3d7c5faf	0.06161469
6	0xbd2a636a	-0.041598715
7	0x3d6f12da	0.058367588
8	0x3d810f3e	0.06301735
9	0x3da7ca02	0.08192827
10	0xbd3669be	-0.044534437
11	0x3c133421	0.0089845965
12	0x3d9d3915	0.07676903
13	0xbc2d6a1e	-0.010584382
14	0x3d668e80	0.056288242
15	0xbd433f86	-0.047668003
16	0x3b61c0d4	0.003444721
17	0xbcd76826	-0.026294779
18	0xbb88e99b	-0.0041782386
19	0xbd850626	-0.06495313
20	0x3d52cfe2	0.051467784
21	0xbd908618	-0.07056826
22	0x3d5d7f78	0.05407664
23	0x3d6f2668	0.058386236
24	0xbd71ba3f	-0.05901551
25	0x3db36e3a	0.087612584
26	0x3c87f3df	0.016595779
27	0x3caf0c7a	0.021368254
28	0x3db61f22	0.08892657
29	0xbd40ace6	-0.04703989
30	0x3d549345	0.05189826
31	0xbd99502d	-0.074859954
32	0xbc9ee51f	-0.019396363
33	0x3b357fd9	0.0027694611
34	0x3d7e7dac	0.06213157
35	0xbc7ee4a3	-0.015557441
36	0x3c8ba53b	0.017046561
37	0xbd186779	-0.037208054
38	0x3d29fbd9	0.041499946
39	0xbdb7aac4	-0.08968118
40	0xbbd6751d	-0.0065447227
41	0xbc1f5409	-0.009724625
42	0x3b03a231	0.0020085687
43	0xbc1aad18	-0.009440683
44	0x3d2d8fb1	0.042373363
45	0xbd939607	-0.0720635
46	0x3be77647	0.0070636603
47	0xbd1b2a07	-0.037881877
48	0xbd91625f	-0.07098841
49	0x3d3c676b	0.045997065
50	0xbcb1079b	-0.021610072
51	0xbdaabc62	-0.083367124
52	0xbc2c1331	-0.010502622
53	0x3d22fb9d	0.03979074
54	0x3c53fd37	0.012938789
55	0xbcbac7b3	-0.022800302
56	0xbd31efc2	-0.04344154
57	0x3d9fb1c6	0.077975795
58	0x3d04b10e	0.032395415
59	0x3d6818ac	0.056664154
60	0xbb38fffb	-0.0028228748
61	0xbd6f5fc6	-0.058440946
62	0x3d9d177a	0.076704934
63	0x3d1ba19f	0.03799593
64	0x3b904378	0.004402574
65	0x3bb35df7	0.005473848
66	0xbdae0209	-0.08496482
67	0xbcb2df6b	-0.02183505
68	0x3d10e4ac	0.03537433
69	0xbd0e90a5	-0.034805913
70	0xbd58ab5c	-0.052897796
71	0xbc4d6af9	-0.012537711
72	0x3b9dc6e4	0.0048149694
73	0x3bacb4a2	0.0052705565
74	0xbd8a135d	-0.067419745
75	0x3da605aa	0.08106549
76	0xbd5768d0	-0.05259019
77	0x3da23b57	0.079214744
78	0x3d86d53d	0.06583641
79	0xbcf61180	-0.030037642
80	0x3d02172f	0.03176039
81	0xbd73f2c8	-0.059557706
82	0xbd8c1162	-0.06839253
83	0x3d78cda4	0.06074299
84	0xbd6400e4	-0.055664912
85	0xbd7ef016	-0.062240683
86	0x3c8bf11a	0.01708274
87	0xbd25d5dc	-0.040487155
88	0xbd2fb0b5	-0.04289313
89	0x3b23957a	0.002496092
90	0x3c0661ce	0.008202029
91	0xbd8a441f	-0.06751274
92	0xbc1b55fb	-0.009480949
93	0x3d4dbd86	0.05022957
94	0xbda7e8dd	-0.08198712
95	0x3d01676e	0.03159278
96	0xbd34995c	-0.044091567
97	0xbceddcb9	-0.029035913
98	0x3db57c17	0.08861559
99	0xbd1a4814	-0.037666395
100	0x3d97f4a4	0.07419708
101	0xbdbf5aaa	-0.09343465
102	0xbd8ffc93	-0.070305966
103	0xbb43eca7	-0.0029895694
104	0xbda7bdbb	-0.08190485
105	0xbca13c3c	-0.019682042
106	0x3c60849a	0.01370349
107	0x3db3e67e	0.08784197
108	0xbd6eb10a	-0.058274306
109	0xbb25ef88	-0.0025319774
110	0xbd9dd6ce	-0.07706986
111	0xbd9355e0	-0.07194114
112	0xbdb3627d	-0.087590195
113	0xbdb6c8d9	-0.089250274
114	0x3da13977	0.07872289
115	0xbd5064ce	-0.050877385
116	0x3c23a727	0.009988583
117	0xb9963dab	-0.00028656176
118	0xbcf27a6f	-0.029599397
119	0xbced159c	-0.028940968
120	0x3bcfe87a	0.006344852
121	0x3d3b1fa9	0.04568449
122	0x3d583dd8	0.052793354
123	0xbd9b2344	-0.07575086
124	0x3d11994d	0.03554659
125	0x3d516d6d	0.051129747
126	0x3d6c8d4e	0.057751946
127	0xbcc15b72	-0.023603175
128	0x3bd05399	0.006357622
129	0x3d2d911a	0.042374708
130	0x3d8243fc	0.06360623
131	0xbd538b19	-0.051646326
132	0xbb9f2765	-0.004856991
133	0x3cfb59be	0.03068244
134	0xbcda9b5d	-0.026685411
135	0xbd1274d5	-0.03575595
136	0x3d83a8ba	0.064286664
137	0x3da3e671	0.080029376
138	0x3da48af0	0.08034313
139	0x3db675c0	0.08909178
140	0xbd9d44c5	-0.07679132
141	0xbc081613	-0.008306044
142	0xbc8f866e	-0.017520156
143	0xbd019f29	-0.031645928
144	0xbb16b183	-0.0022993989
145	0x3cc80b17	0.02441935
146	0xbd75079c	-0.05982171
147	0x3d430a15	0.047617037
148	0xbdc14f0a	-0.09438904
149	0x3cf285c9	0.02960481
150	0x3d0573f7	0.032581296
151	0x3d9388e0	0.07203841
152	0x3d351004	0.044204727
153	0xbd5465a2	-0.051854737
154	0xbd2f8e6a	-0.042860426
155	0xbd907f67	-0.0705555
156	0xbca2d3a1	-0.019876303
157	0x3c033c91	0.008010046
158	0xbd3f93ac	-0.04677169
159	0xbc8470d1	-0.016167076
160	0x3d9e88cf	0.07740938
161	0x3c9cc485	0.019136677
162	0xbc1a8743	-0.009431663
163	0x3c35bbb4	0.011092115
164	0xbd83482f	-0.06410252
165	0xbda17584	-0.078837425
166	0x3d8392b0	0.06424463
167	0x3d310717	0.043219652
168	0xbc050283	-0.008118275
169	0x3cf23ee4	0.029571004
170	0x3be3ddf3	0.0069539486
171	0xbd9959f4	-0.0748786
172	0xbd7afbac	-0.06127517
173	0x3c8e0611	0.017336877
174	0xbda66c8f	-0.08126175
175	0xbd61e94c	-0.05515413
176	0xbd257959	-0.04039893
177	0xbc4757d5	-0.012166937
178	0xbafa9739	-0.0019118554
179	0x3d4c7f42	0.04992605
180	0x3da7e9a7	0.081988625
181	0xbdc16bbd	-0.094443776
182	0xbbd73e51	-0.006568708
183	0x3c894306	0.016755592
184	0xbd8e76ec	-0.06956276
185	0x3d53093f	0.05152249
186	0x3dbb6228	0.09149581
187	0xbdb4fdb4	-0.088374525
188	0x3ca2d48b	0.019876739
189	0x3d5949d8	0.05304894
190	0x3c87a1ef	0.016556708
191	0x3d79563e	0.060873263
192	0xbd9e5dd0	-0.07732737
193	0x3ce984ea	0.028505761
194	0xbc41704d	-0.01180656
195	0x3d00d2aa	0.031450905
196	0xbd075059	-0.03303561
197	0x3b315998	0.0027061459
198	0x3d26a0b5	0.040680606
199	0x3d3bbfd8	0.045837253
200	0xbc821a77	-0.01588176
201	0x3d557745	0.052115697
202	0xbd03082c	-0.031990215
203	0x3c491f6f	0.012275561
204	0xbc941029	-0.018074112
205	0x3d0b0637	0.033941474
206	0x3ab9abc4	0.001416557
207	0xbb9299de	-0.004473909
208	0xbd3a30ab	-0.04545657
209	0x3c9443ed	0.018098796
210	0xbda432de	-0.08017515
211	0x3d9062c1	0.07050086
212	0x3d850f6f	0.06497084
213	0xbc30dee1	-0.010795326
214	0x3d7f838b	0.06238131
215	0xbca0492f	-0.019566147
216	0x3d0fad16	0.035077177
217	0x3d9c826b	0.07642063
218	0xbd3f929f	-0.04677069
219	0x3c14b7c6	0.009077018
220	0x3da35e50	0.07976973
221	0xbd2878cd	-0.04113083
222	0xbcbabfc9	-0.022796528
223	0xbd89abde	-0.06722234
224	0xbb06ff72	-0.0020599035
225	0x3c6b1e5b	0.014350499
226	0x3cee46c2	0.029086474
227	0xbd426b4d	-0.04746561
228	0x3d3ac286	0.04559567
229	0x3d8f3d0a	0.06994064
230	0x3d0d22c6	0.03445699
231	0xbccd68aa	-0.025074322
232	0x3d336788	0.043799907
233	0xbdb25c4d	-0.08709011
234	0xbd7a40c0	-0.061096907
235	0x3d3b558e	0.04573589
236	0x3bf42285	0.007450404
237	0xbdb4b78a	-0.0882407
238	0xbcb9474d	-0.022617007
239	0x3c7b4e6b	0.0153385205
240	0x3c09b5ee	0.008405192
241	0xbc937809	-0.018001573
242	0xbc09faf5	-0.008421649
243	0xbda2192f	-0.0791496
244	0xbd9c5fff	-0.07635497
245	0xbb982f41	-0.004644305
246	0xbd813c98	-0.063103855
247	0xbc9966e1	-0.018725814
248	0x3d04a496	0.032383524
249	0x3d1f24df	0.038853522
250	0xbc3bf404	-0.011471752
251	0xbcbbda7f	-0.022931335
252	0xbcc352ce	-0.023843195
253	0xbd4f6841	-0.050636534
254	0xbbae9138	-0.00532737
255	0xbd4ff690	-0.05077225

bias_ih_l0 f4 [512]
0	0x3e1375b5	0.1440037
1	0x3e3539bf	0.1769781
2	0x3d40c0c4	0.047058836
3	0x3d02f09b	0.03196774
4	0x3d085b99	0.03329048
5	0x3d1d072c	0.038336918
6	0x3d928541	0.071543224
7	0x3daa3534	0.08310929
8	0xbc3ac149	-0.011398622
9	0x3b09a743	0.0021004237
10	0x3e0d3a28	0.13791716
11	0x3ecc9279	0.399555
12	0x3e35e4e4	0.17763096
13	0x3eb279cf	0.34858558
14	0xbd7e8f35	-0.06214829
15	0xbbcaf6bd	-0.0061939643
16	0x3cd5f6d4	0.026118673
17	0xbd221165	-0.03956737
18	0x3d300202	0.042970665
19	0x3e85fd81	0.2616997
20	0xbcbf204f	-0.023330836
21	0x3dbda348	0.09259659
22	0x3cbd68b1	0.02312121
23	0x3daae8ca	0.08345182
24	0x3dd18879	0.10231108
25	0x3d86d6af	0.065839164
26	0x3dcceccb	0.10006102
27	0x3dad03ea	0.08448012
28	0x3d7611bc	0.060075507
29	0x3e45145f	0.19246052
30	0x3dc1f51c	0.09470579
31	0x3e02a356	0.1275762
32	0x3e1c87b5	0.15286143
33	0x3db77db8	0.08959526
34	0x3e34630e	0.17615911
35	0x3d94a830	0.07258642
36	0x3d8c857d	0.06861398
37	0x3e7cba29	0.2468039
38	0x3db827a8	0.08991939
39	0x3e0fd774	0.14047033
40	0x3dc33bab	0.09532865
41	0x3ed6141e	0.41812223
42	0x3e3cb1ce	0.18427202
43	0xbc022863	-0.007944199
44	0xbd430c87	-0.04761937
45	0xbd2c70df	-0.04209983
46	0xbd1d5c8d	-0.03841834
47	0x3dabba2d	0.083851196
48	0x3eaba6a5	0.33525577
49	0xbcfaee86	-0.030631315
50	0x3e2c9960	0.16855383
51	0x3e13e2d6	0.14442
52	0x3dbb90c7	0.091584735
53	0x3dbb3a55	0.09141985
54	0x3ce57100	0.028007984
55	0x3daa1395	0.08304516
56	0x3de82385	0.113349
57	0x3dc1c45b	0.0946128
58	0x3e06e182	0.13171962
59	0x3bdc7250	0.0067274943
60	0xbd54efda	-0.051986553
61	0x3cea3aec	0.02859255
62	0x3d5cecd9	0.053936813
63	0x3de8e3ac	0.1137155
64	0x3e71c7c1	0.23611356
65	0x3c2af3f2	0.010434138
66	0x3dd36456	0.10321872
67	0x3d39ffb1	0.045409862
68	0x3cf0d013	0.029396093
69	0x3d74d1cc	0.05977039
70	0x3e319498	0.1734184
71	0x3d12d002	0.035842903
72	0x3db2aa1d	0.08723853
73	0xbcae01c6	-0.02124108
74	0x3d9918b2	0.074754134
75	0x3e1520c1	0.14563276
76	0x3da7c791	0.08192361
77	0x3df1979b	0.117964946
78	0xbd60887f	-0.054817673
79	0x3deb609a	0.11493035
80	0x3d73f276	0.0595574
81	0x3d7e341f	0.062061425
82	0x3d9cce51	0.07656539
83	0x39b52654	0.00034551567
84	0x3e1e3cba	0.15452853
85	0x3ddad8b8	0.10685867
86	0x3df6a884	0.120438606
87	0x3db24697	0.0870487
88	0x3dd11219	0.1020853
89	0x3da04810	0.07826245
90	0xbcb14acc	-0.021642111
91	0x3c8f3dbd	0.017485494
92	0xbc3af899	-0.011411809
93	0x3d9b55fd	0.0758476
94	0x3e036378	0.12830913
95	0x3cfa50c9	0.0305561
96	0x39344af9	0.00017194067
97	0x3d225907	0.039635684
98	0x3e5cf7fc	0.21578974
99	0xba406a6b	-0.0007340076
100	0x3ddf41ba	0.10901208
101	0x3ddcc157	0.10779064
102	0x3c1c7ac1	0.009550751
103	0x3ba5395a	0.005042237
104	0x3deda1b7	0.1160311
105	0xbc2cfded	-0.0105585875
106	0x3dcb0967	0.09913903
107	0x3ceba02a	0.028762896
108	0x3e0733b4	0.13203317
109	0xbce3faf0	-0.027829617
110	0x3db52407	0.08844762
111	0x3df3bf88	0.11901766
112	0x3d40d43c	0.047077402
113	0x3d882534	0.06647721
114	0x3e8f9ae6	0.28047866
115	0x3d497052	0.049179383
116	0x3dc9ad28	0.0984748
117	0x3ddbe10b	0.10736283
118	0x3d24af11	0.04020602
119	0x3de38e01	0.111110695
120	0x3e05bfcf	0.1306145
121	0x3db1aa43	0.08675053
122	0x3ec422be	0.38307756
123	0x3e0a8085	0.13525589
124	0x3d43e1d0	0.047822773
125	0x3c16d281	0.0092054615
126	0x3ddc3b5a	0.10753508
127	0x3d06ac69	0.032879267
128	0xbb91f009	-0.0044536632
129	0x3df996c5	0.1218696
130	0xbd01c450	-0.03168136
131	0x3d9c2050	0.076233506
132	0x3dadbbe2	0.084831014
133	0x3c52b25d	0.012859908
134	0x3db88391	0.09009469
135	0xbbb797f9	-0.0056028333
136	0xbd4528aa	-0.048134483
137	0xbd057fab	-0.032592457
138	0x3d0ab367	0.033862498
139	0x3e209d0b	0.15684907
140	0x3dd6e5a3	0.104930185
141	0x3e095121	0.13409854
142	0xbd0f26a9	-0.03494898
143	0xbd4a664c	-0.049413964
144	0x3c9c4ab9	0.0190786
145	0x3de07492	0.10959734
146	0xbd421149	-0.047379766
147	0x3cf095af	0.02936825
148	0x3cef4ab4	0.029210426
149	0x3df7f62e	0.12107502
150	0x3c92183e	0.017833825
151	0x3da3a016	0.07989518
152	0xbd8b7999	-0.06810302
153	0xbd1981d7	-0.03747734
154	0x3d455abb	0.04818223
155	0x3c4956b3	0.012288737
156	0x3e120ff5	0.142639
157	0x3dd66ca4	0.1046994
158	0x3d1154c6	0.035481237
159	0x3de452b1	0.11148585
160	0x3dd32865	0.10310439
161	0x3ce96582	0.028490786
162	0x3d095f3c	0.03353809
163	0x3e057038	0.1303109
164	0x3d2924b0	0.041294754
165	0x3e22de09	0.15905012
166	0xbc814959	-0.015782045
167	0x3c410e63	0.011783215
168	0xbd6e4613	-0.058172297
169	0x3e3bbb2e	0.18333122
170	0x3dded4c3	0.10880425
171	0x3d23fe25	0.040037293
172	0xbd239e99	-0.039946172
173	0x3db92df5	0.09041969
174	0x3d8c39dc	0.06846973
175	0x3d4be221	0.0497762
176	0x3e5b6d8a	0.21428505
177	0x3dbf8f3b	0.09353491
178	0x3cd3b3dc	0.0258426
179	0x3c8d1536	0.017222028
180	0x3cb7ad32	0.022421453
181	0x3e034a88	0.128214
182	0xbc63bd53	-0.013900119
183	0x3d92f129	0.07174904
184	0x3df09ddd	0.1174886
185	0x3c9de5a2	0.019274537
186	0xbd50e08f	-0.050995406
187	0x3dfdbafa	0.123891786
188	0xbd366ff4	-0.04454036
189	0x3dd4098e	0.10353385
190	0x3c96cd03	0.018408304
191	0x3ca36f4a	0.019950528
192	0x3d0a9bdf	0.033840057
193	0x3defac96	0.1170284
194	0xbb879bc5	-0.004138442
195	0x3e0ac6e6	0.13552436
196	0x3d8b3c1c	0.06798574
197	0x3d270365	0.04077472
198	0xbc580086	-0.013183719
199	0xbd0321e6	-0.03201475
200	0x3c00850b	0.00784422
201	0x3c9281c5	0.017884145
202	0x3c843b33	0.01614151
203	0x3d65e9f4	0.05613132
204	0x3dc941b7	0.09826987
205	0x3d0cec3f	0.03440499
206	0x3d37f1b6	0.044908248
207	0x3db6e94c	0.089312166
208	0x3df3bd2d	0.11901317
209	0x3dd213b1	0.10257662
210	0x3c215dee	0.009849055
211	0xbd2d1257	-0.04225382
212	0x3e204040	0.1564951
213	0x3dc94b2b	0.0982879
214	0x3cea670e	0.028613593
215	0x3c5652b7	0.013081244
216	0x3dcc7fcc	0.09985313
217	0xbd3e7bbb	-0.046504717
218	0xbcdf0b8b	-0.027227184
219	0x3ddcaaf4	0.10774794
220	0x3d4d6f50	0.050154984
221	0xbd2cef84	-0.042220607
222	0x3d5c6762	0.05380953
223	0xbc9eb0bc	-0.019371383
224	0x3c5c1e7e	0.013435004
225	0x3db3737e	0.08762263
226	0x3df9f7fe	0.12205504
227	0xbd09a942	-0.033608682
228	0x3d4992a1	0.0492121
229	0x3e331952	0.17490128
230	0xbcff3da6	-0.031157326
231	0x3d426f9f	0.04746973
232	0x3d80fd18	0.06298274
233	0x3d795387	0.060870674
234	0x3c7b3b23	0.0153339235
235	0x3d4fa7ef	0.050697263
236	0x3e1f1c75	0.15538199
237	0x3da604e2	0.081064
238	0xbd29fe68	-0.041502386
239	0x3d50e638	0.051000804
240	0x3d8caf2b	0.06869348
241	0x3b3d38f2	0.0028873053
242	0x3e35b0d0	0.1774323
243	0x3dcb69db	0.099323
244	0x3e1b109e	0.15143058
245	0x3d8804e3	0.06641557
246	0x3dafc8cf	0.08583223
247	0x3d2ada7d	0.041712273
248	0x3dbcbaa4	0.092152864
249	0x3db6696c	0.089068264
250	0x3e77e6e2	0.24209169
251	0x3d4886e4	0.048956767
252	0x3d6ecddc	0.05830179
253	0x3d7404ef	0.059575018
254	0x3d87945a	0.06620093
255	0xbd1a8829	-0.03772751

bias_hh_l0 f4 [512]
0	0x3da1e54c	0.07905063
1	0x3e000c8e	0.12504789
2	0x3cc7dd2a	0.024397451
3	0x3dea02b4	0.11426297
4	0x3cc4706b	0.023979386
5	0x3cf576cc	0.029963873
6	0x3c8b308e	0.016990926
7	0x3dd0e83f	0.102005474
8	0x3dc1f07b	0.09469696
9	0x3e0ebee1	0.13940002
10	0x3c31cdc6	0.010852283
11	0x3ec1268c	0.3772472
12	0x3dcf3e4e	0.101193056
13	0x3ea0aa35	0.31379858
14	0x3d46f7ec	0.04857628
15	0xbccb3a6f	-0.024808137
16	0x3d8d3755	0.06895319
17	0x3c1c61bc	0.009544786
18	0x3d9eecac	0.07759985
19	0x3e65d44f	0.2244427
20	0x3ce43c16	0.027860682
21	0xbbed9df3	-0.007251495
22	0x3e12a00c	0.14318866
23	0xbcf4e99b	-0.029896548
24	0xbb9c86b6	-0.004776801
25	0x3e386b06	0.18009576
26	0x3cb0cdc5	0.021582494
27	0x3ddee037	0.10882609
28	0x3b07c503	0.0020716793
29	0x3d1ca876	0.038246594
30	0x3e326a31	0.17423321
31	0x3dcea11b	0.10089322
32	0x3e6a54ab	0.22883861
33	0x3c8595a3	0.016306704
34	0x3e6e2af2	0.2325857
35	0x3df3b4ce	0.1189972
36	0x3d0bec33	0.034160804
37	0x3e312fc1	0.17303373
38	0x3e1df0a7	0.15423833
39	0x3e10549e	0.14094779
40	0x3d9054f3	0.07047453
41	0x3ebda25c	0.37037933
42	0x3e1ccc78	0.15312374
43	0xbbd5458d	-0.0065085352
44	0xbc1706d4	-0.009217937
45	0x3d3df6ec	0.04637806
46	0x3d3d2e6b	0.046186846
47	0xbc73b472	-0.0148745645
48	0x3ed2f553	0.41202793
49	0x3d57e176	0.05270525
50	0x3e5a80ed	0.21338244
51	0x3d5bf908	0.05370429
52	0x3dc4bcf7	0.09606355
53	0x3e2011d8	0.15631807
54	0x3bc6e1ee	0.0060694134
55	0x3e07800a	0.13232437
56	0x3e16efd4	0.14739925
57	0x3e02d5c5	0.12776859
58	0x3d97e802	0.07417299
59	0x3db57166	0.0885952
60	0x3c05ac9f	0.008158832
61	0x3df2f588	0.118632376
62	0x3e4a4d9d	0.1975617
63	0x3d1b9a0f	0.03798872
64	0x3dbb723e	0.09152649
65	0xbc544743	-0.012956443
66	0x3d458466	0.048221968
67	0x3dc1b4fb	0.094583474
68	0x3d1d9d4f	0.0384801
69	0x3ca24d05	0.019812116
70	0x3e417332	0.188916
71	0x3d8e1056	0.069367096
72	0x3e53e6d3	0.20693521
73	0xbc1f48b6	-0.0097219255
74	0x3d973e3e	0.07384919
75	0x3e1363f6	0.14393601
76	0x3db40338	0.087896764
77	0x3e18d017	0.1492313
78	0xbcb546f3	-0.022128558
79	0x3db8d9ce	0.09025918
80	0x3cec3b21	0.028836789
81	0x3e0a337e	0.13496205
82	0x3bef03a7	0.0072941366
83	0x3cd56138	0.026047334
84	0x3e3990be	0.18121621
85	0x3e23e57a	0.16005507
86	0x3e255afc	0.16147989
87	0x3c559b99	0.013037586
88	0x3e0a031b	0.13477747
89	0x3dc55531	0.096353896
90	0x3ce1fa2c	0.027585112
91	0x3dac4cb9	0.08413071
92	0x3d514b3d	0.051097143
93	0xbcc2a637	-0.023760898
94	0x3dc21208	0.094760954
95	0x3c392ae3	0.011301729
96	0x3d53b95c	0.051690444
97	0x3dc4db89	0.096121855
98	0x3e6031c0	0.21893978
99	0xbc721172	-0.014774667
100	0x3e00fd05	0.1259652
101	0x3e2a9330	0.1665771
102	0x3d17fa74	0.037104085
103	0x3d1dff79	0.038573716
104	0xbcf14cf7	-0.029455645
105	0xbbd91e81	-0.006625951
106	0xbd79400d	-0.0608521
107	0x3e01486f	0.12625287
108	0x3e24f011	0.16107203
109	0x3d288cca	0.041149892
110	0xbc6bbe1b	-0.014388586
111	0x3d6ca1b3	0.057771396
112	0x3d6dd6b3	0.05806608
113	0xbbdef294	-0.00680382
114	0x3e2d3c8e	0.16917631
115	0xbd48d84f	-0.049034413
116	0x3ddf8d97	0.10915678
117	0x3e5af121	0.21381046
118	0xbca1ca1b	-0.019749692
119	0xbcc56988	-0.024098173
120	0x3d5d6f8e	0.054061465
121	0x3de0eb27	0.10982352
122	0x3ea3ca3d	0.31990233
123	0x3e988d0f	0.2979512
124	0x3c946d09	0.018118398
125	0xbd27abd9	-0.04093537
126	0x3e0f5f46	0.14001188
127	0x3e14d5a3	0.14534621
128	0x3dfc243c	0.12311599
129	0x3d080e12	0.033216543
130	0xbd508451	-0.050907437
131	0x3b3b752e	0.002860378
132	0xbd8f357f	-0.069926254
133	0xbd2147e3	-0.039375197
134	0xbd488ec9	-0.048964296
135	0x3c872363	0.016496366
136	0x3d803100	0.06259346
137	0xbd7f88af	-0.06238621
138	0xbd237247	-0.039903905
139	0x3e32ebe6	0.174728
140	0x3d2984e8	0.041386515
141	0x3e7a0fd1	0.24420096
142	0x3c277b76	0.0102223065
143	0x3d93130d	0.07181368
144	0xbcd27f63	-0.025695508
145	0x3d43bdb4	0.047788337
146	0x3da67a24	0.08128765
147	0x3e043983	0.12912564
148	0xbce7a891	-0.02827862
149	0x3d9b51d9	0.075839706
150	0x3dad80fa	0.08471866
151	0xbd1e3ae1	-0.03863037
152	0xbbff4674	-0.007790381
153	0xbc88701a	-0.016655017
154	0x3de88898	0.11354178
155	0x3d74d12b	0.05976979
156	0x3df65d21	0.12029482
157	0xbbeea4f1	-0.007282846
158	0x3ba94ef5	0.005166883
159	0x3dd6cf94	0.10488811
160	0x3dab9537	0.0837807
161	0x3d15f116	0.03660687
162	0x3e128fbf	0.14312647
163	0xbd30c662	-0.043157943
164	0xbca1327d	-0.019677395
165	0x3db675d3	0.08909192
166	0x3de8404d	0.113403894
167	0x3dc64abd	0.09682224
168	0xbd572544	-0.052525774
169	0x3ddab908	0.10679823
170	0x3db371ce	0.08761941
171	0xbd60b45e	-0.05485951
172	0x3cd50d68	0.02600737
173	0x3bd19f34	0.0063971523
174	0xbcdd189a	-0.02698927
175	0x3c4467e0	0.011987656
176	0x3e53063c	0.20607847
177	0x3d8301c8	0.06396824
178	0x3ddedded	0.10882173
179	0x3d5db4fa	0.05412767
180	0xbd2c5ca5	-0.04208054
181	0x3d89f017	0.06735247
182	0x3d4a88cf	0.049446877
183	0x3dbb0ccd	0.09133301
184	0x3dbf6af3	0.09346571
185	0xbc8e4e66	-0.017371368
186	0xbbb30e72	-0.0054643685
187	0x3d83bb3a	0.06432195
188	0x3d99805a	0.07495184
189	0xbd4e2739	-0.050330374
190	0x3db0239f	0.08600544
191	0x3dd8c47e	0.10584353
192	0x3d68d1c9	0.05684069
193	0x3d8f1080	0.06985569
194	0x3dab1979	0.08354468
195	0x3e10de46	0.1414729
196	0xbce3866e	-0.027774062
197	0x3cd784be	0.026308414
198	0x3e202baa	0.15641657
199	0xbcfe94cd	-0.031076813
200	0x3dedf773	0.11619463
201	0x3daa1d3f	0.083063595
202	0x3cfe2ba9	0.031026678
203	0x3e125814	0.14291412
204	0xbd07f3f5	-0.03319164
205	0x3d3b6b2e	0.04575651
206	0xbad8845d	-0.001651894
207	0xbd8adc2e	-0.06780277
208	0x3d95a088	0.073060095
209	0x3e32316b	0.17401664
210	0x3cc64009	0.024200456
211	0xbac81965	-0.0015266357
212	0x3ba75d09	0.005107526
213	0x3d120d1c	0.035657033
214	0x3b98e857	0.004666369
215	0x3de97ab2	0.114003554
216	0x3dc91f4d	0.09820423
217	0x3c9ffa56	0.01952855
218	0x3da73b66	0.08165626
219	0xbd277ad7	-0.040888634
220	0x3dcaf984	0.099108726
221	0x3b9a00c0	0.0046997964
222	0xbd16b001	-0.036788944
223	0x3d8959fb	0.067066155
224	0x3c64eb14	0.013972063
225	0x3dbac6bb	0.09119936
226	0x3e21359c	0.15743107
227	0xbd589e7d	-0.05288552
228	0x3e12a2f9	0.14319982
229	0x3d1f1a98	0.03884372
230	0x3aff272c	0.001946663
231	0x3c732736	0.014840892
232	0x3de75451	0.11295379
233	0xbd03fcdd	-0.03222357
234	0xbdaa798b	-0.08323964
235	0xbc93a05a	-0.018020798
236	0x3d6df825	0.058097977
237	0x3bfa43a7	0.0076374593
238	0x3d9da654	0.0769774
239	0x3cf605da	0.030032087
240	0x3d9ab13d	0.07553337
241	0xbc8f7be3	-0.017515128
242	0x3d98ef50	0.0746752
243	0x3c3bddca	0.011466453
244	0x3dbe004e	0.09277402
245	0x3d54db26	0.05196681
246	0xbcb25533	-0.021769142
247	0x3d989165	0.07449607
248	0x3ca685ad	0.020327413
249	0x3dbdc845	0.09266714
250	0x3e5ee595	0.21767266
251	0x3d902c72	0.07039727
252	0x3d501ffa	0.050811745
253	0xbd8ab7d0	-0.06773341
254	0x3e098f6b	0.13433616
255	0x3d5600a3	0.0522467

weight f4 [40, 186]
0	0x3f228053	0.6347706
1	0xbd794884	-0.060860172
2	0xbdd2d58e	-0.102946386
3	0xbea124bb	-0.31473336
4	0x3ce5c5ad	0.02804836
5	0xbd73f1db	-0.059556823
6	0xbeb1f6e4	-0.34758675
7	0xbe679b9b	-0.22617953
8	0xbea638f3	-0.32465324
9	0xbd485503	-0.0489092
10	0xbe90d554	-0.28287756
11	0x3e51c56f	0.20485471
12	0xbe7df9f1	-0.24802376
13	0x3d686575	0.056737382
14	0x3f3dd3dc	0.74151397
15	0xbdc6fc61	-0.09716106
16	0x3d030421	0.03198636
17	0xbe86d2d9	-0.2633274
18	0x3f0dad99	0.55343014
19	0xbebd4582	-0.36967093
20	0xbe8408a9	-0.25787857
21	0xbc5b4a8e	-0.013384474
22	0x3c5463b4	0.012963224
23	0x3cc20a79	0.023686634
24	0xbd63d7f6	-0.05562588
25	0x3ef63bee	0.48092598
26	0x3d771a31	0.060327712
27	0x3d7b1918	0.06130323
28	0xbcb80578	-0.022463545
29	0x3d289b06	0.041163467
30	0xbd35132e	-0.044207744
31	0x3d83120f	0.06399929
32	0x3d45a9de	0.0482577
33	0xbd5d1acc	-0.053980634
34	0x3b7dfb53	0.0038754537
35	0xbce5dd20	-0.028059542
36	0xbd87d41b	-0.06632253
37	0xbc048d58	-0.00809034
38	0xbc477cf8	-0.012175791
39	0x3bbaf380	0.005705297
40	0xbd464fc4	-0.048415914
41	0xbcf2eb78	-0.029653296
42	0xbd01fe0f	-0.03173643
43	0xbcc7f506	-0.024408828
44	0xbd514458	-0.05109057
45	0x3d551162	0.05201853
46	0xbcb2bfdc	-0.021820001
47	0xbb35f440	-0.0027763993
48	0x3d454744	0.048163667
49	0xbd44f9d0	-0.048089802
50	0x3d443102	0.0478983
51	0x3d8a6f15	0.067594685
52	0x3d1f93e0	0.038959384
53	0xbd940fe0	-0.072295904
54	0xbd78905d	-0.06068455
55	0xbcb1dd66	-0.021712016
56	0xbcf2c4b2	-0.029634807
57	0x3c597b10	0.013273969
58	0xbccf8d75	-0.025336007
59	0x3b87af21	0.00414075
60	0x3d35e81b	0.044410806
61	0xbb995dc9	-0.0046803695
62	0xbdc263c4	-0.09491685
63	0x3d225dd1	0.03964025
64	0xbd94d3f6	-0.07266991
65	0x3dd649f7	0.104633264
66	0xbd6b23fd	-0.057407368
67	0x3e0367f6	0.12832627
68	0xbd2398bc	-0.03994058
69	0xbe6c26b3	-0.23061638
70	0xbe047834	-0.12936479
71	0x3e0bdd6c	0.13658684
72	0x3c8ee89f	0.017444907
73	0xbdb9a51f	-0.090646975
74	0xbd3a7d43	-0.045529615
75	0x3d774c1e	0.060375325
76	0x3ddb7d14	0.10717216
77	0x3db02c31	0.08602179
78	0xbdc2ec06	-0.09517674
79	0x3d04597c	0.0323119
80	0xbb96e2da	-0.0046046795
81	0x3c8b4a41	0.01700318
82	0x3c37a1e0	0.011208028
83	0x3c37b262	0.011211963
84	0x3cd5eede	0.026114877
85	0x3d6daea3	0.058027875
86	0x3d9db7b8	0.07701057
87	0xbdc486bc	-0.09596011
88	0x3d4c4056	0.049866043
89	0x3dbf5928	0.09343177
90	0xbc296174	-0.010338176
91	0xbcf4118b	-0.029793521
92	0x3e264267	0.16236268
93	0xbd78fa55	-0.06078561
94	0x3d0fa96d	0.035073686
95	0xbde98b77	-0.11403554
96	0x3cd97290	0.026543885
97	0xbb94e8b0	-0.00454434
98	0x3c9b5aec	0.018964253
99	0x3ea15101	0.31507114
100	0xbd8bb763	-0.068220876
101	0xbc6d0bac	-0.014468115
102	0xbd75d3d1	-0.060016457
103	0x3c13122f	0.008976503
104	0xbd71e975	-0.059060533
105	0xbcad0a45	-0.021123061
106	0xbe57c285	-0.21070297
107	0xbc33583b	-0.010946329
108	0xbdbc64a3	-0.091988824
109	0xbd873ae3	-0.066030286
110	0x3d6b8096	0.057495676
111	0x3b7f80cd	0.0038986683
112	0x3db2a960	0.08723712
113	0x3d9db086	0.07699685
114	0xbe418b98	-0.18900907
115	0x3cb04f86	0.021522295
116	0xbdec3b63	-0.115347646
117	0x3daa1ca1	0.08306242
118	0xbb1cdb8b	-0.0023934569
119	0x3ce157ac	0.027507626
120	0xbd15e069	-0.036590967
121	0x3dd2ef64	0.102995664
122	0x3d2852a4	0.041094437
123	0x3bb51d45	0.005527171
124	0xbb2fe758	-0.0026840772
125	0x3dad5942	0.0846429
126	0x3bfd16b6	0.0077236546
127	0x3e033aae	0.12815353
128	0xbdb0903f	-0.08621263
129	0x3ad7db84	0.0016468619
130	0xbcc940db	-0.024567058
131	0xbe1e2771	-0.15444733
132	0xbe0e2360	-0.13880682
133	0xbe2c71d1	-0.16840293
134	0xbd9246e1	-0.07142425
135	0x3c1294d7	0.008946619
136	0x3d914900	0.07094002
137	0xbdae383e	-0.08506821
138	0xbdaf1388	-0.08548647
139	0x3df0c00e	0.117553815
140	0x3dfd3d94	0.12365261
141	0xbd49c606	-0.049261115
142	0xb92ce3ae	-0.00016488016
143	0xbccd5c24	-0.02506835
144	0xbda34375	-0.07971851
145	0xbde62469	-0.112374134
146	0xbdc9e5a2	-0.09858252
147	0x3d9f4958	0.07777661
148	0xbc9a216b	-0.018814763
149	0x3dc75af6	0.09734146
150	0x3da8a02e	0.08233677
151	0xbcb42273	-0.021989083
152	0x3e01d8eb	0.12680404
153	0xbd8ab894	-0.06773487
154	0x3c866511	0.016405614
155	0x3d512c2f	0.051067527
156	0xbd9e7a5d	-0.07738183
157	0xbd146c3c	-0.036236033
158	0xbd2a1ab2	-0.041529365
159	0xbcea2bc5	-0.028585324
160	0xbd8f9d1c	-0.07012388
161	0xbd2e10ac	-0.04249637
162	0x3da0604b	0.078308664
163	0x3d9f58f9	0.07780642
164	0xbb314b75	-0.0027053033
165	0xbde42c67	-0.111412816
166	0xbda599b7	-0.080859594
167	0x3cc78344	0.024354585
168	0x3d4d8de6	0.050184153
169	0xbdcf96c1	-0.10136176
170	0xbd7c6ba2	-0.061626084
171	0xbc66e722	-0.014093192
172	0xbcf98bbb	-0.030462136
173	0x3d866773	0.065627
174	0xbe036908	-0.12833035
175	0x3d9d2767	0.07673531
176	0xbc0d900c	-0.0086403005
177	0xbca5767c	-0.0201981
178	0x3e0f0443	0.1396647
179	0x3e3e9cf8	0.18614566
180	0x3e558e12	0.20854977
181	0x3e43a103	0.1910439
182	0xbdc2b150	-0.09506476
183	0xbcdc3b5f	-0.02688378
184	0xbca6ce27	-0.020361973
185	0x3d70f89b	0.05883084
186	0xbe8d6852	-0.27618653
187	0xbd851382	-0.064978614
188	0xbd60e442	-0.054905184
189	0x3e12f5ee	0.14351627
190	0x3f3b0276	0.7305063
191	0x3b71786e	0.0036845463
192	0x3d9225fe	0.07136153
193	0x3eff0d58	0.49814868
194	0xbf27aa80	-0.6549454
195	0xbdad44ba	-0.08460374
196	0x3e56c823	0.20974784
197	0xbd53462b	-0.05158059
198	0xbc768f90	-0.015048876
199	0x3e32dbb5	0.17466624
200	0xbf340d44	-0.7033274
201	0xbca6995a	-0.020336796
202	0x3d80464d	0.06263409
203	0xbde1e14d	-0.11029301
204	0x3d2bb305	0.041918773
205	0x3e8dafc9	0.27673176
206	0xbea63f9e	-0.3247041
207	0xbc6b84c9	-0.01437492
208	0x3d4e5506	0.050374053
209	0xbd31c91c	-0.043404683
210	0x3eee91a1	0.4659548
211	0xbe03749a	-0.12837449
212	0xbbc769ed	-0.0060856254
213	0xbd35702a	-0.04429642
214	0x3d2cf3de	0.042224757
215	0xbd0f0a45	-0.034921903
216	0x3c92d083	0.017921692
217	0xbd0e5146	-0.034745477
218	0xbd077793	-0.03307302
219	0x3d174164	0.036927596
220	0xbd75baff	-0.059992786
221	0x3d496f36	0.049178325
222	0xbca979ee	-0.020688023
223	0x3d23ad42	0.039960153
224	0xbd78cc26	-0.060741566
225	0x3c8b7018	0.017021224
226	0x3cea579c	0.028606229
227	0xbd60b59a	-0.05486069
228	0xbd5fa5f4	-0.054601625
229	0x3c6486d8	0.013948165
230	0xba0fac80	-0.00054807216
231	0x3cde8f5c	0.027167968
232	0x3cf4c658	0.029879734
233	0xbcb46e32	-0.022025201
234	0x3c6afa10	0.014341846
235	0x3d64505e	0.055740707
236	0xbca08eb6	-0.0195993
237	0x3cfc3310	0.030786067
238	0x3ca8e21e	0.020615634
239	0xbc09b5f5	-0.008405198
240	0x3c179110	0.009250894
241	0x3d07fa54	0.033197716
242	0x3d7f3a32	0.06231136
243	0x3c4e7518	0.0126011595
244	0x3d870902	0.06593515
245	0xbb9995bf	-0.0046870406
246	0x3e09ca2a	0.13456026
247	0xbd693de7	-0.0569438
248	0xbbe3fedc	-0.006957872
249	0x3df7c288	0.12097651
250	0xbc714cc1	-0.014727772
251	0xbdba21e5	-0.09088496
252	0xbdc72c9f	-0.09725308
253	0xbd6565b4	-0.056005195
254	0xbe091bf4	-0.1338957
255	0xbe02cd2b	-0.12773578

bias f4 [40]
0	0xbe58e42b	-0.21180789
1	0xbd0540b3	-0.032532405
2	0x3c583a9b	0.013197566
3	0xbe47d7de	-0.1951594
4	0xbdc7705f	-0.0973823
5	0x3de531ba	0.11191125
6	0xbe2cb6e1	-0.16866638
7	0xbd992bef	-0.07479083
8	0xbcda845d	-0.026674444
9	0x3e178bff	0.14799498
10	0x3e0bc584	0.13649565
11	0xbdf890df	-0.12137007
12	0x3a4f5437	0.00079089723
13	0xbc243ff2	-0.010025011
14	0xbde2b494	-0.11069599
15	0x3e41a968	0.1891228
16	0x3e42b56c	0.1901452
17	0x3d9773b4	0.073951155
18	0x3e642255	0.22278722
19	0xbeb6bb04	-0.35689557
20	0xbb9cf21c	-0.004789604
21	0x3dbdb6aa	0.09263356
22	0xbee3e355	-0.44509378
23	0x3d82cc84	0.063866645
24	0x3ea606bc	0.32427013
25	0xbd210c6e	-0.039318494
26	0x3e0db11a	0.1383709
27	0x3e7a1da9	0.24425377
28	0x3d99e182	0.07513715
29	0x3e4461c7	0.19177924
30	0xbdf10be2	-0.117698446
31	0x3dfb793d	0.12278984
32	0xbe408c58	-0.18803537
33	0xbe7b8efc	-0.24566263
34	0x3ed00a77	0.40632984
35	0x3d1baa50	0.03800422
36	0xbd2a27a3	-0.041541707
37	0x3d12da15	0.03585251
38	0xbeaa81cd	-0.33302155
39	0xbd86f605	-0.06589893
