src/LSTM_model.pt (torch_old, 971899 bytes, 10 tensors)

weight_ih_l0 f4 [512, 58]
-0.03716207 0.07906682 0.018705158 0.0707372 0.037325136 0.081326306 0.07078405 0.016052231
0.03303891 -0.06518383 0.007615106 0.017699825 -0.03020226 0.015773132 -0.03468114 0.0067218826
-0.0061200517 -0.0012522781 0.010362513 -0.07354988 0.030875467 -0.065750614 -0.04078875 0.080993995
-0.041999415 -0.07671701 -0.025768638 -0.06477596 -0.072196476 0.023657767 0.032429792 0.018281076
-0.061386786 0.01985393 0.07008869 0.04920645 -0.011432011 0.0028747602 0.05296235 -0.08027274
0.012529733 -0.031083928 -0.06624168 0.009744312 0.048034806 0.08694213 0.022523288 0.04063494
-0.043003105 -0.06984584 -0.052583605 0.033702627 -0.07581011 -0.046349183 -0.040846195 0.037231244
-0.06917902 -0.07655917 0.076676115 0.056522634 -0.04739844 0.006050473 -0.087567374 0.028839646
0.046321917 0.043117624 0.04405733 -0.043704823 -0.01152408 -0.03491548 -0.046797678 -0.023343418
0.08634222 0.052344553 0.019702798 -0.05997408 -0.0045308303 -0.014184394 -0.012381943 -0.020350289
0.024822788 -0.077996165 -0.030323403 0.02595465 -0.031337753 0.052883036 -0.0061708093 0.033205457
-0.086214006 -0.060851548 0.070280515 -0.06548311 0.028435046 0.0858258 -0.028127855 -0.04818451
0.021449653 0.06248673 -0.05677709 0.02159085 -0.05952339 0.08589566 -0.033955775 -0.051034477
0.04555008 0.04768278 -0.048357047 0.011771004 0.0050767544 0.0849742 -0.08758938 0.029711928
-0.07896292 -0.029471803 0.06571519 0.012389185 0.041859195 0.036589704 0.012161429 -0.00860199
0.011863762 0.07614675 -0.07389386 0.006043708 -0.02617114 0.040401652 -0.051312294 -0.020929659
0.06444118 -0.024085846 -0.08155717 0.013796222 0.08782625 0.06539006 0.031444825 -0.022541277
0.0044503403 -0.04781351 0.04679809 -0.017821606 0.06303261 -0.038020972 0.007821019 0.056853324
0.086026385 -0.03587026 -0.045063127 -0.06430291 -0.034723755 -0.026157536 -0.06893888 -0.08386608
-0.025754608 0.02659962 0.08502905 0.06705437 -0.038464572 0.070420966 -0.030275162 -0.07711892
-0.044133652 0.0024635694 -0.05383353 0.009486029 -0.0032504897 -0.026114821 -0.032481402 -4.135164e-06
-0.027735569 0.0014300916 -0.012062572 -0.035422686 -0.048428733 -0.07443859 0.021771057 -0.0060921595
0.045457426 0.07405124 0.054504532 0.061360095 0.03035808 0.047163434 0.03432762 0.088167995
-0.0031160428 -0.0631461 -0.057317574 -0.056409296 0.00038280216 -0.030317374 0.06358288 0.066505924
-0.028835997 0.06374119 0.06288371 0.07616906 0.038625058 0.0402087 0.011037239 -0.008697461
0.08806816 0.00973365 -0.078093275 0.027822522 0.03940052 0.04053021 0.08789403 0.021727093
-0.049419146 -0.030292423 0.025772737 -0.003722355 -0.0677249 -0.07857033 -0.07134734 0.027449653
-0.050943337 0.045097195 -0.00884238 -0.074756175 -0.024049653 0.06226233 0.047890242 -0.0010697669
0.041722186 0.0011332124 0.0017604793 0.021211807 0.06952671 0.0862155 -0.07741312 -0.06156196
0.0506685 -0.0043583093 -0.052607324 -0.044180855 0.06486569 0.033053465 -0.059098516 -0.013419203
0.071875 -0.01586108 -0.008202568 -0.011937983 -0.007021789 -0.05245163 -0.07506674 0.079657175
0.05187544 0.046666622 -0.018313292 -0.006658243 0.02108595 0.06227204 0.043867815 0.012352872
00000000: 4137 18bd c9ed a13d 8f3b 993c aade 903d
00000010: 3ee2 183d 688e a63d 3af7 903d f87f 833c
00000020: cf53 073d 1a7f 85bd 2488 f93b 39ff 903c
00000030: bb6a f7bc a836 813c d00d 0ebd 3d43 dc3b
00000040: b78a c8bb 7b23 a4ba 88c7 293c 52a1 96bd
00000050: 8cee fc3c 42a8 86bd 1b12 27bd 2ee0 a53d
00000060: 9407 2cbd cf1d 9dbd c018 d3bc 42a9 84bd
00000070: bfdb 93bd efcd c13c 1ad5 043d 32c2 953c
00000080: b670 7bbd b6a4 a23c a98a 8f3d b48c 493d
00000090: 544d 3bbc 7966 3c3b 0def 583d 0966 a4bd
000000a0: 8249 4d3c b9a3 febc b8a9 87bd 9ba6 1f3c
000000b0: 25c0 443d b70e b23d c282 b83c d370 263d
000000c0: 0624 30bd 560b 8fbd e861 57bd c40b 0a3d
000000d0: 5542 9bbd a4d8 3dbd 574e 27bd ca7f 183d
000000e0: bbad 8dbd 0ecb 9cbd 5e08 9d3d 4784 673d
000000f0: de24 42bd 0c43 c63b 8656 b3bd 1f41 ec3c
00000100: 0dbc 3d3d 1b9c 303d 7575 343d d403 33bd
00000110: 7fcf 3cbc 8903 0fbd ecae 3fbd b23a bfbc
00000120: 31d4 b03d 3e67 563d c367 a13c 62a7 75bd
00000130: 5c77 94bb a965 68bc a2dd 4abc a6b5 a6bc
00000140: 2959 cb3c 74bc 9fbd c968 f8bc d99e d43c
00000150: 045c 00bd e29b 583d 8034 cabb 7202 083d
00000160: f890 b0bd 793f 79bd 3bef 8f3d 021c 86bd
00000170: 9df0 e83c 70c5 af3d 636c e6bc 1f5d 45bd
00000180: 2fb7 af3c 16f2 7f3d 188f 68bd 4bdf b03c
00000190: ccce 73bd 10ea af3d 3615 0bbd 8709 51bd
000001a0: b892 3a3d 054f 433d 0a12 46bd 2bdb 403c
000001b0: e75a a63b f406 ae3d 1062 b3bd 6e66 f33c
000001c0: 50b7 a1bd da6e f1bc af95 863d 02fc 4a3c
000001d0: 8c74 2b3d 16df 153d bb40 473c 5cef 0cbc
000001e0: 3960 423c d4f2 9b3d aa55 97bd 4c0a c63b
000001f0: dc64 d6bc 347c 253d d72c 52bd ad74 abbc
00000200: bdf9 833d ae4f c5bc 7207 a7bd 8d09 623c
00000210: 40de b33d 39eb 853d 4acc 003d 7ca8 b8bc
00000220: 29d4 913b 19d8 43bd 5baf 3f3d 9efe 91bc
00000230: 3e17 813d e1bb 1bbd bb23 003c 08df 683d
00000240: 9a2e b03d b2ec 12bd 1d94 38bd 3eb1 83bd
00000250: 7f3a 0ebd 5448 d6bc d42f 8dbd fbc1 abbd
00000260: 54fb d2bc 72e7 d93c b623 ae3d cd53 893d
00000270: 078d 1dbd de38 903d 9e03 f8bc 86f0 9dbd
00000280: 7dc5 34bd d673 213b 8c80 5cbd 4a6b 1b3c
00000290: 2b06 55bb c0ee d5bc 380b 05bd cac0 8ab6
000002a0: b435 e3bc e971 bb3a 18a2 45bc 6117 11bd
000002b0: 355d 46bd 4273 98bd 3759 b23c bda0 c7bb
000002c0: 9131 3a3d 2da8 973d 2540 5f3d b954 7b3d
000002d0: 82b1 f83c 722e 413d 1e9b 0c3d 6c91 b43d
000002e0: 8636 4cbb be52 81bd d5c5 6abd 6f0d 67bd
000002f0: d6b2 c839 245c f8bc be37 823d 4234 883d
00000300: 7839 ecbc be8a 823d 2dc9 803d 86fe 9b3d
00000310: 4f35 1e3d e1b1 243d 89d5 343c cc7f 0ebc
00000320: 145d b43d e379 1f3c 5eef 9fbd 0fec e33c
00000330: 7162 213d 0103 263d c901 b43d 04fd b13c
00000340: bb6b 4abd d127 f8bc 5921 d33c c1f2 73bb
00000350: 5ab3 8abd 7be9 a0bd 8e1e 92bd 18de e03c
00000360: f6a9 50bd d6b7 383d a1df 10bc c419 99bd
00000370: c703 c5bc c906 7f3d 8f28 443d 6c37 8cba
00000380: e2e4 2a3d 4c88 943a e2bf e63a 62c4 ad3c
00000390: 0564 8e3d c191 b03d c58a 9ebd 6528 7cbd
000003a0: c689 4f3d 26d0 8ebb c77a 57bd fcf6 34bd
000003b0: 4ed8 843d 1263 073d 4911 72bd 38dc 5bbc
000003c0: 3333 933d 18ef 81bc 1064 06bc 8897 43bc
000003d0: 0917 e6bb 85d7 56bd 97bc 99bd 4d23 a33d
000003e0: 577b 543d 8025 3f3d c205 96bc 642d dabb
000003f0: 71bc ac3c f710 7f3d bdae 333d b363 4a3c

weight_hh_l0 f4 [512, 128]
0.058637794 -0.01330408 -0.017071491 0.031774025 -0.07073044 0.028099962 0.077578664 0.027304973
-0.05073692 0.028193992 -0.07901751 -0.087990455 0.0024557959 0.015779318 -0.08586226 0.051766623
0.020650992 0.05956835 -0.0010418787 0.075114965 0.08813387 -0.071306005 0.025240349 -0.08747644
0.01168915 -0.06477666 0.053736955 -0.061149284 -0.084741786 -0.02639715 0.05307755 0.08709393
-0.0099388845 0.057907484 0.06930494 -0.047579814 -0.06475281 -0.016016072 0.019667344 -0.018754873
0.04934441 0.03299706 0.087439805 0.08406652 0.07903514 -0.0063467934 0.030613145 0.077588595
-0.043832812 -0.061412062 -0.02671116 -0.07251158 0.020635076 0.085690744 -0.015170725 -0.062386967
-0.060366865 -0.059106078 0.036443647 0.0048712697 0.08072263 0.05991782 -0.03743695 0.022370003
-0.080870725 0.0639668 0.035444457 0.08515597 -0.02050693 -0.053350806 -0.07565561 -0.010469292
-0.070722125 -0.017154261 -0.038302545 2.9369938e-05 0.008555948 -0.027014945 -0.06219958 0.04361688
-0.040560715 -0.04560516 -0.07431993 -0.08773595 -0.03191395 -0.028316792 0.077 0.0530424
-0.055736065 0.087882966 0.07897376 -0.02385822 0.021396238 0.003899693 0.055194255 -0.05072724
0.001172349 0.012684223 0.0867692 -0.02221686 -0.05250473 0.042889047 0.0616502 -0.039716933
-0.013677512 -0.08132911 -0.032988127 -0.027189739 -0.07595034 -0.0019982904 0.03468973 0.0408054
-0.06633656 0.0068680397 0.076579645 0.07547059 0.0715478 0.011944218 0.0547788 0.012640625
-0.068001755 -0.036652777 -0.04036437 0.046497766 -0.04296843 -0.024312615 -0.0524666 0.012123911
0.0058317287 0.035796486 0.06842139 -0.062032964 -0.038168624 -0.024488347 -0.045245893 -0.0030812905
0.029113274 0.024709143 -0.019558482 0.059274804 0.07111785 0.051380925 0.061724678 0.0003598246
-0.05027521 0.081666656 0.017524231 0.007899686 -0.028549047 -0.07198835 0.019181333 -0.016063
-0.038419295 0.033748254 -0.007816405 -0.015964739 0.029607575 0.0004917664 -0.03524066 -0.05133568
-0.07627665 -0.07438948 0.077238485 0.084229834 0.011211101 -0.003041416 0.059329048 -0.07038813
0.02630707 0.020631472 0.061653093 0.0279522 0.061191052 0.019510584 0.080522135 -0.027091278
0.07267807 -0.07225296 -0.010576168 -0.05272746 0.029695945 0.03665803 -0.04529319 0.0006425318
0.030760417 0.014377932 0.055480372 0.0030724916 -0.05653893 -0.030236227 -0.004209341 0.06885037
0.078992106 -0.061709486 -0.039669856 -0.015507191 0.05828404 0.03315872 0.087415054 -0.087428086
0.03323691 -0.030058017 -0.020061495 -0.046599023 -0.039891683 -0.08589618 -0.029688219 -0.059965078
0.06589121 0.08190288 -0.0016137599 0.071060136 3.953461e-05 -0.06458871 -0.08474013 -0.030328527
-0.052364357 -0.04682711 0.0063449573 -0.039375246 -0.026778912 0.060623452 -0.049796693 -0.071773134
-0.077000335 0.07642426 -0.042432908 0.06929316 -0.062000427 -0.05098928 -0.024180602 -0.060840838
0.081705235 0.045382593 -0.012539732 -0.03660506 -0.073217236 0.024854183 -0.021680688 -0.06786793
-0.037346046 0.0414162 -0.013962874 0.06771265 -0.063977204 -0.04207563 -0.01969679 -0.056410946
0.016553288 -0.0424607 0.07495355 -0.068576105 -0.032237984 -0.04988988 -0.031675003 -0.07341247
00000000: 2f2e 703d 5bf9 59bc 83d9 8bbc 7b25 023d
00000010: 1fdb 90bd e431 e63c 90e1 9e3d aeae df3c
00000020: 84d1 4fbd 16f7 e63c efd3 a1bd 5734 b4bd
00000030: 6bf1 203b a143 813c 8dd8 afbd 3d09 543d
00000040: 452c a93c f1fd 733d a68f 88ba e0d5 993d
00000050: 887f b43d e208 92bd d9c4 ce3c d926 b3bd
00000060: d983 3f3c a0a9 84bd 481b 5c3d ac77 7abd
00000070: 1a8d adbd d63e d8bc d867 593d 4d5e b23d
00000080: b4d6 22bc 6630 6d3d c0ef 8d3d 0de3 42bd
00000090: 1f9d 84bd 2334 83bc 691d a13c d2a3 99bc
000000a0: 5d1d 4a3d ed27 073d a413 b33d 112b ac3d
000000b0: 2ddd a13d c3f8 cfbb 6bc8 fa3c c5e6 9e3d
000000c0: 098a 33bd 378b 7bbd 5dd1 dabc f480 94bd
000000d0: e40a a93c a17e af3d a28e 78bc 7a89 7fbd
000000e0: 3f43 77bd 3719 72bd ef45 153d 2c9f 9f3b
000000f0: e851 a53d 636c 753d 7d57 19bd 4c41 b73c
00000100: 8d9f a5bd 0701 833d 352e 113d 4166 ae3d
00000110: 26fe a7bc 6086 5abd 54f1 9abd 6587 2bbc
00000120: c3d6 90bd 1887 8cbc 21e3 1cbd 765f f637
00000130: 3f2e 0c3c 724e ddbc fdc4 7ebd 9da7 323d
00000140: fe22 26bd 7acc 3abd 0c35 98bd e8ae b3bd
00000150: 34b8 02bd 9ef8 e7bc 2db2 9d3d fd42 593d
00000160: 804b 64bd fcfb b33d ffbc a13d 5072 c3bc
00000170: 2a47 af3c fe91 7f3b 5f13 623d 5ec7 4fbd
00000180: 81a9 993a 7dd1 4f3c 0db4 b13d 2200 b6bc
00000190: 330f 57bd 6dac 2f3d ec84 7c3d 39ae 22bd
000001a0: a517 60bc e08f a6bd 8f1e 07bd 04bd debc
000001b0: da8b 9bbd c0f5 02bb d116 0e3d 9023 273d
000001c0: 76db 87bd 4b0d e13b cad5 9c3d 5390 9a3d
000001d0: a787 923d aeb1 433c bc5f 603d a01a 4f3c
000001e0: 8144 8bbd 3921 16bd 1c55 25bd 7174 3e3d
000001f0: aaff 2fbd 402b c7bc 38e7 56bd 5ea3 463c
00000200: 1618 bf3b 569f 123d 8420 8c3d 4716 7ebd
00000210: b456 1cbd c99b c8bc c253 39bd 7aef 49bb
00000220: f67e ee3c d46a ca3c 1c39 a0bc 23ca 723d
00000230: 3ca6 913d ce74 523d 04d3 7c3d d7a6 bc39
00000240: 61ed 4dbd d940 a73d fa8e 8f3c af6d 013c
00000250: b1df e9bc a16e 93bd 2c22 9d3c 8d96 83bc
00000260: 8d5d 1dbd 9c3b 0a3d 6110 00bc 7cc8 82bc
00000270: 968b f23c e2e9 003a 8358 10bd 5d45 52bd
00000280: ef36 9cbd 8359 98bd 362f 9e3d b180 ac3d
00000290: c4ae 373c 7e52 47bb 0403 733d a727 90bd
000002a0: ed81 d73c 5503 a93c f487 7c3d 03fc e43c
000002b0: 78a3 7a3d a9d4 9f3c cae8 a43d 87ee ddbc
000002c0: 3dd8 943d 5cf9 93bd aa47 2dbc c0f8 57bd
000002d0: e944 f33c bb26 163d 5a85 39bd 946f 283a
000002e0: 45fd fb3c 6b91 6b3c 633f 633d db5b 493b
000002f0: 5d95 67bd f7b1 f7bc 83ee 89bb 6c01 8d3d
00000300: 9dc6 a13d 16c3 7cbd dc7c 22bd e011 7ebc
00000310: 3fbb 6e3d 70d1 073d aa06 b33d 7f0d b3bd
00000320: 6d23 083d 3b3c f6bc 0158 a4bc 9ede 3ebd
00000330: 7665 23bd 56ea afbd b534 f3bc f19d 75bd
00000340: f9f1 863d b2bc a73d cc84 d3ba fa87 913d
00000350: f7d1 2538 1647 84bd 3c8c adbd 8873 f8bc
00000360: 027c 56bd c9cd 3fbd 5ce9 cf3b f047 21bd
00000370: 735f dbbc 4c50 783d 9ef7 4bbd cbfd 92bd
00000380: 5ab2 9dbd 5384 9c3d 21ce 2dbd 93e9 8d3d
00000390: 29f4 7dbd 23da 50bd 6616 c6bc 3e34 79bd
000003a0: 1355 a73d 19e3 393d 7373 4dbc 30ef 15bd
000003b0: ebf2 95bd 009b cb3c b39b b1bc 57fe 8abd
000003c0: 2bf8 18bd 09a4 293d 8ac4 64bc eeac 8a3d
000003d0: 7b06 83bd 7f57 2cbd 2a5b a1bc 2a0f 67bd
000003e0: c39a 873c 45eb 2dbd 3f81 993d a171 8cbd
000003f0: fa0b 04bd 5559 4cbd a6bd 01bd 4759 96bd

bias_ih_l0 f4 [512]
0.008548125 -0.014628269 -0.050484654 0.032741953 -0.07043451 -0.010377708 -0.025012363 -0.08535818
0.031966183 -0.07993693 -0.024008993 -0.06055093 0.0061437865 -0.018722298 0.016931254 0.013312918
0.07851956 0.029414177 -0.014376022 -0.050028466 -0.011931935 0.06373371 0.009610556 0.050205015
-0.07606319 0.0062079923 -0.036214735 0.0123106465 0.046276286 0.0016575702 0.013960575 0.069638886
0.064629346 0.049945727 0.0151790995 -0.044178292 0.047986165 -0.06506464 0.088554524 -0.079503454
-0.06976758 -0.07450314 -0.05576372 -7.5685064e-05 0.0009675834 -0.07325421 -0.087693825 0.08013245
-0.008554629 -0.07458819 0.028030809 0.017493118 -0.02470477 -0.041215237 0.019332677 -0.079469025
0.040901154 0.04585105 -0.031588934 -0.024291547 -0.036276262 0.083316654 -0.029175438 -0.054246422
0.0069654514 0.0822495 -0.046772815 0.030670203 0.07303381 0.046121873 0.011407378 0.008822023
-0.06821567 0.024929529 -0.044400733 0.03020444 0.08689529 0.0089290105 0.03157846 0.010058707
-0.01644657 0.019632738 0.007791069 0.051544417 -0.05007495 -0.08587624 0.012859729 -0.074247934
0.0051754997 0.08715368 0.068001285 0.0135910455 -0.012486954 -0.047536224 -0.05671632 -0.011525908
0.0019119126 0.039655656 0.017458169 0.025111135 0.028164482 -0.0062845177 0.062154632 0.012819211
-0.04862029 -0.04914238 -0.07016006 0.058344528 0.06963802 0.05359396 -0.078736335 0.086589634
0.08437684 -0.037418462 0.05304533 -0.012163814 -0.03337431 -0.028094068 0.08589503 0.0069842944
-0.0024053825 -0.010645935 0.049659558 -0.0809536 -0.014874996 -0.008978757 0.032561734 -0.027182003
0.0184619 -0.021077951 0.07572503 -0.05530944 0.066629894 -0.034721006 -0.05146067 -0.020941269
-0.06490507 0.06263446 -0.04166671 -0.048278715 0.075276196 -0.01612766 0.0083635645 0.037394114
-0.042186815 0.052049175 0.004607183 0.06708884 -0.014847351 0.043942973 -0.007387848 0.074154526
-0.028096443 -0.025687756 -0.06870462 -0.05025516 0.053707622 0.03990668 0.034959145 0.060496874
0.014805497 -0.03930949 0.06924752 -0.041231465 -0.040994063 -0.00482025 0.083025105 -0.010899978
-0.026273424 0.024471901 0.0246358 -0.043707967 0.070211396 0.050876148 0.0035901351 0.06497371
-0.046148002 -0.019045008 0.04916907 -0.020699104 -0.0077501102 0.033855863 0.030709725 -0.059410118
0.060261767 0.018871961 0.009215172 0.025547551 0.068363085 -0.028709296 -0.07799638 0.037383847
-0.021049226 -0.025723914 -0.016910268 0.0010734963 -0.08057212 -0.06940522 0.017362643 0.055531643
0.052383002 -0.066579245 0.032407355 0.017227972 -0.087134026 0.050277695 -0.06746238 0.06229334
-0.073406905 0.0215075 -0.08027977 0.06667991 0.066387534 -0.0054212767 -0.026842684 0.050008822
-0.02059494 0.08062792 -0.06398925 -0.08072267 -0.08551199 0.03879542 0.034321833 -0.082529604
0.07390383 0.027655978 0.022854263 0.016824376 -0.07260822 -0.070567034 0.004088758 -0.029639225
-0.05320976 0.078303896 0.012739684 0.00940358 0.045182966 0.06700618 -0.022919437 -0.072982706
-0.008922733 0.055624355 -0.0019176012 -0.071152434 -0.031330097 0.0605335 0.04304786 -0.06931754
-0.04805738 -0.029798483 -0.03208374 0.0646357 -0.0056921826 0.069290474 -0.072515376 0.07768766
00000000: 6f0d 0c3c 68ab 6fbc ffc8 4ebd 6d1c 063d
00000010: f83f 90bd 4307 2abc bae6 ccbc 45d0 aebd
00000020: f9ee 023d f9b5 a3bd 82ae c4bc 4104 78bd
00000030: d151 c93b 815f 99bc 6ab3 8a3c 6d1e 5a3c
00000040: ddce a03d 00f6 f03c 6889 6bbc a6ea 4cbd
00000050: 2a7e 43bc d286 823d 9875 1d3c c6a3 4d3d
00000060: 05c7 9bbd 6a6c cb3b e755 14bd 98b2 493c
00000070: 348c 3d3d d442 d93a e5ba 643c d59e 8e3d
00000080: 645c 843d e493 4c3d c2b1 783c 4cf4 34bd
00000090: 248d 443d 9c40 85bd 135c b53d b5d2 a2bd
000000a0: 4ee2 8ebd 1a95 98bd 8068 64bd 1cb9 9eb8
000000b0: 6ca5 7d3a 4e06 96bd d298 b3bd 7b1c a43d
000000c0: b728 0cbc b1c1 98bd dea0 e53c ba4d 8f3c
000000d0: a861 cabc 4fd1 28bd 905f 9e3c a8c0 a2bd
000000e0: f887 273d 50ce 3b3d 6663 01bd 11ff c6bc
000000f0: 6b96 14bd eca1 aa3d 5401 efbc 7f31 5ebd
00000100: 713e e43b 6d72 a83d da94 3fbd 1440 fb3c
00000110: c092 953d 4aea 3c3d 03e6 3a3c 3f8a 103c
00000120: a8b4 8bbd 0339 cc3c 8bdd 35bd 4d6f f73c
00000130: 28f6 b13d fc4a 123c 6a58 013d 46cd 243c
00000140: f5ba 86bc d6d4 a03c 394c ff3b 3d20 533d
00000150: 641b 4dbd e2df afbd 9db1 523c 4d0f 98bd
00000160: 3d97 a93b a17d b23d 4244 8b3d faac 5e3c
00000170: 1596 4cbc 58b5 42bd 5f4f 68bd 29d7 3cbc
00000180: 2499 fa3a f86d 223d 6f04 8f3c deb5 cd3c
00000190: 33b9 e63c 5bee cdbb db95 7e3d ab07 523c
000001a0: 1226 47bd 8549 49bd 14b0 8fbd acfa 6e3d
000001b0: 619e 8e3d 5785 5b3d 8440 a1bd e855 b13d
000001c0: c4cd ac3d 1a44 19bd 0f46 593d bc4a 47bc
000001d0: 80b3 08bd 8825 e6bc bce9 af3d 82dc e43b
000001e0: 9fa3 1dbb 4a6c 2ebc d267 4b3d 00cb a5bd
000001f0: 41b6 73bc a31b 13bc 745f 053d cbac debc
00000200: 693d 973c abab acbc b915 9b3d 278c 62bd
00000210: 4175 883d 9d37 0ebd 6cc8 52bd 068d abbc
00000220: f3ec 84bd 7f46 803d b6aa 2abd e7bf 45bd
00000230: 682a 9a3d 281e 84bc 5507 093c 922a 193d
00000240: 15cc 2cbd 8431 553d daf7 963b e065 893d
00000250: 4e42 73bc 8cfd 333d c315 f2bb 54de 973d
00000260: 832a e6bc 216f d2bc 02b5 8cbd 5bd8 4dbd
00000270: 86fc 5b3d 3075 233d 5231 0f3d 92cb 773d
00000280: c192 723c fd02 21bd a5d1 8d3d 53e2 28bd
00000290: 64e9 27bd 30f3 9dbb 1109 aa3d d295 32bc
000002a0: 5d3b d7bc 4c79 c83c 04d1 c93c 2007 33bd
000002b0: feca 8f3d 8263 503d 7948 6b3b f010 853d
000002c0: b005 3dbd 4704 9cbc 8265 493d 2b91 a9bc
000002d0: a3f4 fdbb 72ac 0a3d f692 fb3c 0658 73bd
000002e0: 0bd5 763d 5f99 9a3c 3cfb 163c 1949 d13c
000002f0: f201 8c3d c22f ebbc 91bc 9fbd ce1f 193d
00000300: 6d6f acbc f5ba d2bc 6787 8abc 8fb4 8c3a
00000310: ff02 a5bd 5324 8ebd 1a3c 8e3c 2675 633d
00000320: 8f8f 563d b35a 88bd 93bd 043d ad21 8d3c
00000330: 5373 b2bd fcef 4d3d b729 8abd 4d27 7f3d
00000340: 5c56 96bd 7f30 b03c b869 a4bd 7a8f 883d
00000350: 30f6 873d f7a4 b1bb 30e5 dbbc 0dd6 4c3d
00000360: b8b6 a8bc 4020 a53d cc0c 83bd ed51 a5bd
00000370: e920 afbd f2e7 1e3d 0d95 0c3d 4805 a9bd
00000380: e45a 973d ca8e e23c dd38 bb3c 46d3 893c
00000390: 9eb3 94bd 7385 90bd fdfa 853b f6cd f2bc
000003a0: 7af2 59bd cb5d a03d 1cba 503c 7911 1a3c
000003b0: c611 393d 893a 893d 8bc1 bbbc f577 95bd
000003c0: a830 12bc 5dd6 633d 0558 fbba 5eb8 91bd
000003d0: fd53 00bd faf1 773d f452 303d 5bf6 8dbd
000003e0: d1d7 44bd f31b f4bc 3d6a 03bd b95f 843d
000003f0: 7d85 babb 2ae8 8d3d f182 94bd b51a 9f3d

bias_hh_l0 f4 [512]
-0.0007851947 -0.013945028 0.085772514 0.05436304 -0.061932415 -0.08762053 -0.040837176 -0.044012465
-0.050110925 0.057273097 0.06659974 0.06321616 -0.035539143 -0.047033932 -0.051997267 0.03719655
0.081221364 0.061303522 -0.07471813 -0.07218036 -0.019682644 0.015310174 -0.08788191 -0.0120095555
-0.078257516 0.046906766 0.009809502 -0.0010634364 0.072645344 0.035081483 -0.05530072 -0.07548589
-0.045070034 0.025563726 -0.01885695 0.017421965 -0.06526633 0.037498694 0.085535534 -0.04034153
-0.03187267 0.08434384 0.060266558 -0.0067792977 -0.022937754 0.023000913 0.009572206 0.017787982
-0.054339357 0.09122146 0.07943892 -0.08597411 -0.009759048 0.0626273 0.0030553106 -0.031243574
0.087030254 -0.08575054 -0.0025957697 -0.042187497 -0.04204236 -0.05684996 0.027200192 0.068972595
-0.02377515 0.00076919445 -0.044515286 0.04795702 -0.03436082 0.060101263 -0.06580668 -0.022632401
0.069682516 0.02737259 -0.0455649 -0.054384813 0.013839282 0.075070195 0.05496284 0.08149548
0.039703198 0.05473596 0.074104235 -0.018817175 0.08022707 0.062867135 0.03100095 0.013625523
-0.057503313 0.037347153 0.038201842 0.046564337 0.0077128443 0.06685481 0.04169762 0.016902873
0.03193196 0.059622005 0.067439795 -0.010093147 -0.0652764 -0.03532804 -0.02197908 0.00071619864
0.003061212 0.0112987915 0.050194353 -0.00907932 0.012884589 -0.025803253 -0.042142503 -0.0047512674
0.006075126 -0.048144743 -0.06596106 -0.066598386 0.0067754467 0.011056798 -0.07911046 0.015541851
0.08182798 0.025574438 -0.079089195 -0.038338505 0.044575315 0.07673915 0.004984819 -0.004571639
0.03948473 0.079524025 0.0016798229 0.0007851642 -0.025459398 -0.03152839 -0.0025751193 -0.026319891
-0.06710061 -0.026159316 0.030333253 -0.0051514595 0.032291617 0.03819334 -0.06227562 0.03930459
-0.077780746 0.013232428 -0.04857952 -0.08947625 0.07982585 0.07801519 0.020634208 -0.062584765
0.072762184 -0.07556394 0.05351658 -0.054729436 -0.0024799337 0.06351521 0.06169431 -0.036646247
-0.07937337 0.02848494 0.06088284 -0.03721838 0.03171464 0.069213904 -0.052471366 0.028003057
-0.06923133 -0.04484762 -0.07676202 0.07302425 0.07829611 0.06669392 -0.051533844 0.012689201
-0.08520773 -0.0020853812 -0.005446824 0.005268081 -0.08158631 -0.038631212 0.0048326743 0.039792966
0.031168912 0.08016538 0.03895773 -0.054604482 -0.068815745 -0.017765697 -0.035122532 0.07354223
0.08426869 -0.0017454651 0.06267605 0.06251414 0.06622776 -0.058965396 0.008374905 0.06549252
0.03169961 0.06143866 -0.039193537 0.02657296 -0.08002907 0.043958485 -0.045733675 -0.060959697
-0.04125339 -0.030727265 -0.015263347 0.02023525 0.07850522 0.00663421 -0.018598631 -0.08142994
0.06460957 0.04794786 -0.08218042 -0.036090586 -0.015472959 0.015617227 -0.08675384 0.013296967
-0.005571338 0.071271084 -0.07148807 -0.022079434 -0.06796571 0.05350884 0.004870805 0.049918983
0.033349752 -0.07343943 -0.05063875 0.06412341 -0.01931203 -0.00385797 -0.022490507 0.030708054
0.021586718 -0.061869893 0.040276017 -0.010738415 0.06270349 0.08726017 0.08095068 0.05993796
-0.047769025 0.06475808 -0.04465024 0.06768801 -0.019474456 -0.08212605 -0.06076941 0.06259041
00000000: 86d5 4dba b079 64bc 80a9 af3d c7ab 5e3d
00000010: d8ac 7dbd 6472 b3bd e244 27bd 6a46 34bd
00000020: 1d41 4dbd 3297 6a3d 7265 883d 7977 813d
00000030: 7e91 11bd a7a6 40bd 16fb 54bd 695b 183d
00000040: 6357 a63d 6719 7b3d d205 99bd 4cd3 93bd
00000050: 7f3d a1bc 86d7 7a3c 6efb b3bd bac3 44bc
00000060: 7a45 a0bd 4f21 403d 09b8 203c 0163 8bba
00000070: 15c7 943d 9ab1 0f3d 0283 62bd 5998 9abd
00000080: 5b9b 38bd 056b d13c e479 9abc 82b8 8e3c
00000090: 5baa 85bd 3b98 193d 412d af3d 293d 25bd
000000a0: eb8c 02bd 77bc ac3d 11da 763d df24 debb
000000b0: f5e7 bbbc 696c bc3c bed4 1c3c 1ab8 913c
000000c0: f292 5ebd 51d2 ba3d dfb0 a23d 3213 b0bd
000000d0: 6ae4 1fbc be42 803d 9b3b 483b 86f2 ffbc
000000e0: eb3c b23d fb9d afbd ca1d 2abb cccc 2cbd
000000f0: 9c34 2cbd 81db 68bd f0d2 de3c 8141 8d3d
00000100: 1ac4 c2bc c4a3 493a a955 36bd 956e 443d
00000110: eebd 0cbd be2c 763d a7c5 86bd 9667 b9bc
00000120: b5b5 8e3d 7b3c e03c 43a2 3abd 9cc2 5ebd
00000130: 28be 623c 67be 993d b720 613d 1ae7 a63d
00000140: d29f 223d d032 603d f6c3 973d 7a26 9abc
00000150: 174e a43d 7cc0 803d b4f5 fd3c 963d 5f3c
00000160: 9888 6bbd 54f9 183d 8979 1c3d 3fba 3e3d
00000170: 07bc fc3b 2deb 883d 20cb 2a3d e577 8a3c
00000180: 16cb 023d 3436 743d e01d 8a3d ba5d 25bc
00000190: a2af 85bd 23b4 10bd 790d b4bc 47bf 3b3a
000001a0: 9d9e 483b 911e 393c 9898 4d3d 6ec1 14bc
000001b0: e219 533c 5861 d3bc 9e9d 2cbd 85b0 9bbb
000001c0: da11 c73b 6c33 45bd 9816 87bd bc64 88bd
000001d0: 9104 de3b 9227 353c aa04 a2bd 3fa3 7e3c
000001e0: 6e95 a73d 7c81 d13c 84f9 a1bd d608 1dbd
000001f0: 9b94 363d 6a29 9d3d b157 a33b b0cd 95bb
00000200: beba 213d 7edd a23d 812d dc3a 7ad3 4d3a
00000210: 3a90 d0bc ea23 01bd 55c3 28bb d09c d7bc
00000220: 0b6c 89bd 104c d6bc 717d f83c 93cd a8bb
00000230: 3744 043d 9f70 1c3d b814 7fbd dafd 203d
00000240: 834b 9fbd d3cc 583c 52fb 46bd 533f b7bd
00000250: bc7b a33d 6ec6 9f3d 1209 a93c 712c 80bd
00000260: 5704 953d 44c1 9abd 3434 5b3d f92b 60bd
00000270: 6286 22bb 4314 823d 2cb3 7c3d 601a 16bd
00000280: 818e a2bd 4059 e93c 4960 793d 4d72 18bd
00000290: 36e7 013d 05c0 8d3d 37ec 56bd ab66 e53c
000002a0: 28c9 8dbd 23b2 37bd 6835 9dbd bd8d 953d
000002b0: b659 a03d d296 883d 2715 53bd 5ee6 4f3c
000002c0: 6481 aebd e4aa 08bb 457b b2bb de9f ac3b
000002d0: b916 a7bd c33b 1ebd 695b 9e3b f3fd 223d
000002e0: f255 ff3c bf2d a43d 2492 1f3d f3a8 5fbd
000002f0: 45ef 8cbd 5e89 91bc a5dc 0fbd 4f9d 963d
00000300: 1095 ac3d 17c8 e4ba 4d5c 803d 6a07 803d
00000310: 6ba2 873d b385 71bd e636 093c f120 863d
00000320: 73d7 013d 1ba7 7b3d 6789 20bd 89af d93c
00000330: 48e6 a3bd d00d 343d 3c53 3bbd e0b0 79bd
00000340: 51f9 28bd bfb7 fbbc 1e13 7abc 65c4 a53c
00000350: 58c7 a03d c963 d93b 285c 98bc bec4 a6bd
00000360: 0652 843d fa64 443d 354e a8bd b9d3 13bd
00000370: 4b82 7dbc 66df 7f3c ffab b1bd 86db 593c
00000380: c58f b6bb 93f6 913d 5668 92bd eedf b4bc
00000390: 9b31 8bbd 162c 5b3d 469b 9f3b d977 4c3d
000003a0: c099 083d 6967 96bd 946a 4fbd 2253 833d
000003b0: 4334 9ebc ffd5 7cbb 033e b8bc 758f fb3c
000003c0: a1d6 b03c 496b 7dbd 77f8 243d 2df0 2fbc
000003d0: b06a 803d 76b5 b23d 78c9 a53d 8281 753d
000003e0: 74a9 43bd e29f 843d 2ce3 36bd 03a0 8a3d
000003f0: e588 9fbc b431 a8bd 58e9 78bd 672f 803d

weight_ih_l1 f4 [512, 128]
-0.0030304939 -0.024596423 -0.06802889 0.0149265975 -0.083527066 -0.059510887 -0.06579555 -0.0057758763
-0.040040635 0.04873503 -0.08285571 0.07281149 0.013780631 0.081865706 0.073615335 -0.032382645
-0.07458259 0.01978863 0.062461875 0.030412585 -0.04109663 0.08146597 0.07913808 0.0755992
-0.058124937 0.083470635 -0.08081951 0.08080233 -0.07340361 0.022230916 -0.029583178 0.020876251
-0.08370934 0.030630171 0.021975458 0.0025496334 0.024455644 0.06986559 -0.07281342 -0.027229887
0.04531526 -0.010572039 0.07535114 -0.06853207 0.04859536 0.05325853 0.026886687 0.08178898
-0.07248333 -0.07175398 0.085520096 -0.02414018 0.06970752 0.0049321577 0.042487495 -0.061982363
-0.039667297 -0.08249991 -0.03399529 -0.06869193 -0.028078694 -0.06956075 -0.02419407 -0.05598879
0.06907486 0.04508143 0.010374628 -0.08820898 0.08000802 0.002914928 0.016186193 -0.018628612
-0.018052123 -0.08664469 0.005482197 -0.023453847 0.026151627 0.047819816 0.055060185 -0.071213484
0.08640022 0.0020671338 -0.008386403 0.008929893 -0.07699935 -0.06287922 -0.041588876 0.0002622977
0.013459228 -0.039131694 -0.048875686 0.009236522 -0.013385534 -0.07525529 0.008455582 0.04585033
0.08363738 -0.07705625 0.004173234 0.013350658 0.08385912 -0.040670253 -0.05540437 0.058961473
0.06570139 0.06479854 -0.037751246 -0.02314455 0.06683288 0.012218744 -0.032351047 -0.06418289
-0.050183903 -0.047695387 -0.062060505 0.056460403 -0.010541804 -0.014831737 0.08580672 0.009174138
0.08629347 0.039400823 -0.06365465 0.08165593 -0.071910195 -0.05954217 -0.062076278 0.039878465
-0.006341636 0.0120122135 0.022675492 -0.022776663 0.015126944 -0.05618222 -0.004397191 -0.057285935
0.020555355 -0.026748896 0.036084563 -0.064473264 -0.0853353 0.07811005 0.046542637 0.009982273
-0.06599051 0.016140476 -0.024913274 -0.047210664 -0.049443774 -0.054237094 -0.08549743 0.06997094
-0.004745543 0.0702649 -0.08356685 0.024300262 -0.04352972 -0.074090615 0.028611459 -0.041642573
-0.023370288 -0.0687532 0.0015519857 0.00058954954 0.012716219 -0.086320266 -0.085846335 -0.08430576
0.05736754 -0.06288694 -0.06560355 0.079123355 0.013516739 0.05451951 -0.02427204 -0.042589802
-0.027260583 0.050565384 0.02492547 0.014793754 -0.045852892 0.040522806 -0.016037047 -0.07759437
-0.008911118 -0.03295899 0.07689994 -0.085568056 -0.016763434 -0.048384666 -0.08096044 0.042766295
-0.0514526 0.0548558 0.007893652 -0.0169883 0.08787424 -0.01931259 0.0020067692 -0.024183862
-0.029075202 0.016364053 0.06125828 -0.060940497 -0.065160125 0.0077125356 -0.05810828 0.022185124
0.027419843 0.06227871 -0.012964472 -0.042789366 -0.07882378 -0.07646635 0.047130145 0.08490444
0.07399716 -0.061993588 0.00864961 -0.078324735 -0.037538975 -0.06760285 -0.016080268 0.049411558
-0.07475987 0.016511194 -0.036769457 0.046077542 0.06481009 0.057680495 0.04630298 0.038708843
-0.08418217 0.070208766 -0.023184367 0.061928593 -0.06975157 0.043322183 0.04392598 -0.08435191
0.016794562 -0.06697492 -0.012970805 -0.06144654 -0.00032006204 0.07846833 0.04620812 0.032777406
0.04940199 0.063410856 -0.0157163 -0.037450194 -0.07790481 -0.00863903 -0.045961455 -0.052237403
00000000: 409b 46bb 707e c9bc bb52 8bbd b08e 743c
00000010: 3d10 abbd b0c1 73bd d1bf 86bd 9043 bdbb
00000020: a601 24bd 629e 473d 41b0 a9bd 311e 953d
00000030: 28c8 613c 35a9 a73d a3c3 963d aaa3 04bd
00000040: c2be 98bd c41b a23c 06d8 7f3d d023 f93c
00000050: f154 28bd a1d7 a63d 2513 a23d c1d3 9a3d
00000060: 6a14 6ebd a7f2 aa3d b384 a5bd b17b a53d
00000070: a254 96bd 9c1d b63c 6c58 f2bc ac04 ab3c
00000080: cd6f abbd 20ec fa3c e005 b43c c017 273b
00000090: 3457 c83c b115 8f3d 341f 95bd 3611 dfbc
000000a0: 7e9c 393d 5836 2dbc b351 9a3d 8b5a 8cbd
000000b0: ee0b 473d 9e25 5a3d 7841 dc3c fb80 a73d
000000c0: 2472 94bd c0f3 92bd 2925 af3d a0c1 c5bc
000000d0: d1c2 8e3d f09d a13b 5e07 2e3d 38e1 7dbd
000000e0: 2d7a 22bd b6f5 a8bd a53e 0bbd 5bae 8cbd
000000f0: 4a05 e6bc de75 8ebd a432 c6bc 8054 65bd
00000100: 1f77 8d3d 4ea7 383d 58fa 293c e9a6 b4bd
00000110: 3fdb a33d 6008 3f3b e898 843c 089b 98bc
00000120: 0ce2 93bc c572 b1bd 00a4 b33b 4822 c0bc
00000130: f03b d63c b6de 433d ca86 613d 60d8 91bd
00000140: 99f2 b03d c078 073b 2067 09bc b04e 123c
00000150: d6b1 9dbd d2c6 80bd 1959 2abd 0085 8939
00000160: 1884 5c3c 8e48 20bd df31 48bd c854 173c
00000170: 004f 5bbc 721f 9abd 4889 0a3c 8ecd 3b3d
00000180: 134a ab3d abcf 9dbd a0bf 883b b8bc 5a3c
00000190: 55be ab3d da95 26bd b1ef 62bd 9681 713d
000001a0: 738e 863d 19b5 843d 0da1 1abd a499 bdbc
000001b0: addf 883d 2031 483c 8882 04bd 5272 83bd
000001c0: a38d 4dbd 3d5c 43bd 2833 7ebd 0643 673d
000001d0: 88b7 2cbc d000 73bc 6fbb af3d 204f 163c
000001e0: a1ba b03d c262 213d 5e5d 82bd 393b a73d
000001f0: a745 93bd 7ee2 73bd b243 7ebd 9a57 233d
00000200: 80cd cfbb e0ce 443c f4c1 b93c 2096 babc
00000210: 00d7 773c 541f 66bd 5016 90bb a8a4 6abd
00000220: b463 a83c 8020 dbbc 68cd 133d 8f0a 84bd
00000230: 46c4 aebd 29f8 9f3d 7ea3 3e3d b08c 233c
00000240: 0826 87bd 0839 843c ec16 ccbc f85f 41bd
00000250: 8e85 4abd b727 5ebd 4719 afbd ed4c 8f3d
00000260: 8080 9bbb 0be7 8f3d 1925 abbd 5811 c73c
00000270: 384c 32bd d2bc 97bd 9462 ea3c 6791 2abd
00000280: 0c73 bfbc 7ace 8cbd 006c cb3a 008c 1a3a
00000290: b057 503c aec8 b0bd 34d0 afbd 80a8 acbd
000002a0: 3afa 6a3d deca 80bd 275b 86bd 6d0b a23d
000002b0: 5075 5d3c da4f 5f3d 28d6 c6bc a572 2ebd
000002c0: 9651 dfbc a61d 4f3d 8030 cc3c 8061 723c
000002d0: 3ed0 3bbd 3efb 253d 2060 83bc cce9 9ebd
000002e0: f0ff 11bc 0200 07bd b77d 9d3d 4e3e afbd
000002f0: 7853 89bc 002f 46bd 96ce a5bd b62b 2f3d
00000300: f6bf 52bd 7ab0 603d 6054 013c 0c2b 8bbc
00000310: 69f7 b33d 7035 9ebc 0084 033b 3c1d c6bc
00000320: 1e2f eebc e80d 863c f6e9 7a3d be9c 79bd
00000330: ac72 85bd 70b9 fc3b f302 6ebd 94bd b53c
00000340: 949f e03c f617 7f3d f068 54bc e743 2fbd
00000350: 5d6e a1bd 649a 9cbd 8a0b 413d 61e2 ad3d
00000360: d38b 973d fdec 7dbd 18b7 0d3c b868 a0bd
00000370: 78c2 19bd 5d73 8abd c4ba 83bc c663 4a3d
00000380: b41b 99bd 7c42 873c 929b 16bd cebb 3c3d
00000390: 27bb 843d 6242 6c3d 32a8 3d3d 2a8d 1e3d
000003a0: b467 acbd 9dc9 8f3d 24ed bdbc d6a8 7d3d
000003b0: e9d9 8ebd 9a72 313d baeb 333d b2c0 acbd
000003c0: c094 893c 262a 89bd 8083 54bc 5eaf 7bbd
000003d0: 00ce a7b9 01b4 a03d ba44 3d3d 9a41 063d
000003e0: be59 4a3d 8ddd 813d 78bf 80bc 6065 19bd
000003f0: 8f8c 9fbd b88a 0dbc 1442 3cbd e3f6 55bd

weight_hh_l1 f4 [512, 128]
-0.07610525 0.029621229 -0.05895611 -0.0842147 0.07154245 0.050139643 -0.024217084 0.06809463
-0.065337986 -0.025805525 -0.0035239384 -0.05232451 0.005287029 0.061561204 -0.08727457 -0.05629178
-0.005673282 -0.024873585 0.052656077 0.005939126 0.024335422 0.023078047 0.05754804 -0.007682383
-0.06215485 0.078374006 -0.024112567 0.062297173 0.015374213 -0.03212239 -0.07119961 0.055032708
-0.0048306733 -0.07289466 -0.07244244 -0.07003642 0.01944679 0.03674323 0.08217167 -0.07865887
0.0023689047 0.034652106 0.05769635 0.02498734 -0.047307897 0.00045758486 -0.053359658 -0.06950444
-0.0032448322 -0.0857362 -0.06437449 -0.07459076 -0.00096200407 0.0511275 -0.08533231 0.024278998
0.064089425 -0.07182252 -0.04513541 -0.022213422 0.028343648 -0.077811405 -0.014665462 -0.026306849
-0.007962622 0.0664357 0.06474782 -0.03246537 0.020526484 0.058933698 -0.0021454766 0.04203392
-0.053276483 -0.0122544095 -0.080725946 -0.07860172 -0.060862314 0.07478718 0.057564266 -0.06897769
0.08837753 -0.010145888 0.07841063 -0.038753122 -0.033359315 -0.07372151 -0.08743494 0.00091359764
-0.068252586 -0.0877526 0.07191903 0.042306714 0.03967928 -0.07678969 0.03237685 0.058438666
-0.07477069 -0.040059682 -0.07303191 -0.01674769 -0.052002214 0.003317818 0.012999944 -0.087741405
0.028970145 0.050332807 0.049089275 0.057086788 0.044124626 -0.07528188 -0.048725717 0.034998365
-0.028948132 -0.04882982 -0.07784705 -0.055803966 -0.0023927912 0.006801471 -0.08352004 -0.037204433
-0.058958232 0.006179601 -0.0023625642 -0.064140975 0.031691343 0.015218481 -0.08681679 -7.1428716e-05
0.071580194 -0.040275645 -0.08212129 -0.00032557547 -0.0033762902 0.008711778 -0.06806384 0.012274124
0.012457252 -0.08187045 0.06411063 -0.059015594 -0.006439045 -0.029761396 0.0007785857 -0.048117254
-0.0241379 -0.06650512 -0.08460477 0.047976546 -0.06384396 0.057987876 0.011682391 0.012122951
0.055944555 -0.0056525767 -0.05290091 0.053824298 -0.03290492 -0.048089627 -0.0036166757 -0.021744594
0.087183975 0.057158105 0.03921496 -0.071771964 -0.007914208 0.072011046 0.055170245 0.0280779
-0.049535494 -0.081404276 -0.049940843 0.08661833 0.052676313 0.08385935 -0.07149424 0.01856006
-0.062048502 4.3176115e-05 0.025417246 0.03768813 0.06276246 -0.034409087 -0.07343332 -0.015016921
-0.044722788 0.010422021 -0.058511574 -0.06269095 -0.06681573 0.0068052635 -0.01067961 -0.026049912
-0.06573597 -0.06369946 -0.04113365 -0.033369914 0.030855551 0.052778356 -0.05149782 0.0811814
0.03921304 0.08339126 0.06993369 0.07324461 0.038801633 0.0074644685 0.07469686 -0.063200146
-0.014954701 0.03965018 0.053681128 -0.05513225 0.050564684 0.0129195675 0.002603285 0.008764513
-0.0029530898 -0.03261341 0.08137336 0.019781962 0.04432345 -0.08809713 -0.021803126 0.029313505
-0.031049974 -0.028121464 0.069176294 0.040034316 -0.02133058 -0.021379076 -0.05200336 -0.027321674
-0.07249927 -0.020794056 0.019311823 0.021295369 0.07013533 -0.027914796 -0.031120788 0.08649374
-0.04757473 -0.052288234 -0.020583265 -0.027669806 -0.009191014 -0.068025395 0.032096952 -0.016699143
0.01632107 -0.08018874 -0.04051545 0.01955168 -0.007446103 0.033437073 -0.012410685 -0.0396128
00000000: 12dd 9bbd 38a8 f23c f67b 71bd c278 acbd
00000010: d984 923d 3a5f 4d3d e862 c6bc 3375 8b3d
00000020: eccf 85bd 1c66 d3bc e0f1 66bb 3a52 56bd
00000030: d03e ad3b 9a27 7c3d 02bd b2bd 3692 66bd
00000040: f0e6 b9bb b0c3 cbbc e6ad 573d 009d c23b
00000050: 145b c73c 2c0e bd3c 7eb7 6b3d 80bc fbbb
00000060: 1696 7ebd 8d82 a03d b887 c5bc 522b 7f3d
00000070: 20e4 7b3c c492 03bd 1ad1 91bd fa69 613d
00000080: a04a 9ebb cc49 95bd b45c 94bd 416f 8fbd
00000090: e04e 9f3c 1280 163d 9f49 a83d e717 a1bd
000000a0: a03f 1b3b 5eef 0d3d 0253 6c3d 40b2 cc3c
000000b0: edc5 41bd 00e8 ef39 a88f 5abd 5858 8ebd
000000c0: 40a7 54bb 7696 afbd c6d6 83bd 0ac3 98bd
000000d0: 002f 7cba 126b 513d b5c2 aebd c0e4 c63c
000000e0: 5141 833d af17 93bd e8df 38bd ecf8 b5bc
000000f0: f030 e83c 965b 9fbd 6847 70bc 7681 d7bc
00000100: a875 02bc 710f 883d 819a 843d 68fa 04bd
00000110: 2827 a83c 7664 713d 209b 0cbb c22b 2c3d
00000120: 7138 5abd b8c6 48bc a553 a5bd f0f9 a0bd
00000130: c34a 79bd 052a 993d 82c8 6b3d 2d44 8dbd
00000140: 47ff b43d f03a 26bc c195 a03d 98bb 1ebd
00000150: c7a3 08bd 4efb 96bd 1711 b3bd 807e 6f3a
00000160: 03c8 8bbd a3b7 b3bd 494a 933d ce49 2d3d
00000170: be86 223d ea43 9dbd 969d 043d 625d 6f3d
00000180: 6021 99bd 9f15 24bd c191 95bd 7432 89bc
00000190: 4600 55bd c06f 593b b8fd 543c c4b1 b3bd
000001a0: cc52 ed3c c629 4e3d d611 493d d6d3 693d
000001b0: 06bc 343d 632d 9abd 9e94 47bd 725a 0f3d
000001c0: a224 edbc c701 48bd 466e 9fbd b392 64bd
000001d0: 60d0 1cbb e0de de3b 8e0c abbd ad63 18bd
000001e0: 307e 71bd 407e ca3b 40d5 1abb 585c 83bd
000001f0: c8ce 013d f056 793c 00cd b1bd 00cc 95b8
00000200: a398 923d 13f8 24bd 352f a8bd 00b2 aab9
00000210: c044 5dbb d8bb 0e3c 0e65 8bbd 6819 493c
00000220: 8019 4c3c b2ab a7bd 6f4c 833d 56ba 71bd
00000230: a0fe d2bb 2cce f3bc 001a 4c3a 9916 45bd
00000240: d8bc c5bc d633 88bd 4445 adbd 0e83 443d
00000250: 9fc0 82bd b284 6d3d 8067 3f3c 589f 463c
00000260: 1e26 653d 4039 b9bb a0ae 58bd de76 5c3d
00000270: 4fc7 06bd a1f9 44bd c005 6dbb b821 b2bc
00000280: 838d b23d 9e1e 6a3d de9f 203d 2efd 92bd
00000290: 98aa 01bc 877a 933d 32fa 613d a003 e63c
000002a0: bbe5 4abd 49b7 a6bd c58e 4cbd f364 b13d
000002b0: 1ec3 573d 73be ab3d 926b 92bd 440b 983c
000002c0: 9226 7ebd 0018 3538 d437 d03c de5e 1a3d
000002d0: 9b89 803d 8bf0 0cbd 3564 96bd 8809 76bc
000002e0: 3e2f 37bd 20c1 2a3c d5a9 6fbd 1d64 80bd
000002f0: afd6 88bd b0fe de3b 88f9 2ebc a066 d5bc
00000300: 95a0 86bd dd74 82bd c27b 28bd e4ae 08bd
00000310: c8c4 fc3c 1e2e 583d 61ef 52bd 6f42 a63d
00000320: da9d 203d 09c9 aa3d 6539 8f3d 4501 963d
00000330: 76ee 1e3d 8098 f43b abfa 983d 146f 81bd
00000340: 9004 75bc 3a68 223d bee0 5b3d 5bd2 61bd
00000350: ea1c 4f3d 98ac 533c e09b 2a3b 0899 0f3c
00000360: a088 41bb a495 05bd 13a7 a63d c80d a23c
00000370: 828c 353d 456c b4bd 789c b2bc e022 f03c
00000380: 845c febc fc5e e6bc 4dac 8d3d 06fb 233d
00000390: 78bd aebc 2c23 afbc 7a01 55bd b4d1 dfbc
000003a0: 7f7a 94bd 4c58 aabc d433 9e3c a073 ae3c
000003b0: 1da3 8f3d 92ad e4bc 06f1 febc a123 b13d
000003c0: b8dd 42bd 302c 56bd 3c9e a8bc caab e2bc
000003d0: e895 16bc e650 8bbd 1878 033d a4cc 88bc
000003e0: c4b3 853c fe39 a4bd 87f3 25bd d82a a03c
000003f0: 70fe f3bb 50f5 083d 3056 4bbc 0841 22bd

bias_ih_l1 f4 [512]
0.017949857 -0.025439613 -0.08050887 -0.055834416 -0.08685729 0.038902886 0.021778151 -0.0254087
-0.058156792 -0.06176354 -0.08226052 0.07048165 0.066710554 0.052309327 -0.033264495 -0.013681985
-0.073173404 -0.0234477 0.07456321 0.016606383 0.047165535 -0.056788158 -0.056433458 -0.06859651
0.07805089 0.04970158 -0.0496094 0.0479097 0.07238453 -0.087361574 0.07209014 -0.072642095
0.056477956 0.023405597 -0.020589188 -0.012141593 -0.06173256 0.012702197 0.08728076 0.039017774
-0.0036481246 -0.06961535 -0.050104488 0.0227307 0.07666624 -0.04204048 -0.082746565 0.021694176
-0.07576737 -0.057134233 -0.025950983 0.035814524 -0.05477594 0.056574963 0.07637826 -0.0075517893
-0.049299147 0.07782448 -0.07637653 -0.05268416 -0.016363017 0.011181138 0.034245946 0.0665692
0.08497738 -0.027486194 0.03886991 0.057592966 0.06452782 0.00089399517 0.06857454 0.043910258
0.036179304 0.05286444 0.06488695 0.086639054 -0.013502702 0.02770587 -0.030370522 0.00042659044
-0.042193968 -0.05428456 -0.009288184 0.016191483 0.05857613 0.083968066 0.052910723 -0.07907478
0.056190707 0.052932 -0.043869462 0.05073207 0.076778 0.059887893 -0.08146428 0.007995196
0.054416187 0.059735246 -0.019003898 -0.006403655 0.06268754 -0.02231776 0.015485987 0.052868895
-0.02453249 -0.008689091 -0.015747115 0.06908164 0.010722749 0.006816402 -0.04148116 0.016231723
0.013480984 -0.0028833747 0.066766806 -0.080605805 -0.068462856 -0.017225742 -0.05173023 -0.036205806
0.00011701137 -0.023190178 0.08024912 0.060294397 -0.00024778396 -0.022304088 0.072902955 -0.067465544
-0.060752176 -0.006216459 -0.062310025 0.0003773272 -0.045034308 -0.08460171 0.057234697 -0.075470306
-0.085841306 -0.05947701 0.007975988 -0.08089963 -0.03154837 -0.014329821 0.034824498 -0.082960054
0.03347774 -0.010897383 0.021703899 0.033141732 -0.06696465 0.035439186 -0.042306237 -0.03696288
0.0072117373 0.007698536 -0.008687086 0.08162194 0.07439617 0.06347338 -0.08443869 0.06228716
-0.01787591 0.032218218 0.072746076 0.03789506 -0.061589442 0.045042716 -0.054793715 -0.010680273
-0.024914905 0.08587281 0.065412275 -0.07028711 0.049765818 0.035051405 -0.08569609 0.08165877
0.033039317 -0.047872044 0.0880634 -0.011717707 0.057530038 0.045509465 -0.08240688 -0.079439886
0.062153243 -0.0042970926 -0.08045184 0.03646052 0.008392215 0.041918017 -0.08405239 -0.061466932
0.023857884 -0.04131856 -0.06356208 0.027438052 -0.045942456 -0.011016272 0.073104896 -0.072083056
-0.06068889 0.06796525 -0.041901786 0.065221556 0.014046997 -0.06670193 -0.005851291 -0.01786375
0.002806358 -0.0155314505 0.01023037 0.024869747 0.038265742 -0.015717775 0.026506767 -0.024237312
0.0852027 -0.050495327 -0.0875378 -0.039692838 0.070575915 0.026789255 0.043810166 0.009802654
-0.03395192 -0.039264437 -0.01651457 0.06399036 -0.05242715 0.069999985 -0.025527418 -0.045992315
-0.075798556 -0.013014734 -0.063431114 -0.072652385 -0.021449268 0.026192166 -0.03307462 -0.08471598
0.059156947 0.04077924 -0.07965029 -0.015492201 0.0797968 -0.056100037 -0.029405266 0.03533052
0.07620179 0.016575515 0.072143696 0.03245469 -0.031947583 0.030091427 -0.050186906 0.06255088
00000000: 940b 933c bc66 d0bc d6e1 a4bd a1b2 64bd
00000010: 3ce2 b1bd a258 1f3d 1868 b23c e825 d0bc
00000020: d135 6ebd c4fb 7cbd 3478 a8bd af58 903d
00000030: 8b9f 883d 4e42 563d 5a40 08bd 682a 60bc
00000040: f0db 95bd 6415 c0bc 99b4 983d 1c0a 883c
00000050: a630 413d b39a 68bd c526 67bd 547c 8cbd
00000060: 25d9 9f3d e293 4b3d 3a33 4bbd f63c 443d
00000070: 573e 943d a0ea b2bd ffa3 933d 61c5 94bd
00000080: 6e55 673d 18bd bf3c a8aa a8bc 88ed 46bc
00000090: 48db 7cbd e01c 503c 41c0 b23d 1ad1 1f3d
000000a0: 6015 6fbb 7e92 8ebd 5d3a 4dbd bc35 ba3c
000000b0: 3103 9d3d a332 2cbd 0877 a9bd fcb7 b13c
000000c0: ec2b 9bbd 9605 6abd 2897 d4bc 40b2 123d
000000d0: bc5c 60bd 26bb 673d 356c 9c3d 0075 f7bb
000000e0: e7ed 49bd 7162 9f3d 4c6b 9cbd 59cb 57bd
000000f0: bc0b 86bc 1831 373c 7a45 0c3d 6f55 883d
00000100: 9f08 ae3d ba2a e1bc 0e36 1f3d 9ae6 6b3d
00000110: 2927 843d 005b 6a3a cf70 8c3d 3edb 333d
00000120: c030 143d 6288 583d 73e3 843d d16f b13d
00000130: 703a 5dbc 6cf7 e23c 9acb f8bc 00a8 df39
00000140: 95d3 2cbd 7d59 5ebd 782d 18bc 00a4 843c
00000150: 86ed 6f3d 73f7 ab3d eab8 583d f5f1 a1bd
00000160: 3a28 663d 3acf 583d 77b0 33bd 6ecc 4f3d
00000170: c93d 9d3d 024d 753d bfd6 a6bd 48fe 023c
00000180: 82e3 5e3d f2ac 743d 10ae 9bbc c0d5 d1bb
00000190: 5362 803d bcd3 b6bc f0b8 7d3c 0e8d 583d
000001a0: 5cf8 c8bc b05c 0ebc 1800 81bc ad7a 8d3d
000001b0: 78ae 2f3c 205c df3b 26e8 29bd 64f8 843c
000001c0: 58df 5c3c 00f7 3cbb 09bd 883d a814 a5bd
000001d0: 4136 8cbd 001d 8dbc 14e3 53bd 8a4c 14bd
000001e0: 0064 f538 54f9 bdbc a759 a43d 42f7 763d
000001f0: 00e9 81b9 10b7 b6bc 254e 953d 602b 8abd
00000200: 46d7 78bd 70b3 cbbb cc38 7fbd 00d4 c539
00000210: e575 38bd a943 adbd ee6e 6a3d 2d90 9abd
00000220: 91cd afbd 2a9e 73bd b8ad 023c b5ae a5bd
00000230: dd38 01bd a0c7 6abc 22a4 0e3d f6e6 a9bd
00000240: f41f 093d f08a 32bc 60cc b13c a0bf 073d
00000250: c324 89bd ae28 113d 4e49 2dbd 6466 17bd
00000260: 7050 ec3b 0044 fc3b 4854 0ebc 6729 a73d
00000270: 055d 983d 55fe 813d 31ee acbd d220 7f3d
00000280: 8070 92bc 40f7 033d e5fb 943d da37 1b3d
00000290: 3645 7cbd b67e 383d 606f 60bd 50fc 2ebc
000002a0: 581a ccbc 15de af3d dff6 853d b0f2 8fbd
000002b0: 3ed7 4b3d 1092 0f3d 6e81 afbd b73c a73d
000002c0: 3c54 073d 7a15 44bd 955a b43d a0fb 3fbc
000002d0: 9ea4 6b3d 2268 3a3d f0c4 a8bd 61b1 a2bd
000002e0: 6694 7e3d a0ce 8cbb efc3 a4bd a057 153d
000002f0: 807f 093c 3ab2 2b3d a923 acbd c0c4 7bbd
00000300: 9c71 c33c a63d 29bd d62c 82bd c4c5 e03c
00000310: 282e 3cbd 987d 34bc 05b8 953d 48a0 93bd
00000320: ea94 78bd 5d31 8b3d 35a1 2bbd e192 853d
00000330: 6025 663c 059b 88bd 30bc bfbb 0057 92bc
00000340: e0ea 373b a077 7ebc 489d 273c a4bb cb3c
00000350: 8abc 1c3d 90c2 80bc b824 d93c 548d c6bc
00000360: c17e ae3d 30d4 4ebd 0547 b3bd f594 22bd
00000370: 1b8a 903d 2475 db3c 4a72 333d 509b 203c
00000380: 2b11 0bbd bfd3 20bd 9049 87bc 610d 833d
00000390: dabd 56bd 275c 8f3d e01e d1bc 7062 3cbd
000003a0: 463c 9bbd c03b 55bc 2ce8 81bd c6ca 94bd
000003b0: 60b6 afbc f490 d63c 4179 07bd 927f adbd
000003c0: 8e4e 723d 2208 273d b11f a3bd 00d3 7dbc
000003d0: 816c a33d 27c9 65bd 50e3 f0bc bcb6 103d
000003e0: af0f 9c3d 60c9 873c 13c0 933d 36ef 043d
000003f0: 78db 02bd 4c82 f63c c990 4dbd ad1a 803d
