src/model.pt (torch_old, 286166 bytes, 10 tensors)

weight_ih_l0 f4 [128, 58]
00000000: ede0 c73e a07a 033e 423c 2dbe 1406 013d
00000010: 5d85 a7bd a81a acbd 5d42 803d e0f2 2abd
00000020: 385b 9e3e 68f8 6b3d f168 c13e 023f 79be
00000030: 8469 953e 315e 93be 3246 dfbd 8d20 c63d
00000040: db4c 9cbd c5d2 bdbd bde8 94be ee8f 753e
00000050: 69c8 4c3e b090 1d3d b0c2 013c ed00 3fbe
00000060: bdac b23e 8a18 a73c 65f2 d73d f899 b63d
00000070: 7c60 3dbd 4aae ea3d 0401 61bd f911 f73b
00000080: 4b54 f23c dc0c 853c c1c5 db3d 2afb d23d
00000090: 5892 bc3d f6e3 acbd ce4b 43be 02ea b63d
000000a0: c62b a83c c7ff b7bd a839 01be ee06 273d
000000b0: daad 23bd 4858 27ba c49d 133d a1ec 2f3b
000000c0: 781a 5c3b 52e5 e93c f948 1d3d 43bb b23b
000000d0: 8c63 1fbf 6ca5 d43c d1d8 b3bd 5771 853d
000000e0: 152c eb3d d35f 25bd 7e2e 713e 0cff a33c
000000f0: f5c3 843e fe0b f9be d514 823e e060 06be
00000100: 3ba3 283e 8435 bbbe a585 543e 389d c4be
00000110: f3a5 54bf b686 efbd e067 8ebd 3250 b7be
00000120: 9ee6 273e e81f 903d 1d0f 203e d546 eabe
00000130: ea07 4fbe 26a2 073e f231 513f 5e59 0dbf
00000140: bd1f 5fbe 7a3d 133e ced1 d6be b5a0 e4bd
00000150: 4737 5cbc 5ace 79bd 93aa 333f 09db 21be
00000160: 2133 923e 540d 2abd 6ae2 94bd ab7a 05be
00000170: 0f03 793d 6a0a f4bc 227f 99be d738 df3d
00000180: a1b7 03be 57a2 6dbd 868a a8bc a0cb ed3d
00000190: 5ad8 f43d 8446 d6bd 9d1f ebbd f1c1 4e3e
000001a0: 3b86 46ba f727 36be 9616 0a3d 9521 073e
000001b0: 71f1 ffbc 6c81 3cbd 2b94 bb3f 5a59 c0bb
000001c0: f43b 59bb f790 8a3d b578 f3bd be4b 0cbc
000001d0: ce0d a93e 942b 40bd e2cd 3ebe 010b a5be
000001e0: f315 6bbd efa8 e0bd 0095 ce3e d2e0 25bd
000001f0: bfd9 b3be 4d51 bcbd 8037 1d3d 449d 743e
00000200: 9e8a 153e 871a 91bd 50a7 a6bc c1b7 843e
00000210: 745e 943d e331 f8be 8913 123e 119b d7be
00000220: 4d13 5ebe b191 c1bd cab6 1b3e 2c6c d3bc
00000230: 99c0 483e f316 39bd e862 4b3e 7234 473c
00000240: 9af7 b7bb 522d 223d e269 763d a47d 78bd
00000250: 5ced ad3c 74cc a53c eb61 2f3e 3894 003e
00000260: c9f6 3d3e 431b 16be 341d 26bd 6136 163e
00000270: 8372 c53d b246 d6bd eec9 953d 1372 d1bd
00000280: bddf 55bc a949 be3d 3ce0 c93d d6bb 0abe
00000290: 4f14 513d de43 ab3d 5a64 2a3e 842a 24bc
000002a0: b2f3 9cbe f795 e43c ba46 9bbc 59f8 853d
000002b0: 4560 983d 3fe0 363e b082 a2bc 6781 05be
000002c0: 950a cb3e 280c 523e 13d9 ea3c 24ef a7ba
000002d0: 80e7 12bf aab5 c6be b3b9 a3be 1de1 893e
000002e0: 2d21 c83e 8dea de3e 8d9d 183d 5b60 4c3d
000002f0: edb0 22be b84d fd3d 737f 953c 8df7 f03e
00000300: d0bc 08bc ae3e 1d3e 180b 27bf a840 e03e
00000310: 985d 823d 253f 8c3d a13d 643e 6ae1 9dbd
00000320: 661a 953d c19f abbd 570c 8bbc 548e 88bc
00000330: ee11 af3d 690e 7a3d cfcb 8fbc 77e8 aabd
00000340: 665c 18bd 5cc3 ac3d c63a 25bd bb1b 42bd
00000350: 8254 903d c944 b8bd 61c0 9ebd a41c bcbc
00000360: 7a9d 76bd 3e51 513c 6842 50bc 818f 44be
00000370: cf84 66bd efcd ba3d 7be7 303d 8138 c23c
00000380: d366 04be 3efc f3bc 3520 82be 022b c23d
00000390: 175d b1bd 01f0 833d 2cf6 a93d eeee 3dbc
000003a0: a10d 19bf 4909 d23d 0e6a 05bd d472 07bb
000003b0: 9bb6 79bd 6343 8b3d 3f76 883e 8543 b4be
000003c0: 9c9f 683d fa85 483d e42d f53e bb1f a8be
000003d0: 79f9 02be b539 573e 4a44 ac3c 0db4 12be
000003e0: 1d35 2cbe 8000 5bbd 85eb e1bd 2275 b1bd
000003f0: 42a5 0abe 8a66 233f 4914 aa3e 4a08 80bd
0.39038792 0.12839746 -0.16917518 0.031499937 -0.08179734 -0.08403522 0.06262658 -0.04173553
0.3092897 0.057609946 0.37775376 -0.24340442 0.29182065 -0.287828 -0.109020606 0.09674177
-0.076318465 -0.09268717 -0.29083815 0.23980686 0.19998325 0.038468063 0.007919952 -0.18652697
0.34897414 0.020397443 0.1054428 0.08916086 -0.046234593 0.11459024 -0.05493261 0.0075399843
0.02958121 0.016241483 0.10731078 0.10301812 0.092076 -0.084419176 -0.19071886 0.08931352
0.020528685 -0.089843325 -0.1261965 0.040778093 -0.03996072 -0.00063836994 0.03603913 0.0026843923
0.0033585113 0.028551731 0.03839967 0.0054544522 -0.6226127 0.025957786 -0.08781589 0.065157585
0.11483017 -0.04037459 0.23552892 0.020019077 0.25930753 -0.48641962 0.2540652 -0.13122892
0.16468517 -0.36564267 0.20754106 -0.38401198 -0.8306572 -0.11695616 -0.06953406 -0.35803372
0.16396567 0.07037336 0.15630765 -0.45757166 -0.20217863 0.13245448 0.81716835 -0.5521449
-0.21789451 0.1437892 -0.41956943 -0.11163465 -0.0134409135 -0.060987808 0.7018215 -0.15806212
0.28554633 -0.041516617 -0.072697476 -0.13035075 0.060793933 -0.029790122 -0.29979807 0.10899513
-0.12863018 -0.058016147 -0.020573866 0.11611104 0.11955328 -0.104626685 -0.11480639 0.2019117
-0.00075731025 -0.17788683 0.033712946 0.13196404 -0.031243058 -0.046021864 1.4654592 -0.0058700265
-0.0033147307 0.06765931 -0.118882574 -0.00856298 0.33018345 -0.04691656 -0.18633226 -0.32234958
-0.05739398 -0.109697215 0.40348053 -0.04049761 -0.35127065 -0.091951944 0.038383007 0.23888117
0.1460366 -0.07085138 -0.020343453 0.25921443 0.07244578 -0.4847556 0.14265265 -0.42110494
-0.2168705 -0.094516166 0.15206447 -0.025808416 0.1960472 -0.0451879 0.19861948 0.0121585
-0.005614233 0.039594002 0.06015957 -0.060666695 0.021231346 0.020239092 0.17127196 0.12556541
0.18551172 -0.14658837 -0.040555194 0.14669181 0.09640982 -0.10462703 0.07313906 -0.10226836
-0.013053832 0.09291393 0.098572224 -0.13548216 0.05104476 0.08362554 0.16639844 -0.010019902
-0.30654675 0.02790354 -0.018954623 0.06541509 0.07440237 0.1785898 -0.019837707 -0.13037644
0.3965651 0.2051245 0.028667962 -0.0012812358 -0.5738449 -0.38810474 -0.31977615 0.2692956
0.3908781 0.43538323 0.037259627 0.04989658 -0.15887804 0.12368339 0.01824925 0.47063866
-0.008345798 0.15355942 -0.652513 0.4379933 0.06365508 0.06847981 0.22289135 -0.0770901
0.07280426 -0.0838008 -0.016973658 -0.01666943 0.08548342 0.0610489 -0.017553238 -0.083451204
-0.037197493 0.08435699 -0.040339254 -0.047389727 0.070473686 -0.08997495 -0.07751537 -0.022962876
-0.060208775 0.012775717 -0.012711145 -0.19195367 -0.056279 0.0912131 0.043189507 0.023708584
-0.1292985 -0.029783364 -0.25415197 0.09480859 -0.086603336 0.064422615 0.08298907 -0.01159261
-0.5978642 0.10255677 -0.032571845 -0.0020667808 -0.06096516 0.06799962 0.26652715 -0.35207763
0.05679284 0.048955895 0.47886574 -0.32836708 -0.12790479 0.21018107 0.021028657 -0.14326496
-0.16817136 -0.053467274 -0.1103125 -0.086649194 -0.13539603 0.6382834 0.332186 -0.06251581

weight_hh_l0 f4 [128, 128]
00000000: 35be 1ebe 2f47 c03d 48a8 cb3d c4a2 d43d
00000010: d769 193d e89f 8fbd 4f05 0fbd 1172 6bbd
00000020: 06f9 c13d 9df6 e33d 24c6 16be 4b70 753d
00000030: 69ce 02bb beb9 06bc 60d1 7e3d 0c26 b7bd
00000040: fdae 403d e748 0d3e f578 bebc 6363 c33d
00000050: db51 073d cf85 003d 7de7 c5bc 7d81 fcbc
00000060: 2c88 443d 6f88 273d ebe3 0ebd 9e13 bd3d
00000070: f896 7ebc d972 edbd 781f 353d 9198 d83d
00000080: 636b 1a3e 4dd1 3bbd 91c3 91bd 8959 09be
00000090: f564 df3c 1f2d 4abd 4931 febc 6ad8 9b3d
000000a0: c168 2b3e 6d2a b8bc 0f39 86bd ab1f a33d
000000b0: c34e cfbc 42d2 e9bb 0c30 203c 0609 0abd
000000c0: 1ede 453d 21d1 e23d 0600 13bd 6717 2a3d
000000d0: 7161 50bd 39ad 48bd 06b8 6abd 1f6f fabc
000000e0: 035c 733d 3a14 0fbd 0756 b83d 967c b7bc
000000f0: acd2 69bd 07b0 88bd 3c87 babb 207e 4a3d
00000100: 65d2 cb3c 3380 a4bd 0aef eabd 3765 e63d
00000110: e073 aebd fe51 87bd 9ee2 23be 1535 8fbc
00000120: bd98 c83c 42dd 0a3e 0ce3 f63b f7e1 3f3d
00000130: 5d4b b03c c38f b7bc 50b6 473c a285 29bc
00000140: c51b 973d 97fa a6bc dc9b 2e3d d099 a5bd
00000150: a028 233d 2425 883d 2282 80bd 163f a0bd
00000160: eed4 3a3d 52ad 2a3d 95f1 c6bd 10e7 b1bd
00000170: bd9f 413d 0aec f73d 7a7b 1bbd 0650 2fbd
00000180: e180 8fbd 97f1 b53d 9a24 03be 303f 7abd
00000190: e91b 3a3e 7fe5 bdbb 00c9 ad3c 5ef1 d63c
000001a0: c00c 2cbd f64f d03b f3f1 33bb 6c2f 8d3d
000001b0: 7a3a 2e3c 29d4 38bd 6beb 203b a051 593d
000001c0: f739 28bd 806a aa3d 15f0 693b d8ef 893a
000001d0: 67c2 863d 90f0 193d d66e 2d3a d435 52ba
000001e0: 286c 48bc 1c80 cebc a438 1d3d 93a9 fe3c
000001f0: 174b d0bb 0502 42bd 9ce9 0e3d 7de3 9ebd
00000200: 8144 eebd 06c2 693f 4467 34be df54 e1bc
00000210: 460d 1bbe 9d96 7bbd ac8e 92bd 90ee aabd
00000220: af83 863c a346 10bf a66d 193e 8be9 283e
00000230: 442d 393d 272e 46be bf14 13be 5c53 c43e
00000240: 0b52 1bbd b044 9ebd 3042 523e 7567 b83c
00000250: fddd 8dbd b2db de3c ebec afba 1c5b a03e
00000260: 0b21 64bd 2440 243e dde0 14bd a83b 683e
00000270: 3910 aebe 415c e1ba 3aff 98bc c08c 64be
00000280: b3f8 d73d c626 69bd ee90 6d3d a5ab 50be
00000290: 874d 01be 0df7 343e 4079 41bd 8b29 f83c
000002a0: c275 adbe 9084 bf3e 75ea 033e f642 853d
000002b0: 6dcd a03d d9ae 28bd 6933 f7bc 0e30 773d
000002c0: 6563 02be 6df5 9abe f38d aebd ccf1 59be
000002d0: 2e66 0d3c 3526 ce3e 6a4a 893d d591 e5be
000002e0: b260 143c 0367 183e 8dea 073d e909 943d
000002f0: b283 4dbe 376b 14be def0 80be 2bde 343e
00000300: b182 e63d e4f6 713d c890 553e 9714 27be
00000310: 93c5 5b3e 0a70 ab3e 174a ad3d f64b 553d
00000320: 62f9 5b3e af59 753d afc5 aebe c990 653e
00000330: 8e7c 8bbe 7169 b8be 2548 72bd 2e74 60be
00000340: 0f23 423c 7618 cf3d 1c47 5e3d 8510 e73d
00000350: fd35 733b 8cc0 83be 5fcb 33bc 8bbf 58be
00000360: 40f1 be3e 1127 04bd 85b8 0c3c 599d b23d
00000370: 4b5e a9bc 2573 78be c78c 0c3e 3d38 3c3d
00000380: d49b 21be a803 94bd 06c4 f1bd b57b a0be
00000390: 56eb 92bd 7a08 113e 4e3d 9d3d dd7a 24be
000003a0: 9e98 dabd 117f cdbd b89f 9b3d 0c4a 72bd
000003b0: 97f6 edbd 56f6 b1bd 86b2 65bd 5ef8 84bd
000003c0: 5498 8d3d 5a37 63bd fded 573e c91e 1fbe
000003d0: 829b 0f3e d339 44be 0e42 38be 6411 a5bb
000003e0: 9839 773d 69ff 0c3d 3fd7 07be 17a3 273e
000003f0: 5b40 76be 1517 0e3e 3be6 b63d 6edd 613e
-0.15502246 0.09388577 0.099442065 0.103826076 0.037454452 -0.070129216 -0.034917172 -0.05748183
0.094713256 0.11131022 -0.14724022 0.059921544 -0.0019959456 -0.008222995 0.062211394 -0.08942804
0.04704188 0.13797341 -0.023251036 0.09540441 0.033037048 0.03137761 -0.024158234 -0.030823464
0.047981426 0.040901598 -0.03488533 0.09232257 -0.015538923 -0.11594171 0.044219464 0.10575975
0.15080027 -0.0458539 -0.071173795 -0.13413061 0.02726982 -0.049359437 -0.03102936 0.07609637
0.16739179 -0.022481168 -0.06553852 0.079650246 -0.025306111 -0.0071356604 0.00977708 -0.03370001
0.04830753 0.110750444 -0.035888694 0.041526224 -0.050874177 -0.048993323 -0.057304405 -0.030570565
0.05941392 -0.0349314 0.090007834 -0.022398274 -0.057085678 -0.066741996 -0.0056923907 0.04943669
0.024880597 -0.080322646 -0.11471374 0.11249774 -0.08518195 -0.06607436 -0.16004416 -0.017481366
0.024486894 0.13560966 0.0075343903 0.046846356 0.021520311 -0.022407418 0.012189463 -0.010346802
0.073783435 -0.020383162 0.042629108 -0.08085978 0.039833665 0.06647709 -0.06274821 -0.07824533
0.04561322 0.041669197 -0.09714047 -0.0868665 0.04727148 0.12105568 -0.037959553 -0.042800926
-0.070070036 0.0888397 -0.12806931 -0.061095417 0.1817471 -0.0057951803 0.021214008 0.02623814
-0.042004347 0.0063571883 -0.0027457445 0.06893811 0.010634059 -0.045124207 0.0024554383 0.05305636
-0.041070905 0.083210945 0.0035696079 0.001052375 0.06580048 0.037582934 0.0006615942 -0.0008018885
-0.012232818 -0.025207572 0.038384095 0.031086719 -0.0063566077 -0.047365207 0.034890756 -0.07758234
-0.1163416 0.9131168 -0.17617518 -0.02750629 -0.15141782 -0.061422933 -0.07156119 -0.083462834
0.016420214 -0.56357783 0.14983234 0.1649534 0.045209184 -0.19353543 -0.14363383 0.38344848
-0.03792004 -0.07727945 0.20533061 0.02251027 -0.069271065 0.027204368 -0.0013422047 0.3131951
-0.055695575 0.16040093 -0.03634726 0.22679007 -0.33996752 -0.0017193632 -0.018676389 -0.22319317
0.105454825 -0.056921743 0.057999544 -0.20377977 -0.1262723 0.17672367 -0.047234774 0.030293247
-0.33878905 0.37405825 0.12882407 0.065069124 0.07851682 -0.041182373 -0.030175881 0.060348563
-0.12733229 -0.3026537 -0.085231684 -0.21283644 0.008630319 0.40263525 0.067036465 -0.44837824
0.009056257 0.14883046 0.03318267 0.07228453 -0.20069769 -0.14494024 -0.25183767 0.17662875
0.11255396 0.059073344 0.20856011 -0.16316448 0.21462087 0.33483917 0.08461397 0.052074395
0.2148185 0.059899982 -0.34135196 0.22418512 -0.27243465 -0.36017945 -0.059150834 -0.21919319
0.011849179 0.101120874 0.054267034 0.11282448 0.0037111037 -0.2573284 -0.01097378 -0.21166818
0.37293434 -0.03226382 0.008588915 0.08721418 -0.020674845 -0.24262674 0.13725577 0.04595207
-0.157821 -0.0722726 -0.11804967 -0.3134438 -0.07173793 0.1416339 0.076777086 -0.16062494
-0.10673641 -0.100340016 0.07598823 -0.059152648 -0.11619299 -0.08689563 -0.056078456 -0.06492685
0.0691382 -0.05547271 0.21086879 -0.15539087 0.14024165 -0.19162683 -0.17993948 -0.0050374735
0.06035766 0.034423266 -0.13265704 0.16370808 -0.24047987 0.13875993 0.08930632 0.22057125

bias_ih_l0 f4 [128]
00000000: 2672 a43c b96c a6be ef1c 5d3d 50b7 d2bc
00000010: ba6e 143d aed6 2cbc adad a83d 7efa 5a3c
00000020: aac8 3cbd 7c09 8bbc e4bf 9cbd 7e6e b2bd
00000030: 1639 96bc 51c8 90bd 5b30 193d 7d03 9e3c
00000040: 80cb a0bd 3156 1bbd c808 ae3d 19d6 5e3d
00000050: ed8a 97bc 342b 2e3d ac47 88bc d560 c1bb
00000060: 4f00 13be 7032 aa3d fd46 703c 662c bb3c
00000070: c362 b6bd 378f 64bd ef60 15bd 27af ac3c
00000080: 0f17 823c e2e8 0f3d 6f5c 44bd e52c aabc
00000090: 9c6b 0ebd e58d 403d d656 4fbc cfe9 bc3d
000000a0: 6188 8c3c f0d2 9d3d abdc c9bd 53e4 073c
000000b0: da5a 333d 6fc1 d63c 1542 49bd 3664 d33c
000000c0: 9419 9f3d 674b 113e 0785 3e3d 2ef7 4dbc
000000d0: 0e33 443d ee05 6a3d 2999 4d3d 77b1 cbbd
000000e0: 676a 51bd 5bde fabc ac35 ca3c 3594 da3d
000000f0: aba5 863d c835 82bb 6667 d23b 933c b0bd
00000100: eceb 7bbd 0062 d2bc 5d56 33bd d590 18bd
00000110: 3cc1 33bc 4f97 0ebb dd96 bcbd d95d bf3d
00000120: 86ac 8d3d 31c5 873c ff7e 2e3d 15e8 cd3c
00000130: 8610 cbbd b76a d03d 5146 dcbd 6fde 70bd
00000140: a99d b1bc ee7c 49bd 8ab7 15bd dd4f 833d
00000150: e967 dcbb e163 3cbd f63e 973d ca50 0c3d
00000160: d697 d63d eec3 e4bc da1a a63d fdac bebd
00000170: 0724 b9bd e20b e33c 9652 66bd dc11 813d
00000180: 3df8 29bd 744c c63c 1aee 323e e3c1 97bd
00000190: 46c4 83bd 2757 ecbc 1dad 173d a8dc b3bc
000001a0: e038 4d3d 780b 2ebd dbba e5bc 24fe 9e3c
000001b0: 8400 b8bc cede 3f3d 94fb 7abd d9b8 8abc
000001c0: f8f0 c5bd 948e 393b f464 443d e565 09bd
000001d0: 6173 c8bc 3d75 fb3a 5470 edbc a55a 7c3d
000001e0: ee2b 27bb ecbc 983c f5a5 aa3c 2312 eebc
000001f0: 2268 c4bd c09f c83c 88da 94bd fa9b a03d
0.020073961 -0.32504824 0.05398267 -0.025722176 0.03623841 -0.0105492305 0.08236251 0.013365386
-0.046089806 -0.016972296 -0.07653788 -0.08712481 -0.018337768 -0.07069457 0.03739963 0.019288773
-0.078513145 -0.037923995 0.08497769 0.0544034 -0.018498862 0.04252167 -0.016635738 -0.005901436
-0.14355586 0.083104014 0.014665362 0.02284832 -0.08905556 -0.055800643 -0.036469396 0.021079613
0.015880136 0.035134204 -0.047939714 -0.02077336 -0.034770593 0.04701032 -0.012654981 0.09224283
0.017154874 0.07706249 -0.09856542 0.008294183 0.043787815 0.026215283 -0.049135286 0.02580462
0.077685505 0.1418892 0.046513584 -0.012571139 0.047900252 0.05713456 0.050194893 -0.09945958
-0.051126864 -0.030623605 0.024683796 0.106727995 0.065745674 -0.0039736964 0.0064210175 -0.086053036
-0.06150429 -0.025681496 -0.043783534 -0.037247498 -0.010971364 -0.0021757667 -0.092084624 0.09344072
0.06917672 0.01657352 0.04260158 0.02513508 -0.09915261 0.10176604 -0.10755599 -0.05880588
-0.021681624 -0.049191408 -0.03655199 0.06411717 -0.0067262542 -0.04599369 0.07385056 0.034256734
0.10478179 -0.027925458 0.0811059 -0.09310339 -0.09040075 0.027715627 -0.056231104 0.063022345
-0.041496504 0.024206378 0.17473641 -0.07410028 -0.064339206 -0.028850151 0.037030328 -0.021955803
0.05010307 -0.042491406 -0.028043201 0.019408293 -0.022461183 0.046843342 -0.06127508 -0.016933845
-0.09665102 0.0028313743 0.04794784 -0.03354444 -0.02446908 0.001918472 -0.028984226 0.061609883
-0.0025508362 0.018644772 0.020831088 -0.029061383 -0.09590174 0.024490237 -0.07268244 0.0784225

bias_hh_l0 f4 [128]
00000000: 9133 61bd 2e17 a5be 15b3 46bd 7a08 cfbc
00000010: b17f bebd fa8c 0ebd 132f 213d 4e96 f53c
00000020: 4c76 9e39 b2fb 08bd 0cd7 6f3c 1625 1a3d
00000030: e772 debc 13ce 46be 5413 04bd fb76 7b3d
00000040: 80ca 2f3d 1b29 e93c 32a3 81bc 949d 933a
00000050: c02d b23a 9128 863d b71f 10bd 5c86 903d
00000060: c65d dfbc 6bfc a73d afe0 5cbd c277 70bb
00000070: 5271 49be 2b27 f0bd a7f5 5abc b638 fcbd
00000080: fb2d a9bc 7074 f439 4d0b 663d 3f0b 173d
00000090: bb0f 74bd 0548 33bd 1b88 b1bd 8301 ddbc
000000a0: d749 0b3e 1ede 74bc 1ebb 98bc f541 2ebd
000000b0: be41 b3bc 1278 8f3d 5701 c63c e652 12bd
000000c0: c078 243d f751 0d3d 64a4 f5bd d38f 793d
000000d0: 0d5b f63d 3ecc 2a3c af98 263c 4267 693d
000000e0: e879 0fbd 716b 40bb b289 6fbc 9d4a 25bc
000000f0: b0c5 b1bc c4b1 2abd a309 443c 3efb a9bd
00000100: aa80 393d 7722 71bd 6e0c 6d3c 9458 383d
00000110: 7a93 60bd 2e45 9b3b 094c 6cbe 4efb 3ebd
00000120: b7b9 a43b 6bd3 a4bb 3035 9fbc 3812 0f3d
00000130: 44e4 1ebe d292 c73d 6fa8 8a3c 84c6 2c3d
00000140: aaf6 de3d 7b8d 49bd 9ba5 753d 982c 78bb
00000150: 11a3 84bb 5689 91bc 1018 b2bd c87e 13ba
00000160: adfb 883d 9a0f a03d 9ccf fdbb a2c5 fdbc
00000170: 5001 aabd 4f70 d13d 8c73 d3bd 8915 4abd
00000180: 9738 08bc 0cbc 25bc 7924 cb3d affe d0bd
00000190: 0411 b4bc b0a3 1dbe 7c4c 683d 7f85 debc
000001a0: f1e1 973c efc0 473d 4ba2 6b3c 5e11 183d
000001b0: 3bfe a23d dadc 0dbc 72ba 1a3b dac7 39bd
000001c0: cd14 bcbc 3ca0 f03b 7588 7f3c 9b5f f8bc
000001d0: aaec ec3b 5e98 8fbd 0a76 813d 2845 703d
000001e0: 3831 8ebd 486f bc3b 87ac c9bd 6c7e 6f3d
000001f0: 0a1b 333c 6209 263c ae2e dc3c 8b15 1a3e
-0.05498082 -0.32244247 -0.04851063 -0.025272597 -0.09301699 -0.034802414 0.039351534 0.029978897
0.00030224246 -0.03344316 0.0146386735 0.037633024 -0.0271544 -0.19414549 -0.032244995 0.061392765
0.04291773 0.028461983 -0.015824888 0.0011262172 0.0013593957 0.06550706 -0.035186496 0.07056877
-0.027266394 0.08202442 -0.053925212 -0.0036692475 -0.19672135 -0.11726221 -0.013364232 -0.12315504
-0.020651808 0.0004662606 0.05616312 0.03687596 -0.059585314 -0.043769855 -0.08668538 -0.02697826
0.13602386 -0.014945535 -0.018643912 -0.04254337 -0.021881934 0.070053235 0.02417056 -0.03572359
0.04015422 0.034501996 -0.11994246 0.060928177 0.12029085 0.010424672 0.010168239 0.05698324
-0.03502837 -0.0029360915 -0.014620231 -0.01008859 -0.02170071 -0.041673437 0.011965188 -0.08299874
0.04528872 -0.05887076 0.0144682955 0.04500635 -0.054828145 0.0047384715 -0.2307588 -0.04662638
0.0050270217 -0.005030086 -0.019434541 0.034929484 -0.15516764 0.097448006 0.016926019 0.042181507
0.10886891 -0.049207192 0.059972387 -0.0037868377 -0.0040477593 -0.017765682 -0.08695996 -0.0005626497
0.06688628 0.07815476 -0.007745696 -0.030978028 -0.083010316 0.10226499 -0.10324773 -0.049336944
-0.008314273 -0.010115635 0.09919066 -0.10204827 -0.02198077 -0.15394473 0.056713566 -0.027163265
0.018540354 0.04876798 0.014381955 0.037125938 0.07958647 -0.008658612 0.0023609665 -0.04535661
-0.022959137 0.00734332 0.015596499 -0.030319026 0.007230361 -0.070114836 0.06321342 0.058659703
-0.069429815 0.0057505704 -0.0984736 0.058470175 0.01093174 0.010134073 0.026877727 0.1504728

weight_ih_l1 f4 [128, 128]
00000000: 40c4 563b 3a27 adbd 39f9 833d 8b26 8a3d
00000010: f4ea 9ebc 953d 8f3d 80de c63c dc5a 75bd
00000020: 4133 65bd 3046 bf3c 1ccd a33c 2020 0d3d
00000030: c613 7c3d ad41 813d fdd5 873d f2c0 5c3d
00000040: 3a2a 37bd d14e a03d d640 3e3d 6a34 463d
00000050: 8425 053d 80c9 4c3c 98bd c1bc a8dd 883c
00000060: f6db 6b3d cc0c 98bc 001b 42bd 3991 a3bd
00000070: 2d68 b4bd 129e 333d 8043 6d3c 7bbb 31bd
00000080: 4922 b23d 605c 63bb 35ca 8a3d 42ed 543d
00000090: ea46 1a3d bdf5 8c3d be3a 733d 2056 013b
000000a0: b4e2 aebd 8d91 80bd 5411 d33c b0f7 54bc
000000b0: 308f e63b a8e0 ae3c d637 543d cf44 813d
000000c0: d04e 04bc 48d1 e3bc 6669 4c3d 8482 cbbc
000000d0: 3d64 1fbd 3e8d 9abd 5ccc 043d 8e49 e4bc
000000e0: 14f2 34bd 52a4 4f3d e4b7 cfbc 00a0 29ba
000000f0: a096 923b bf56 aebd 488d 89bd e0e1 ef3c
00000100: 584c 4ebc a4ef 2dbd c1a5 9d3d 4661 743d
00000110: 3c1d 153d 3aae 2cbd 54d3 76bd 3d91 30bd
00000120: 3c49 b8bc e410 893c e028 b7bc 1ce1 813c
00000130: 27d7 aa3d 0054 d1b8 c746 a8bd 8b6e 28bd
00000140: 5285 7a3d 98ac 24bc 92f8 733d 5c9b bfbc
00000150: e494 50bd ba0a 663d db88 923d f044 9dbc
00000160: 56a1 27bd 878a ac3d 4fdc 883d d0ea 70bc
00000170: 1048 f43c 3c01 73bd e0bb 07bb 2648 2ebd
00000180: 9033 b0bd aa7e e7bc 98a1 51bc 80ac d5bc
00000190: 4634 103d e86a 94bc c056 713b d045 98bb
000001a0: 328c ffbc 3818 c23c e2f3 1a3d 206c a0bb
000001b0: 935b 83bd 0034 e8b9 6c3a aabc e8fd 923c
000001c0: 16fb 40bd 746a b83c cc3d 28bd 083b c7bc
000001d0: 802d 3e3b 0070 abba 7b1f 9c3d afc4 68bd
000001e0: b950 a9bd 645b 03bd 7cad 9fbc 00b8 3238
000001f0: 2a05 8bbd 7aa0 373d 945e 19bd 1565 9c3d
00000200: 2d9f 953d aa11 6f3d 1eac 563d 3045 bd3c
00000210: d530 a53d c4e5 8abc dc74 c13c 00ff ac3b
00000220: e0ad 813c 40f1 863b eb94 a3bd 3fa9 b43d
00000230: 9bdf 9dbd 4223 11bd 380a a53c 15a3 a93d
00000240: c0c5 3a3c a6ba 473d f0d5 0a3d 6468 df3c
00000250: d4c0 953c 1702 b23d 4ce7 c93c 8241 3bbd
00000260: 6f41 a43d 5d3e 47bd c27e abbd 72b6 17bd
00000270: 7441 c0bc e853 0ebd b871 da3c bc74 0e3d
00000280: dc4b 52bd 98c3 3fbd 70ad f2bb db4f 85bd
00000290: 7694 4e3d 44bf 5cbd 4d94 9e3d e000 6e3b
000002a0: c07a dfbb b831 a0bd 3053 963c 38d3 4abc
000002b0: b609 46bd 38cd cd3c 13dd ae3d 982b e83c
000002c0: 7cd2 09bd 4d1f 8bbd a071 d63b c1ce a13d
000002d0: 9755 a43d c0d5 0bbb fc0b ffbc ce00 233d
000002e0: a0f5 f13c dacb 6a3d 9023 6b3c 809f 47bd
000002f0: 5660 363d ec22 123d 20d2 47bc fe6f 753d
00000300: b5a3 39bd 5883 7bbc 96bb 2d3d 1fb5 ac3d
00000310: fc39 f4bc fe9f 9bbd 004d 263a f648 77bd
00000320: 7cf0 93bd d2ef 9ebd 9032 063d f6da 723d
00000330: d36c 9f3d 23a9 9b3d 3c1a 94bd 1cbc 84bd
00000340: 4ade 3d3d a2a2 5c3d 64b3 9a3c 2878 24bc
00000350: e04c e3bb ed41 09bd 7871 c6bc 6a44 6dbd
00000360: 50c3 23bc 58e6 583c 7bb7 12bd 2882 32bd
00000370: 3347 99bd 136d 8f3d 9880 48bd b67c 203d
00000380: 394a 0bbd 4646 713d c8a7 14bc 8ba5 a6bd
00000390: 9ec2 753d 371b 61bd 7651 a0bd 6043 263c
000003a0: 108d e73c 1784 9abd c0a8 f2bb 7ee7 6d3d
000003b0: fe3b 0bbd f0c4 b83c beea 19bd fda2 993d
000003c0: 2390 903d 53c8 8e3d 8e8f 313d 50d3 bebc
000003d0: 13d3 41bd 10c1 86bb ccbf 043d 72d0 113d
000003e0: bda2 a93d 627f 2c3d 8040 193a de89 2d3d
000003f0: b087 573c bada 723d 30e5 103d a0f5 b3bb
0.0032770783 -0.084547475 0.0644402 0.06745633 -0.019399144 0.06994168 0.024276018 -0.059901103
-0.055957083 0.023348898 0.019995265 0.034454465 0.061542295 0.06311355 0.06632612 0.053894944
-0.044718005 0.07827533 0.04644855 0.04838983 0.03250648 0.012499213 -0.023649976 0.016707256
0.057582818 -0.01856079 -0.04738903 -0.079866834 -0.088089325 0.04385192 0.014481425 -0.043391686
0.086979456 -0.003469251 0.06776849 0.05198408 0.037665285 0.06882808 0.059382193 0.0019735172
-0.08539334 -0.062777616 0.025765099 -0.012998506 0.0070361122 0.021347359 0.05181106 0.06311952
-0.008075431 -0.027809754 0.049905203 -0.024842508 -0.038913954 -0.07546471 0.032421455 -0.027867105
-0.044176176 0.050693817 -0.02535624 -0.000647068 0.0044735223 -0.08512639 -0.067164004 0.02928251
-0.012591444 -0.042464867 0.07697631 0.05966308 0.036404833 -0.042158343 -0.060260132 -0.04310726
-0.022495858 0.016731687 -0.022358358 0.01585441 0.08341818 -9.981543e-05 -0.08216625 -0.041121047
0.0611623 -0.010050915 0.059563227 -0.02338951 -0.050923243 0.056162573 0.07155009 -0.019197911
-0.040925346 0.084248595 0.066826455 -0.014704421 0.029819518 -0.05932735 -0.0020711347 -0.042549275
-0.08603585 -0.02825864 -0.012794875 -0.026083231 0.0352061 -0.018117383 0.0036825389 -0.004646994
-0.03119478 0.023693189 0.03783024 -0.004895702 -0.06413951 -0.0004428923 -0.02077981 0.017943338
-0.047114454 0.022511698 -0.04107456 -0.02432014 0.002901882 -0.0013079643 0.07623192 -0.056828197
-0.0826735 -0.03206958 -0.019491903 4.260987e-05 -0.06788094 0.044830777 -0.037443712 0.07636467
0.07305751 0.058366455 0.052410237 0.02310428 0.080659546 -0.016955264 0.023615293 0.005279422
0.01582998 0.0041181147 -0.07987388 0.08821344 -0.07708665 -0.035434015 0.020146474 0.082830586
0.011399686 0.048761986 0.033895433 0.027271457 0.018280424 0.08691805 0.024646424 -0.04571677
0.08020293 -0.04864346 -0.083737865 -0.037039228 -0.02346871 -0.034747988 0.026665553 0.034779295
-0.051341876 -0.046817392 -0.0074059293 -0.06509372 0.050434552 -0.053893343 0.0774313 0.003631644
-0.006820053 -0.07821983 0.018350214 -0.01237946 -0.048349105 0.02512227 0.0853826 0.0283411
-0.033648 -0.067930795 0.006544307 0.07900763 0.080241375 -0.0021337122 -0.031133644 0.03979569
0.029536068 0.057323314 0.0143517405 -0.048736095 0.044525467 0.035677835 -0.012196094 0.059921257
-0.04532214 -0.015351139 0.042415224 0.084329836 -0.029812805 -0.075988755 0.00063438714 -0.060372315
-0.07223603 -0.07760586 0.032763064 0.05929085 0.077844284 0.0760062 -0.07231566 -0.064811915
0.04635457 0.053866036 0.018884368 -0.010038413 -0.0069366544 -0.033510137 -0.024224028 -0.057926573
-0.009995297 0.013238512 -0.03581951 -0.043581158 -0.07484283 0.07003226 -0.04895076 0.039181434
-0.03400633 0.05890491 -0.009073205 -0.081370436 0.060000055 -0.054957595 -0.078280374 0.010147899
0.028265506 -0.075447254 -0.0074053705 0.058082096 -0.03399276 0.022554845 -0.037577383 0.07501791
0.07058742 0.069718026 0.043349795 -0.023294121 -0.047320437 -0.0041123703 0.032409474 0.03559918
0.08282993 0.04211367 0.0005846098 0.04236781 0.013154909 0.059290625 0.03537482 -0.0054919273

weight_hh_l1 f4 [128, 128]
00000000: be6c 663d c0af aabc 404d f0bb 7d77 ad3d
00000010: 28fe 903c 1fc2 b2bd 1a3c 733d 8894 8bbc
00000020: 00f7 8dbd c0c5 e83c f9cf b2bd 78f1 a23c
00000030: 78d9 9ebd da4f 2c3d dcb6 3abd bf37 b03d
00000040: ec76 ccbc 90db 1dbc 2824 9ebd 145c 37bd
00000050: 38ed 963c cf3f 893d 7eda 653d b1d2 8c3d
00000060: 36a0 fbbc 6ba7 90bd 106b 293c f0f5 83bb
00000070: d4bc 55bd 44c6 33bd d1f8 45bd d0b6 cdbc
00000080: 3be1 8dbd 5e8c 683d ae65 023d b78f 4bbd
00000090: a0ad ca3b bbf5 883d 0f06 853d 0ad6 f3bc
000000a0: fb24 8d3d 20fc 8fbc 28ba 17bc 9fb8 4ebd
000000b0: af6c a83d 2cb7 07bd 824b 453d d052 043d
000000c0: e887 3e3c 9b02 09bd 459d 0cbd a72d 24bd
000000d0: 50c0 f93b 9028 c8bb c6f2 86bd b6be 00bd
000000e0: 0272 583d a6ae 87bd a0b9 0c3c f3fc 8e3d
000000f0: 7736 8c3d f916 ae3d 5617 5d3d a994 8b3d
00000100: cc29 8c3c 86bf 6a3d 7bfc 8dbd c0d0 d3bb
00000110: b3fd 8b3d 277c 943d 4c88 a73c df09 87bd
00000120: 32d9 453d b5de 3fbd 7881 9fbc 0052 c4ba
00000130: 6826 d63c c8f6 cdbc abbe a43d fbf8 aebd
00000140: e048 26bc b0a6 a83b c639 7abd 9ce1 c9bc
00000150: 462d 94bd e090 cc3c 62b0 593d cd77 52bd
00000160: 9613 4dbd c792 9b3d 8d7f 873d 8265 413d
00000170: ad4b a83d 1ad2 f3bc 3ec2 40bd 0b95 8cbd
00000180: ef4c 41bd a56f 9c3d 58b4 963c 35e5 a73d
00000190: 3ab3 2a3d aefd 21bd 3847 d83c 2c77 003d
000001a0: 8004 5cbd e803 773c 649d d43c 003f dabb
000001b0: eac4 073d fc15 c13c e0a0 18bc d2b0 133d
000001c0: aae6 34bd fe0f f1bc 3deb 47bd a845 d2bc
000001d0: 80f0 313a fac0 47bd 4bb5 88bd 2af1 88bd
000001e0: 4092 d03b 45d5 39bd 4360 963d a05b 333b
000001f0: ad29 94bd 30f0 9ebd e64f 203d 517a b03d
00000200: 957c 72bd a91c b1bd 60ef 9dbd a046 c8bb
00000210: 1681 373d f21d 083d 5a5d 5c3d 7d48 18bd
00000220: e6b3 603d 3f15 89bd 6864 98bd e019 74bb
00000230: 3250 543d 16d2 283d a5e4 a13d 8aef 053d
00000240: c53f 29bd bf62 88bd e4fe 82bc 4d55 ad3d
00000250: 7f22 b43d a0aa 2d3c 9fca b13d b2c8 80bd
00000260: 821e 333d 4ff8 9c3d e442 cabc 5267 95bd
00000270: e749 a83d 90cd 6abc b4d5 b9bc d885 cd3c
00000280: a402 5fbd ecb0 e5bc d20d 2dbd ced8 1ebd
00000290: c629 a0bd c08f b83a 48b6 afbc 4ef3 2f3d
000002a0: 47a6 a33d c07f 9bba 8aba 393d c8ad 98bd
000002b0: 0e33 5fbd f20f 103d 78d3 0b3c 1c5b ea3c
000002c0: 4829 6c3c aa93 7d3d 38ea cc3c 2544 a43d
000002d0: 7daa 8abd 4c68 86bd 0cf5 b4bc a664 7c3d
000002e0: fb1d 38bd b0d4 f4bb 80de d1bb e076 2fbc
000002f0: ea2a 4f3d 159d 4dbd 2c41 b93c bc68 c3bc
00000300: 0577 8abd eeb2 013d 307d b63b c089 11bb
00000310: 3e09 d6bc 50e6 a3bd e7f5 a6bd c6bf 7c3d
00000320: e479 9f3c 3465 8a3c c421 8ebd 085f db3c
00000330: 4f18 81bd 1cb7 2abd 3f00 58bd e0d8 143c
00000340: 98a0 c03c 008e 4d39 9d1d 06bd 00a2 8b3a
00000350: 5c09 e23c 35c7 aa3d f061 a93c 30d6 94bd
00000360: 0cff d6bc 8b65 af3d c07e a5bc 7c46 bb3c
00000370: 5a63 5f3d 36af 2d3d d809 fe3c acdd 71bd
00000380: 641f 963c d051 66bd cc88 1dbd d21a 01bd
00000390: 8b01 803d 75d4 b33d 4281 383d 156c 9ebd
000003a0: db3b a7bd 26e9 603d 3887 9f3c 3522 aa3d
000003b0: 7f1d 92bd 6394 b4bd 80ba 513c c6e2 88bd
000003c0: b668 0c3d abc7 9dbd 6aa5 523d 9065 fb3b
000003d0: 00b9 adbd f5d8 03bd 908e a8bd f813 bb3c
000003e0: 7002 ca3c c418 83bd f672 2d3d e5dc aabd
000003f0: 855d 813d c152 8d3d ce45 293d 5cd0 9bbc
0.05625605 -0.020835757 -0.0073334277 0.08470056 0.017699316 -0.08728432 0.05938349 -0.017038599
-0.06931877 0.028414607 -0.08731074 0.019890532 -0.077563226 0.04206834 -0.045584545 0.08604383
-0.02495905 -0.009634867 -0.0772174 -0.044765547 0.018423662 0.06701624 0.056116574 0.06876124
-0.030716043 -0.070631824 0.010340467 -0.004027121 -0.052182034 -0.043890253 -0.048332993 -0.025111586
-0.06927725 0.05677449 0.03183525 -0.049697604 0.0061852485 0.06687494 0.06495296 -0.029765148
0.06891819 -0.017576277 -0.009260692 -0.050469037 0.08223855 -0.03313367 0.048167713 0.03230554
0.011629082 -0.03344975 -0.03432967 -0.0400826 0.0076218024 -0.006108351 -0.06589274 -0.031431876
0.0528431 -0.066251084 0.008589178 0.0698184 0.06846326 0.085004754 0.053977333 0.06815464
0.017109774 0.057311557 -0.069329225 -0.006464094 0.06835499 0.07250243 0.020450734 -0.0659368
0.048302837 -0.04684325 -0.019470915 -0.0014978051 0.02614136 -0.025142089 0.080441795 -0.08543583
-0.010149211 0.005146824 -0.061090253 -0.024643712 -0.07235198 0.024971426 0.053146727 -0.051383782
-0.050067507 0.07596355 0.06616125 0.047215946 0.08217559 -0.02976327 -0.047060244 -0.06864365
-0.04719251 0.07638482 0.018396541 0.08198015 0.04167483 -0.03954857 0.026401147 0.03136365
-0.05371523 0.015076615 0.025953956 -0.006660342 0.033146776 0.023570053 -0.009315699 0.0360573
-0.04416529 -0.029426571 -0.048808325 -0.02566798 0.00067878515 -0.04876802 -0.06675204 -0.066866234
0.0063650906 -0.045369405 0.07342579 0.0027367845 -0.072345115 -0.07760656 0.039138697 0.0861708
-0.059200842 -0.086480446 -0.07711673 -0.006111935 0.04480084 0.033231683 0.053799964 -0.037178505
0.054859065 -0.066935055 -0.07441026 -0.0037246868 0.051834293 0.04121598 0.079049386 0.032699145
-0.04132058 -0.06659459 -0.015990682 0.084635355 0.08795642 0.010599762 0.08681225 -0.062882796
0.043730266 0.076645486 -0.024690099 -0.072950974 0.08217221 -0.0143312365 -0.02268491 0.025088236
-0.054445878 -0.028038464 -0.04224951 -0.03878098 -0.07820468 0.0014080927 -0.021449223 0.042956643
0.07990699 -0.0011863634 0.045343913 -0.07455021 -0.05449205 0.035171457 0.008534305 0.028607897
0.014414139 0.0619084 0.025014028 0.0802081 -0.06770799 -0.06562862 -0.022089504 0.061619423
-0.044950467 -0.0074716434 -0.006404698 -0.010709494 0.050578035 -0.050198633 0.022614084 -0.023853652
-0.067609824 0.03166478 0.0055691227 -0.002220735 -0.026127454 -0.08002913 -0.08152371 0.061706327
0.019467302 0.01689396 -0.06940034 0.026778713 -0.063034646 -0.041678533 -0.05273461 0.00908491
0.023514077 0.00019603223 -0.032743085 0.0010653138 0.027592354 0.08338777 0.020676583 -0.072674155
-0.026244663 0.0856429 -0.02020204 0.022860758 0.05453811 0.042403422 0.031010553 -0.059049293
0.018325515 -0.056230366 -0.038460538 -0.03151972 0.06250294 0.08780757 0.045045145 -0.07735459
-0.081657134 0.054909848 0.019473657 0.08307306 -0.07134532 -0.08817365 0.012800813 -0.066838786
0.034279548 -0.07704099 0.051427282 0.0076720193 -0.084825516 -0.03218933 -0.08230317 0.02283667
0.024659365 -0.06401208 0.042345963 -0.083429135 0.063166656 0.0690055 0.041326337 -0.019020252

bias_ih_l1 f4 [128]
00000000: 69cb 64bd 70ac 0e3d 98cc 01bd 603b 05bc
00000010: 6c6d 82bc ba0e a2bd a2d5 aebd 80a1 3fba
00000020: 1fc7 89bd 48ef 1e3c a25b 2c3d ab67 91bd
00000030: 1764 8dbd 8fa2 ab3d b07d 88bb cc39 e43c
00000040: 195b 0abd 5d65 8bbd 587a 16bc dbba 0abd
00000050: 47cc 76bd 70ec c53c e301 3cbd 00b6 ceb9
00000060: 7739 af3d c00c c2bb 0ec7 3fbd b405 76bd
00000070: e6c4 583d 4e65 a5bd 76f9 313d 562c 223d
00000080: dd74 30bd 6ae3 653d a759 9d3d 1f00 a43d
00000090: 5ad3 553d 3267 0b3d 89ec 09bd be7e 103d
000000a0: a4d5 b9bc 737a 933d 581b 14bc 5440 063d
000000b0: 3016 5dbc 7fcd 8b3d dc41 35bd b06e db3c
000000c0: 629c 203d 2220 75bd db53 7fbd 9b97 943d
000000d0: 1e81 b0bd 96a1 8dbd 4665 453d 66c9 313d
000000e0: 26b8 163d 6053 41bd a098 73bb 39fe a8bd
000000f0: 42ce 633d d0dd a6bb 1600 5d3d 2ba4 a53d
00000100: 80ed 403a f072 8d3c c62f 74bd 755f 893d
00000110: a088 f13c 6a30 283d 3f8b 99bd 1886 16bd
00000120: b6e5 17bd 780e 98bd 7176 923d 66fa 143d
00000130: 0176 963d f2e9 4a3d ea01 663d f382 b13d
00000140: c3aa 40bd a993 3abd b899 04bc 708a 933b
00000150: 2282 333d 922b 8abd fab3 7bbd 5e38 e4bc
00000160: 5a30 95bd 44ed 813c c887 45bc 007c 86b8
00000170: 3a8d 5ebd b014 4c3c 5401 083d 4049 0bbd
00000180: d38b b23d d32a 9c3d ae86 473d 1c61 6fbd
00000190: 660f 343d 4022 acba 902b 033d 5b1e 9c3d
000001a0: a26a 383d 7a0f 1f3d 80e7 303c 2311 b33d
000001b0: 7fed 14bd 15bc 43bd f41d 95bd 7bbc 06bd
000001c0: 3ec5 56bd 0050 d439 78b3 c13c fad9 6b3d
000001d0: 410a 92bd 03a0 68bd 86df 3d3d 5647 693d
000001e0: 5172 8a3d d8c7 3ebd 6422 94bd 90a0 283c
000001f0: ad2f ab3d cec8 d9bc d83f 9ebd 29c0 933d
-0.05585805 0.034832418 -0.031689256 -0.008131832 -0.015921317 -0.07912965 -0.08536841 -0.0007310137
-0.067274325 0.009700604 0.042079575 -0.07099851 -0.06903856 0.08380615 -0.0041653737 0.027859591
-0.033778284 -0.06806443 -0.009184442 -0.033869606 -0.060253408 0.024160594 -0.045900237 -0.00039426982
0.085558824 -0.00592193 -0.046820693 -0.060064033 0.052922152 -0.08075963 0.043450795 0.039593063
-0.0430802 0.056125082 0.076831155 0.080078356 0.052203514 0.03403396 -0.033672843 0.03527712
-0.02268488 0.0720109 -0.009039722 0.03277619 -0.013494059 0.06826305 -0.04425226 0.026786178
0.03921164 -0.059845097 -0.06233583 0.07255479 -0.08618377 -0.06915586 0.048192285 0.04340496
0.03679671 -0.047198653 -0.003716983 -0.08251614 0.055616625 -0.00509236 0.05395516 0.08087953
0.0007359609 0.01726672 -0.059615873 0.0670766 0.029484093 0.041061796 -0.07497262 -0.036748976
-0.037084304 -0.07424635 0.07151497 0.03637161 0.07346726 0.049539514 0.05615417 0.08667555
-0.04703785 -0.045550976 -0.00809329 0.004502587 0.043825276 -0.06746592 -0.061450936 -0.02785891
-0.07284613 0.015860207 -0.012056299 -6.412715e-05 -0.054333903 0.012456104 0.03320439 -0.034005404
0.087180756 0.076253556 0.048712425 -0.05844222 0.043959998 -0.0013132766 0.032023966 0.07622977
0.045023568 0.03883312 0.010797381 0.08743503 -0.036359306 -0.04778679 -0.07281104 -0.032894593
-0.0524342 0.00040495396 0.023645148 0.057580926 -0.07130862 -0.056793224 0.046355747 0.056952797
0.067600854 -0.046577305 -0.07233122 0.010292187 0.08358703 -0.026585009 -0.07727021 0.07214386

bias_hh_l1 f4 [128]
00000000: 4bfe ab3d be7d b2bd 3cad f9bc 7ee6 283d
00000010: abe9 9e3d 2871 6ebc 5870 0d3d 24e5 38bd
00000020: 1155 9f3d 0a5e 463d 08f2 2ebc 6ff2 943d
00000030: 3094 bc3b fc1d bdbc 5f42 aa3d 5a88 7abd
00000040: 984f 1cbd 7817 713c a097 e13c fa68 353d
00000050: 5058 743c 419e b2bd b4a9 14bd 3254 203d
00000060: d048 a7bc 9e39 57bd b0b4 0cbc cea1 603d
00000070: e701 823d 69a4 a8bd 2ad4 6e3d ac64 16bd
00000080: b0e9 e2bb 90aa 7d3c f33a aa3d cc3e 863c
00000090: ff42 813d 8ed1 e1bc e951 94bd d390 0dbd
000000a0: c017 e93c f088 a5bb bc24 113d 022e 533d
000000b0: d46e 9ebd e0a3 63bb bce3 6bbd e340 913d
000000c0: 96bf 683d 3db5 acbd d039 3b3c 8f4e a33d
000000d0: 3370 a33d 5478 bc3c 2099 83bb 01df ae3d
000000e0: 4368 6abd 109e ebbb c0fc 48bb f46e e63c
000000f0: 608d 453b 60ab c83b 799c 95bd c074 e23c
00000100: f8aa cdbc f80b 3dbd fe4b 753d 836e 9dbd
00000110: c6f6 f6bc 7271 383d 5bf5 ac3d 10b5 143d
00000120: 8987 8d3d e8cb 573c a0dd 2a3b e079 14bb
00000130: cfdd 1ebd 7eb9 ddbc fe21 a4bd 2c56 843c
00000140: a48f b4bc b0e2 1fbd 6a4c 9bbd ff45 02bd
00000150: 5012 12bc c899 ab3c b6a8 553d 4c84 28bd
00000160: ab32 9c3d f294 3e3d e6b0 053d 4004 153b
00000170: b8b8 543c 14bb 013d 64ad 8cbd 296c 94bd
00000180: b5a5 813d 4631 ecbc a9e9 21bd bc2a 8dbd
00000190: c00c 0d3c ca1c a3bd f6ee 6c3d 564a e7bc
000001a0: 04e6 0c3d 010d 5fbd 6654 b1bd 4969 8e3d
000001b0: 9457 9abd 287b a3bd 7802 85bd e74d 0bbd
000001c0: a916 37bd 3157 993d e0c3 9abc f9b9 6dbd
000001d0: 86e7 35bd 327f 8fbd a084 0d3d abc5 22bd
000001e0: 0cd1 c1bc 7256 aabd 2996 813d a538 833d
000001f0: ca2a 403d d706 11bd 05eb b23d c499 a0bc
0.08398112 -0.0871539 -0.030478112 0.04123544 0.077594124 -0.014553346 0.034530967 -0.0451404
0.07779897 0.048429526 -0.010677822 0.07272803 0.00575497 -0.023085587 0.083134405 -0.06116519
-0.038161844 0.014715068 0.02753812 0.044289567 0.0149136335 -0.08721591 -0.036294654 0.039142795
-0.020420462 -0.052545182 -0.008588001 0.05484181 0.06348019 -0.08234484 0.058307804 -0.036717102
-0.0069248304 0.01548256 0.08312025 0.016387366 0.063116066 -0.027565744 -0.072421856 -0.034561943
0.028453708 -0.0050517246 0.035435423 0.05155755 -0.077359825 -0.0034735128 -0.05759023 0.07092454
0.056823336 -0.08433006 0.011427358 0.07973968 0.07980385 0.023006596 -0.0040160567 0.08538628
-0.057228338 -0.0071904734 -0.003066823 0.028129078 0.003014408 0.006123945 -0.073052354 0.027643561
-0.025105938 -0.046153992 0.059886925 -0.07687094 -0.030146968 0.045030065 0.08445235 0.036305487
0.06910617 0.013171174 0.002607204 -0.002265565 -0.038785752 -0.027065989 -0.08014296 0.016154371
-0.02204115 -0.039034545 -0.07582934 -0.031805035 -0.008915499 0.020947352 0.05216285 -0.041141793
0.07626852 0.046528764 0.032639407 0.002273813 0.0129834935 0.031672552 -0.06869009 -0.072471924
0.06330434 -0.02883209 -0.039529476 -0.068929166 0.008608997 -0.079644755 0.05784508 -0.028233688
0.034399047 -0.05445576 -0.08658676 0.06953675 -0.075362355 -0.079824746 -0.064946115 -0.03400984
-0.044699345 0.074873336 -0.018892229 -0.058038685 -0.04441025 -0.070066825 0.03455031 -0.039739292
-0.023659252 -0.083172694 0.06327469 0.064072885 0.046915807 -0.035406914 0.08736233 -0.019604571

weight f4 [55, 186]
00000000: f59e b7be 831a 393e 3051 10bd 76b2 423e
00000010: 281a 8abe 7c99 373e b27f 2ebe c468 f03e
00000020: 515f b93e 9694 9e3d efbb bc3d e02b 6e3e
00000030: 2941 0dbe a11a 65bc 5d5d 7abe 0056 e5bd
00000040: 38f1 7c3d af85 703c aaa3 30be e7f7 ccbd
00000050: 6438 ecbd 5aae acbd 87d9 43bd 0201 1e3c
00000060: 9dfb 933e b2ee 7fbd 8621 6cbd 1427 b5bb
00000070: e0fc f1bc 0161 29bd 7aff 74bd 1895 443d
00000080: 3f53 57bd 2554 b1bc 6a81 323d c6f0 85bc
00000090: 7e68 3ebd 3420 f1bc 90c2 b5bb 4e12 603d
000000a0: df9b 943d 7da4 26bd b417 c53c ea1c 443d
000000b0: 6bc7 903d aed4 5b3d 483d a53c d449 293d
000000c0: 0458 4abc 632b a5bc 9fb1 14bc bc16 46bd
000000d0: ec97 423d 00b6 b4b9 e093 f13c d2b6 153d
000000e0: f83b 22bc 45cd 89bc ace7 9a3d 01e2 423c
000000f0: d51f c9bd 3639 95bb cc17 82bd 6a65 7cbd
00000100: 0966 8abe df0f 6e3e dc06 c0bd 5949 aabd
00000110: 98ed 803d 5854 02bd caee 58be 6397 0e3e
00000120: d568 bfbd bd91 123e b5ae 273e 0aa5 49be
00000130: b081 8dbe 12a8 be3d 0bd3 973d 3576 733d
00000140: 4e65 a3bd c61e d63d 1bb6 3bbe 133e c0bd
00000150: 389d 0f3e c143 e83d 24a5 86be 3b74 50bc
00000160: 59fd 57be 6739 65bd a8b1 973c c700 163e
00000170: 5f63 9f3d e971 263e 1fd6 1b3e cbd7 0ebe
00000180: 7826 263d 4358 96bd b579 babd e940 133e
00000190: d2b9 083e 3a1c 5abd ca45 3d3e 04f1 eebc
000001a0: 21ab 38be 4bb1 2b3e 2d45 333e d7be 18be
000001b0: e169 1abe bf8d 1d3e 1f89 e4bb 3dc2 8d3e
000001c0: a5fa 873e faf3 083e f1e9 cebd 3f6d 8a3c
000001d0: 158b 8abc e43b 8dbe fd86 703c 8160 a33d
000001e0: 9e43 58bd 1c03 46bd 2526 353e 919c 16be
000001f0: 5977 243e 5b99 c0bd 8e8c 26be a4a7 493e
00000200: 3561 4ebe 9a36 a8bd cd68 1bbe e04f f2be
00000210: 6bce ee3d 59fb bebd 7cb1 86be 2e10 b1bb
00000220: 77ee 1b3e f31f ce3e e9b2 30be 81a8 b93d
00000230: 9894 273e 75f1 a43e b32d 0fbe cacc 163e
00000240: 7d10 6fbe 0e35 b9bc 2a71 ecbd 543b 27bd
00000250: 5f4a 233e e368 2fbd 8432 90be 9e0e ac3e
00000260: 8564 eb3b 807e a0bd 51d0 833c cc19 fd3d
00000270: ea3a d6bd acb3 0ebe a45e 96be a2cd 6abe
00000280: 2ee8 623e 06da 8dbd 0cca 863c 0f35 5cba
00000290: 96b3 89bc 2c2b 00be 032e 5b3e 0019 673d
000002a0: 4df3 f0bd cd4c 5c3d 0298 b53b 6b7b 23bd
000002b0: e06e 5bbe 6fb6 30be fdb3 983d 0b78 8d3e
000002c0: 64d5 a43d baa0 27be fe81 b53d 0bdc bbbd
000002d0: 7066 26bd d457 2a3d 474c fdbd fa5e fcbd
000002e0: c236 d63c 9e67 523d baae 94be 9bff c2bb
000002f0: c1fe a63d e235 8bbe c5b2 253f f2ab a2bc
00000300: eed8 56be 86d0 b53d 00ee 07be 2926 3f3f
00000310: abfe 50bd 545a 41bd 9b48 8c3b 329e 72bd
00000320: 0794 61be 6539 1f3c 3a43 413e 8f10 79bd
00000330: e821 cc3d 17ca 903e 7514 17be cd10 00bd
00000340: 4a60 1bbc 374d 063d c15c 71be 4f61 1c3d
00000350: 75fe 1ebd e16b f23c 3b6e 833d 10e4 b73c
00000360: 22f6 623d 1c9b 12bd 381b 183c de80 633d
00000370: 1902 543b 8e65 b4bc 5e46 01bd 6f0d 45bd
00000380: 18f3 8abd 7efe 2dbd e8d4 e33c b043 93bd
00000390: b4b7 eabc 802b e6bb 81b0 6d3d f04c f73c
000003a0: b080 2fbd a07a 2dbd d4f8 5fbc 5632 803d
000003b0: 6e13 933d 3e46 323d a8ef 2f3d c81e 35bc
000003c0: e27a 81bd d010 95bd 4658 32bd 2672 4dbd
000003d0: 2601 d8bd 56f0 68be 3d1a f8bd 5414 903d
000003e0: f581 043e 406c 90bb 8ae7 3bbe e85f 0e3d
000003f0: b399 6fbd cc48 d23c 91c1 533e 49fc 033d
-0.35863462 0.1807652 -0.035233676 0.1901339 -0.2697308 0.17929643 -0.170409 0.4695493
0.36205533 0.07743184 0.09215533 0.23258924 -0.13794388 -0.0139834 -0.24449678 -0.11198044
0.06175348 0.01468031 -0.17249933 -0.10008221 -0.11534193 -0.084316924 -0.047814872 0.009643795
0.28902903 -0.062483497 -0.057649158 -0.00552834 -0.029539526 -0.041352276 -0.059813954 0.04799375
-0.052569624 -0.021646569 0.04358045 -0.016350161 -0.04648637 -0.029434301 -0.0055468753 0.054704957
0.072562926 -0.040684212 0.024059154 0.047879137 0.07069286 0.053669624 0.020170823 0.041330174
-0.012350086 -0.02016229 -0.009075551 -0.048361525 0.047508165 -0.00034467876 0.029489458 0.036551304
-0.009901993 -0.016821513 0.07563719 0.011894704 -0.098205246 -0.004553939 -0.06352195 -0.061620153
-0.27030972 0.23248242 -0.09376308 -0.08314771 0.062953174 -0.031818718 -0.21184841 0.13924937
-0.09346167 0.14313407 0.16375239 -0.19691864 -0.27638006 0.093094006 0.074133 0.059438903
-0.07978307 0.10455088 -0.18331186 -0.0938684 0.14024818 0.11341048 -0.26297867 -0.012723024
-0.21092738 -0.055962946 0.01851733 0.14648734 0.077826254 0.16254391 0.152184 -0.13949506
0.04056403 -0.07341053 -0.09105245 0.1438023 0.13352135 -0.053249575 0.18483654 -0.02916766
-0.1803403 0.1676685 0.17506857 -0.1491655 -0.15079452 0.15386103 -0.006974354 0.27687255
0.26558414 0.1337432 -0.101032145 0.016897796 -0.016912023 -0.27584755 0.014680621 0.07977391
-0.05279886 -0.04834281 0.17690332 -0.14708163 0.16061153 -0.0940425 -0.16264555 0.19692856
-0.20154269 -0.082135394 -0.15176697 -0.47326565 0.11660465 -0.093252845 -0.26307285 -0.00540354
0.15227686 0.4025875 -0.17255749 0.09065343 0.16365278 0.32215467 -0.13982277 0.14726558
-0.23346134 -0.022608306 -0.11545022 -0.040828064 0.15946339 -0.042824637 -0.2816354 0.33604902
0.0071836137 -0.07836628 0.016090544 0.12358436 -0.10460456 -0.13935727 -0.2936908 -0.22930005
0.22158882 -0.0692635 0.016453765 -0.00084002403 -0.016809266 -0.12516469 0.21404271 0.056420326
-0.11765156 0.05378418 0.0055418024 -0.039912622 -0.21429014 -0.17257093 0.07456205 0.27630648
0.080485135 -0.16369906 0.08862685 -0.09172829 -0.040625036 0.041587666 -0.123680644 -0.12322803
0.026149157 0.05136835 -0.29039556 -0.0059508807 0.08154059 -0.27189547 0.64725906 -0.01985738
-0.2098119 0.08877663 -0.13274384 0.746676 -0.05102412 -0.047205284 0.004281116 -0.059232898
-0.22029124 0.009718274 0.18873301 -0.060806807 0.099674046 0.28279182 -0.14753897 -0.031266022
-0.009483406 0.03278848 -0.23570539 0.03817874 -0.038816888 0.029592456 0.06417509 0.022447616
0.05541051 -0.035792455 0.009283833 0.05554282 0.0032349883 -0.022021081 -0.031561248 -0.048108514
-0.06784648 -0.04247903 0.027811483 -0.07190645 -0.02865205 -0.0070242286 0.058029655 0.030188054
-0.042847335 -0.042353272 -0.013670165 0.06259601 0.0718144 0.04352402 0.042953163 -0.011054702
-0.06322266 -0.07278597 -0.043541215 -0.05015769 -0.10547094 -0.22747931 -0.121143796 0.07035127
0.129402 -0.0044074357 -0.18350044 0.034759432 -0.05849619 0.025669478 0.20679308 0.03222302

bias f4 [55]
00000000: 68e6 b33d 8185 4c3e 1926 283d c204 a53d
00000010: da97 593d 3999 ae3e 9733 64be 3817 603c
00000020: 3ee1 d93e 454a 263e 6bb7 28be 24b6 16be
00000030: 520f 64be f9b6 96be 6af3 36be d5d0 5abe
00000040: 0778 e9bd 1005 7f3d 4718 f73b b62a 89be
00000050: 2bfb acbe 2fd2 cfbe f729 aa3c d7c1 9d3e
00000060: c79b 253f 1b8b 203e 3430 af3e 78d1 423e
00000070: 3192 06bf c44e 45be 7f01 703e d105 08be
00000080: 1a12 dc3e 31cf bdbe 716f 0f3e 28fc dcbe
00000090: 9d11 f1b9 9323 ec3e 8d9d be3e 3be1 cb3d
000000a0: 4279 9cbe d66f 5abe 5471 f6bd c366 273d
000000b0: 4287 133e e89a 08bb 7c10 e93d 689c 4bbe
000000c0: 950f dc3e 1275 9abe 8afb ad3e de0a b2be
000000d0: fad8 22bf a01a f3be a3ee fc3e
0.08784181 0.19972803 0.041051958 0.08057548 0.053123333 0.34101275 -0.22285305 0.013677411
0.4255466 0.16239269 -0.16476218 -0.14717919 -0.22271469 -0.29436472 -0.17866293 -0.21368726
-0.113998465 0.062260687 0.007540736 -0.26790398 -0.33785376 -0.40590045 0.020771964 0.3081195
0.6469082 0.15678065 0.34216464 0.19025218 -0.5256682 -0.19268328 0.2343807 -0.13283469
0.4298256 -0.37072137 0.14007355 -0.4316113 -0.00045980225 0.4612089 0.37229577 0.09955069
-0.30561262 -0.21331725 -0.120333344 0.040869486 0.14407066 -0.0020844284 0.11380097 -0.19883883
0.42980638 -0.30167443 0.33980972 -0.34773916 -0.6361233 -0.4748125 0.49400815
