models/GRU_model_9.pt (torch_old, 742772 bytes, 11 tensors)

weight_ih_l0 f4 [384, 58]
0	0x3e0422c1	0.12903883
1	0x3ca2294f	0.019795088
2	0xbdb76685	-0.08955101
3	0xbdf93b89	-0.121695586
4	0xbd784354	-0.060611084
5	0x3cfb148e	0.03064945
6	0xbe54daf0	-0.20786643
7	0x3e11d0a5	0.14239748
8	0x3e692fcc	0.2277214
9	0xbc110ff1	-0.008853898
10	0xbe5c61d8	-0.215217
11	0x3d9f305f	0.07772898
12	0x3d68554d	0.056721974
13	0x3da30076	0.07959072
14	0xbe023e9b	-0.12719195
15	0x3e090a5d	0.1338286
16	0xbd8fa2fc	-0.07013509
17	0xbc98ca4e	-0.018651154
18	0xbe21243c	-0.15736479
19	0x3d8bbb93	0.06822886
20	0x3d326064	0.043548957
21	0x3d06bf93	0.032897543
22	0x3e0ea824	0.13931328
23	0x3d47f5fd	0.048818577
24	0x3c83d8cd	0.01609459
25	0xbd531952	-0.05153782
26	0xbd80156b	-0.06254085
27	0xbd6fcb2a	-0.05854336
28	0xbe116270	-0.14197707
29	0x3b97e773	0.004635745
30	0x3db85fdc	0.09002659
31	0x3ccbc109	0.02487232
32	0x3d523751	0.051322285
33	0x3d682860	0.05667913
34	0xbd710477	-0.05884215
35	0xbd624855	-0.055244762
36	0xbde9a12d	-0.11407695
37	0x3d1e859c	0.03870164
38	0xbd78bac3	-0.060724985
39	0x3baf0158	0.0053407364
40	0xbdb833fc	-0.0899429
41	0xbdb6bd76	-0.089228556
42	0xbd9ffe48	-0.07812172
43	0x3c82b41b	0.015955022
44	0xbdf4a7b5	-0.1194605
45	0xbdc04ee6	-0.09390049
46	0xbd1e45ac	-0.038640663
47	0xbc2f17d1	-0.010686831
48	0xbbf4fa92	-0.0074761594
49	0xbdb69281	-0.08914662
50	0x3d022171	0.031770173
51	0xbd5621da	-0.052278377
52	0xbde1cf7f	-0.11025905
53	0xbd0f3ca2	-0.034969933
54	0xbb4a1e91	-0.0030840973
55	0x3c8c3dcc	0.01711931
56	0x3ba80fb2	0.005128824
57	0xbe181e94	-0.14855415
58	0x3ecb4484	0.3970071
59	0x3e08f54a	0.1337482
60	0xbe9c1cea	-0.3049081
61	0x3d38a3c6	0.04507806
62	0x3ecd3373	0.40078315
63	0xbc9295f9	-0.017893778
64	0x3d42a04f	0.047516163
65	0xbe04af4c	-0.12957495
66	0x3d9778f0	0.07396114
67	0xbcee3ef2	-0.029082749
68	0x3d2a460e	0.041570716
69	0x3ee448ff	0.44586942
70	0x3c21a6d3	0.009866434
71	0x3de0d118	0.109773815
72	0xbe9dda49	-0.308306
73	0x3b69804c	0.003562945
74	0x3d8eb09d	0.0696728
75	0xbeeb8aee	-0.46004432
76	0xbd86ade8	-0.06576139
77	0xbe9044ac	-0.28177392
78	0xbd997367	-0.074927144
79	0xbda1360f	-0.07871639
80	0xbd41b49e	-0.04729139
81	0xbd73b4da	-0.059498645
82	0xbde71ea7	-0.11285143
83	0xbdc23a3a	-0.09483762
84	0x3b8b967d	0.004259883
85	0x3de94ef4	0.11392012
86	0x3e2e31d8	0.17011201
87	0x3d483485	0.04887821
88	0xbd2ccf06	-0.04218962
89	0xbd3eac8b	-0.04655127
90	0xbd8d820b	-0.06909569
91	0x3d896a3c	0.06709716
92	0xbd0e02ed	-0.03467076
93	0xbd8b5b37	-0.06804507
94	0xbd699fe1	-0.057037238
95	0xbd8c3524	-0.06846073
96	0x3dd3405e	0.103150114
97	0xbdd4c926	-0.103899285
98	0xbd8de220	-0.069278955
99	0x3d48f149	0.049058232
100	0x3d0244a6	0.03180375
101	0xbe00eab3	-0.1258953
102	0xbdc85f6a	-0.09783824
103	0xbc946fd1	-0.018119724
104	0x3d13df73	0.03610177
105	0x3e332898	0.17495954
106	0xbbb6cb55	-0.0055784383
107	0xbc3ea824	-0.011636768
108	0xbcd57aeb	-0.026059588
109	0xbd4e5913	-0.050377917
110	0xbe5b19a2	-0.21396497
111	0xbd4e8ae8	-0.05042544
112	0x3dafc85d	0.08583138
113	0xbda1a10a	-0.07892044
114	0x3e1364e3	0.14393954
115	0xbd2a4974	-0.041573957
116	0x3ea394cf	0.3194947
117	0x3d59c3c8	0.053165227
118	0xbc982496	-0.018572133
119	0xbe64ad1c	-0.22331661
120	0xbdb37cc6	-0.08764033
121	0x3d8c8eaa	0.068631485
122	0x3b0d9b48	0.0021607447
123	0xbc90f376	-0.017694216
124	0xbcd2243a	-0.02565204
125	0xbb37f3c8	-0.002806889
126	0xbc7238f0	-0.014784083
127	0x3df5f456	0.12009494
128	0x3d9d583f	0.07682847
129	0x3e08c570	0.13356566
130	0xbd84524d	-0.0646101
131	0x3d1f373e	0.038871042
132	0xbc06778a	-0.008207211
133	0x3d878894	0.06617847
134	0xbdc8ba61	-0.09801174
135	0x3e8adef9	0.2712324
136	0xbdd671ba	-0.1047091
137	0xbd58390d	-0.052788783
138	0xbd7750f9	-0.060379956
139	0x3c13298f	0.008982076
140	0x3d93c9d3	0.07216229
141	0xbd724cf6	-0.059155427
142	0xbd9a825b	-0.075443946
143	0x3c3f4643	0.011674467
144	0xbd241a9e	-0.040064447
145	0x3d2a9555	0.04164632
146	0xbda0db82	-0.07854368
147	0xbbe8f997	-0.0071098316
148	0xbd07db1d	-0.033167947
149	0xbcc34ee5	-0.02384133
150	0x3d644451	0.055729214
151	0xbd9116d3	-0.070844315
152	0xbd958a59	-0.07301778
153	0xbd1c5936	-0.038171016
154	0xbc0b4f9e	-0.008502869
155	0xbdca0737	-0.09864657
156	0x3a7aba66	0.00095645187
157	0xbb853a5f	-0.0040657963
158	0xbd935825	-0.071945466
159	0xbcd39176	-0.025826197
160	0xbcb1c86c	-0.021702014
161	0xbca86314	-0.020555057
162	0x3c700f63	0.014652106
163	0xbd84990e	-0.06474505
164	0x3cffc591	0.031222137
165	0xbd1c7a60	-0.038202643
166	0x3ca33114	0.019920863
167	0xbd5085e3	-0.050908934
168	0xbe377361	-0.17915107
169	0x3c4bd489	0.012440809
170	0x3d138fa0	0.036025643
171	0x3c9647d4	0.018344797
172	0xbdad5d03	-0.08465006
173	0xbd95322e	-0.07284962
174	0xbdc51b79	-0.096243806
175	0xbe355997	-0.17709957
176	0x3e7653d1	0.24055411
177	0x3e05211a	0.13000908
178	0xbd24d222	-0.04023946
179	0xbdd7ddf1	-0.10540379
180	0xbd795fc3	-0.06088234
181	0x3d8674e3	0.06565263
182	0xbe419024	-0.18902642
183	0xbc9a94b1	-0.01886973
184	0xbe51a606	-0.20473489
185	0x3e57a2ed	0.21058245
186	0x3e360134	0.17773896
187	0x3cd71c21	0.02625853
188	0x3ca08d0d	0.019598508
189	0xbe3cc1f5	-0.18433364
190	0xbb78b6b4	-0.0037950696
191	0xbf0d7fb3	-0.5527298
192	0x3d6a7195	0.057237227
193	0x3d85593f	0.06511163
194	0x3d332557	0.043736782
195	0xbde683df	-0.11255621
196	0xbbd2a24f	-0.00642804
197	0xbd640bec	-0.055675432
198	0x3df98548	0.121836245
199	0xbd292eb4	-0.041304305
200	0x3b424275	0.0029641662
201	0xbd89b7e9	-0.06724531
202	0x3c49905b	0.012302483
203	0xbcdd6a6a	-0.027028281
204	0x3dbd982d	0.09257541
205	0x3d60c3db	0.054874282
206	0x3c98493c	0.018589608
207	0xbb4511c4	-0.0030070404
208	0x3ce78ef0	0.0282664
209	0xbdad051d	-0.08448241
210	0xbb0c1364	-0.0021373862
211	0xbcc9c72c	-0.024631105
212	0x3d98871d	0.07447646
213	0xbd955cdc	-0.07293102
214	0x3c84ffeb	0.016235312
215	0xbd9665ee	-0.0734366
216	0xbc3a99f5	-0.011389245
217	0xbbe29d33	-0.0069157123
218	0xbd5ae3ca	-0.053439893
219	0xbdd18788	-0.10230929
220	0xbcacf6a1	-0.021113696
221	0xbd910f2c	-0.07082972
222	0xbd6c9229	-0.057756577
223	0x3c8a82db	0.0169081
224	0xbbeb8867	-0.0071878913
225	0xbacea997	-0.0015767094
226	0x3cc73e2e	0.024321642
227	0xbdb2a5c4	-0.087230235
228	0x3d802ee0	0.06258941
229	0xbd90c224	-0.070682794
230	0x3e004f68	0.12530291
231	0xbd734b32	-0.059397884
232	0x3e13df0a	0.14440551
233	0xbbf69d7a	-0.007526097
234	0x3dad7936	0.08470385
235	0xbe29c43e	-0.16578767
236	0xbca11ebb	-0.019667974
237	0xbe40693b	-0.18790142
238	0xbe051d27	-0.12999402
239	0x3d89b602	0.06724168
240	0xbecd85b9	-0.40141085
241	0xbdb5e5a0	-0.08881688
242	0xbee32b16	-0.4436881
243	0xbea36c1c	-0.31918418
244	0x3e2329aa	0.15933862
245	0xbbb33f42	-0.0054701874
246	0x3ee6efce	0.4510483
247	0x3d1df1d2	0.038560696
248	0x3dbdc7ca	0.09266622
249	0x3e5e40de	0.21704432
250	0xbeaf6658	-0.3425777
251	0x3f10c988	0.5655751
252	0x3d651f25	0.055937905
253	0x3d9a8db4	0.07546559
254	0xbdec4a52	-0.11537613
255	0x3dafea7a	0.08589645

weight_hh_l0 f4 [384, 128]
0	0x3dcf1dd8	0.10113114
1	0xbd16d609	-0.036825214
2	0x3d0f37ae	0.03496521
3	0x3c2c3b6f	0.010512217
4	0x3dd95731	0.106123336
5	0xbd953afb	-0.0728664
6	0xbd854f47	-0.065092616
7	0x3d0f47ee	0.034980707
8	0x3e134e37	0.14385305
9	0xbc08e200	-0.008354664
10	0x3d843c39	0.06456799
11	0xbe5aacf0	-0.21355033
12	0xbdbc6fd9	-0.09201021
13	0xbda64c22	-0.0811999
14	0x3d99344f	0.0748068
15	0xbd8605dd	-0.06544087
16	0xbe059b16	-0.13047442
17	0x3e826126	0.25464743
18	0xbe77852c	-0.24171895
19	0x3e596ed5	0.21233685
20	0xbdbbe901	-0.09175301
21	0xbdbfce1c	-0.09365484
22	0xbdf32588	-0.11872393
23	0xbd94630c	-0.07245454
24	0x3e03267c	0.1280765
25	0xbe4d18f5	-0.20029052
26	0xbd30c292	-0.043154307
27	0xbe6297d8	-0.22128236
28	0xbdfdae18	-0.123867214
29	0x3d269c9c	0.040676698
30	0x3da4db03	0.08049586
31	0x3d32e860	0.04367864
32	0xbde4f3b1	-0.11179293
33	0xbe0a910d	-0.13531895
34	0xbe879340	-0.2647953
35	0xbded3bf3	-0.115837
36	0xbd6507b2	-0.055915542
37	0x3cc4d3fc	0.024026863
38	0x3ee81030	0.4532485
39	0xbe26c018	-0.16284215
40	0xbd2e6b9d	-0.042583097
41	0x3e5c92ee	0.21540424
42	0xbdc5f4c5	-0.09665827
43	0xbd95b83f	-0.07310533
44	0xbdbb8157	-0.09155529
45	0x3bc12ca6	0.005895215
46	0xbd15ed33	-0.036603164
47	0x3e692e05	0.22771461
48	0x3cfcf6a4	0.030879326
49	0xbc971467	-0.018442346
50	0x3d74fa41	0.059808973
51	0x3d98bc2b	0.07457765
52	0x3e2d9ae2	0.16953614
53	0x3c3ada1b	0.011404539
54	0x3e7d567d	0.24740024
55	0xbe0de2fe	-0.13856122
56	0x3e52f65e	0.20601794
57	0xbd8daed8	-0.069181144
58	0x3d4bf8f1	0.049797956
59	0xbddecfec	-0.10879502
60	0xbcc75810	-0.024333984
61	0x3c5469f4	0.012964714
62	0x3e472caf	0.19450639
63	0x3da41c58	0.08013219
64	0x3d8908e9	0.066911526
65	0x3e22e98c	0.15909404
66	0x3e09ede4	0.13469654
67	0xbe9b251d	-0.30301753
68	0xbe10f7c6	-0.14157018
69	0xbd754fab	-0.05989043
70	0xbe3fd33f	-0.18732928
71	0xbd9c03ac	-0.07617888
72	0xbd3a3507	-0.045460727
73	0xbd50a2af	-0.050936397
74	0x3e364288	0.17798817
75	0xbe195f14	-0.14977676
76	0x3ec7a0d8	0.38989902
77	0x3e01ccf3	0.12675838
78	0xbd05c84f	-0.032661732
79	0x3e44b984	0.19211394
80	0xbc4a58af	-0.012350245
81	0x3dab95c6	0.083781764
82	0xbde0ee27	-0.10982924
83	0xbd7b38ee	-0.06133359
84	0x3c85e7ec	0.01634594
85	0xbed16b5b	-0.40902218
86	0x3db2dfca	0.087340906
87	0x3c1e9f8e	0.0096815955
88	0xbe5147e8	-0.20437586
89	0x3de5b51a	0.11216183
90	0x3d875ef7	0.0660991
91	0xbeac38fd	-0.3363723
92	0x3c59f2a7	0.013302482
93	0x3deaee2a	0.114712074
94	0x3c3f6abd	0.011683163
95	0x3dd05348	0.10172135
96	0xbe0a2554	-0.13490802
97	0x3e118b9c	0.14213413
98	0x3ddf6518	0.10907954
99	0x3e97e21c	0.29664695
100	0x3c9c49f6	0.019078236
101	0xbe2f0076	-0.1709002
102	0x3bcd0276	0.006256397
103	0xbda4fcdb	-0.08056041
104	0x3dbe7898	0.09300345
105	0xbe1d80bc	-0.1538114
106	0xbe1f8a36	-0.15580067
107	0x3e248b72	0.16068819
108	0xbd0aca95	-0.033884604
109	0xbe2788e3	-0.16360812
110	0x3ef1aae1	0.47200683
111	0xbd96d577	-0.07364934
112	0xbe0dbb76	-0.13841042
113	0x3d710d5b	0.058850627
114	0xbe179f90	-0.14806962
115	0x3d7e8131	0.062134925
116	0xbc6cba96	-0.014448782
117	0xbd15750d	-0.03648858
118	0x3e105610	0.1409533
119	0x3e8b36f4	0.27190363
120	0x3c1206a4	0.008912716
121	0xbd3c8cf7	-0.046032872
122	0xbabe5183	-0.0014520142
123	0x3c3f481a	0.011674905
124	0x3e6e7135	0.23285373
125	0x3e92035f	0.28518197
126	0x3da073f2	0.07834615
127	0x3e45f78e	0.19332716
128	0x3e966b0a	0.2937854
129	0x3e5e967c	0.21737093
130	0xbeb74812	-0.35797173
131	0xbde53fa4	-0.11193779
132	0x3e53a6a5	0.20669039
133	0xbe17dc3a	-0.14830104
134	0xbe275c2e	-0.16343758
135	0x3cb90765	0.022586534
136	0xbd40304e	-0.046921067
137	0xbe7c6d42	-0.24651054
138	0x3ddcd8b7	0.107835226
139	0x3e00c99f	0.12576912
140	0xbe817d2d	-0.25290814
141	0xbd90fa51	-0.07078994
142	0x3d1a78a7	0.03771272
143	0x3dec2f03	0.11532404
144	0x3e3d53e3	0.18489031
145	0x3eb9cd21	0.36289313
146	0xbd9cd3d5	-0.07657591
147	0xbdd24d67	-0.102686696
148	0x3eb0eb7d	0.34554663
149	0xbe98df32	-0.29857785
150	0x3b90aa80	0.0044148564
151	0x3d0cd2e2	0.0343808
152	0x3df40b8b	0.11916264
153	0x3e197dfb	0.14989464
154	0x3e68ae1d	0.22722669
155	0x3e6fd5ee	0.23421451
156	0xbe96ae55	-0.2942988
157	0x3e340acd	0.17582245
158	0xbda072f6	-0.07834427
159	0x3e0bdea8	0.13659155
160	0x3d5be96f	0.053689416
161	0x3e373fca	0.17895427
162	0x3e606eb0	0.21917224
163	0x3d8d438d	0.0689765
164	0xbdcafd0f	-0.09911548
165	0xbe2e7f86	-0.17040834
166	0xbdfe1402	-0.1240616
167	0xbead50c6	-0.33850688
168	0xbcbcc313	-0.023042237
169	0x3e41890c	0.18899935
170	0x3e39ca68	0.18143618
171	0xbd0fd25e	-0.03511273
172	0x3e300021	0.17187549
173	0xbcd9fcb5	-0.026609758
174	0x3e5352be	0.20637032
175	0xbd59e1bd	-0.053193796
176	0x3dba564b	0.0909849
177	0xbd143b9f	-0.03618967
178	0xbd2d7489	-0.042347465
179	0x3c8d875a	0.017276455
180	0xbe3336f8	-0.17501438
181	0x3b9e0ac3	0.0048230602
182	0xbcbed81e	-0.023296412
183	0x3e29109d	0.16510244
184	0x3dfe16d7	0.124067
185	0x3d481049	0.048843656
186	0x3e2b7a5f	0.167459
187	0x3c3996ef	0.011327489
188	0xbe673b6c	-0.22581261
189	0xbdcff13d	-0.101534344
190	0x3e426abc	0.18986028
191	0x3eacfc1f	0.33786103
192	0x3bb8d8f7	0.0056410986
193	0x3d8acbe1	0.06777168
194	0x3dbcf5d3	0.09226575
195	0xbe7d82cb	-0.24756925
196	0x3d0cd173	0.034379434
197	0x3eb74cc4	0.35800755
198	0x3e544467	0.20729218
199	0xba1c6c9e	-0.0005967113
200	0xbc7bf136	-0.015377333
201	0x3e25ff1d	0.16210599
202	0x3e6d6788	0.23184025
203	0x3e0de542	0.13856986
204	0x3eeb5db5	0.4596993
205	0x3e8bec00	0.2732849
206	0xbe045587	-0.12923251
207	0x3e46833c	0.19386
208	0xbdde4402	-0.10852815
209	0xbdac1790	-0.08402932
210	0x3ee13ae6	0.43990248
211	0xbdcce6be	-0.10004948
212	0x3e585f14	0.2113002
213	0x3e2a0b8d	0.16605969
214	0x3dc844e8	0.09778768
215	0x3c1c4b27	0.009539402
216	0x3e857976	0.2606923
217	0xbd2b5f0f	-0.0418387
218	0xbe220187	-0.15820895
219	0xbe905c4c	-0.28195417
220	0xbdc06a49	-0.09395272
221	0xbc8c5a8c	-0.01713302
222	0xbde2e6d4	-0.11079183
223	0x3e81d0c1	0.2535458
224	0x3de7b6b0	0.11314142
225	0xbc31221e	-0.010811357
226	0xbb1b9ad7	-0.0023743415
227	0x3dd30514	0.10303703
228	0xbea58734	-0.32329714
229	0xbe4843e1	-0.19557144
230	0xbdabbf46	-0.08386092
231	0xbd81d0af	-0.06338631
232	0xbdba7053	-0.091034554
233	0x3ec14d27	0.37754175
234	0xbda5f843	-0.08103993
235	0x3dc9e86f	0.09858786
236	0xbdbbaee1	-0.09164215
237	0x3dd8363b	0.10557219
238	0x3db1005a	0.08642645
239	0xbd91b92f	-0.07115399
240	0xbde804a9	-0.11329014
241	0xbeaa5c10	-0.33273363
242	0xbe2573eb	-0.161575
243	0x3d172d3f	0.036908384
244	0x3df5746f	0.119850986
245	0x3dae101a	0.08499165
246	0xbd168d85	-0.036756057
247	0x3d1dd5a8	0.038533837
248	0x3e21dfa5	0.1580797
249	0xbdfeae2e	-0.12435566
250	0x3cb0d73a	0.021587003
251	0x3e8625db	0.26200756
252	0x3e5693a7	0.20954762
253	0x3cf26661	0.029589834
254	0xbd17e017	-0.037078943
255	0x3e37149b	0.17878954

bias_ih_l0 f4 [384]
0	0xbea0292c	-0.31281412
1	0xbe79a89a	-0.24380723
2	0xbdb02205	-0.08600239
3	0xbf09e0ad	-0.53858453
4	0x3d3a3faf	0.04547089
5	0x3cbe8d48	0.023260728
6	0xbe0b9a51	-0.13633086
7	0x3c9408af	0.018070547
8	0xbea6bffd	-0.3256835
9	0xbe541ec1	-0.20714857
10	0xbddb1c4b	-0.10698756
11	0x3bb351cb	0.005472397
12	0xbe51d4a8	-0.20491278
13	0xbeaccbc8	-0.33749223
14	0xbe119d37	-0.14220129
15	0x3e066f58	0.13128412
16	0x3b117304	0.0022193799
17	0xbecbdc34	-0.3981644
18	0xbe91bd36	-0.2846467
19	0xbe903aa9	-0.28169754
20	0x3ca37613	0.019953763
21	0xbe793a75	-0.24338706
22	0xbdb9b587	-0.09067827
23	0xbc2f30f1	-0.010692821
24	0xbea20eaa	-0.31651813
25	0xbe681444	-0.2266398
26	0xbea0ada0	-0.31382465
27	0xbe0a1010	-0.1348269
28	0x3c4bf03d	0.012447414
29	0xbe4d9661	-0.20076896
30	0xbe50c2ca	-0.20386806
31	0xbddc2b89	-0.10750491
32	0xbec397e3	-0.38201818
33	0xbe1c0fa5	-0.15240343
34	0x3dfef8b6	0.124497816
35	0xbe467738	-0.19381416
36	0xbe7cec1c	-0.24699444
37	0xbda066be	-0.078320965
38	0xbe3e1cb9	-0.18565644
39	0xbe91ec91	-0.28500798
40	0xbe12eb1e	-0.14347503
41	0xbc075a34	-0.008261252
42	0x3da9ad6f	0.08285033
43	0xbdd1d3a0	-0.102454424
44	0xbcd877ff	-0.026424406
45	0x3d9841e7	0.07434445
46	0x3e247ae5	0.16062506
47	0xbe2f60fa	-0.17126837
48	0xbea7673c	-0.3269595
49	0xbe8799b9	-0.2648447
50	0xbe7bbbd5	-0.24583371
51	0xbe62798e	-0.22116682
52	0x3df43504	0.119241744
53	0x3d6fc5b9	0.058538172
54	0xbdf99329	-0.12186272
55	0xbf0395a6	-0.5140022
56	0xbefa59eb	-0.48896727
57	0xbeb384a9	-0.3506215
58	0xbe815cc0	-0.25266075
59	0xbe98fb7f	-0.29879376
60	0xbe8813ee	-0.26577705
61	0x3d230eb6	0.03980895
62	0xbea479e5	-0.32124248
63	0xbe828750	-0.2549386
64	0xbdbee6ad	-0.09321342
65	0xbd3c6766	-0.045997046
66	0xbe139655	-0.14412816
67	0xbead3ba0	-0.33834553
68	0xbeda34c4	-0.42618382
69	0x3df6e86f	0.12056052
70	0xbd36176c	-0.04445593
71	0xbe697571	-0.22798707
72	0xbe318d63	-0.17339091
73	0xbd8e4843	-0.069473766
74	0xbef987dc	-0.48736465
75	0x3dc72110	0.09723103
76	0xbe48ff01	-0.19628526
77	0xbe47fb41	-0.1952944
78	0xbe19ba7e	-0.15012547
79	0xbe2f4afb	-0.17118447
80	0xbdd54c1d	-0.10414908
81	0xbe18b2fc	-0.14912027
82	0xbbf71163	-0.0075399145
83	0x3d2485d4	0.04016669
84	0xbea79d18	-0.3273704
85	0xbec88035	-0.39160314
86	0xbe198417	-0.14991795
87	0xbe671393	-0.2256606
88	0xbe4cb9e8	-0.19992793
89	0xbea17797	-0.31536552
90	0xbdd235b6	-0.10264151
91	0xbe68bcbe	-0.2272825
92	0xbe4ed29b	-0.20197527
93	0xbe4d7354	-0.20063525
94	0xbd15c6fc	-0.03656672
95	0xbea7c0ce	-0.32764286
96	0xbe475705	-0.19466789
97	0x3deadc60	0.114678144
98	0x3e300756	0.17190298
99	0xbd8684a9	-0.06568272
100	0xbea76aa4	-0.32698548
101	0xbeae85ae	-0.34086365
102	0xbca72c75	-0.020406941
103	0xbed39daf	-0.4133124
104	0x3c3653f8	0.011128418
105	0xbd95ea41	-0.07320071
106	0x3d838fc7	0.06423908
107	0xbdc13998	-0.09434813
108	0xbe1f4a99	-0.155558
109	0xbeb0eaf2	-0.3455425
110	0xbe78b7f6	-0.24288926
111	0xbe43519f	-0.19074105
112	0xbeb6572b	-0.3561338
113	0xbeb330d6	-0.34998196
114	0xbe83817b	-0.25684723
115	0x3cbb724b	0.022881648
116	0xbdd221dc	-0.102603644
117	0xbc7acc1a	-0.015307451
118	0x3b9cd891	0.004786559
119	0xbda0b014	-0.07846084
120	0xbeb2c15a	-0.3491314
121	0x3d335873	0.043785524
122	0xbeaa36f1	-0.33245042
123	0xbdfb6829	-0.12275726
124	0xbf015c26	-0.5053123
125	0xbe8c68ab	-0.27423605
126	0xbed8cdcf	-0.4234452
127	0xbee35ed8	-0.44408298
128	0xbf3ad938	-0.729877
129	0xbe12a135	-0.14319308
130	0x3dc4e5e7	0.09614163
131	0x3e266c33	0.16252212
132	0xbf373924	-0.71571565
133	0xbe7e303b	-0.24823086
134	0xbf096b49	-0.5367933
135	0xbe984342	-0.29738814
136	0xbe9b9139	-0.30384234
137	0xbea4868a	-0.32133895
138	0xbeabab20	-0.33528996
139	0x3ed75639	0.4205797
140	0xbeb54c3c	-0.35409725
141	0xbdca97d5	-0.09892241
142	0xbf5d5703	-0.86460894
143	0xbe243539	-0.16035928
144	0x3edcd0a0	0.43127918
145	0xbdb09117	-0.08621424
146	0xbf172908	-0.59046984
147	0xbcea475f	-0.028598486
148	0x3d930429	0.07178528
149	0xbf2b03e8	-0.66802835
150	0xbe3c0eb7	-0.18364988
151	0x3e0d607c	0.13806337
152	0x3d0c5c87	0.03426793
153	0xbf17f1f3	-0.5935356
154	0xbe30b432	-0.17256239
155	0xbedb01fb	-0.42774948
156	0xbeafe6de	-0.34355825
157	0x3e69125c	0.2276091
158	0xbf448068	-0.7675843
159	0xbebffc1c	-0.37497032
160	0xbe3c6164	-0.18396527
161	0x3dff95e4	0.12479761
162	0x3f604153	0.87599677
163	0xbd0bc497	-0.03412303
164	0xbed05dea	-0.4069665
165	0x3e029969	0.12753834
166	0x3e06a133	0.1314743
167	0xbccb91d1	-0.024849804
168	0xbdaf47b2	-0.08558597
169	0xbee9db45	-0.45675102
170	0xbebb0526	-0.36527365
171	0xbf0fda1d	-0.5619219
172	0x3e40430d	0.18775578
173	0x3d4cc3b0	0.04999131
174	0xbe9b093f	-0.30280492
175	0x3e3194e8	0.1734196
176	0x3e6be924	0.23038155
177	0xbe51af4f	-0.20477031
178	0x3f056d47	0.5211987
179	0xbe852005	-0.2600099
180	0xbea32905	-0.31867233
181	0xbd317866	-0.04332771
182	0xbe9bb4d0	-0.30411386
183	0x3d443bc3	0.047908556
184	0x3e6b15cc	0.22957534
185	0xbe73efb1	-0.23821904
186	0xbe5ada11	-0.21372248
187	0xbecc5f17	-0.39916298
188	0x3e938284	0.28810513
189	0x3f08e7ba	0.53478587
190	0x3e3b817c	0.18311113
191	0xbe3bb98d	-0.18332501
192	0xbe96ded7	-0.29466888
193	0xbf2581a3	-0.64650935
194	0xbd987b96	-0.07445447
195	0xbd8aa31a	-0.067693904
196	0x3e50ac35	0.20378192
197	0xbec5009c	-0.38477027
198	0x3e4d0a05	0.20023353
199	0x3f180872	0.59387887
200	0x3eea7851	0.4579492
201	0x3ebcbec9	0.36864308
202	0xbe5d7509	-0.21626677
203	0x3e2f89fb	0.17142479
204	0xbeaf1015	-0.34191957
205	0xbe8a98dc	-0.27069747
206	0x3ea3efef	0.32018992
207	0xbcbc7bd2	-0.02300826
208	0x3f3106a0	0.69150734
209	0xbf401b67	-0.7504181
210	0x3f0a2cf8	0.53974867
211	0xbec62e4c	-0.38707197
212	0x3ce847c3	0.028354531
213	0x3ea66eba	0.32506353
214	0x3ed9ca01	0.4253693
215	0xbea8ace3	-0.32944402
216	0xbc6b1d3a	-0.01435023
217	0xbf1e55e8	-0.6184983
218	0x3e4d0f70	0.2002542
219	0xbd151912	-0.036400862
220	0xbdeeaf0f	-0.116544835
221	0xbf3f791c	-0.74794173
222	0x3dd18d1f	0.10231995
223	0x3ea10ae7	0.3145363
224	0x3dbeffef	0.09326159
225	0xbeda73d2	-0.4266649
226	0x3e7208ff	0.23636244
227	0xbe990802	-0.29888922
228	0xbf10c9a6	-0.5655769
229	0xbea4f55c	-0.32218444
230	0x3e5736c9	0.21016993
231	0xbe426e06	-0.18987283
232	0x3ebea448	0.37234712
233	0xbd6e2271	-0.058138315
234	0x3ed4ed1b	0.41587147
235	0xbe5d23bf	-0.21595667
236	0xbeeb5ef5	-0.45970884
237	0xbdcb76ef	-0.09934794
238	0xbe1e97c1	-0.15487577
239	0x3d99bceb	0.07506736
240	0xbf5ddc65	-0.8666442
241	0xbe508fb9	-0.20367326
242	0xbf4603dd	-0.77349645
243	0x3d6a7943	0.05724455
244	0x3e7870b9	0.2426175
245	0xbe9a08f6	-0.30084962
246	0xbf0f0be5	-0.55877525
247	0xbeabd79d	-0.33562937
248	0xbc7635ce	-0.0150274765
249	0xbd0c66a5	-0.034277577
250	0xbe1219f1	-0.14267708
251	0x3ec9f51e	0.39444822
252	0xbdb8cf83	-0.09023955
253	0x3eab386c	0.33441484
254	0xbf5910fb	-0.84791535
255	0x3ecdb2cd	0.40175477

bias_hh_l0 f4 [384]
0	0xbe6e9427	-0.23298703
1	0xbe948626	-0.29008597
2	0xbcf3766d	-0.029719556
3	0xbed64a41	-0.41853526
4	0xbdca6fa8	-0.09884578
5	0x3d79286e	0.060829572
6	0xbddf6f4f	-0.10909902
7	0x3b77fb06	0.003783883
8	0xbe9a2849	-0.3010886
9	0xbead28fa	-0.33820325
10	0xbe667ba0	-0.22508097
11	0xbd68a976	-0.056802236
12	0xbe5c8a60	-0.21537161
13	0xbef40c90	-0.47665834
14	0xbdd34af7	-0.10317033
15	0x3c993ed0	0.01870671
16	0xbdad0895	-0.084489025
17	0xbef80752	-0.48443085
18	0xbe8d88ee	-0.27643532
19	0xbeb4a27d	-0.3528022
20	0x3a88f6d8	0.0010449542
21	0xbe520cf1	-0.20512749
22	0xbdb4e037	-0.08831828
23	0xbdcde534	-0.10053483
24	0xbe684d3c	-0.22685713
25	0xbe39bde2	-0.18138841
26	0xbeb53592	-0.35392433
27	0xbe165bb2	-0.14683416
28	0xbdf42b62	-0.11922337
29	0xbdfa246f	-0.122139804
30	0xbe5209ac	-0.20511502
31	0xbdd711a9	-0.10501415
32	0xbefc3b81	-0.49264148
33	0xbd3f39ac	-0.04668586
34	0x3d4b1d43	0.049588453
35	0xbd7c01e6	-0.061525248
36	0xbe431ef9	-0.19054784
37	0xbdd29ec0	-0.102841854
38	0xbe4583df	-0.19288586
39	0xbe49fcf3	-0.19725399
40	0xbe3020f2	-0.17200068
41	0xbd39f903	-0.04540349
42	0x3d9968dd	0.07490704
43	0xbdf5ff58	-0.120115936
44	0xbd43f537	-0.047841277
45	0x3e181b74	0.14854223
46	0x3e763173	0.24042301
47	0xbe0d42f0	-0.13795066
48	0xbe799f20	-0.24377108
49	0xbe279689	-0.16366018
50	0xbe010c93	-0.12602453
51	0xbeab319a	-0.3343628
52	0xbc519386	-0.01279152
53	0x3cafc06a	0.021454055
54	0xbe2778f6	-0.16354737
55	0xbef43276	-0.4769475
56	0xbf05c336	-0.52250993
57	0xbe8bf05b	-0.27331814
58	0xbe9a30a6	-0.3011524
59	0xbe903a39	-0.2816942
60	0xbe04b6bd	-0.12960334
61	0xbdc9139b	-0.098181926
62	0xbe8da8d5	-0.2766787
63	0xbe463203	-0.19355015
64	0xbcc8f8de	-0.024532732
65	0x3d923c07	0.071403556
66	0xbea12cb9	-0.31479433
67	0xbedae27e	-0.42750925
68	0xbf0468cb	-0.517224
69	0x3e1ba916	0.1520122
70	0xbb4f4d46	-0.0031631752
71	0xbe32e629	-0.17470612
72	0xbdeb9867	-0.11503678
73	0xbda4c10d	-0.08044634
74	0xbede7261	-0.4344664
75	0x3e66e1a2	0.2254701
76	0xbe182305	-0.14857109
77	0xbe830e34	-0.25596774
78	0xbe88b24e	-0.26698536
79	0xbe16797b	-0.14694779
80	0xbda66b67	-0.08125954
81	0xbe17bf3e	-0.14819047
82	0x3c5678c5	0.013090317
83	0x3d9aca1b	0.0755808
84	0xbeaded18	-0.3396995
85	0xbef5b12d	-0.47986737
86	0xbe055689	-0.13021292
87	0xbe1cf603	-0.15328221
88	0xbe810efe	-0.2520675
89	0xbe6181ab	-0.2202212
90	0xbd61ef49	-0.05515984
91	0xbe872b77	-0.2640035
92	0xbe0607f3	-0.1308897
93	0xbdd89dda	-0.10576983
94	0xbd89cc65	-0.06728438
95	0xbec3a1e6	-0.38209456
96	0xbe591d25	-0.21202524
97	0x3e351086	0.17682084
98	0x3e41904e	0.18902704
99	0xbdf1842e	-0.117927894
100	0xbeae8710	-0.3408742
101	0xbec4527e	-0.38344187
102	0xbd34a62a	-0.04410378
103	0xbeca6313	-0.39528713
104	0xbd9b2bad	-0.0757669
105	0xbe0c9cd9	-0.13731708
106	0x3b6ea03d	0.0036411427
107	0xbd5cbd3d	-0.05389141
108	0xbd13781e	-0.036003225
109	0xbea03b84	-0.31295407
110	0xbe40e2da	-0.18836537
111	0xbe836220	-0.256608
112	0xbe8b5a87	-0.27217504
113	0xbefc3bdb	-0.49264416
114	0xbea30f9b	-0.31847844
115	0xbc68cc49	-0.014208862
116	0xbe18bcd4	-0.14915782
117	0xbc9c72fd	-0.0190978
118	0xbe09021c	-0.13379711
119	0xbe35a61f	-0.17739151
120	0xbebd9ac4	-0.3703214
121	0x3e2515f5	0.16121657
122	0xbeca365f	-0.39494607
123	0xbcc674cb	-0.024225613
124	0xbee6f684	-0.45109951
125	0xbeca4d2b	-0.39512
126	0xbee0ea09	-0.43928555
127	0xbeaf0154	-0.341807
128	0xbf39d31c	-0.7258775
129	0x3c4fb44e	0.012677265
130	0x3e44f8ee	0.19235584
131	0x3e3cd2bd	0.18439765
132	0xbf45329c	-0.7703035
133	0xbe86f5ac	-0.26359308
134	0xbedefabc	-0.4355067
135	0xbe8bf40e	-0.27334636
136	0xbeb0ee57	-0.3455684
137	0xbe9a8e04	-0.30186474
138	0xbe7662f3	-0.24061184
139	0x3e836530	0.25663137
140	0xbe87a5a2	-0.26493555
141	0xbdb28899	-0.0871746
142	0xbf5220fd	-0.82081586
143	0xbe189a39	-0.14902581
144	0x3eda465e	0.4263181
145	0xbdd22675	-0.10261241
146	0xbf104e6c	-0.5636966
147	0x3d0cc9bb	0.034372073
148	0x3d0daebd	0.03459047
149	0xbf2813d0	-0.6565523
150	0xbe57b489	-0.21064962
151	0x3e41b614	0.18917114
152	0xbd0ae0a7	-0.03390565
153	0xbf107e63	-0.5644285
154	0xbe3b7018	-0.18304479
155	0xbe9a8e93	-0.301869
156	0xbe89e2cc	-0.26930845
157	0x3e0ffad2	0.14060524
158	0xbf375f1e	-0.7162951
159	0xbebc01d6	-0.3672015
160	0xbe31463a	-0.17311946
161	0x3e1ddbdf	0.15415905
162	0x3f5bcabd	0.8585623
163	0xbb77a6ee	-0.0037788707
164	0xbee117ea	-0.43963557
165	0x3e1da80b	0.15396135
166	0x3e227189	0.15863623
167	0x3df118b8	0.11772293
168	0xbdaad45a	-0.08341284
169	0xbee09267	-0.43861696
170	0xbec2333c	-0.37929714
171	0xbf14c077	-0.5810618
172	0x3e70c9a7	0.23514424
173	0x3e006c5e	0.12541339
174	0xbea876b9	-0.32903078
175	0x3e969942	0.294138
176	0x3e4ac3b4	0.19801217
177	0xbd675a91	-0.056482855
178	0x3f0c7f77	0.54881996
179	0xbe91f0d3	-0.28504047
180	0xbea4d225	-0.32191578
181	0xbd398b2c	-0.04529874
182	0xbe964460	-0.2934904
183	0x3db2ab7f	0.087241165
184	0x3e59bd60	0.21263647
185	0xbe8535e9	-0.26017693
186	0xbdf8d9ed	-0.12150941
187	0xbece23a3	-0.40261564
188	0x3e9845c4	0.29740727
189	0x3f0fe78a	0.56212676
190	0x3e725e7a	0.23668852
191	0xbe1e6665	-0.15468748
192	0xbea036e1	-0.3129187
193	0xbf07076f	-0.5274572
194	0x3c862a33	0.016377544
195	0xbe24990d	-0.16074009
196	0x3e049f47	0.12951384
197	0xbebb635a	-0.36599237
198	0x3d8a3760	0.06748843
199	0x3f0cf8ec	0.55067325
200	0x3eb65589	0.35612133
201	0x3e99a069	0.30005196
202	0xbe1e0363	-0.1543098
203	0x3e0d8f71	0.1382425
204	0xbe4d694d	-0.200597
205	0xbe963964	-0.2934066
206	0x3eb0e7e7	0.34551927
207	0x3d134ae3	0.03596009
208	0x3f26e44c	0.65192103
209	0xbf55d315	-0.8352521
210	0x3f0a91be	0.54128635
211	0xbed268b6	-0.41095513
212	0x3d9043d3	0.070441864
213	0x3ea8c7b4	0.3296486
214	0x3eac9f53	0.33715305
215	0xbe3f072b	-0.18655078
216	0xbe0a6084	-0.1351338
217	0xbeeff7dd	-0.46868792
218	0x3e6e4f60	0.23272467
219	0xbe3071ef	-0.17230962
220	0xbdb4e32d	-0.08832393
221	0xbf27e18e	-0.65578544
222	0x3e027332	0.12739256
223	0x3ecbcbb3	0.39803848
224	0x3e3cf6e3	0.18453555
225	0xbee326f6	-0.44365662
226	0x3eb2f29c	0.3495072
227	0xbede80ac	-0.43457544
228	0xbf09e664	-0.53867173
229	0xbe99b484	-0.30020535
230	0x3e29eb1b	0.16593592
231	0xbea298ce	-0.31757206
232	0x3eb7bdb8	0.3588693
233	0xbe2378bd	-0.15964027
234	0x3efba735	0.49151006
235	0xbe78b523	-0.24287848
236	0xbef26e69	-0.4734986
237	0xbe076a45	-0.13224132
238	0xbe8713f4	-0.2638241
239	0xbcccfe23	-0.025023526
240	0xbf4afd55	-0.79292804
241	0xbe39c35f	-0.18140934
242	0xbf326f05	-0.6970065
243	0x3d7c9602	0.061666496
244	0x3e105d03	0.14097981
245	0xbe8524ef	-0.2600474
246	0xbf12c7bd	-0.57336026
247	0xbe7f79a9	-0.24948753
248	0xbdf66114	-0.12030235
249	0xbde7883f	-0.11305284
250	0xbe43f50d	-0.19136448
251	0x3eb345a4	0.3501407
252	0xbd90de39	-0.070736356
253	0x3e918b02	0.28426367
254	0xbf5b66a5	-0.857035
255	0x3eccf0c1	0.4002743

weight_ih_l1 f4 [384, 128]
0	0xbd749c12	-0.059719153
1	0xbd6c1b7a	-0.05764339
2	0xbd808691	-0.062756665
3	0xbd407f39	-0.04699633
4	0x3cdf9cb0	0.027296394
5	0x3d8e05af	0.06934678
6	0x3ccf2e18	0.025290534
7	0xbd26b45b	-0.040699344
8	0xbc0d9120	-0.0086405575
9	0x3d86d43f	0.065834515
10	0xbd5e529b	-0.054277997
11	0x3d71121e	0.05885517
12	0xbcc745f0	-0.024325341
13	0xbd905a5a	-0.07048483
14	0x3d16b546	0.03679397
15	0x3d8aafd7	0.0677182
16	0xbbfd0520	-0.007721558
17	0xbc84593c	-0.016155832
18	0x3ca2bbf4	0.019865014
19	0x3cc73b38	0.02432023
20	0x3d059f40	0.032622576
21	0x3d8cf105	0.06881908
22	0xbd9f533c	-0.077795476
23	0xbc722770	-0.01477991
24	0x3cb8f3c4	0.022577174
25	0xbd371db3	-0.044706058
26	0xbb9b18c0	-0.004733175
27	0x3c794fe8	0.015216805
28	0xbce47dba	-0.027891982
29	0x3bcb0350	0.0061954632
30	0xbca40bb0	-0.020025104
31	0x3abab280	0.0014243871
32	0xbb473180	-0.0030394495
33	0x3d79e94a	0.061013497
34	0x3da684d5	0.081308044
35	0xbd9c4843	-0.0763097
36	0xbd539381	-0.051654343
37	0xbda89e22	-0.082332864
38	0x3c6d0b78	0.014468066
39	0x3d81d8ed	0.063402034
40	0x3d8398d1	0.06425632
41	0xbcbb1a7c	-0.022839777
42	0xbd9e9396	-0.077429935
43	0x3d21b476	0.03947874
44	0xbc624668	-0.0138107315
45	0xbda0de1e	-0.078548655
46	0x3d401bf6	0.046901666
47	0x3d9cdf91	0.076598294
48	0xbda18e71	-0.07888497
49	0xbc865338	-0.016397104
50	0x3da40d8b	0.080103956
51	0x3db01c13	0.08599105
52	0x3da81d61	0.082087286
53	0x3db3a5a3	0.08771827
54	0x3d16566e	0.03670352
55	0x3d15f932	0.036614604
56	0x3da5a679	0.08088393
57	0x3d9d8601	0.07691575
58	0x3ce5a3e8	0.028032258
59	0xbc1c13c8	-0.009526201
60	0xbc3ec040	-0.011642516
61	0xbd33f163	-0.043931376
62	0xbd9fd894	-0.07804981
63	0xbd6a7360	-0.057238936
64	0x3d0ecd96	0.03486403
65	0x3c746cb0	0.014918491
66	0x3d54406e	0.051819257
67	0xbcab0db0	-0.02088055
68	0xbda1db8e	-0.07903205
69	0xbdb2e3aa	-0.0873483
70	0xbd5c48ba	-0.053780295
71	0x3c7b2268	0.015328027
72	0x3d261f06	0.04055693
73	0xbc5373f0	-0.01290606
74	0x3da48a2d	0.080341674
75	0x3bab21b0	0.0052225217
76	0xbc9f1640	-0.01941979
77	0x3d54d4fe	0.051960938
78	0xbc7277f8	-0.014799111
79	0x3daa1e9d	0.0830662
80	0x3da62f2d	0.08114467
81	0x3c40f768	0.011777736
82	0x3d24491a	0.040108778
83	0x3d8b53ff	0.0680313
84	0x3d5bd08e	0.05366569
85	0xbd882285	-0.06647209
86	0xbd02035a	-0.031741478
87	0x3d66eeae	0.056379966
88	0x3d0bed72	0.034161992
89	0x3d37844e	0.04480391
90	0x3d345d8e	0.044034533
91	0xbda5a14a	-0.08087404
92	0x3d0ba17c	0.03408955
93	0xbd9d8da6	-0.07693033
94	0xbbb88290	-0.0056307986
95	0xbcc42c84	-0.023947008
96	0x3d79d132	0.06099052
97	0xbd443297	-0.04789981
98	0xbd9fb05c	-0.0779731
99	0xbdaafa1d	-0.083484866
100	0xbced0eaa	-0.028937656
101	0x3a54dc00	0.0008119941
102	0x3c3c33f8	0.011487
103	0xbc63a7b0	-0.01389496
104	0x3d75fdd2	0.060056515
105	0x3d4246ea	0.04743091
106	0xbd61c69f	-0.05512106
107	0xbc347840	-0.011014998
108	0x3da0bb2d	0.07848201
109	0x3d70d492	0.058796473
110	0xbd0b72ed	-0.03404515
111	0x3d678e3a	0.056532122
112	0x3d1cc98e	0.038278155
113	0xbd0f903a	-0.035049655
114	0x3ad8ab40	0.0016530529
115	0xbd12ec5b	-0.035869937
116	0x3d499d52	0.049222298
117	0xbd8ae30c	-0.06781587
118	0xbd71a424	-0.058994427
119	0x3d0b0ff4	0.03395076
120	0xbcfd22aa	-0.030900318
121	0xbd8ec0ee	-0.06970392
122	0xbd9f6759	-0.07783384
123	0x3cdac368	0.026704505
124	0xbd825152	-0.06363167
125	0x3d4f9dc2	0.05068756
126	0xbcbd92f8	-0.02314137
127	0x3d53e5ce	0.05173283
128	0x3d5740b2	0.052551933
129	0xbb2a1ae0	-0.002595596
130	0x3d6814f6	0.056660615
131	0x3cf58544	0.029970773
132	0xbd9fa8af	-0.07795846
133	0x3d9b073b	0.075697385
134	0xbd8e69f2	-0.06953801
135	0x3c953a14	0.01821617
136	0x3c28c390	0.010300532
137	0xbc726ef0	-0.014796957
138	0xbcb900e4	-0.022583432
139	0x3cd8c8c8	0.026462927
140	0xbcd156a8	-0.025554016
141	0xbc99f5e8	-0.018794015
142	0xbd4d7b24	-0.050166264
143	0xbcdf75cc	-0.02727785
144	0xbd10d894	-0.035362795
145	0xbb79ae00	-0.0038098097
146	0x3db3ef75	0.08785907
147	0x3d8ee28f	0.06976806
148	0x3d867905	0.065660514
149	0x3daea66b	0.085278355
150	0xbd140b11	-0.036143366
151	0x3d128a4e	0.03577643
152	0x3d468a12	0.048471518
153	0x3db4becb	0.08825453
154	0x3c85dbac	0.0163401
155	0xbdabd928	-0.08391029
156	0x3d07aacc	0.03312187
157	0xbd848a26	-0.06471662
158	0x3d9101cb	0.0708042
159	0x3ce5b150	0.02803865
160	0x3d8fa5c1	0.07014037
161	0x3d4788f2	0.048714586
162	0xbdac7057	-0.084198646
163	0x3bf36300	0.007427573
164	0xbccb5604	-0.024821289
165	0x3d9c8635	0.076427855
166	0xbb3fb660	-0.002925299
167	0x3d1b978a	0.037986316
168	0x3c6cb718	0.01444795
169	0x3d763282	0.06010676
170	0x3db19497	0.086709194
171	0x3cc71140	0.024300218
172	0x3c5a1fe8	0.013313271
173	0x3d36b6e6	0.04460802
174	0x3d16c88a	0.036812343
175	0x3d212602	0.039342888
176	0xbd452f75	-0.04814096
177	0x3d53a152	0.05166752
178	0x3d5388de	0.0516442
179	0xbce6886a	-0.02814122
180	0xbced609a	-0.028976727
181	0xbd19cc31	-0.037548248
182	0x3d5f4b5a	0.05451522
183	0x3d92ecad	0.071740486
184	0xbdae2596	-0.08503263
185	0x3d9105e7	0.07081204
186	0xbd868e6e	-0.06570135
187	0x3d0065f2	0.031347223
188	0x3c5ad6c8	0.013356872
189	0x3ceef264	0.029168315
190	0x3d169446	0.0367625
191	0xbc051f28	-0.008125104
192	0xbc9c1cc4	-0.019056685
193	0xbd8303d0	-0.063972116
194	0x3d7ba8ee	0.0614404
195	0xbdaa057d	-0.08301828
196	0xbd60259d	-0.05472337
197	0x3db18f6f	0.08669936
198	0x3d9d856b	0.07691463
199	0x3d4aaa0a	0.049478568
200	0xbd92514d	-0.07144413
201	0x3d8e0389	0.06934268
202	0xbc8b54d4	-0.017008223
203	0x3d840f3f	0.064482205
204	0x3d847441	0.06467486
205	0xbd80e299	-0.0629322
206	0xbda0c54f	-0.07850134
207	0xbd6181b6	-0.055055343
208	0x3da92187	0.08258348
209	0x3d23ed16	0.040021025
210	0x3d7cfbc2	0.061763532
211	0x3c858d90	0.016302854
212	0xbd666f90	-0.056258738
213	0x3d61adae	0.055097274
214	0x3d7b5032	0.061355777
215	0xbd15f583	-0.03661109
216	0xbd13b883	-0.036064636
217	0xbc1c1488	-0.009526379
218	0x3d4b0652	0.049566574
219	0xbd0d9352	-0.034564324
220	0x3caf62f0	0.021409482
221	0xbbf26740	-0.0073975623
222	0x3cb0e7d4	0.02159492
223	0xbd877070	-0.066132426
224	0xbc8a8540	-0.016909242
225	0xbd996209	-0.07489402
226	0x3d95aa77	0.07307904
227	0x3cfaa44c	0.030595921
228	0x3baba5f0	0.005238287
229	0xbb375260	-0.0027972683
230	0xbb574c00	-0.0032851696
231	0xbc306af8	-0.010767691
232	0xbda1456c	-0.07874569
233	0x3da1a4cf	0.07892763
234	0xbcf41cba	-0.029798854
235	0x3c16f2b8	0.009213142
236	0x3c4d8cd8	0.012545787
237	0x3db21aeb	0.086965404
238	0x3c466588	0.012109168
239	0x3cf45ee8	0.029830411
240	0xbd0f4031	-0.034973327
241	0xbcb0c7f4	-0.02157972
242	0x3d2d78e2	0.04235161
243	0x3ce7e554	0.028307594
244	0xbd3e507c	-0.046463475
245	0xbd3e5652	-0.04646904
246	0xbd0c9364	-0.03432025
247	0x39e99500	0.00044552237
248	0xbc835220	-0.016030371
249	0xbd7b51fa	-0.061357476
250	0xbda691d6	-0.08133285
251	0xbd41c8cd	-0.04731064
252	0xbd934314	-0.071905285
253	0x3daea52d	0.085275985
254	0x3b283e00	0.002567172
255	0xbbfcc200	-0.0077135563

weight_hh_l1 f4 [384, 128]
0	0x3c5b3ac0	0.013380706
1	0xbcedc310	-0.029023677
2	0xbd9c82ad	-0.07642112
3	0x3d0daf0e	0.034590773
4	0x3d0dfca8	0.03466478
5	0x3dae6a53	0.085163735
6	0xbda92a3e	-0.0826001
7	0x3d8b13af	0.06790864
8	0x3d81aa55	0.063313164
9	0x3c6cd1c0	0.014454305
10	0x3c70ab50	0.014689282
11	0xbd7d9d1c	-0.06191741
12	0x3c5f4430	0.013627097
13	0x3d8b2889	0.06794841
14	0xbd2e1745	-0.04250266
15	0x3d937fad	0.072020866
16	0xbd93dad4	-0.072194725
17	0x3d598a3e	0.053110354
18	0x3cf179f8	0.029477105
19	0xbdad47ea	-0.08460982
20	0x3da7089d	0.0815594
21	0xbd71ce26	-0.05903449
22	0x3d13b21a	0.036058523
23	0x3d1be6d2	0.038061924
24	0xbcadc800	-0.021213531
25	0xbca89e7c	-0.020583384
26	0xbbe7a090	-0.007068701
27	0xbd2fa850	-0.042885125
28	0x3d5c5e06	0.053800605
29	0xbd5ad3ac	-0.053424522
30	0x3d8785fd	0.06617353
31	0x3d94944d	0.07254849
32	0x3d5dc9e2	0.05414761
33	0x3bee93a0	0.007280782
34	0xbd4ef28f	-0.05052429
35	0x3d16071e	0.03662788
36	0x3d755262	0.05989302
37	0x3d25fcfe	0.040524475
38	0x3cba2328	0.022721842
39	0x3ca1d798	0.019756123
40	0x3d0a81ca	0.033815183
41	0x3d3f4ae6	0.046702288
42	0xbc22ead8	-0.009943686
43	0x3d297342	0.041369684
44	0x3d6b4daa	0.057447113
45	0x3d8222d5	0.063543
46	0xbda9375e	-0.082625136
47	0x3d1df6ba	0.038565375
48	0xbd9a0a5b	-0.075215064
49	0xbd990f14	-0.07473579
50	0x3ca42130	0.020035356
51	0x3d4a128e	0.0493341
52	0xbdb0b8c8	-0.08628994
53	0xbd89d186	-0.067294165
54	0xbc8dec14	-0.017324485
55	0xbcad3f1c	-0.021148257
56	0xbd8875a9	-0.06663067
57	0x3d68f4b2	0.056873985
58	0xbd91a40a	-0.07111366
59	0xbd95a58b	-0.073069654
60	0x3d493bfe	0.04912948
61	0x3d114818	0.035469145
62	0x3d940ea9	0.07229359
63	0x3ae80940	0.0017702952
64	0x3cc97030	0.024589628
65	0x3d681ec2	0.056669958
66	0xbc3c31c8	-0.011486478
67	0xbcaba8f0	-0.02095458
68	0xbd428ffe	-0.047500603
69	0x3d05369a	0.032522775
70	0x3d71e8ce	0.05905991
71	0x3cad4968	0.021153167
72	0x3ce68750	0.028140694
73	0xbd0f4541	-0.034978155
74	0x3d058d84	0.032605663
75	0x3db061f1	0.08612431
76	0xbb581cc0	-0.003297612
77	0x3d1c0d42	0.03809858
78	0x3daaaff1	0.083343394
79	0xbb8708e0	-0.004120931
80	0xbd804e9e	-0.06264995
81	0x3d8cba0d	0.06871424
82	0xbdad59f7	-0.08464425
83	0xbd606c2f	-0.054790672
84	0xbd6b7fde	-0.05749499
85	0x3d414576	0.047185384
86	0x3c91e1e4	0.017807908
87	0x3d129672	0.035788007
88	0x3d02b30e	0.03190904
89	0xbcffaa22	-0.031209055
90	0xbd9257d5	-0.07145659
91	0xbd4f2db7	-0.050580706
92	0xbda419b9	-0.08012719
93	0xb9b9c400	-0.0003543198
94	0xbcbdbd18	-0.023161456
95	0xbc15dbb0	-0.009146616
96	0xbd922bd8	-0.07137269
97	0x3afebec0	0.001943551
98	0x3cd3e88c	0.025867723
99	0xbd8ecc4c	-0.0697256
100	0xbd9fd850	-0.0780493
101	0xbd501a6e	-0.050806455
102	0xbd60014f	-0.054688748
103	0xbb86a990	-0.004109569
104	0xbb0b71a0	-0.0021277443
105	0x3d86c14d	0.06579838
106	0x3d7c7b2a	0.061640896
107	0x3d1668c2	0.036721
108	0xbd7ac22b	-0.06122033
109	0xbb9f6200	-0.0048639774
110	0xbd228b39	-0.039683554
111	0xbd3bf95b	-0.0458921
112	0x3db0f417	0.086403064
113	0x3d4750ca	0.04866103
114	0xbca5934c	-0.020211838
115	0xbc9c7ea8	-0.019103363
116	0xbd4a32ca	-0.049364842
117	0x3c9d4a9c	0.019200616
118	0xbd9be179	-0.07611365
119	0x3cef9b58	0.029248878
120	0xbd3bc773	-0.045844506
121	0xbd5362ac	-0.051607773
122	0xbd7c861f	-0.061651345
123	0xbd0060c9	-0.0313423
124	0xbd825df4	-0.063655764
125	0x3d46167a	0.04836128
126	0xbcf5ad26	-0.02998979
127	0xbc004a18	-0.007830165
128	0x3daf68c7	0.085649066
129	0xbd4e01b1	-0.05029458
130	0xbb71af40	-0.0036878139
131	0x3d0624e8	0.03275004
132	0xbd291a1b	-0.04128466
133	0x3d46d06e	0.048538618
134	0xbd183842	-0.037163027
135	0x3c01ef18	0.00793054
136	0xbb1cdee0	-0.0023936555
137	0xbd611fc1	-0.054961924
138	0x3d1e67b6	0.038673125
139	0x3ce2e410	0.02769664
140	0x3d83a29d	0.064275004
141	0x3d87078d	0.06593237
142	0x3d3c7f1a	0.04601965
143	0x3cfd1b7c	0.030896895
144	0xb83f7000	-4.5642257e-05
145	0x3cd48ab0	0.025945038
146	0xbd3d7eda	-0.046263553
147	0x3daa6443	0.08319905
148	0xbd30b057	-0.04313692
149	0x3d254d82	0.04035712
150	0x3a5bea80	0.000838913
151	0xbd9cca80	-0.07655811
152	0xbd0095cf	-0.03139287
153	0x3d324dd2	0.043531246
154	0x3db044f3	0.08606901
155	0x3c855d24	0.016279764
156	0xbd8ead10	-0.06966603
157	0xbbcf9890	-0.0063353255
158	0x3d7a8002	0.061157234
159	0x3d83472f	0.064100616
160	0x3d985841	0.07438708
161	0x3bc10b40	0.0058912337
162	0x3bf90810	0.007599838
163	0x3d39c44a	0.04535321
164	0xbc4a2bf8	-0.0123395845
165	0x3d36577e	0.044517033
166	0xbd958e4f	-0.07302534
167	0x3c0f1ef8	0.008735411
168	0xbd68c79a	-0.05683098
169	0xbd76e652	-0.060278244
170	0xbd28576e	-0.041099004
171	0xbd780e46	-0.060560487
172	0xbcb97e10	-0.02264312
173	0xbc7b0278	-0.015320413
174	0xbda41f3c	-0.0801377
175	0xbd1d494d	-0.038399983
176	0xbb479240	-0.0030452162
177	0x3d475f46	0.048674844
178	0x3d1ea6fe	0.038733475
179	0x3b61d400	0.0034458637
180	0xbc682880	-0.014169812
181	0xbccb179c	-0.024791531
182	0xbca83898	-0.020534799
183	0xbd92a471	-0.07160271
184	0xbdae3869	-0.08506853
185	0x3d1048d6	0.03522571
186	0x3d70cede	0.058791034
187	0x3da7d7e3	0.08195474
188	0x3d9c5513	0.07633414
189	0x3d8fab69	0.07015116
190	0x3dacc15b	0.08435317
191	0x3d577dfa	0.052610375
192	0x3da7102f	0.08157384
193	0xbcf5b83e	-0.02999508
194	0xbd98b9a2	-0.07457282
195	0xbc8f6adc	-0.01750701
196	0xbc5366b8	-0.012902908
197	0x3be236d0	0.006903507
198	0xbb11d740	-0.0022253543
199	0xbda5affd	-0.08090208
200	0xbd0cd8bf	-0.034386393
201	0xbccc82cc	-0.024964713
202	0xbd54c08e	-0.051941447
203	0xbc4bad18	-0.0124314055
204	0xbbf69f00	-0.0075262785
205	0x3be451e0	0.006967768
206	0x3c328f10	0.010898367
207	0xbd74f85c	-0.059807166
208	0x3d9862db	0.0744073
209	0x3cff618c	0.031174444
210	0x3cc99d98	0.02461128
211	0x3db3f92d	0.08787761
212	0xbd514775	-0.051093537
213	0x3d8a2e17	0.06747072
214	0x3d225c02	0.039638527
215	0x3d2ea82a	0.042640842
216	0x3d9ece43	0.07754185
217	0x3dad06b5	0.08448545
218	0x3cdf4698	0.027255341
219	0x3da4f4e7	0.08054524
220	0xba56af00	-0.0008189529
221	0xbca89144	-0.02057708
222	0xbcddc8a2	-0.027073208
223	0x3db3855d	0.087656714
224	0xbbf21440	-0.007387668
225	0xbd302f42	-0.04301382
226	0x3cab2208	0.02089025
227	0x3bff1890	0.0077849105
228	0xbd997255	-0.0749251
229	0xbc2df4c8	-0.010617442
230	0x3d9c32ed	0.07626901
231	0x3d90012f	0.07031476
232	0x3ace5800	0.0015742779
233	0xbd2cea55	-0.042215664
234	0x3c1e1240	0.009647906
235	0x3d39c31a	0.04535208
236	0x3d366822	0.044532903
237	0xbd9e6c6a	-0.07735522
238	0x3be88b20	0.007096663
239	0xbd89ea99	-0.06734199
240	0xbcadb2fc	-0.02120351
241	0xbd62f12f	-0.05540579
242	0x3ca31910	0.019909412
243	0x3d942b9d	0.07234881
244	0xbd181e53	-0.037138294
245	0x3c5f6b18	0.013636373
246	0xbd72ae78	-0.059248418
247	0x3d7ceb3e	0.061747782
248	0x3d10dd38	0.03536722
249	0xbc5fe348	-0.013665028
250	0xbd1ffab2	-0.03905744
251	0x3c0c6790	0.008569613
252	0xbc6a3c58	-0.014296614
253	0xbd5b0cdf	-0.05347907
254	0xbd147831	-0.036247436
255	0x3d5e07ae	0.054206543

bias_ih_l1 f4 [384]
0	0x3d3cc68a	0.04608778
1	0xbda55e1d	-0.08074591
2	0xbc836124	-0.016037531
3	0x3c5e1ec0	0.013557136
4	0x3d5f0a2e	0.054453067
5	0x3d82593d	0.06364677
6	0xbce0657c	-0.027392142
7	0x3d967343	0.07346203
8	0x3cc3c3c0	0.023897052
9	0x3da177d1	0.07884181
10	0xbc7bf628	-0.015378512
11	0x3d14b5ca	0.03630618
12	0x3d375142	0.044755228
13	0xbd4bc065	-0.04974403
14	0xbda46116	-0.0802633
15	0x3d90be1f	0.07067513
16	0xbd56da11	-0.052454058
17	0x3d92c393	0.07166209
18	0x3dae4631	0.08509482
19	0x3d7cfc16	0.061763845
20	0xbd76d398	-0.060260385
21	0xbd5dc41a	-0.054142095
22	0xbb73f7c0	-0.0037226528
23	0xbdafd791	-0.08586038
24	0x3d22a11e	0.039704435
25	0x3ca546e0	0.020175397
26	0xbd1afb9e	-0.037837617
27	0xbd28ffc4	-0.041259542
28	0xbd8b4f10	-0.06802189
29	0x3ce7bc18	0.028287932
30	0xbd2f5a63	-0.04281081
31	0xbd442618	-0.04788789
32	0xbb512860	-0.0031914935
33	0xbda92c5a	-0.082604125
34	0x3d6f5912	0.058434553
35	0x3ab7af40	0.001401402
36	0xbd9abdc7	-0.075557284
37	0xbd3ab564	-0.045583144
38	0x3d619f86	0.055083774
39	0x3d1852a6	0.037188195
40	0x3dab6555	0.08368937
41	0x3ce8fb20	0.028440058
42	0x3d2a130e	0.04152208
43	0xbd68bcf3	-0.05682082
44	0xbd1e912d	-0.03871267
45	0xbda28b70	-0.07936752
46	0xbda4cf5d	-0.08047364
47	0x3c722c40	0.014781058
48	0x3daa9a39	0.08330197
49	0x3d909805	0.070602454
50	0xbd9ad1a5	-0.07559518
51	0xbd8f7a79	-0.07005782
52	0x3d5ebe1a	0.054380514
53	0xbc1554f0	-0.009114489
54	0xbda123e7	-0.07868176
55	0x3cc53470	0.024072856
56	0x3dae8821	0.08522058
57	0xbc408170	-0.01174961
58	0x3d188e0a	0.037244834
59	0xbd4d1bf5	-0.05007549
60	0xbd398101	-0.045289043
61	0x3dac697b	0.08418556
62	0x3b660da0	0.0035103336
63	0xbc04b118	-0.008098863
64	0xbbd81210	-0.00659395
65	0x3d1d9fd6	0.03848251
66	0x39879500	0.0002586022
67	0x3b92d190	0.004480548
68	0x3cdb7878	0.026790842
69	0x3da8c901	0.082414635
70	0xbd983de4	-0.0743368
71	0x3d10a176	0.03531023
72	0xbda6731b	-0.081274234
73	0x3d80f931	0.062975295
74	0x3dab2d0d	0.08358202
75	0x3d9df42d	0.077125885
76	0x3d89c643	0.067272685
77	0x3ced69ec	0.028981172
78	0x3d400f7e	0.046889775
79	0xba8e17c0	-0.0010840818
80	0x3d7db89a	0.061943628
81	0xbdaa0b3d	-0.08302925
82	0x3be275c0	0.0069110096
83	0xbd1230b5	-0.035690982
84	0x3d9674a1	0.07346464
85	0x3cfaaba4	0.030599423
86	0x3c51a0d8	0.012794696
87	0xbd414cf8	-0.047192544
88	0x3d1e8856	0.03870424
89	0xbcd6910c	-0.02619221
90	0x3c3767a8	0.011194147
91	0x3d30b59e	0.043141954
92	0xbda04d84	-0.07827285
93	0x3d48d772	0.04903359
94	0xbda57bbd	-0.08080242
95	0xbd4ef906	-0.050530456
96	0xb9663800	-0.00021955371
97	0x3d2f8fa2	0.04286159
98	0xbc37ace0	-0.01121065
99	0xb9f28400	-0.00046256185
100	0x3d8a9921	0.06767488
101	0xbd5d5e1c	-0.054044828
102	0xbd4e9e92	-0.050444193
103	0x3da39771	0.079878695
104	0x3c6db6c0	0.014508903
105	0x3d18b51a	0.037282087
106	0x3d03cfc0	0.032180548
107	0x3cbf58c8	0.023357764
108	0x3d76fe5e	0.060301177
109	0xbc78e918	-0.015192293
110	0x3d90f5d7	0.0707814
111	0x3b9e9370	0.0048393533
112	0x3aa545c0	0.0012609288
113	0xbc3c3f68	-0.011489727
114	0xbd0e425a	-0.034731247
115	0x3d561f7a	0.052276112
116	0x3d51526e	0.051104
117	0x3c90ba40	0.017666936
118	0x3c7ca718	0.015420698
119	0x3d971a6f	0.07378089
120	0xbd8e5276	-0.06949322
121	0xbd3708f3	-0.04468627
122	0xbd8c54c1	-0.06852103
123	0x3d0d6e2c	0.034528896
124	0x3ca3b6c0	0.019984603
125	0x3c130218	0.008972667
126	0xbd2ed4ff	-0.042683598
127	0x3c577c18	0.013152145
128	0x3b3e5640	0.0029043108
129	0xbc352290	-0.011055604
130	0x3d369b5e	0.044581763
131	0x3ca9ac70	0.020712107
132	0x3d897eeb	0.06713661
133	0xbda8e563	-0.08246877
134	0xbd9989b5	-0.07496969
135	0x3d258d76	0.04041811
136	0xbd1de0fc	-0.03854464
137	0xbd9be8d4	-0.07612768
138	0xbd061748	-0.032737046
139	0xbd20d1de	-0.039262645
140	0x3d792b4a	0.0608323
141	0x3caacab0	0.020848602
142	0x3daa63db	0.08319827
143	0x3d8b33b5	0.06796972
144	0xbd86b098	-0.06576651
145	0x3d75fbe2	0.060054667
146	0x3db4ec45	0.08834127
147	0xbb4b9a20	-0.0031067207
148	0x3bf5cce0	0.0075012296
149	0xbd14e612	-0.036352225
150	0xbcecc806	-0.028903972
151	0x3cba65d0	0.022753626
152	0x3d846243	0.064640544
153	0x3d1a5e8a	0.037687816
154	0x3d5c0592	0.05371625
155	0xbd32614c	-0.04354982
156	0x3d2313ee	0.03981393
157	0x3d8268e5	0.06367663
158	0x3d284802	0.041084297
159	0xbd2ef22d	-0.042711426
160	0xbbcb2740	-0.0061997473
161	0x3d97f223	0.07419231
162	0xbd896c38	-0.06710094
163	0xbb98f040	-0.004667312
164	0xbd74ac7e	-0.059734814
165	0x3d8300b1	0.06396616
166	0xbccd72a0	-0.025079072
167	0xbd997b1b	-0.07494184
168	0xbcd1b134	-0.025597192
169	0x3b765f20	0.003759332
170	0x3c8ad950	0.016949326
171	0xbd8e7c7f	-0.069573395
172	0x3d2725ba	0.040807463
173	0xbd7842d6	-0.060610615
174	0xbc6f8bd8	-0.014620744
175	0x3b84b810	0.0040502623
176	0xbda8a610	-0.08234799
177	0x3d91df57	0.07122677
178	0xbd39b5f8	-0.045339555
179	0xbd02f737	-0.031974044
180	0x3d0f56e6	0.034994982
181	0x3d97408d	0.07385359
182	0xbd8b7e79	-0.06811232
183	0xbc06b470	-0.008221731
184	0x3d4ee6ea	0.050513186
185	0xbda83cbe	-0.08214711
186	0xbcc8468c	-0.024447702
187	0xbd90986c	-0.07060322
188	0xbd561852	-0.052269287
189	0x3d919625	0.07108716
190	0xbd5cea41	-0.05393434
191	0x3cb13cdc	0.021635465
192	0xbda9226e	-0.0825852
193	0xbd83a5c2	-0.064281
194	0xbd6e2886	-0.058144115
195	0x3cfc6b44	0.030812867
196	0x3cba1548	0.022715226
197	0xbdb195f4	-0.086711794
198	0xbd9c3b09	-0.076284476
199	0x3d9be275	0.076115526
200	0xbca25f80	-0.019820929
201	0xbd907ab9	-0.070546575
202	0x3d3e84fe	0.04651355
203	0xbd2ed5d3	-0.042684387
204	0x3a92a180	0.0011187047
205	0xbd91cb2e	-0.071188316
206	0x3c5b1720	0.013372213
207	0xbdb3d2a5	-0.08780412
208	0xbdb4d8b7	-0.088303976
209	0x3d5bf252	0.05369789
210	0xbcc17a0c	-0.023617767
211	0xbdb1a4d6	-0.08674018
212	0x3c5c6560	0.013451904
213	0x3d88b2c7	0.06674724
214	0x3da0d781	0.07853604
215	0x3da84505	0.082162894
216	0x3d90f6ab	0.07078298
217	0x3b0eb2c0	0.0021774024
218	0xbd91f090	-0.07125962
219	0xbbe67530	-0.007033013
220	0xbd8ae7da	-0.067825034
221	0x3d4ae896	0.049538217
222	0xbcbdf378	-0.023187384
223	0x3db208df	0.08693098
224	0x3bc889e0	0.0061199516
225	0x3d8bc879	0.068253465
226	0xbdad66f7	-0.084669046
227	0x3c5266f8	0.0128419325
228	0x3d057e70	0.032591283
229	0xbc42c190	-0.011886969
230	0xbc028588	-0.007966407
231	0x3c454980	0.01204145
232	0xbd5dd066	-0.054153822
233	0xbda82d55	-0.082117714
234	0x3d9a9985	0.07548813
235	0xbd5f7d1a	-0.054562666
236	0x3d22f896	0.03978785
237	0x3dacd2e9	0.084386654
238	0x3adece80	0.0016998798
239	0xbd9d412e	-0.07678448
240	0x3d8d421f	0.06897377
241	0x3d6a6f36	0.057234965
242	0x3d28622e	0.041109256
243	0xbc15c400	-0.009140968
244	0x3c6efd90	0.014586821
245	0xbd8fc206	-0.07019429
246	0xbd72d56c	-0.059285566
247	0xbd7fe74a	-0.062476434
248	0xbd56aa8c	-0.05240874
249	0xbd6e0430	-0.058109462
250	0xba9dfc00	-0.0012053251
251	0xbd62f6b8	-0.05541107
252	0x3d83ca99	0.06435127
253	0x3cc8d49c	0.024515443
254	0xbd9302c4	-0.07178262
255	0x3d4fb39e	0.050708406
