models/GRU_model_8.pt (torch_old, 742753 bytes, 11 tensors)

weight_ih_l0 f4 [384, 58]
000000 87 cc 47 3e 08 48 92 bd ce 3e c7 3d 96 3d 12 3b
       0.19511615 -0.07142645 0.09728776 0.002231454
000010 83 0b 94 bd 99 b9 c4 3d b4 d0 26 3d 61 97 2e 3e
       -0.07228758 0.096057124 0.04072638 0.17049934
000020 6a 3d 06 bf c9 e3 f4 bd 12 fe a6 be 62 3b a8 3e
       -0.5243746 -0.11957509 -0.32615715 0.32857805
000030 72 57 af 3d 34 31 33 be ca d4 2c 3e 4a ea b4 3c
       0.08561601 -0.17499238 0.16878048 0.022084374
000040 c6 50 8e bd c1 53 44 3e 64 5a a7 be dd 9b 0a 3e
       -0.06949 0.19172575 -0.3268615 0.1353602
000050 15 be 75 be 05 55 f9 3d 37 4d 2c bc 2c b0 2d bd
       -0.23998292 0.12174419 -0.010516456 -0.04240434
000060 54 d6 c6 bd e4 b6 0d 3d 77 82 93 bc 59 8c ee 3c
       -0.097088486 0.034598246 -0.018006546 0.029119657
000070 86 ce d7 3c b6 be 43 3d 2e 65 35 3d 38 6f 2f bd
       0.026343595 0.047789298 0.044285946 -0.042830676
000080 fa 39 2e bd e8 df dc bc 21 09 6e bd e3 60 45 bc
       -0.04253576 -0.026962236 -0.058114175 -0.012047025
000090 e9 7b 29 bd 80 b7 6d bc 80 97 a0 bd 29 d1 99 3d
       -0.041377936 -0.014509082 -0.07841396 0.07510597
0000a0 1d 3b 77 bc 56 16 e9 bc 8c 40 d7 3b d3 7f 6a bd
       -0.015089777 -0.028453033 0.006568974 -0.05725081
0000b0 af e7 a6 bd 3c 5c d2 bc 74 5f 69 3d 02 32 1d 3d
       -0.08149659 -0.025678746 0.056975797 0.03837777
0000c0 fb 75 10 3d da 71 dc bc de 84 ed bb 09 21 2c 3d
       0.035268765 -0.026909757 -0.007248505 0.042023692
0000d0 ad 1d 56 3e b1 ef 56 3d bd a6 56 bd c6 9c 6c 3d
       0.20909758 0.05247468 -0.052405108 0.0577667
0000e0 a7 3e 24 39 d8 cc 85 3d b5 96 43 3d a0 c1 ec 3d
       0.00015663599 0.065332115 0.047751147 0.115603685
0000f0 8f df 35 3d 6d 99 8e 3d 1d bd 28 bd ee 6b a9 bd
       0.044402655 0.069628574 -0.041195977 -0.08272539
000100 12 bb e3 3d 01 56 71 bd 6a 5d 6e bd 78 87 b3 bc
       0.11119665 -0.05891991 -0.058194555 -0.021915182
000110 3a 19 c9 3b 92 09 2a 3c 64 a2 60 be fb c0 b7 be
       0.0061370404 0.010378258 -0.21936947 -0.3588942
000120 1c e8 56 3e a8 51 76 3d 52 69 07 3b dc a1 f7 bd
       0.2098698 0.060136467 0.002066214 -0.12091419
000130 30 bf 22 be 85 2c 1e 3e 30 45 ae bc 3f ff e1 bd
       -0.15893245 0.1544667 -0.021273226 -0.110350125
000140 d0 7c dd bd bd 8b 15 bd d1 8b af bd 3f 2f 9f bd
       -0.10814822 -0.036510218 -0.0857159 -0.07772683
000150 8d 03 a2 bd 00 82 bf 3c 14 55 38 bd c1 7b 42 bc
       -0.079108335 0.023377419 -0.04500301 -0.011870326
000160 de 33 f7 bc ae f9 8f bd 16 b6 bf bc e4 8d 99 3c
       -0.0301761 -0.070300445 -0.023402255 0.018744417
000170 22 79 a0 3d a9 a6 70 3d d5 7f 98 bd 3b 68 2e 3d
       0.07835604 0.05875269 -0.07446257 0.04257987
000180 25 e4 87 3d 85 8b b5 3d b1 0b b1 3d b0 a8 70 bd
       0.06635312 0.08864502 0.08644808 -0.058754623
000190 7e e3 1e 3d 23 c4 0c bd fb c1 11 bd 1e 5d 5b bd
       0.038791172 -0.034366738 -0.035585385 -0.0535556
0001a0 e0 06 05 3c e4 0a 10 bd c8 55 a3 3d 84 24 68 3d
       0.008119315 -0.035166636 0.07975346 0.05667545
0001b0 5d f1 29 bc 62 47 0d bd 24 ed 60 3d 2a 9b 97 bd
       -0.010372487 -0.034491904 0.054913655 -0.07402642
0001c0 34 34 1f 3d 58 46 9b bc 0f 48 ae bd 93 71 b0 bd
       0.038868144 -0.018954441 -0.08509838 -0.086154126
0001d0 bd 03 63 be 75 f9 3b 3e 2d ec 55 3b fb ee 1d bd
       -0.22169395 0.18356879 0.0032641992 -0.038557988
0001e0 37 a4 37 be d7 3e 9f 3d 55 08 fc bd 25 9e 46 be
       -0.17933737 0.077756576 -0.12306277 -0.19396265
0001f0 a7 19 36 3d 8c c0 84 bd 57 f1 15 3d 0d c3 b6 3e
       0.044458058 -0.06482038 0.036607113 0.35695687
000200 d0 be f7 3c f0 14 66 3e 4d 5e 4c be eb 53 8e 3e
       0.030242354 0.22468925 -0.19957848 0.277984
000210 05 78 07 bd b2 cd d3 bb d0 a8 1a be 67 86 cc 3c
       -0.033073444 -0.00646373 -0.1510346 0.024966432
000220 dd 9c b6 3d e4 14 63 be 04 aa fe bd 6a 1d 97 bd
       0.08916638 -0.22175938 -0.12434772 -0.07378657
000230 60 5b 93 3b 92 c6 16 3e 8b d9 16 3d 33 86 be 3c
       0.0044969767 0.14724186 0.03682856 0.02325735
000240 6a bb bb bc 59 d7 92 3d bb 1b 4e bd 0f 60 86 bc
       -0.022916514 0.071699806 -0.050319415 -0.016403226
000250 55 77 1e 3d a1 f1 12 bd 42 62 2d bd db 7d a1 bd
       0.038688023 -0.035874967 -0.042330034 -0.07885333
000260 a3 4d af 3d e8 b0 8a bd da b1 6f bd 89 1e 6e bd
       0.0855973 -0.067720234 -0.05851922 -0.05813459
000270 72 11 28 3d bb 5a 81 3d db 01 94 3d 3c 9d e6 bc
       0.041032262 0.063161336 0.072269164 -0.028151147
000280 11 11 a8 bd 0c 27 e9 3b ae 23 2a 3d fa ac 08 3d
       -0.0820638 0.0071152505 0.041537933 0.03336809
000290 40 3d 40 bd a6 91 2d 3d 10 fa 37 3d bd c8 35 3c
       -0.046933413 0.04237523 0.044916213 0.011095223
0002a0 fc 5e 67 bd 85 71 a5 bd 0c eb 12 3d a8 c7 77 bd
       -0.05648707 -0.08078293 0.03586869 -0.06049314
0002b0 f1 86 10 3d 3a cc 36 3d 52 9c b6 3c a9 31 c4 3d
       0.03528494 0.04462836 0.022291336 0.095797844
0002c0 3b 96 5f be 4c db d7 bd 21 26 7d be 81 1d b7 3c
       -0.21834652 -0.105398744 -0.24721576 0.022352936
0002d0 46 5b 95 3e 5e a4 1c bb 57 c3 b8 be be 48 2c bc
       0.291712 -0.0023901681 -0.36086532 -0.01051539
0002e0 b3 4d 21 3b cc f8 0d be 37 76 f7 3d 08 51 83 bb
       0.0024612963 -0.1386444 0.120830946 -0.0040074624
0002f0 8a 1f 85 3e 80 ae cb bc 4e 22 7d bd 32 45 ce bc
       0.26000625 -0.024863482 -0.061800294 -0.02517948
000300 31 62 0c 3c 86 cf 22 3b 3f 7f 99 be 75 f3 09 3e
       0.0085683325 0.0024842932 -0.29979894 0.13471778
000310 02 20 6c bd 87 41 9a bd fb 79 64 bc df 68 87 3d
       -0.057647713 -0.075320296 -0.013945098 0.066117994
000320 17 18 e2 bc ff 03 c5 bd 6e 19 3b bc ea e5 c1 3b
       -0.027599378 -0.09619903 -0.011419637 0.0059173005
000330 98 30 12 bd 2e 71 29 bd 4f cb 8d 3c 37 61 e0 3b
       -0.035690874 -0.041367702 0.01730886 0.0068475264
000340 57 18 5b bd a4 eb 15 3d f7 29 21 3d b4 65 5a bd
       -0.05349001 0.036601678 0.03934666 -0.053319648
000350 3c 3c d9 bd eb 41 2f 3c 49 ff e7 3c 94 7d ba bc
       -0.10607192 0.010696868 0.028319972 -0.022764958
000360 1b 80 ee bc 30 4d 86 3d 8d 65 2f 3c 1f c0 5b 3d
       -0.02911382 0.06557691 0.010705364 0.053650018
000370 1c dc c3 3c f1 12 44 3d 1e e2 e0 3c bc 9f d4 bc
       0.023908667 0.047869626 0.027451571 -0.025955074
000380 21 66 42 3d c2 5c 97 bd 6f 2a 8c 3e 15 78 c6 bd
       0.04746068 -0.07390739 0.27376124 -0.096908726
000390 48 8b 9c 3d 91 f5 8e 3d f4 be e3 3c 6b 68 b8 3d
       0.07643753 0.06980432 0.027801014 0.09004291
0003a0 6d f9 c2 3e 6b b2 4d be ef 23 72 be b5 10 12 be
       0.38080922 -0.20087592 -0.2364652 -0.14264186
0003b0 40 e9 a6 be 3c f6 15 3e b9 13 c6 bd 54 46 73 bc
       -0.3259983 0.14644712 -0.096717305 -0.0148483105
0003c0 fb 36 5e be 79 a6 99 bd 99 ab d9 3c 16 38 37 bc
       -0.21700661 -0.07502455 0.026571082 -0.0111828055
0003d0 f3 42 a1 3d 89 96 2d 3d 47 fc 3c 3d 77 d0 5a 3e
       0.07874098 0.04237989 0.046139028 0.21368586
0003e0 66 f3 8d 3d cb 8a 1c be af 90 57 3e ea d1 d0 3d
       0.0693119 -0.1528732 0.21051286 0.10196288
0003f0 5f 03 9b bd d8 4c 62 bd e6 87 29 be f1 41 b0 3d
       -0.07569002 -0.055249065 -0.16555747 0.08606327

weight_hh_l0 f4 [384, 128]
000000 20 ab 3a be b8 67 12 bd a1 ac 96 bb 93 62 7a 3c
       -0.18229342 -0.035743445 -0.0045982157 0.015282291
000010 68 af 32 be e0 4e 27 3e b3 2d c3 3d 11 28 10 3d
       -0.17449725 0.16338682 0.09530201 0.03519446
000020 0f 68 3e 3e e0 00 b7 be 0f 2d 86 bc 6c b1 84 bd
       0.18594383 -0.35742855 -0.016378907 -0.06479153
000030 ce f2 ca bd 1f 8c 26 be 9a f5 ed 3d c2 11 11 3e
       -0.099095926 -0.1626439 0.116191104 0.1416693
000040 8c 99 be 3d 14 2b 2a be 6f 8a c3 bd 17 94 05 3e
       0.093066305 -0.16617996 -0.095478885 0.13044773
000050 bb 4a c5 3e e1 0d 10 3d 96 dd 10 3e 17 f0 f6 bd
       0.38533577 0.035169486 0.14147028 -0.12057512
000060 dd 42 b6 be 1b c4 af be e6 10 ec bc 3b e1 79 be
       -0.35597888 -0.34329304 -0.028816652 -0.24402325
000070 b2 78 7b 3e b8 86 79 3d 07 7c 07 be 71 59 2d bc
       0.2455776 0.060919493 -0.13230906 -0.0105804065
000080 9d 65 a5 bd 26 0d a9 bd e5 45 dd 3d eb 44 ba be
       -0.08076022 -0.08254461 0.10804347 -0.36380705
000090 6f 7c a1 bc fa 93 3d be 58 48 40 3e 31 28 f9 3e
       -0.019712655 -0.1851348 0.18777597 0.48663476
0000a0 3a f2 d4 3d 34 f9 2c bd ab 02 02 3e 6b 3a d3 bb
       0.103977636 -0.042229846 0.1269633 -0.006446173
0000b0 22 e0 a9 3d b3 a3 aa 3c ef a7 be bd 00 9b 04 3e
       0.08294703 0.020830011 -0.093093745 0.12949753
0000c0 f8 32 74 3e 35 85 a1 bd 7f fe 14 3e d6 ec ae bc
       0.23847568 -0.07886735 0.14550208 -0.021353167
0000d0 dd 67 53 3e b0 9d 15 bd 90 97 24 3e a6 87 b8 3b
       0.2064509 -0.036527336 0.16073442 0.005631405
0000e0 2b f0 8c 3e 58 c6 1d bc 2f a3 2a bd 3c 22 32 bd
       0.27526984 -0.009629808 -0.04165953 -0.04348968
0000f0 f5 9c 2d be 8b 74 40 bd 95 fd 0f 3e 91 93 01 be
       -0.16954406 -0.046986144 0.14061578 -0.12653948
000100 d1 39 88 3d dd 7a bc bc ba bf d4 bd 0c 7a c2 bd
       0.066516526 -0.023007805 -0.103881314 -0.09495935
000110 db 97 b3 3d 23 58 87 3d e0 81 f6 3c 9a 9b cc bd
       0.087691985 0.066086076 0.030091226 -0.09990616
000120 3a a1 b1 3c 7c 86 09 3f b1 26 72 be 39 b2 50 3d
       0.021683324 0.5372083 -0.23647572 0.050951216
000130 20 10 4e 3e 78 21 31 3d cc 28 d2 bd 2e f4 29 be
       0.20123339 0.04324481 -0.10261688 -0.16597053
000140 85 e8 78 3e c8 1c 82 be dc f8 20 bd 32 e7 0f bb
       0.24307449 -0.25412583 -0.03929983 -0.0021957872
000150 13 08 93 3e f5 a6 1b 3e 72 e5 d3 be a8 0c ab bc
       0.28717098 0.15200408 -0.4138599 -0.020880058
000160 15 c3 64 be 9f 1c 24 3d 09 e5 74 3e 41 fc 8b bd
       -0.22340043 0.040066358 0.23915495 -0.06835223
000170 51 b0 d8 3e 7f 73 60 b9 ab 47 51 be b9 8f bc 3d
       0.4232202 -0.0002140533 -0.20437495 0.092071004
000180 f9 85 66 3c 71 c3 d5 3c c3 fe 3f 3e 45 db 48 be
       0.0140700275 0.02609417 0.18749528 -0.19614895
000190 b6 28 5c 3e 79 82 30 be 98 da b4 bd 2c 9a 77 3d
       0.21499905 -0.17237271 -0.08830756 0.060449764
0001a0 2c 0b 28 3d 6a 8b b3 bd 03 32 ca 3e c2 e6 36 3e
       0.04102628 -0.087668255 0.3949128 0.17861465
0001b0 ba ee 44 bd 95 0f 0f be 69 61 1c bd cf b3 8f 3d
       -0.04807923 -0.13970788 -0.038178835 0.07016718
0001c0 d8 82 48 3e 1c 49 03 be f8 2e a0 bc 64 f1 11 be
       0.19581163 -0.12820858 -0.019553646 -0.1425224
0001d0 4a 0a 31 be b6 b4 4d 3e 57 0a 28 bd c3 d7 2d bd
       -0.17289081 0.20088467 -0.041025486 -0.042442095
0001e0 07 ff 17 3d 86 34 da 3d ef d6 4c be 3c 75 e1 bc
       0.037108447 0.10654549 -0.20003866 -0.027521722
0001f0 00 d0 2e 3e d1 8e b7 be 4b c8 03 be e5 27 3a be
       0.17071533 -0.35851148 -0.12869374 -0.18179281
000200 d5 ca c1 bd 7f 75 12 3c 92 87 3b 3d 77 5d 6d 3d
       -0.09462515 0.008939146 0.045783587 0.057950463
000210 d6 e5 1e 3c 7c 3b c1 3d b4 a6 e5 3c 93 d8 57 3e
       0.009698352 0.09435174 0.028033592 0.2107871
000220 ea f3 f1 3d d4 6f 01 3e 1b 80 a6 bd 8e aa fe 3b
       0.11814101 0.12640315 -0.08129903 0.0077717965
000230 9d 5b 9c 3d 85 86 80 3e 05 69 0a be 82 dc f8 bd
       0.07634661 0.2510263 -0.13516624 -0.121514335
000240 97 b3 0d be 85 e9 46 be 0d 71 d2 3d 27 d3 3f 3e
       -0.1383804 -0.19425018 0.10275469 0.18732892
000250 99 04 3c 3d 8f a5 56 3c ab 50 c2 3e d8 10 87 3d
       0.045902822 0.013100996 0.3795217 0.065950096
000260 7e 87 bf 3d f3 84 47 be 5b 0b d7 3d 1c 91 15 3d
       0.09352015 -0.1948431 0.10500213 0.03651534
000270 6b 29 87 be bd 35 6c 3e 5a 99 da 3d fc c6 87 be
       -0.26398787 0.23067375 0.10673781 -0.26519
000280 b8 4c 18 bd 0e 2b 79 be ca a2 16 3e 7b ed 74 3c
       -0.03718254 -0.2433283 0.14710537 0.014949198
000290 57 dd 69 be 91 91 88 bd 6f 13 0f bd 61 88 bc 3d
       -0.2283834 -0.066683896 -0.034930643 0.092057
0002a0 c1 72 c2 bd c2 9d 5b bd 17 c1 81 be 74 a7 9e bd
       -0.09494544 -0.053617246 -0.25342628 -0.07746783
0002b0 49 04 c4 bd cb e9 d9 3c 5e 2a b0 3e 54 21 b3 bd
       -0.0957113 0.026600739 0.34407324 -0.08746591
0002c0 58 76 34 3d f2 d4 5b 3e 37 6b 19 be e7 31 15 be
       0.044058174 0.21467951 -0.14982305 -0.14569817
0002d0 fe 7e 74 3c 5b a6 50 3e 93 64 13 bd 87 86 e4 3d
       0.014922855 0.2037596 -0.035984587 0.111584716
0002e0 c7 db db 3d fe f4 06 3d 8a 45 c8 3c 60 f4 7f bd
       0.107352786 0.032948487 0.024447221 -0.062488914
0002f0 11 36 8a bd aa b5 8a 3e 64 74 61 be 0a 28 0b be
       -0.067485936 0.27091724 -0.22017056 -0.13589492
000300 50 46 ae 3e a4 18 76 3d 93 ee 73 be a2 d4 8b be
       0.3403802 0.060082093 -0.23821478 -0.27310663
000310 2a 6c 3f 3e b8 9b 82 3b ac 21 97 bd b6 fb 4e be
       0.18693605 0.0039858483 -0.07379469 -0.20213208
000320 1c 7d 8b 3d e7 3d 78 3e 0f 60 ab be d0 b7 62 3c
       0.06810972 0.24242364 -0.33471724 0.01383777
000330 48 fa ff bb dc 5f db 3a 3c 93 5b be cc 37 79 be
       -0.0078118183 0.0016736942 -0.21442884 -0.24337691
000340 3e 94 2c be 4f d1 94 bd d8 d1 82 3d d8 01 11 3e
       -0.16853425 -0.07266485 0.06387681 0.1416086
000350 5c a3 6f 3e 0a db 32 be 17 26 23 3e 75 3f cd bd
       0.2340216 -0.1746637 0.15932499 -0.10021869
000360 4e 78 17 3d 11 fb 50 be 18 fb 24 bc b3 38 57 bd
       0.036979966 -0.20408274 -0.010069631 -0.052544307
000370 31 11 b2 3d 8e 13 93 bd ab de 1c be fe dc 87 3e
       0.08694685 -0.07181464 -0.15319316 0.2653579
000380 4b 1d a9 bc ab ab db 3e f3 44 af 3e 06 d1 65 bd
       -0.02064385 0.4290441 0.34232292 -0.056107543
000390 a1 fa a1 3d 70 99 0f 3e 74 c9 65 3e 10 a6 1d 3c
       0.07909132 0.14023376 0.2244013 0.009622112
0003a0 f2 d6 1b 3e 76 59 bc bb 13 6a 75 3d 06 98 37 3e
       0.15218714 -0.0057479693 0.059915613 0.17929086
0003b0 04 42 47 3e 56 67 7f bd e3 56 6b be fc c7 8d 3d
       0.19458777 -0.06235441 -0.22982363 0.069229096
0003c0 9d 72 52 3d 65 13 6e be 20 66 37 3e 68 81 8d 3b
       0.051378835 -0.23249586 0.17910051 0.004318405
0003d0 45 13 3a 3d 78 4c 45 3e a6 e0 98 bd 24 5f 63 bd
       0.045428533 0.19267452 -0.07464723 -0.055510655
0003e0 18 71 82 3e 73 35 fd bd 0a 27 fe 3d 9b 8d c7 bc
       0.2547691 -0.1236371 0.1240979 -0.024359515
0003f0 e1 2f f6 bd 76 c0 83 3c 36 6e 33 3c ca 8a 8e bd
       -0.12020851 0.016082983 0.010951569 -0.06960066

bias_ih_l0 f4 [384]
000000 0d c9 f8 be 4d 69 20 3d 77 69 55 be 2e 47 2b be
       -0.4859089 0.039162923 -0.20841013 -0.16726372
000010 ef 37 65 3c 41 c9 09 bc 10 90 df bd c7 18 f7 3d
       0.013990386 -0.008409799 -0.109161496 0.12065273
000020 ee b6 34 bd 67 c4 9c be 93 f0 8e be b9 bb 74 3e
       -0.044119768 -0.30618593 -0.2791792 0.23899736
000030 9a 41 81 be 4d 3c c9 be 60 aa 90 be bb 3c 69 be
       -0.25245363 -0.39303818 -0.28254986 -0.22777073
000040 d8 e9 af be 27 bc 88 3d 23 cd c3 be b3 c4 2e be
       -0.34358096 0.06676512 -0.38242444 -0.17067222
000050 c2 63 ae be cc 6e c5 3d 6a 00 48 3c 6f 6e 84 be
       -0.34060484 0.096402735 0.01220713 -0.25865504
000060 8c 11 01 be 79 d7 01 be 27 cd b3 bd da 4a c2 be
       -0.1260435 -0.12679853 -0.08779364 -0.37947732
000070 51 b9 0d 3e f4 ab 0c 3d e0 53 bb be 28 6b ca 3c
       0.13840224 0.034343675 -0.3658743 0.0247093
000080 03 fc 5b 3d 02 30 dc be 0d 9e 4b be fd 2f 37 be
       0.053707134 -0.43005377 -0.1988451 -0.178894
000090 70 75 20 bd d0 83 a0 3c aa ae 67 be 19 e6 f3 be
       -0.039174497 0.019594103 -0.22625223 -0.47636488
0000a0 bf 29 be be 55 dd 8d be eb 5b 4e be 64 e5 34 be
       -0.37141225 -0.27707925 -0.20152251 -0.1766563
0000b0 f0 36 e6 bd 52 af c1 bd f5 ae da bd 1e 0e 64 be
       -0.11240947 -0.09457268 -0.10677902 -0.2227101
0000c0 63 b4 09 bc 1f 38 5b 3e 96 31 85 bd 09 f9 29 bf
       -0.008404824 0.21408127 -0.065035984 -0.6639562
0000d0 72 b3 d1 bd 67 dd 02 be 7e 86 a0 be ec 01 b1 bc
       -0.102393046 -0.12779771 -0.3135261 -0.021607362
0000e0 d8 44 94 3e f4 b1 db be aa a1 14 be 6d e6 f4 3d
       0.28958774 -0.42909205 -0.14514795 0.11958013
0000f0 03 dc 0e 3e 45 d8 5d be 50 7f 9f bd d1 7d b4 bd
       0.13951115 -0.21664532 -0.07787955 -0.0881306
000100 f2 73 c0 be 23 bf 76 be 0c 33 9d bd 40 6e 0b be
       -0.3758846 -0.2409635 -0.07675752 -0.13616276
000110 b9 fd ab be 2d c6 10 bf 72 27 3a be 29 b0 79 be
       -0.33592013 -0.5655239 -0.1817911 -0.24383606
000120 89 7b 9b 3d 96 59 fc bd 70 2a 93 be 40 9b 02 be
       0.07591922 -0.12321775 -0.28743315 -0.12754536
000130 a8 7f 04 bf 14 c5 3f 3c 08 98 ca ba 98 27 85 3e
       -0.5175729 0.011704702 -0.0015456686 0.2600677
000140 4f 09 95 be c6 38 e4 bd 4f ad 12 3b 58 fc ac be
       -0.29108664 -0.11143641 0.0022381132 -0.33786273
000150 6b c2 35 be be 8f c0 be c2 98 27 be 21 ed 45 bd
       -0.17749946 -0.37609667 -0.16366866 -0.048321847
000160 9a 49 67 be ff f4 f7 3c fe e2 c9 be b8 d3 82 be
       -0.2258667 0.03026819 -0.39430994 -0.25552154
000170 b5 ff 0a bf d0 06 04 be df 64 9c bd 96 bb de be
       -0.5429643 -0.12893224 -0.07636427 -0.43502492
000180 7f 1e 21 be 92 46 50 be e5 62 3b bd f0 62 54 be
       -0.1573429 -0.2033942 -0.04574861 -0.20740867
000190 26 92 fa bd 6c 00 00 be b2 f8 1f bc 28 00 cf be
       -0.12234907 -0.12500161 -0.009763883 -0.40429807
0001a0 7f ce 6e 3e 01 0b a0 be f4 a5 88 be c9 d4 bf bd
       0.2332096 -0.31258395 -0.26689112 -0.093667574
0001b0 9f f1 4b be f4 42 14 be b4 57 99 be 95 0d a5 bd
       -0.1991639 -0.14478666 -0.29949725 -0.08059231
0001c0 a9 4a 1e bd a6 7a a7 be 98 d8 4e be 5f ce b1 bd
       -0.03864542 -0.3271076 -0.20199811 -0.0868194
0001d0 80 aa 8e be 5e 51 25 be 55 bc d5 3c aa 35 e6 be
       -0.27864456 -0.1614432 0.02609078 -0.44962817
0001e0 f4 cc a7 bc f3 9b 14 be 80 eb 22 be 75 48 a1 be
       -0.020483471 -0.14512615 -0.15910149 -0.31500593
0001f0 65 25 9e be 0e 7f 68 bd 65 68 50 be 1e 0c 4a be
       -0.30887905 -0.056761794 -0.20352323 -0.19731185
000200 af 59 1e 3e 17 66 c7 be d8 6d dc be b4 cc 93 3d
       0.15463899 -0.38945076 -0.43052554 0.072167784
000210 94 c9 b3 be 21 cc 0b bf 24 17 2d be 3f c6 5b be
       -0.3511473 -0.5460835 -0.16903359 -0.21462344
000220 1c 70 12 bf e3 8d d2 bd e9 21 f6 3c 03 55 b9 3e
       -0.57202315 -0.10280969 0.030045466 0.3619767
000230 63 98 07 bf b2 48 4d be dd 78 ac be a1 08 c0 be
       -0.529669 -0.20047262 -0.3368596 -0.37506583
000240 93 6b 97 3e 0c b4 91 3e ba 5c 50 be 83 ec b5 3e
       0.2957426 0.28457677 -0.20347872 0.35532007
000250 1f 69 f6 3d d7 f6 81 be 27 b5 11 3d f3 a0 79 3e
       0.12031769 -0.25383636 0.03557315 0.24377804
000260 63 b0 5b bd 74 4c 75 3e 99 b7 7d be 41 8b 4b 3e
       -0.053635012 0.23954946 -0.24777068 0.1987734
000270 71 1c a0 3e ab e6 15 bf 7e 6f 8e be 5e 31 63 3e
       0.312717 -0.58555096 -0.27819437 0.22186801
000280 f6 df 27 3e 83 e3 31 bf 81 ae 94 be 00 1d b0 be
       0.16394028 -0.6948778 -0.29039386 -0.34397125
000290 46 d7 10 3e f5 73 23 be 6e 1f 8a be 6a 74 2d bf
       0.1414462 -0.15962203 -0.26977104 -0.6775576
0002a0 77 97 fe be 4d 36 c4 3d 29 05 cd 3e 50 c4 0a bf
       -0.49724934 0.095806696 0.40043 -0.542058
0002b0 21 96 51 bf 62 5e 07 bf df 27 18 3e c4 89 e9 be
       -0.81869704 -0.5287839 0.1485896 -0.4561292
0002c0 ec a8 2a bd 41 38 c1 3e 07 d0 74 be e1 c8 47 3e
       -0.041665003 0.3773823 -0.23907481 0.19510223
0002d0 32 bb 09 3e 93 3d 0f be a5 eb 4a be 57 4d 3f bf
       0.13450316 -0.13988332 -0.19816454 -0.74727386
0002e0 d1 8a a8 3e 14 93 07 bf 66 f5 84 bd 01 f8 35 bf
       0.3291841 -0.529588 -0.064921185 -0.7108155
0002f0 7b 78 8b bf 1b db d4 3d 3f 21 be be cb aa 33 3e
       -1.0896143 0.103933536 -0.3713474 0.17545621
000300 bc 44 eb be 13 dc 25 bd 43 11 a0 3e 6a f3 2f 3f
       -0.45950878 -0.040493082 0.3126317 0.68730795
000310 a3 59 03 3e 98 01 06 3e d6 35 98 be 95 d9 39 3d
       0.12827162 0.13086545 -0.29728574 0.045373518
000320 6b ec 90 3d 1b 46 68 be 11 27 40 be a8 b4 30 be
       0.07076343 -0.22682993 -0.18764903 -0.17256415
000330 de 29 88 3e 2e 39 41 bf 47 fc 2b 3d 66 70 7a bd
       0.26594442 -0.75477874 0.041988637 -0.061142348
000340 39 9d 94 be 54 d5 28 3e 03 0f 64 be fe 3a 87 be
       -0.290262 0.16487628 -0.22271352 -0.26412195
000350 ef 72 22 3e af bb 92 be f8 e7 94 be a3 19 e7 be
       0.15864156 -0.28658816 -0.29083228 -0.45136747
000360 1a 89 dc be dd 25 58 3c db f6 a7 bc 30 b2 0a bf
       -0.4307335 0.013192621 -0.020503452 -0.5417814
000370 76 12 89 3f d3 69 aa 3c 76 e7 a2 be 10 1d b9 be
       1.0708759 0.020802414 -0.31817216 -0.36154985
000380 b7 fd 06 3d 42 8e fd bd bc 78 69 be 1e b0 67 bd
       0.032956805 -0.12380649 -0.22799963 -0.056564443
000390 f7 5f 23 3d b5 76 86 be 66 a7 00 be 64 9e 3a be
       0.03988644 -0.2626244 -0.12563857 -0.18224484
0003a0 72 cf f0 be 12 38 a8 3d f7 a1 ea be 20 69 e3 3b
       -0.47033268 0.082138196 -0.45826694 0.006940022
0003b0 e1 5c fb 3d 17 ef 76 3d 34 f2 5c be 3a 15 0a bf
       0.122735746 0.060286608 -0.21576768 -0.5393864
0003c0 58 81 6b 3e 1f ce f4 3d 00 dd 0a 3d d1 96 43 be
       0.2299856 0.11953377 0.03390217 -0.191005
0003d0 f1 b4 92 bd 36 d3 15 bf 9b 34 41 3e 76 ae 29 be
       -0.07163418 -0.5852541 0.18867724 -0.16570458
0003e0 22 f7 13 3d be 0f 16 bd 25 63 c1 3e 54 79 91 be
       0.036124356 -0.036636107 0.37770954 -0.2841288
0003f0 80 7f 8a 3e e2 f2 20 be 6f ac 08 bd 5f b6 1d 3e
       0.270504 -0.15717652 -0.03336757 0.154016

bias_hh_l0 f4 [384]
000000 95 60 03 bf 43 8b 83 3d d8 4b 8b be e8 b0 69 be
       -0.5131925 0.064230464 -0.27206302 -0.2282139
000010 68 8d 2f 3d 51 c9 d4 3c 21 ff 43 be 6d 75 c2 3d
       0.042859465 0.025974901 -0.19140293 0.094950534
000020 b9 ae b3 bd cf 0a ed be 7a b8 38 be 85 d7 55 3e
       -0.0877356 -0.4629731 -0.18039122 0.20882995
000030 78 95 7c be 0d c8 95 be 42 3a 76 be 76 23 02 be
       -0.24666393 -0.2925419 -0.24045661 -0.1270884
000040 f4 2c 76 be 2f 3c 9f 3d 03 f8 ad be b9 81 8d bd
       -0.24040586 0.07775151 -0.3397828 -0.06909508
000050 1e d4 99 be cb f4 c7 3c db 35 11 bd 71 7b a3 be
       -0.30044645 0.024408719 -0.03545175 -0.31930116
000060 72 09 36 be ad e6 5a be ee e2 32 be 1a ad bb be
       -0.1777704 -0.21377058 -0.1746938 -0.36655504
000070 3f a0 0d 3e ed eb b9 bd 40 dd cd be ba 23 c2 3d
       0.1383066 -0.090782024 -0.40207863 0.094794706
000080 6a 2e d5 bc 38 70 c9 be f9 19 3e be 74 8a 90 be
       -0.026023109 -0.3934343 -0.18564595 -0.2823063
000090 f0 4e 00 3c 37 35 5b bd aa 76 c8 bd 21 a8 f8 be
       0.00783132 -0.053517547 -0.097882584 -0.48565772
0000a0 3f 1d fc be 61 96 9f be 29 e2 6e be dc 36 3f be
       -0.49241063 -0.31169418 -0.23328461 -0.18673271
0000b0 48 e7 d5 bd c8 f4 6d bd e5 08 c1 bd c6 f7 45 be
       -0.10444504 -0.05809477 -0.094255246 -0.193328
0000c0 38 ca 47 3d 35 6d 4a 3e 5f 8a ba 3c 4f db 0e bf
       0.048776835 0.19768222 0.022771059 -0.5580339
0000d0 e6 fd a0 bd 07 0a 35 be a9 d5 7b be 5d 59 89 3d
       -0.07860927 -0.17679606 -0.24593224 0.06706498
0000e0 72 54 cc 3e 9e 45 a6 be e0 7b 39 be cb 92 0b 3e
       0.39908177 -0.3247499 -0.18113661 0.13630216
0000f0 9c 6f 28 3d 92 1e 72 bd 72 8c 4e 3c 27 0b 9e bd
       0.041122064 -0.059111185 0.012606727 -0.07716971
000100 10 1e b3 be d6 53 7f be 0e a6 c4 bd 51 7f 96 bd
       -0.34983873 -0.24934325 -0.09601985 -0.073485024
000110 11 17 bc be 13 dd 00 bf 81 c2 81 be 08 d5 84 be
       -0.36736348 -0.5033733 -0.25343707 -0.2594378
000120 51 d7 26 3d 84 3a 57 be d8 03 13 be e5 88 f7 bd
       0.040732685 -0.21018416 -0.14356935 -0.120866574
000130 fa fd f1 be 74 0e 82 bc ee 4f cf bc 0e a5 de 3e
       -0.4726408 -0.015876032 -0.025306668 0.43485302
000140 41 00 c3 be 5a 44 a7 bd 0b 74 14 3d c2 82 b6 be
       -0.3808613 -0.08167334 0.03624348 -0.35646635
000150 83 b1 0e be a2 1a b8 be 74 5d 28 be f3 3c 48 be
       -0.13934903 -0.3595782 -0.164419 -0.195545
000160 72 c7 0c be a9 49 bc bc 02 d1 c9 be 4a 26 70 be
       -0.13747957 -0.022984343 -0.39417273 -0.23452106
000170 dc 1a f2 be 1e bf d8 bd 4a 4b 3a be 2e 53 9c be
       -0.47286117 -0.10583328 -0.18192783 -0.3053221
000180 77 fd b3 bd 38 ee 11 be 09 ab b4 bd 22 ca b5 be
       -0.08788579 -0.1425103 -0.08821685 -0.35505778
000190 8b e0 76 be a5 8a b6 3c 9b ad 48 3d 5c 38 ca be
       -0.24109094 0.022282908 0.048993688 -0.39496124
0001a0 5f 5e 41 3e 61 51 b2 be 39 6f 3a be 74 7b 6b be
       0.18883656 -0.34827712 -0.1820649 -0.22996312
0001b0 9f b4 40 be 2c 38 e1 bc 20 ae 9f be ee ba 04 bd
       -0.18818901 -0.027492605 -0.31187534 -0.032404833
0001c0 19 39 2a be be 1a 8c be 04 7c 4f be 4c dc 49 3c
       -0.16623344 -0.27364153 -0.20262152 0.012320589
0001d0 9a e4 a2 be e2 2e 49 be c2 ff 88 bd 34 1b c4 be
       -0.31815034 -0.1964679 -0.06689407 -0.38302004
0001e0 3b 1f ac bd 19 a7 34 be ec c2 b7 bd ea e1 73 be
       -0.08404394 -0.17641868 -0.08972725 -0.23816648
0001f0 fc 84 37 be eb 02 06 be 6a 77 84 be 54 16 35 be
       -0.17921823 -0.1308705 -0.25872356 -0.17684299
000200 35 24 9f 3e c5 ef dd be 09 47 03 bf ac 69 ff 3d
       0.3108231 -0.43346992 -0.51280266 0.12471327
000210 be d6 c3 be 6b 08 16 bf d8 6e 49 be d3 56 22 be
       -0.38249773 -0.58606595 -0.1967119 -0.15853433
000220 4a e8 23 bf fe 0e 18 be a2 d8 9d bd ec 16 02 3f
       -0.6402632 -0.14849469 -0.07707335 0.50816226
000230 5f bd 14 bf 88 49 78 be b7 ee cc be 61 e8 9b be
       -0.5810146 -0.242468 -0.40025875 -0.3045073
000240 d7 54 a4 3e 8a ae 9c 3e be 00 82 be 19 4c f6 3e
       0.32095978 0.30601913 -0.2539119 0.48104933
000250 f8 6c 86 3d ec 7b 8c be 43 92 e8 3c 79 51 15 3e
       0.06563753 -0.27438295 0.028390056 0.1458186
000260 f4 08 da bd c8 73 73 3e e1 d7 61 be c9 fd 6b 3e
       -0.10646239 0.23774636 -0.22055008 0.2304603
000270 0d 3b 8a 3e b4 91 02 bf 8c f2 66 be 84 ac 6b 3e
       0.26998177 -0.51003575 -0.22553462 0.23015028
000280 78 86 0e 3e 97 f3 3a bf 33 09 ad be 06 38 a5 be
       0.13918483 -0.7302794 -0.3379608 -0.32269305
000290 3b c7 cf 3d 5d c0 c0 bd 50 d7 96 be 78 9f 19 bf
       0.10145422 -0.094116904 -0.29461145 -0.60008955
0002a0 0c 7f 16 bf e0 d2 f0 bb 03 3d b2 3e 42 00 ef be
       -0.5878761 -0.007349357 0.34812173 -0.46679884
0002b0 bd 87 65 bf 3e 97 f8 be d9 14 31 3c 2e 2e f7 be
       -0.89660245 -0.4855289 0.010808193 -0.4827742
0002c0 93 ca 2f be 47 44 a3 3e 37 58 22 be 85 1b b1 3d
       -0.1716712 0.3188803 -0.15853964 0.08647827
0002d0 28 9a 10 3e 77 06 d5 bd 93 b7 6b be eb 0c 21 bf
       0.14121306 -0.10401624 -0.23019247 -0.62910336
0002e0 0f 51 cf 3e ad ab c2 be 5a 86 df bd c9 e1 4a bf
       0.4049153 -0.38021603 -0.109142974 -0.7925077
0002f0 e3 8e 90 bf eb dc 9a 3d cb d0 c7 be b8 28 81 3e
       -1.1293606 0.07561668 -0.39026484 0.25226378
000300 fa 35 f3 be b1 81 55 3d 95 0f a4 3e 34 3f 33 3f
       -0.47502118 0.052125636 0.32043138 0.70018315
000310 d1 32 49 3e 4d 73 e3 3d 00 4f 7a be 5f 6d 10 3d
       0.19648291 0.11105976 -0.24444199 0.035260554
000320 d8 01 0d bd 25 6f 6b be 13 40 c1 bd 30 26 2c be
       -0.034425586 -0.22991617 -0.09436049 -0.16811442
000330 89 70 07 3e 88 13 21 bf 82 3d b0 3d 8f c4 6a bc
       0.13226523 -0.6292043 0.08605482 -0.01432909
000340 35 99 9f be 3a 6d 69 3e b2 f2 9c be e4 62 83 be
       -0.31171575 0.22795573 -0.30653912 -0.25661385
000350 40 58 45 3d 65 52 82 be fc cc ac be 6b d8 05 bf
       0.048179865 -0.25453487 -0.3375014 -0.5228335
000360 86 dc b8 be fc 09 4c 3d 46 1a 52 3d f4 24 11 bf
       -0.36105746 0.04981421 0.051294588 -0.5669701
000370 72 39 88 3f eb ec 24 bd 5e 12 a9 be c4 22 a1 be
       1.0642531 -0.040265005 -0.33021826 -0.31471837
000380 4e 08 b6 3a 37 ee bc bd ac bc 19 be cc 58 4d bd
       0.0013887973 -0.092251234 -0.15013379 -0.05013351
000390 22 af 89 bd 0b 65 9d be 07 59 4e be 1e 79 b3 bc
       -0.06722857 -0.30741152 -0.20151149 -0.02190834
0003a0 50 93 11 bf 23 40 69 3d f5 04 c6 be 54 d8 08 3e
       -0.56865406 0.05694593 -0.38675657 0.13363773
0003b0 9d a3 ed 3c f2 09 62 3d 35 99 0a be dc a4 f9 be
       0.029008681 0.055185266 -0.13535006 -0.4875859
0003c0 e0 6f 2b 3e 25 3e 33 3e 98 56 ce 3d 65 08 1e be
       0.16741896 0.17504175 0.1007511 -0.1543289
0003d0 db f5 bc bd c8 6d 2c bf d9 08 25 3e 74 f9 65 be
       -0.09226581 -0.6735501 0.16116656 -0.2245844
0003e0 44 4e 0e bd fe 15 ed bd cf c7 a5 3e 74 a3 9b be
       -0.03474261 -0.1157646 0.32379004 -0.30398142
0003f0 62 03 c6 3e e8 bf f6 bd bf 7a 0b be 2d 57 d5 3d
       0.38674456 -0.12048322 -0.13621043 0.10417018

weight_ih_l1 f4 [384, 128]
000000 37 cd 0b bd f0 ca 06 3c 86 ea 3e 3d 18 26 1e bc
       -0.034131255 0.008227095 0.046610378 -0.009652637
000010 10 e9 14 3c 2e 78 26 3d 88 3b 4a bc c0 07 82 3a
       0.00908877 0.040641956 -0.012343295 0.0009920523
000020 54 ad f4 bc 68 f8 69 bd b2 8f 76 3d 04 5a dd bc
       -0.029867806 -0.057121664 0.060195632 -0.027020462
000030 67 68 a1 bd 58 42 c1 3c 5c 56 c8 3c dc bc 06 3d
       -0.07881241 0.023591205 0.024455242 0.032894954
000040 02 34 15 bd c7 21 b0 3d 56 6d 54 3d 22 02 f2 bc
       -0.03642655 0.086001925 0.051862083 -0.029542033
000050 b8 35 f0 3c e7 a1 ae bd 52 3d 7e bd 16 a1 19 3d
       0.02932249 -0.08526974 -0.0620702 0.03750714
000060 c5 38 93 bd 08 fc 57 bc a2 23 49 3d 93 29 5d bd
       -0.07188562 -0.0131826475 0.049106248 -0.053994726
000070 f8 a9 8f bd 86 1c 57 bd 22 36 a5 bd b4 3d 8d bc
       -0.07014841 -0.052517436 -0.08066966 -0.017241336
000080 a5 cb 9f 3d 38 5d 4e bc 90 78 7a 3c 6c d0 ad bc
       0.07802514 -0.012595467 0.015287533 -0.021217547
000090 f4 89 ba bc 50 9c 0e 3c 33 11 b1 3d d0 54 33 3c
       -0.02277086 0.00870426 0.086458586 0.010945514
0000a0 ce ea 7b 3d 90 2a 4f 3c 96 84 74 3d 40 81 19 bb
       0.061503224 0.012644425 0.059696756 -0.0023422986
0000b0 00 95 ba 39 12 6d 6c bd 39 19 85 bd 94 87 8c bd
       0.00035587698 -0.057721205 -0.064989515 -0.06861797
0000c0 d0 9c a7 bb b9 41 4b bd a8 a1 2f bc 84 9b c3 3c
       -0.005115129 -0.049623225 -0.010719694 0.023877867
0000d0 d8 6f 7a bd 93 86 13 bd 84 59 a1 bc d2 bc 79 3d
       -0.06114182 -0.03601701 -0.019696005 0.06097109
0000e0 c0 00 be ba 56 3f 24 3d 66 87 37 bd a4 64 f5 3c
       -0.0014496073 0.040099464 -0.04480686 0.029955216
0000f0 1d ed 89 3d 48 11 97 bd a0 11 97 3b 5d 44 b0 3d
       0.06734679 -0.07376343 0.0046102554 0.08606789
000100 c3 23 1e bd 23 7c 16 bd d2 39 1c 3d d6 2b a2 bd
       -0.038608324 -0.03673948 0.03814108 -0.07918517
000110 10 7e d4 3b 0d da a2 3d 59 47 4d bd 82 65 55 3d
       0.0064847544 0.07951746 -0.05011687 0.05209876
000120 18 b9 ea 3c 54 56 c2 3c 9a fb 6f 3d 24 6a ac 3c
       0.028652713 0.023722805 0.058589555 0.021046706
000130 40 f2 0c 3c 5c 1e 9b 3c 20 30 01 3d e0 f6 e3 3b
       0.008602679 0.018935375 0.031540036 0.00695692
000140 f6 8a 34 bd 80 8c d5 bc 92 c1 59 bd 4b e5 a6 bd
       -0.044077836 -0.026067972 -0.05316312 -0.08149203
000150 92 ad 8d bd 9d 37 5e bd 28 6e 9b bc 56 a8 02 3d
       -0.069178715 -0.054252256 -0.018973425 0.03189882
000160 41 3b 8b bd 08 c5 39 bc a0 97 84 3b 81 16 a1 3d
       -0.06798411 -0.01133848 0.0040463954 0.078656204
000170 28 a2 ef bc 40 35 93 bd b0 05 01 bd f7 68 b0 3d
       -0.029252127 -0.07187891 -0.031499565 0.086137705
000180 d8 73 9f bd 34 c5 f7 3c 92 66 43 3d fb 19 af 3d
       -0.07785767 0.030245401 0.04770524 0.08549877
000190 1d e1 97 3d 28 ef 2a bc 05 1e 02 bd 40 ff fe 3c
       0.07415984 -0.010432996 -0.03176691 0.031127572
0001a0 60 eb 95 bd 20 e0 04 bb e9 c5 a2 3d 9d de aa bd
       -0.07320285 -0.002027519 0.079479046 -0.08343241
0001b0 ea 40 37 3d fc 45 9f 3c b3 a3 82 3d 2d 19 86 3d
       0.04473964 0.01944255 0.063788794 0.06547771
0001c0 6e 85 ef bc e8 e1 e2 bc de e5 f2 bc e4 0d b1 bc
       -0.029238429 -0.027695611 -0.029650625 -0.021613069
0001d0 8d 42 93 3d 78 b8 32 bc 60 f0 96 bd a7 31 48 bd
       0.07190428 -0.010908239 -0.07370067 -0.048875477
0001e0 36 39 99 bd 73 ae 97 bd ce 6e 1b 3d b4 31 8e bd
       -0.07481615 -0.074063204 0.03794747 -0.06943074
0001f0 51 7a 89 3d c7 d0 8a bd 00 fd 02 3a 56 9c 15 3d
       0.06712783 -0.06778102 0.00049968064 0.036526047
000200 52 48 32 3d f0 4a bd bb 46 cc 22 3d e0 e9 0d 3d
       0.043526 -0.0057767555 0.03974559 0.03464687
000210 a4 fb f0 3c ac a3 5f bd c0 d5 97 3a 48 ad 33 bc
       0.029416867 -0.05459945 0.0011584088 -0.010966606
000220 93 da 9c 3d a7 c4 91 3d 7d 81 ac 3d 68 73 56 bd
       0.07658877 0.071175866 0.084231354 -0.052356154
000230 bc c3 09 3d 07 4d 9c 3d 90 30 2d 3c 73 4c 34 bd
       0.033633932 0.07631879 0.01057066 -0.04401822
000240 22 fb 47 3d c8 91 b0 bc 7e d5 7a bd 1e eb 71 bd
       0.048823483 -0.021553889 -0.06123876 -0.059062116
000250 40 eb 4f 3c e0 c8 ed bc 80 0a de 3a 3d c8 9e 3d
       0.012690365 -0.029026449 0.0016940385 0.07753036
000260 74 e9 ad bd aa 76 11 3d 5b fa aa 3d 36 b4 71 3d
       -0.08491793 0.035513557 0.08348533 0.059009753
000270 4a 12 46 3d 66 d4 7d 3d c0 78 16 3b 6d de 7b bd
       0.048357286 0.061970137 0.0022960156 -0.06149142
000280 08 4f 33 3c 04 5e c6 bc c8 08 31 bc c0 b0 22 bb
       0.0109441355 -0.024214752 -0.010805316 -0.002482459
000290 a8 53 a7 bd 20 b0 f2 3c 30 aa f0 3b f0 dd b5 3c
       -0.08170253 0.029624999 0.0073445067 0.022200555
0002a0 29 ba a2 3d d2 45 fd bc 08 ce 08 3c d0 d2 ef 3b
       0.079456635 -0.030917082 0.008349903 0.007318832
0002b0 0b 4e 88 3d a9 7c 94 3d 7f be 95 bd 6c 4a f4 3c
       0.066555105 0.072503395 -0.07311725 0.029820643
0002c0 a0 06 85 bd 4c 8f ec bc 00 24 1b b9 e8 9a 57 3c
       -0.06495404 -0.028876923 -0.00014795363 0.013159491
0002d0 0d bc aa 3d 5c 77 99 bd 72 ab 71 3d 68 cd b1 3c
       0.08336649 -0.07493469 0.059001394 0.02170439
0002e0 44 54 ff 3c 3b c5 88 3d 91 2f 8b 3d e2 da b0 bd
       0.03116811 0.06678244 0.06796182 -0.086354986
0002f0 37 9a 35 bd 2c 89 87 3c 65 14 b0 bd 08 a5 a3 bc
       -0.044336524 0.0165449 -0.0859764 -0.019976154
000300 ba 23 47 3d d0 47 a3 bb 57 95 b1 3d 06 8e d6 bc
       0.048618056 -0.004982926 0.086710624 -0.026190769
000310 78 fa b0 3c 7a 72 61 3d 78 78 09 bc 08 57 30 bd
       0.021603808 0.055040814 -0.008390538 -0.04305175
000320 83 c9 92 3d 65 8c aa bd 2f 89 9e 3d d4 b7 89 bd
       0.071673416 -0.083275594 0.077410094 -0.067245156
000330 75 6c 90 3d 00 65 23 3a 7d ba 22 bd 0d 48 af 3d
       0.070519365 0.0006233007 -0.03972863 0.085586645
000340 c1 1e 47 bd d4 85 ea 3c b6 69 0b bd d4 7c ac 3c
       -0.048613314 0.028628267 -0.03403636 0.021055616
000350 96 ee 2b 3d db 69 59 bd 75 e3 69 bd 2c 0c db bc
       0.04197558 -0.053079467 -0.057101686 -0.026739202
000360 34 b5 6e bd 2f e1 a0 3d 00 8b b3 b9 a0 e6 03 bd
       -0.058278278 0.0785545 -0.00034245104 -0.032202363
000370 8c d2 3a bd 1e 93 06 3d 60 3e 16 bb 7a b4 2f 3d
       -0.04561095 0.032855146 -0.0022925362 0.042896725
000380 65 f1 a7 bd 18 5e b7 bc 26 c8 4e 3d 80 66 63 bd
       -0.08200339 -0.022383735 0.050483845 -0.055517673
000390 d9 f9 84 bd c6 54 a8 bd 30 1b dc 3b c5 7f 9e 3d
       -0.06492967 -0.08219294 0.006717108 0.07739214
0003a0 b8 f1 0b bd 99 b4 b4 3d 7d e5 ab 3d c0 8f 87 3b
       -0.034166068 0.08823509 0.08393381 0.0041370094
0003b0 77 a3 2a bd 13 60 2d bd 62 50 21 bd a5 b1 9b 3d
       -0.0416598 -0.04232795 -0.0393833 0.076022424
0003c0 5d fc ae bd 3b c4 ac bd ba ca 8b bd 0f 57 9d 3d
       -0.08544228 -0.084358655 -0.068257764 0.07682621
0003d0 c0 8d 24 bc e8 8c af bc f6 5d 69 bd dc 46 d3 3c
       -0.010043561 -0.021429494 -0.056974374 0.025790624
0003e0 74 ce 8a 3c 92 2a a2 bd d4 d6 ce 3c dd a0 92 bd
       0.016944148 -0.07918276 0.025248922 -0.071595885
0003f0 36 b2 24 3d ce 87 ec bc ac 39 8f bc 20 c9 f3 bb
       0.040209018 -0.02887335 -0.017483555 -0.0074397475

weight_hh_l1 f4 [384, 128]
000000 32 47 3f 3d a4 fb 8a bc 4a 61 a8 bd bf 6b 00 bd
       0.046698757 -0.016965695 -0.082216814 -0.031352755
000010 11 30 af bd ee 32 63 3d 40 a4 87 bc a7 ec 94 3d
       -0.0855409 0.055468492 -0.016557813 0.072717
000020 04 c3 ee 3c 60 f9 9b 3b 80 1c 0e 3a cf 16 b4 bd
       0.029145725 0.0047599524 0.0005421117 -0.08793413
000030 64 e3 b7 bc 46 54 66 bd 76 02 57 bd d3 c1 ad 3d
       -0.022447295 -0.056232713 -0.05249258 0.08484235
000040 86 6f 56 3d 90 19 86 3c d0 b1 4f bd 44 01 84 bd
       0.05235245 0.016369611 -0.050706685 -0.06445554
000050 40 bd 31 3c 9e cd 66 3d 48 93 04 bd 75 84 2b bd
       0.010848343 0.056348436 -0.03236702 -0.041874368
000060 3c 7c 9e bc 7c 4e cf bc 01 ee b2 3d a5 5c a3 3d
       -0.019346349 -0.025305979 0.08736802 0.07976655
000070 ad 76 58 bd 9f f0 8b bd 9a b1 f3 bc ad b4 2d bd
       -0.052847553 -0.06833004 -0.029747773 -0.042408634
000080 a7 c0 a5 3d 48 ac 80 3c 17 4e 8e 3d f4 06 b0 bd
       0.08093386 0.01570715 0.06948488 -0.08595076
000090 d0 f6 3a 3c f6 3f 74 3d 01 63 97 bd 21 75 81 3d
       0.011411384 0.05963131 -0.0739193 0.06321169
0000a0 9a 0e 3d 3d 08 74 8e bc 04 cf c9 3c ba 39 6e 3d
       0.046156503 -0.017389312 0.024634846 0.05816052
0000b0 b8 25 91 bd c3 1e a5 3d 62 bd 63 bd e7 6a 98 3d
       -0.070872724 0.08062508 -0.05560053 0.07442265
0000c0 38 4b 81 bc a0 e8 16 bd 32 b8 02 3d 0c db 84 bd
       -0.015782937 -0.036842942 0.031913944 -0.064870924
0000d0 0b 9c b2 3d 16 f5 4b bd 04 90 c0 3c 18 1b 87 3c
       0.08721169 -0.04979428 0.023506172 0.016492411
0000e0 70 3d da 3c 14 4e 07 3d 1b b1 64 bd ca ef 7a 3d
       0.026640624 0.033033445 -0.055832963 0.061263837
0000f0 44 72 f9 3c 18 f5 b5 bc 20 f0 3b 3b 77 32 b3 3d
       0.030449994 -0.022211596 0.0028677061 0.0874986
000100 d6 bc 92 bd ef 91 23 bd 13 39 a0 3d a7 0d 12 bd
       -0.07164924 -0.039934095 0.07823386 -0.03565755
000110 ef c2 9e 3d 20 fc 6c bc 8e 08 d6 bc 40 93 78 3b
       0.077520244 -0.014464408 -0.026127126 0.0037929565
000120 81 c1 8d 3d ea 69 10 3d 40 34 f0 ba 73 09 95 3d
       0.069216736 0.035257258 -0.0018326119 0.07277193
000130 e8 91 78 bc 3c a9 d1 bc 30 11 01 3c 48 af 05 3d
       -0.0151715055 -0.025593393 0.007877633 0.032637864
000140 d2 67 10 3d b0 e2 4b bd 4a d5 7e 3d ad 95 a0 3d
       0.03525526 -0.049776733 0.062215127 0.078410484
000150 c6 cc e7 bc 27 2d 92 bd 68 3e 82 3c 90 53 ba 3b
       -0.028295886 -0.071375184 0.015898898 0.005686231
000160 99 e6 2e bd d8 4d be bc 57 41 4a bd cc 56 ae 3c
       -0.042700384 -0.023230478 -0.04937872 0.021281622
000170 5b 9d 87 3d e5 92 9a bd 80 a2 f3 3b 35 73 91 3d
       0.0662181 -0.07547549 0.007435143 0.07102052
000180 3b 0f 01 bd 28 a2 57 3c 2e 38 8b bd c8 26 9b 3c
       -0.031508666 0.01316122 -0.06797825 0.01893939
000190 13 68 b1 3d 9e cf 17 3d a5 59 92 bd 3b e3 91 3d
       0.08662429 0.037063234 -0.071460046 0.07123419
0001a0 98 ff 5e bc 54 71 b0 bd 2a 01 7f 3d f8 37 51 bd
       -0.013610743 -0.086153656 0.06225697 -0.051078767
0001b0 44 dc 96 bc ef cd 0f bd 00 c8 e2 3b c0 c2 59 3b
       -0.018415578 -0.035108503 0.0069208145 0.0033227652
0001c0 7e e1 7c 3d c4 ae c6 bc de 31 00 3d c6 57 3f bd
       0.061738484 -0.024253257 0.031297557 -0.046714567
0001d0 fc 59 8a bd c8 4b 18 bc 80 e0 8e bb 0e c2 4a bd
       -0.067554444 -0.009295411 -0.0043602586 -0.04950147
0001e0 b1 2f b2 3d d4 82 80 bd b1 e2 af 3d 50 9c 93 3c
       0.08700503 -0.062749535 0.0858816 0.018018872
0001f0 fe de 44 3d 56 94 07 3d a4 65 8c 3c 68 d1 9e bd
       0.048064224 0.03310045 0.01713831 -0.07754785
000200 88 f4 60 3c be 33 76 bd 57 6c 59 bd 49 b2 a0 3d
       0.013730176 -0.06010794 -0.053081837 0.07846505
000210 35 9b 1e bd 30 9e bd 3c d4 fd 94 bc 00 d6 dc 3a
       -0.038722236 0.023146719 -0.018187441 0.0016848445
000220 18 a3 b2 bc aa 70 1b bd 20 9a 52 bb ae 6a 96 bd
       -0.021806285 -0.03794924 -0.0032135323 -0.07344566
000230 96 28 32 3d 40 c0 6d bd d8 63 1c bc ec a7 e7 3c
       0.043495737 -0.058044672 -0.009545289 0.028278314
000240 5b fb a1 3d 80 c0 10 3b 3b cd 93 3d a6 31 14 bd
       0.079092704 0.0022087395 0.07216879 -0.03618016
000250 a0 4a 0a bd 9b e1 84 3d 68 d2 33 bc 45 38 1c bd
       -0.033762574 0.06488343 -0.010975458 -0.0381396
000260 84 6d e6 3c 73 da 6c bd 1a bd 4b 3d 0f 63 8f 3d
       0.028128393 -0.057825517 0.04974089 0.07001316
000270 b2 86 fa bc 64 c1 ce bc fc a0 ca bc 90 9a b9 3b
       -0.030581806 -0.0252387 -0.024734966 0.0056641772
000280 32 31 76 3d 10 ef b9 bc 0c 12 90 bd 54 c9 00 3d
       0.06010551 -0.022697002 -0.07034692 0.031442
000290 0d c5 b1 3d 7a 40 7e 3d e6 27 6f 3d 46 de 5d 3d
       0.086801626 0.06207321 0.05838766 0.054167055
0002a0 fa d7 65 3d e2 2d 72 bd cd b5 9e 3d 6f eb 8c 3d
       0.056114174 -0.05912579 0.077495195 0.06880843
0002b0 de 3f 2a 3d 54 15 ac bc 50 91 62 bc 16 52 20 3d
       0.041564815 -0.021006264 -0.0138285905 0.039140783
0002c0 ef 05 80 bd 66 30 49 bd 6b 5e 90 3d 64 f2 07 3d
       -0.06251132 -0.049118422 0.07049259 0.033190146
0002d0 96 3d 65 bd ab 9a 97 3d d8 3d 2e 3c 72 28 39 3d
       -0.055966936 0.074025474 0.010634862 0.045204587
0002e0 43 55 a9 bd e0 36 02 3c e1 6d a3 bd 80 69 49 bb
       -0.082682155 0.0079476535 -0.07979942 -0.003073305
0002f0 0e 7d 6e 3d 24 69 e2 bc 0a 28 41 3d 78 38 9b bd
       0.05822473 -0.027638026 0.047157325 -0.0757913
000300 1a 97 db bc f0 0b 50 3c 18 2e 83 3c 30 a5 48 bd
       -0.02680545 0.012698159 0.01601319 -0.04898566
000310 20 d1 51 3b 18 df 75 3c 5f 8c a5 bd 8b d3 ae 3d
       0.0032015517 0.015006803 -0.08083414 0.08536442
000320 bb b2 ad bd 2c 40 15 bd 88 5d 51 3c de 90 07 bd
       -0.08481356 -0.036438152 0.012778647 -0.03309714
000330 70 0f 02 bd 9d de a7 bd bf 2b 4d bd 03 83 07 bd
       -0.031753004 -0.08196757 -0.050090548 -0.033083927
000340 0a 5a 71 3d fa 55 a7 bd 98 cf 02 3c 35 b4 a5 3d
       0.05892376 -0.081706956 0.0079840645 0.080910124
000350 24 16 86 3c 30 ac 9e 3b a1 82 3b bd 1c 92 d6 bc
       0.01636798 0.0048423037 -0.045778874 -0.026192717
000360 5c e6 74 bd b5 38 a3 3d 9e 78 48 3d 9c fb 9a 3c
       -0.05979 0.079698004 0.048943155 0.018918805
000370 f8 d1 3b 3c ef c2 b3 3d c0 e5 c1 3b 38 10 fc bc
       0.011463635 0.08777415 0.005917281 -0.030769452
000380 d1 f2 97 bd 9c 4f ca 3c c8 bb 8a bc f0 ce 9f bd
       -0.074193604 0.024696164 -0.016935244 -0.07803142
000390 f0 d1 f5 3c 14 d0 37 bd c2 af 67 3d 03 ef 4a bd
       0.030007333 -0.044876173 0.0565641 -0.049544346
0003a0 20 1d 77 bb 8d 56 a7 bd a7 21 a4 3d 00 85 3b bc
       -0.003770657 -0.08170805 0.08014231 -0.011445284
0003b0 27 3c 6d bd 73 61 39 bd 68 8b c8 3c a0 8f 46 3b
       -0.057918694 -0.04525895 0.024480537 0.003029801
0003c0 29 1a 7b bd aa a7 3f bd 3a a0 7c 3d 7c 05 93 bc
       -0.061304245 -0.046790756 0.06167624 -0.017946951
0003d0 33 13 a7 bd a5 8e ac 3d 24 81 ce 3c 82 bd b1 bd
       -0.08157959 0.08425645 0.025208063 -0.08678724
0003e0 98 22 10 bc cb 77 97 3d 8a 06 89 bd 8c a3 9f bd
       -0.00879731 0.073958956 -0.066907 -0.07794866
0003f0 69 81 9e bd 88 86 92 bc dc 78 1c bd fb 87 ad 3d
       -0.07739527 -0.017886415 -0.038201198 0.08473202

bias_ih_l1 f4 [384]
000000 90 b7 63 bd 9a 84 0e 3d 00 eb 63 bc 17 81 24 bd
       -0.05559498 0.034794427 -0.013911009 -0.040162172
000010 b8 eb 88 bc bb 58 8b 3d 63 3c 97 3d 40 2f 4b 3b
       -0.016713962 0.06804033 0.07384565 0.0031003505
000020 4e 15 17 3d 86 82 ed bc 08 45 ec 3c c0 88 55 bc
       0.036885552 -0.028992902 0.02884151 -0.013033092
000030 55 5c 46 bd 88 1f 49 bc 73 e3 af 3d 18 f2 70 bd
       -0.0484279 -0.012275584 0.08588304 -0.05882463
000040 3e 43 4c bd 5a 61 00 3d 00 54 b9 3a 4a 44 28 3d
       -0.049868815 0.03134284 0.0014139414 0.04108075
000050 e0 2d 26 3b 97 34 93 3d db 05 98 3d 58 21 2e bc
       0.0025356933 0.07187765 0.07422992 -0.010628067
000060 c0 60 b9 bb e6 75 a7 bd 72 2b 6d 3d 12 88 3e 3d
       -0.0056572855 -0.08176784 0.05790276 0.046516486
000070 bb e3 48 bd de 92 7b 3d 5c 03 b2 bc a5 81 89 3d
       -0.049045306 0.06141936 -0.021730117 0.06714181
000080 04 04 83 bc 75 94 8d 3d da d1 05 bd a0 1e e8 3b
       -0.015993126 0.069130816 -0.032670833 0.007083729
000090 60 f3 ad 3c f3 d7 12 bd 96 d4 16 3d 82 39 61 bd
       0.021234214 -0.035850476 0.03682383 -0.054986484
0000a0 93 99 b1 3d 61 b7 9a 3d 06 77 78 3d 7a 13 7a 3d
       0.0867187 0.07554508 0.060660385 0.06105373
0000b0 b4 24 b2 bd 5f 77 af 3d 3a 8c 09 3d 00 84 e6 3c
       -0.08698407 0.0856769 0.033580996 0.028139114
0000c0 7e 4f 60 3d 83 e3 a3 bd f6 a4 3b 3d 54 d3 bf 3c
       0.05476331 -0.08002379 0.045811616 0.023416199
0000d0 f4 ed ad 3c 6a 1c 3c 3d 6c e8 f2 3c 96 e3 05 bd
       0.021231629 0.045925535 0.029651843 -0.032687746
0000e0 89 c8 96 3d c6 fb 36 3d 80 2c 9a 3a 29 5f 59 bd
       0.07362468 0.044673704 0.001176253 -0.053069267
0000f0 4d 65 8d 3d 43 4c a3 bd 4a ff 3e 3d a7 63 5c bd
       0.06904087 -0.0797353 0.04663018 -0.053805973
000100 fa de 09 3d 30 d1 c7 3b 85 3e 90 bd 68 37 1e bd
       0.033659913 0.006097935 -0.07043175 -0.03862706
000110 bc 7f 89 bd 71 ff ab 3d b0 2b a0 3b b5 0e ae bd
       -0.067138165 0.08398331 0.0048880205 -0.08498899
000120 c3 1f 80 bd 17 6b 59 bd 9e 89 28 3d 48 cb bf bc
       -0.06256058 -0.053080644 0.041146867 -0.023412362
000130 d5 d4 9a bd 68 95 64 3c 42 e4 57 3d 40 64 a6 3c
       -0.07560126 0.013951637 0.052707918 0.020311475
000140 a6 3d 11 3d f0 ec 88 bd 8b 6c a7 3d 26 7b 3a 3d
       0.035459183 -0.06685817 0.08175 0.0455276
000150 00 52 6b ba e0 82 93 bc a3 ce a6 bd 27 0a 8a bd
       -0.00089767575 -0.018006742 -0.081448816 -0.06740218
000160 ee 86 00 3d a4 28 f8 3c 33 bf 94 3d 10 c9 6e bc
       0.03137868 0.030292816 0.07263031 -0.014574304
000170 0e e1 e0 bc 88 87 f3 3c c8 f4 8c bc f2 c1 f8 bc
       -0.027451064 0.029727712 -0.017206565 -0.030365918
000180 84 45 e8 3c 03 a0 85 3d e8 5b b0 bc a8 09 29 3c
       0.02835346 0.065246604 -0.0215282 0.010317244
000190 3a cc 63 3d 26 ab ee bc a6 18 4e bd 80 d0 03 bb
       0.055614688 -0.029134344 -0.050316475 -0.002011329
0001a0 58 c8 d9 bc a1 2e b0 bd e0 72 58 bd fa 21 30 bd
       -0.02658479 -0.08602644 -0.05284393 -0.043001153
0001b0 aa 2a 51 3d 99 7a 0c bd 6f c3 83 bd 10 26 75 bc
       0.05106608 -0.034296606 -0.064337604 -0.014962688
0001c0 51 6c a2 3d 4a 11 45 3d d3 85 47 bd 58 4f 9d 3c
       0.07930816 0.04811219 -0.04871161 0.019202873
0001d0 20 55 f2 bc c4 54 fb 3c f0 fb d9 bc 58 09 cf bc
       -0.029581606 0.030680068 -0.026609391 -0.02527301
0001e0 00 cc 80 bd ce 06 34 3d 70 52 13 bc cb e0 44 bd
       -0.0628891 0.043951802 -0.008991823 -0.04806594
0001f0 6b cb 1d bd c8 ba 64 bd 18 fd 4a 3c f4 c4 3f bd
       -0.038524073 -0.05584219 0.012389444 -0.04681869
000200 24 4a 45 bd 54 e6 d6 3c c8 54 a6 3c 8e a7 4f 3d
       -0.04816641 0.026232876 0.020304099 0.050696902
000210 31 8d ae bd d3 77 ac bd 1b 03 48 bd 00 60 1c ba
       -0.08523024 -0.08421292 -0.048831087 -0.0005965233
000220 b0 b2 c8 bc 08 01 df 3c 8a 6f 78 3d 40 e0 0e 3d
       -0.024499267 0.027222171 0.060653247 0.03488183
000230 aa 7d 20 3d e5 1e 1d bd e8 77 77 bc 00 e9 70 bc
       0.039182343 -0.03835954 -0.0151042715 -0.014703989
000240 88 99 6c bd 41 96 80 3d dd 09 83 3d 07 08 3e bd
       -0.057763606 0.06278659 0.06398366 -0.046394374
000250 90 3e a3 bd 17 75 80 bd 98 74 31 bd 60 96 d3 bc
       -0.07970917 -0.06272333 -0.043324083 -0.02582854
000260 82 a9 d7 bc 90 17 08 3d a7 ca 4a bd f0 e9 7b bc
       -0.026325945 0.033225596 -0.04950967 -0.015375599
000270 8f a9 b0 bd 59 73 9a 3d 42 f4 52 3d 98 3e 30 bd
       -0.08626091 0.07541532 0.051502474 -0.043028444
000280 fa f9 7d 3d d0 f9 f5 3b b8 32 fc 3c 6c 60 99 3c
       0.062005974 0.0075065866 0.030785903 0.018722735
000290 7c 03 a0 3c fd 83 a2 3d 7d 01 a5 bd c0 0a 27 3b
       0.019532911 0.07935331 -0.080569245 0.0025488585
0002a0 12 58 64 3d 8a 8c 78 3d ab 1e 7d bd b0 0a b1 3c
       0.055748053 0.060680903 -0.061796825 0.021611542
0002b0 e8 08 22 bc a0 c0 8e bd 82 aa 78 3d e9 f0 aa 3d
       -0.009889819 -0.06970334 0.060709484 0.08346731
0002c0 e8 25 7b bc 44 5d 62 bd 48 5e 34 3c be 62 98 bd
       -0.015328862 -0.055264726 0.0110088065 -0.074407086
0002d0 59 9a 9f 3d c2 22 7a bd 78 34 80 bd c0 4f ea 3a
       0.07793111 -0.061068304 -0.062600076 0.001787655
0002e0 62 95 24 3d e4 ba 9e bd 8a de 4d 3d 86 f5 32 bd
       0.040181525 -0.0775049 0.050261058 -0.04369118
0002f0 76 86 50 bd a3 6c 9b bd ff 60 84 3d 94 50 72 bd
       -0.050909482 -0.0758908 0.06463813 -0.059158877
000300 e4 37 b4 bc ec 6e d3 bc b2 df 36 3d dd a5 98 3d
       -0.021999307 -0.025809728 0.044646926 0.07453511
000310 70 8a de 3c a4 de b8 3c 20 35 c5 bb ba 1a 7b 3d
       0.027165622 0.0225671 -0.006018296 0.061304785
000320 8c a6 52 bd 4d bd 53 bd d0 0e 52 3c 40 99 a5 bd
       -0.051428363 -0.051694203 0.012820914 -0.08085871
000330 b3 f9 19 bd 68 08 2b bc 80 16 0d 3b b2 2f 5f bd
       -0.037591647 -0.010439016 0.0021528304 -0.054488845
000340 ed 24 8d 3d a0 f4 48 3c 5f ec 85 3d d3 85 a4 3d
       0.06891809 0.012265354 0.06539225 0.080333374
000350 c0 5f 71 bd 64 55 f7 3c 01 02 88 3d 6e 7f 3f 3d
       -0.058929205 0.030192085 0.06641007 0.046752386
000360 7d 48 a3 3d b2 19 2a 3d 72 4f 50 3d b6 a0 64 3d
       0.079728104 0.04152841 0.050857015 0.05581733
000370 5a c1 28 3d a2 6f 60 3d 10 ec 22 bd 4c 8d d2 3c
       0.04120002 0.05479396 -0.039775908 0.025702141
000380 d0 ac a1 3c 9c bd 7d bd 03 5b 97 3d ca d4 3d 3d
       0.019735724 -0.061948404 0.07390406 0.04634551
000390 cf 70 a7 3d fe ef 42 3d b0 f2 e7 bb 58 13 2a 3c
       0.081758134 0.047592156 -0.007078491 0.0103805885
0003a0 60 b0 96 bb e8 14 de 3c 00 34 60 bb c7 68 9d 3d
       -0.0045986623 0.027109578 -0.0034210682 0.07686
0003b0 90 e2 05 3d e0 7a 8b 3c 80 18 1c bc 37 2c a0 bd
       0.03268677 0.017026365 -0.009527326 -0.07820933
0003c0 f4 cc c0 bc 8a bc 6e 3d b0 9f b5 3c be 20 32 3d
       -0.02353523 0.058285274 0.022170871 0.043488257
0003d0 96 93 8f bd 4d 59 92 bd 50 bc 94 bb d4 07 03 3d
       -0.07010572 -0.07145939 -0.00453905 0.031989887
0003e0 48 2e 19 3c 50 65 2b 3c fb 9c 7e bd c6 01 72 3d
       0.009349413 0.0104611665 -0.062161427 0.059083723
0003f0 f7 2c 59 bd ce e1 62 3d 62 19 56 bd b2 bd 04 bd
       -0.053021397 0.055391125 -0.0522703 -0.03240747
