models/GRU_model_10.pt (torch_old, 742772 bytes, 11 tensors)

weight_ih_l0 f4 [384, 58]
00000000: 9a75 6abd 9b5f 98bd 1c15 493d 4ea9 683d
00000010: 76b4 273d ae40 723d 12ab 60bd 4eda 69bd
00000020: e65e 953c 6d78 59bd 6ad2 c53c bd79 963c
00000030: 187d b0bd e1d2 2fbc df66 acbd ec77 ae3d
00000040: 1a56 46bd 449e 92bd a3d3 a3bd 4852 cbbb
00000050: 5f3f 57bd 422e cf3a 7ac1 0dbd 55c9 963d
00000060: 48b7 4d3d 7b85 b83c b18b fe39 8fad e0bb
00000070: f295 b6bd 1c9c 513d 138a aebd 4102 923d
00000080: 37a7 cbbc dd06 98bd adb1 afbd 3183 a53d
00000090: 06a1 883d 100c 02bc ec0b 93bd 905a 11bd
000000a0: 0f38 86bc 8f0f b03d 9ef5 96bc 9681 173b
000000b0: 1431 abbd 7523 b2bd 35fc 033b a987 85bd
000000c0: d8fb 7f3c f74c b638 19ce b63d 71fc 9c3d
000000d0: a613 a83d ef6d 513b e522 183d 0062 c9b9
000000e0: 22ad 163d 9258 493d 673d 3e3c cb98 92bd
000000f0: 898a 4fbd 33e6 80bd d3bc 923d 8193 4e3c
00000100: d5da d63c 3ea6 bfbb 118e ba3c b8be bc3c
00000110: ddcd 733d fbab 523d c101 083d 1a03 623d
00000120: 1b49 bb3c 1b7e 75bb 51c6 72bd dc99 903c
00000130: 94a8 003d 14be c9bd 88dd 9e3d 4cb9 4ebd
00000140: 39d2 19bd 2019 d73c 7a7f 51bc 4589 0c3d
00000150: b863 22bd d684 323c 7c3a 8cbd eeab fa3c
00000160: 58cf 9bbd 67f6 883d 4d07 e23c 8ee8 a33c
00000170: d611 9e3d 7bfa 49bc 85df 91bd 9b2a 5abd
00000180: fb33 afbd 4f0b acbd 61ea 12bd 1829 b93c
00000190: ccc5 b3bd 230c a53d b8ad 2a3d 9cd0 70bc
000001a0: 3080 24bd cf49 813d b0c4 d4bc 95d5 7abd
000001b0: 1bd8 083d e8e9 323d 5e8f 3bbd d7c5 393c
000001c0: 00ca 403d 5b19 943d ab7c b3bd b69c e23b
000001d0: 2da3 0c39 20f1 e43c 1790 abbd 9d73 953c
000001e0: f94c 453d 3420 42bd 3a17 b5bc 6659 33bd
000001f0: 0cdc 80bd 9517 0bbd 55bf a8bc ce51 adbd
00000200: 5f8b 05bd da87 89bb 25a7 4a3d f4d8 71bd
00000210: b46f 99bc 7c67 393c 78cf 76bd 0514 8fbd
00000220: 28a4 00bd 1b83 223d 4641 9a3d fec1 50bc
00000230: 71e5 763d 46a7 9c3d aba3 cb3c faef 94bd
00000240: 48b9 0bbd d4c2 be3d c7ad 23ba 66d6 ab3d
00000250: 91c4 da3c b42b 9c3d 325f 87bd ee91 873c
00000260: 8dc4 1d3b 8a87 7ebd 99c2 9cbd 8bef 5e3d
00000270: a309 42ba 95ca 87bd 633a 2b3d f66f 533c
00000280: b3e0 b1bc 7ad4 64bd e30a 72bd bc88 813d
00000290: 5d96 8b3d c748 8aba a3c7 9cbc c0f4 b83c
000002a0: a1b6 efbc b30a ae3d aee8 9bbb 52c2 5e3d
000002b0: 570f 59bd 05a9 ae3d 1eb5 44bd a2bc fbbc
000002c0: f471 5bbd 1704 71bc e41f 2abc 1029 db3c
000002d0: 329f 7a3d b626 0a3c 1850 413d 3290 d83c
000002e0: 52f8 b239 620a 28bc cf46 c93c 01b1 c7bb
000002f0: a8d8 9dbc 7fc0 9fbd 4880 9fbd 4cc2 75bd
00000300: f716 3cbc 8f5c 55bd 2cb9 10bd 36be b7bd
00000310: 9b13 943d 21cd 1f3d 2805 983d 23ed 5ebc
00000320: 5737 173d e0af b73b b055 a5bc fea8 ee3c
00000330: a1c5 cebc e903 e13c 99d8 2b3d 5c99 523d
00000340: 01ca b8bc e98d 973c fbe4 80bd b8d2 943d
00000350: 4df4 acbd 210a 86bd 52ed 113d ce12 623d
00000360: b75a 983d fc91 9c3d eae6 babd 6a80 81bd
00000370: 8071 893d aeee b43c 662c aabd 968c 1b3d
00000380: 7247 cc3c a26a a3bc b730 723d 9e14 283c
00000390: 20ee a33d 5ccb f43c b652 7fbd 5303 c23c
000003a0: 1ffe 03bd aaad 93bd f582 0b3d ebd1 7abd
000003b0: 11fb ccbc 38e1 32bd 4374 843d cab5 9ebd
000003c0: ef3e 9b3d 9bd7 3f3d 7aa6 55bd 4a7c 9f3c
000003d0: d981 0a3d c240 9b3d fd56 8ebc cca7 3b3d
000003e0: 1693 a63d f43e 4f3b 8851 93bc 1c1e 273a
000003f0: bdbe 833d ad3e 97bd 343b 84bd 595f b03d
-0.05724106 -0.0744011 0.049092397 0.056802087 0.040943585 0.059143715 -0.054850645 -0.057092957
0.018233728 -0.053093363 0.024148185 0.018368596 -0.0861761 -0.01073143 -0.084180586 0.08518967
-0.048421957 -0.07159093 -0.07999351 -0.006204877 -0.05255067 0.0015806633 -0.03460834 0.0736262
0.05022362 0.022524586 0.00048550733 -0.0068566273 -0.089153185 0.051174268 -0.08522429 0.07129336
-0.024860008 -0.07423184 -0.08578811 0.080816634 0.06671338 -0.007937446 -0.07180008 -0.035486758
-0.016384153 0.085967176 -0.018427666 0.002311801 -0.0835897 -0.08698169 0.002013934 -0.06520016
0.015624009 8.692772e-05 0.08926029 0.07665337 0.08206873 0.0031956395 0.037142653 -0.00038410723
0.036786206 0.049156733 0.011611319 -0.07158049 -0.050669227 -0.06293907 0.071649216 0.01260841
0.026227394 -0.005848675 0.02277282 0.02304016 0.0595225 0.051433545 0.033204798 0.05517874
0.022862008 -0.0037459198 -0.05927116 0.01765149 0.03141077 -0.09850708 0.077570975 -0.05046968
-0.037554 0.026257098 -0.01278674 0.034310598 -0.03964588 0.010895928 -0.068470925 0.03059956
-0.07607907 0.066876225 0.027591372 0.020008352 0.07718246 -0.012327786 -0.07122711 -0.053263288
-0.08554836 -0.084005944 -0.035868052 0.022602603 -0.08777961 0.080589555 0.041669577 -0.014698174
-0.04016131 0.06312906 -0.025972694 -0.061238844 0.03340922 0.0436801 -0.045791022 0.011338673
0.047067642 0.07231399 -0.08764013 0.006915654 0.00013412228 0.027947009 -0.08377092 0.018243605
0.04816911 -0.047393993 -0.022105802 -0.04378643 -0.062919706 -0.033958036 -0.020599047 -0.08462869
-0.032603618 -0.004197103 0.049475808 -0.059044793 -0.018730022 0.0113161765 -0.06025645 -0.0698624
-0.03140655 0.039675813 0.07531981 -0.012741564 0.060277406 0.076490924 0.024858316 -0.072723344
-0.034112245 0.09314504 -0.00062438514 0.08390503 0.026705058 0.07625523 -0.06609954 0.016549077
0.0024073452 -0.06214098 -0.07654304 0.054427665 -0.00074019487 -0.06630436 0.04180373 0.012905112
-0.02171359 -0.055866696 -0.059092414 0.06324908 0.06815789 -0.0010550254 -0.019138163 0.022577643
-0.029261889 0.084981345 -0.004757962 0.054384537 -0.052993145 0.08528332 -0.04802429 -0.030729596
-0.05357547 -0.014710448 -0.01038358 0.026752979 0.061186977 0.008432081 0.047195524 0.026435945
0.0003413582 -0.010256382 0.024569897 -0.0060940986 -0.019268349 -0.078003876 -0.077881396 -0.05999975
-0.011480085 -0.052090224 -0.035332844 -0.08971827 0.07230302 0.039013986 0.074228585 -0.0136063425
0.03691801 0.0056056827 -0.02018246 0.029133316 -0.025240721 0.027467685 0.04195461 0.051415786
-0.02255726 0.018500285 -0.062936746 0.07266754 -0.08445034 -0.06544901 0.035626717 0.055193715
0.074391775 0.07645032 -0.091260746 -0.06323321 0.067111015 0.022086468 -0.083092496 0.03797587
0.024936412 -0.019948307 0.05912849 0.010258822 0.08004403 0.029882126 -0.06233474 0.023683226
-0.03222477 -0.07210858 0.034060437 -0.06123535 -0.025022062 -0.043671817 0.06467488 -0.07749517
0.07580363 0.046836477 -0.052160718 0.019468445 0.03381524 0.07580711 -0.017375464 0.04581432
0.08133523 0.0031623216 -0.017983213 0.0006375031 0.06432865 -0.07385001 -0.064566046 0.08611936

weight_hh_l0 f4 [384, 128]
00000000: 93d4 95ba e8a1 d53c 9376 3a3d 1ac3 41bd
00000010: d262 a439 0b76 a7bd 8e44 a53d 3abd 623d
00000020: f85e 90bd 0a05 673d ae9f 6d3d 2225 55bd
00000030: 1f12 973b 28d3 163d ff4e db3d 1937 823d
00000040: 91e0 9b3c 11e1 85bd c1ff 813c 64e7 bfbd
00000050: 2a90 4bbd 6336 b3bd b778 81bd c057 d03c
00000060: 8f77 03bd f4dc c4bc e601 a2bc e51a 15ba
00000070: 1f12 fabc 221c b2bd 9396 20bc cb72 9c39
00000080: 52c7 bdbb 8f10 93bd 211e 983d 84b9 923d
00000090: b10a 123d 1799 34bd 4020 303d e66c cb3b
000000a0: 31e1 bc3c 47ba dabc 5633 7ebc 1923 913d
000000b0: a99d 933d c0a0 2dbd 59e2 bc3d ddcf 77bc
000000c0: 5089 263b 3470 ad3d 89ef abbd cf00 7a3d
000000d0: d3cb cebc 0db4 3d3c 44b2 8d3d b22c 88bd
000000e0: a361 9c3b 1c62 dd3b 41af 283d 4cd5 cfbc
000000f0: 99a4 b03d f6fb 50bd 0dec 2bbd 7e02 b8bd
00000100: 4fa8 90bb d551 273d d40e 66bc 2ae5 93bd
00000110: 9bcf de3a babd 9bbc 2687 de3c 915b 173d
00000120: d328 9d3d a08f 6ebd 21a1 463b 4acf 9fbd
00000130: 0255 4abd 645c ae3d 7804 ee3c 2441 2a3d
00000140: b035 5abd e986 60bc 9b51 d43d aa43 743d
00000150: 32a3 17bd 7625 a7bd 3bc9 1ebd f878 813d
00000160: 3116 cf3c 8d59 13bc ded4 b73d 5dd1 633c
00000170: 485f b2bd 5d74 713d c2a8 b63b 4e20 303d
00000180: 1bdf fcbc abea acbc 5571 89bd bbaa 0e3d
00000190: e0e3 a0bc 54fd b53d 6059 28bd f0ea 9d3d
000001a0: 331d 5d3c 474a 6bbd 1b7b 433d e0ac 1bbd
000001b0: 5f71 4a3d d476 20bd 1941 72bc 6388 97bb
000001c0: 84c7 a63b 7f08 5fbd c0e2 9fbc c53f 09bd
000001d0: 0d24 cc3d e75a fa3b 5142 473d 7308 95bc
000001e0: 37a1 623d 2576 7d3d b8c4 14bd 0747 1fbd
000001f0: a890 753d 8934 413b 752d 58bd 791d 953d
00000200: fa0b c73c 51b1 383d 8f5c 60bd 4ab0 64bd
00000210: 65cd 663d f230 34bd eed9 38bc 9578 2e3d
00000220: b2d6 59bd 84cd f63d c5b7 9ebd d0fd 7b3d
00000230: 3fe2 6dbc 7515 fe3d 61f4 18bc f600 17bd
00000240: d8f5 59bd b503 a93d af0d c2bb ee83 cebc
00000250: f638 b0bd c407 d2bd 936a eebd 4b3a bc3d
00000260: 2e67 8ebc 985c 003c fa9e 1c3d 87e7 fdbc
00000270: eb81 223d be28 f1bb 5c06 89bd 8bf5 ac3d
00000280: d05e 823c 7399 e53c ea97 48bd 04ec 8f3d
00000290: c752 243c 0b65 7fbd 8250 963d 3d3c bc3c
000002a0: 15ea 54bc dab6 debd 5a7e d03a bc24 773d
000002b0: 2da5 3c3d 633c 593c 48c8 c7bd 48c4 15bd
000002c0: 7868 a7bd dbea d53d 880f c6bd 1410 5fbd
000002d0: 0357 0b3e ddea ad3b 9203 76bd 2976 cc3d
000002e0: f10d 94bc fa98 dd3c 5d11 623d e011 293d
000002f0: 24bb a33c 394e 513c dfae 8abc 1cb1 ddbb
00000300: c32b 893d 75f4 d53c 3a7b ed3c e325 68bd
00000310: 482f a7bd bc10 a43d 683f 853d b14d d6bd
00000320: 3b17 50bd e21e 463d 2906 693d c43f 573b
00000330: ae49 c7bd 2088 8ebc db22 1b3d 340a c8bd
00000340: 20e3 1fbd b4d5 10bd 234e a53d 7263 ab3d
00000350: 6ca2 a5b9 1b96 a03c b2a6 483d fad9 693d
00000360: b615 e43d 5262 58bd e395 51bd 42d0 8a3d
00000370: cace ccbc 2ebe a43c fac4 b8bd dfad 163e
00000380: 4d56 023c 6432 683c b849 713c 03ea 01bd
00000390: f079 a7bd 8ff9 6b3d 1476 733d 022a a83d
000003a0: ce19 2c3d 9148 40bd 0c2b f43c b0a8 70bc
000003b0: b450 ad3d 64ab acbd 3fbd f6bd 98fc 343d
000003c0: 1936 283c 3456 8d3b c453 3e3d 925e 51bd
000003d0: 9241 b83d 252f 4a3d 490c c83c c39d 49bc
000003e0: 5e3c c6bb 873b 653d af79 4abb 91b6 1f3c
000003f0: 10b1 6dbd 3426 dfbc 9dd9 78bd 38f9 d0bd
-0.001143115 0.02607818 0.045523237 -0.047305204 0.00031354144 -0.08176812 0.080697164 0.05535624
-0.07049364 0.05640129 0.05801361 -0.052037366 0.0046103145 0.036822468 0.10708427 0.06358165
0.01902798 -0.06537069 0.015869023 -0.09370306 -0.049698032 -0.08750608 -0.06321853 0.025432467
-0.03209644 -0.02403114 -0.019776296 -0.00056879065 -0.030526219 -0.08696772 -0.009801525 0.00029840166
-0.005791583 -0.07180893 0.07427622 0.071642905 0.035654727 -0.04409131 0.042999506 0.00620805
0.023056598 -0.026700152 -0.015515169 0.070867725 0.07207806 -0.04238963 0.0922286 -0.015125242
0.0025411434 0.08468667 -0.08395297 0.061035927 -0.025243675 0.011578572 0.06918767 -0.0664915
0.0047723814 0.0067560803 0.04118276 -0.025370263 0.086251445 -0.05102154 -0.041973162 -0.0898485
-0.004414595 0.040849525 -0.014041621 -0.07221444 0.0016999127 -0.019011367 0.027164053 0.03695256
0.07673802 -0.05824244 0.0030308443 -0.07803209 -0.049397476 0.08513716 0.029054865 0.04156603
-0.053273857 -0.01370404 0.103671275 0.059634842 -0.03702087 -0.08161442 -0.038766127 0.06321901
0.025279136 -0.008993519 0.08976148 0.013904897 -0.0870958 0.058948863 0.0055743167 0.04299956
-0.030868104 -0.021107992 -0.067110695 0.03483079 -0.01963991 0.08886209 -0.04110086 0.077108264
0.013495731 -0.057443883 0.047724824 -0.038006663 0.049424525 -0.039175823 -0.014786028 -0.004624413
0.005089702 -0.054451462 -0.019517303 -0.03350808 0.09967814 0.007640231 0.04864723 -0.018192505
0.055329528 0.06188025 -0.036320418 -0.038886096 0.059952408 0.0029480776 -0.052777726 0.07281012
0.024297703 0.045090977 -0.05477577 -0.055832185 0.056348223 -0.04399199 -0.011282427 0.042595465
-0.053183265 0.12050918 -0.07749895 0.06152135 -0.014519273 0.12406436 -0.009335608 -0.03686615
-0.05321297 0.0825266 -0.0059220414 -0.025209393 -0.086046144 -0.102553874 -0.11641421 0.09190806
-0.017383184 0.007834576 0.03823755 -0.03099419 0.03967468 -0.007359593 -0.06690666 0.08445271
0.01591435 0.028027272 -0.048973 0.07027438 0.010029501 -0.06235222 0.073395744 0.022977943
-0.012995263 -0.1087472 0.0015906796 0.060337767 0.04605596 0.013259026 -0.097549975 -0.03656414
-0.08174223 0.10445186 -0.09670931 -0.054458693 0.13607411 0.005307539 -0.060062 0.09983475
-0.018073054 0.027050484 0.05519234 0.041276813 0.019986697 0.012774997 -0.016929088 -0.006765498
0.066978 0.026117543 0.028989423 -0.056676757 -0.08163315 0.08011004 0.065062344 -0.10464037
-0.050803404 0.048369296 0.05689064 0.0032844404 -0.0973085 -0.017398894 0.037875038 -0.09767571
-0.039034963 -0.035360053 0.08071544 0.08368577 -0.00031592266 0.019602826 0.048987098 0.057092644
0.111369535 -0.05282814 -0.051168334 0.06778003 -0.025000948 0.020110216 -0.09021945 0.14714764
0.007955146 0.01417217 0.014727049 -0.03171731 -0.081775546 0.057611044 0.05943878 0.08211137
0.042016797 -0.046944205 0.029805683 -0.014688656 0.084626585 -0.08431128 -0.120478146 0.044186205
0.010266804 0.0043132547 0.046466604 -0.05111558 0.089968815 0.049361367 0.02441992 -0.01230568
-0.006049677 0.055964973 -0.0030895283 0.009748117 -0.058030188 -0.027239896 -0.060754407 -0.10203785

bias_ih_l0 f4 [384]
00000000: 358f bbbc b64e be3d 58d4 68bd e317 5e3d
00000010: 28fe 773d 2084 f63d 39bb 16bc 19ca dabd
00000020: 7017 bcbd 1522 a53c 3aea 203d ebb7 24bb
00000030: 9c87 06bd 6537 b33d 7ab6 c83b 10d0 8d3d
00000040: e2c5 603d 0b85 b0bc 100b 69bd f045 c93b
00000050: aab4 7a3c 78fc a0bd e27a f1bd 096a e23b
00000060: e7fa 0a3c b9c1 363d cb65 e83c 0cbb 3dbc
00000070: 858d 68bc e8d3 bd3d 5b85 8cbd 66a5 91bd
00000080: caeb c3bd c4c4 c63c 4068 2dbb 728c a7bc
00000090: f2d9 bdbc caae ae3c 4773 0a3e 3a0f d1bd
000000a0: 46b6 cb3d b772 0ebe a194 c63d 96b9 4c3d
000000b0: c414 873d 3c97 01bd 262c e1bd e444 5a3d
000000c0: e4a9 343e 0c80 c7b8 33b1 1cbc 3f41 813d
000000d0: a74c 023c 6129 5a3d 38a7 f43c 5ae4 7f3d
000000e0: 09cd 76bd 68f9 f6bd 58bc 90bd 6ba7 64bd
000000f0: 9210 103d 3598 52bc 970b 01bb 379b c83c
00000100: 144a ebbd d776 bbbd d45d babd e893 b33c
00000110: 9508 9f3d 469b a7bc 54a3 d0bd cf86 143d
00000120: d3f7 95bd 0dd2 4e3b c867 bcbc a40d 4abd
00000130: a843 b2bd 0b60 673c ace8 0b3e 23cc d23d
00000140: 0081 3dbe f240 91bc d6ae 0b3c 1b6e 44bd
00000150: bdab 98bc 7b0f 833d 97ef f23c 8a12 cc3c
00000160: b6ca 813d 4d3c 5ebd a3da dfba b824 2f3e
00000170: ab7a 37bd 9412 3c3d 8eb1 a2ba 3e34 42ba
00000180: f0db 873c ba4b 84bc 199a d93c 75ab 17bd
00000190: 92a5 073d ffb0 78bd 7655 f83d 55c1 b93b
000001a0: f01e 55bd ede8 bb3c c8f9 f73c b215 873c
000001b0: 79fa d33b 0fee 10be f736 c13c eaa5 7bbd
000001c0: 9155 c0bd d1be 22bd d8c4 3fbd a6c7 22bc
000001d0: 0128 d23d 430b 19bc 56c0 3cbd 3a3a a83d
000001e0: 0685 9a3d 325b 9ebd e5ee b2bd 37bb a53d
000001f0: 6abe 83bc 3217 5a3d b270 2cbc 7711 3cbd
00000200: 978c dfbd 6601 19be ff8d 33bd f60e 0e3e
00000210: 099b 1e3d b6bd ebbd f2f9 19be 2a9a 4cbd
00000220: 025b e9bd 4264 32bd e25b 92bd 9e9b 0c3b
00000230: bb2a 41be 8729 d03b fcc5 893c 5c4f 933d
00000240: 8b6b 95be cabb 7dbe 8830 1bbe 5039 23be
00000250: 271a 40bd 5f6a 50b8 29b5 c1be 837d 32bc
00000260: eb1b 9ebc a623 a2be 4d90 abbd 875a 46be
00000270: 0480 a73d 7afa 933d 91bb 54bd 4309 cd3b
00000280: 32d4 8fbe f015 bebe 457c c63b 3417 c7be
00000290: aabc 42bc 619d 8bbd f5eb eebd dc61 2bbe
000002a0: 747a babe a2b0 17be 5219 9cbe 3bd9 9abd
000002b0: 300b 0fbe a79c b6bd 6639 62be 3dc3 8a3c
000002c0: b2bc 34be d51d 46be cc54 9dbc 296c 87bd
000002d0: ba48 eabd 8077 643d 16e7 263e e37b 8ebd
000002e0: a03c 5cbe d036 60be 32a0 83be ecd7 a9bd
000002f0: 93e7 80be 4a1f 3d3d c11f cabd af9e 483c
00000300: 0c4b dfbd 7080 5dbd a4a9 78be 3182 1bbd
00000310: 4343 6ebe 69ff cfbd a7d2 b0bc a1ea 51bc
00000320: a8a3 ee3d a8ba 33be 48b2 0a3d 05c9 23be
00000330: 6409 8dbe a99c 9cbe 2338 04be 6aed a5bc
00000340: ee5a 08be 9568 36be 1e3d 97be 658a 7cbd
00000350: 1910 4bbe b5be f6bd af10 133d d5c6 a8bd
00000360: 4ede 7cbc b82b 36bd 03dc 5bbe 69a6 3fbe
00000370: a3ff 99bd cd18 5fbd ceb3 ed3c 56b3 1cbe
00000380: a854 16be b4fb 85be 8243 07bd 530e 7dbd
00000390: fe0d 65bd da25 e1bd 2e72 29be 6187 14be
000003a0: 79f0 26be edc4 c2bd 13f6 22bc 2dc5 0dbe
000003b0: 5e81 313d b4f3 c4bd d9b8 30be d51f 5fbd
000003c0: 29e3 273d 0679 5bbd d5f7 d1bd d02a bf3d
000003d0: 396f 2fbe c1db 01be b687 27be 537e 02be
000003e0: 9a46 e8bd 9909 90be 0265 4a3c 892d 64be
000003f0: 6333 37bd 3ed9 acbd c83b debd 21dd 7f3d
-0.022895435 0.09292357 -0.05684313 0.054222 0.060545117 0.120369196 -0.009199911 -0.10683078
-0.09184158 0.020157853 0.039285876 -0.0025134038 -0.03284417 0.087508 0.0061252685 0.069244504
0.054876216 -0.021547815 -0.056895316 0.0061423704 0.015301863 -0.078606546 -0.11791016 0.006909613
0.008482671 0.044618342 0.028368851 -0.01158024 -0.014193897 0.092689335 -0.06861373 -0.071116254
-0.095664576 0.024263747 -0.0026459843 -0.020452712 -0.023175213 0.02132358 0.13520537 -0.10207982
0.09946875 -0.13910948 0.096963175 0.049981676 0.065957576 -0.03163837 -0.10994749 0.053288355
0.17642933 -9.51291e-05 -0.009563732 0.06311273 0.007952846 0.05326212 0.029864892 0.062473632
-0.06025413 -0.12059289 -0.07067174 -0.055823725 0.035172053 -0.012853672 -0.0019690746 0.024488075
-0.11488739 -0.09153526 -0.090999275 0.021921113 0.07765309 -0.020459782 -0.10187402 0.036261376
-0.07322659 0.0031558305 -0.022998706 -0.049329415 -0.08704311 0.0141220195 0.13662976 0.10292842
-0.18506241 -0.017731164 0.008525571 -0.047956567 -0.018636579 0.06399437 0.029655261 0.024911184
0.06337492 -0.054256726 -0.0017078709 0.17103851 -0.04479472 0.045916155 -0.0012412535 -0.00074082974
0.016584367 -0.01614939 0.026562737 -0.03702875 0.033116885 -0.06071567 0.121256754 0.005668799
-0.052031457 0.022938216 0.030270472 0.016489837 0.0064690677 -0.14153312 0.02358578 -0.061437525
-0.093913205 -0.039732758 -0.046818584 -0.009935295 0.102615364 -0.009341064 -0.046081863 0.08214231
0.075449035 -0.07732238 -0.08736972 0.08092349 -0.016082007 0.053244777 -0.0105249155 -0.045915093
-0.10915487 -0.1494194 -0.04383659 0.13872895 0.03872207 -0.11510794 -0.15036753 -0.04995171
-0.113943115 -0.043552645 -0.071464315 0.002145506 -0.18863957 0.0063526067 0.01681804 0.07192871
-0.2918361 -0.24778667 -0.15155232 -0.15939832 -0.04689994 -4.969013e-05 -0.37833527 -0.010894182
-0.019300422 -0.31667823 -0.083771326 -0.19370471 0.08178714 0.07225509 -0.05193669 0.0062572076
-0.2809158 -0.37126112 0.0060572946 -0.3888489 -0.011885801 -0.06817127 -0.11666099 -0.16736549
-0.3642155 -0.14813474 -0.30488068 -0.07560965 -0.13969111 -0.08916598 -0.22092208 0.0169388
-0.17650107 -0.19347318 -0.019205473 -0.06612427 -0.11439653 0.055778027 0.1629909 -0.06957223
-0.21507502 -0.2189591 -0.25708157 -0.08293137 -0.25176677 0.046172418 -0.09869338 0.012244864
-0.10902986 -0.054077566 -0.24283463 -0.037965957 -0.23267846 -0.101561375 -0.021584822 -0.012812288
0.11652309 -0.17551672 0.03386143 -0.15994652 -0.27546227 -0.30588272 -0.1291204 -0.02025481
-0.13315937 -0.17813332 -0.29538816 -0.06165542 -0.1983036 -0.12048093 0.035904583 -0.08241049
-0.015433861 -0.044475287 -0.21470647 -0.18715824 -0.07519462 -0.05446701 0.029016402 -0.15302786
-0.14680731 -0.26168597 -0.033023365 -0.06178124 -0.055921547 -0.10993548 -0.16547462 -0.14504768
-0.1630267 -0.09510217 -0.009946364 -0.13844748 0.043336265 -0.09616795 -0.17258014 -0.054473717
0.04098812 -0.053582214 -0.10252348 0.09334338 -0.17132272 -0.12681486 -0.16360363 -0.12743501
-0.11341591 -0.28132322 0.012353184 -0.22282995 -0.04472674 -0.08439873 -0.10851246 0.062466744

bias_hh_l0 f4 [384]
00000000: 8692 ed3d 4fd8 27bd 9d86 f23c bfaf 9c3d
00000010: 83c5 c7bd de01 973d e3f2 813d 79d3 d1bd
00000020: dced c2bd 5964 cf3c 9e23 4abd 106f 28bc
00000030: 0fc0 78bd 590b e93d eadd 933d e6b1 043c
00000040: 1cc0 d63d eafd 703a 0103 f9bd 5da9 a13d
00000050: 9bb5 9d3a 04c9 87bd a828 e5bd 9c4d b03d
00000060: 38d9 913c ef0d 4e3d 99cb d53d a48c c1bc
00000070: d392 35bd 1670 a03d ffd3 8c3d a062 34bd
00000080: ffed 2fbd 526d 873d 888d ffbb f785 08bc
00000090: ca15 22bc 185e babc 00f4 103b 7783 76bc
000000a0: 4b20 643c 489f ecbd 27fa b13d ea3e c0bc
000000b0: da20 1f3d f1b3 15bd 48e9 dfbd 88dd ff3a
000000c0: 35ea a83d 77c7 8bbd 93f8 de3d 421e d53d
000000d0: 73db 8bbd 2405 983c 107f c8bc 8421 74bd
000000e0: 7672 dfbd cc00 d6bd c609 873d 318b 96bd
000000f0: 2157 8d3d ce35 a93d 17d7 813d 418a e73c
00000100: a399 243d 8974 e8bd 3c92 debd bce9 f4bc
00000110: 3593 433c 9e7e 5cbd e85e b4bd 2fd3 85bd
00000120: 29a2 8ebd 4375 9fbd 0199 163d abdd 8abc
00000130: f7f3 76bd 66d5 203b 7c5e 0f3e 43f7 8a3d
00000140: 128c 05be a07f b13c e8a2 03be 2552 253d
00000150: 594a 353c 948e 89bc a98c 903d 797a 50bd
00000160: c1d4 d73d 558f fbbb a301 84bd baac a53d
00000170: 6730 ac3d 1e32 523d 96c0 f7bc 47b5 653d
00000180: 085a 45bd dd84 003d 5fec cf3d 8006 82bd
00000190: cacb 643d 6f88 513d 520e 5f3d d4ed 923d
000001a0: da1a d2bb 16c6 1f3a 5d14 373d 4cb7 3c3c
000001b0: 9316 7d3d 1287 233c 817f 10b9 9699 d6bd
000001c0: 93a2 e13b f414 063d 6960 03bd 5252 26bb
000001d0: bb68 f63d 79a7 46bb aee7 aebd 3e04 92bb
000001e0: 341e 03bd 72fa e6bd e35c 99bd 1771 b33d
000001f0: 2799 e03d 3846 adbd 04be c3bc b5a4 c43d
00000200: 50b2 12be e90e 9abc 6f90 773c 4a70 a43d
00000210: 7842 cb3c b100 3bbd 2a5c 50be 1b7a d03c
00000220: 3881 18be 0842 19bd 9b14 883c 357c 31bd
00000230: 98b2 8abe 61f4 1ebe 350a aabd 52bf ef3c
00000240: a3d7 8dbe 8cc9 84be 1a38 62be a605 45be
00000250: c620 9ebd c7ec 79bc 39be 90be e19d 04bc
00000260: 4f9f a9bc 925b 8dbe 3b49 8ebd 72d5 a4bd
00000270: 96e7 653d 22c1 b7bb a582 4fbe 0391 b1bd
00000280: d23d 47be b410 a7be 83bf 803c fa26 adbe
00000290: 6c08 7b3d 897a c4bd 35b9 95bc 166c 71be
000002a0: da1d a5be e8f4 3cbe 4293 83be 0976 1fbe
000002b0: 3cbd 72be 4eb4 19be c882 5cbe ec84 863d
000002c0: a857 0abe fcd8 a0bd 04c6 f1bd 5fd1 83bb
000002d0: becb 41be 5e3f a83c b43e 1d3e 0343 17be
000002e0: f863 5dbe b841 46be 4010 dfbd 5408 e9bc
000002f0: 986f 90be 877f bb3d a8e4 4ebe 2ecd 3d3b
00000300: 1c3c 72be 0e73 8dbd 7479 96be d764 eabd
00000310: cbfb 79be 895a 80bd 4a58 55bd 0d38 d0bc
00000320: 5e76 833d b000 3dbe a8ec 9b3d db0a f1bd
00000330: 72a4 9abe 9da2 66be 3d06 a33c c325 c8bb
00000340: 2399 7cbc cd8e 32be 2810 54be 462f eebd
00000350: cb57 78be d2f2 30be 597a 9abd 4bc1 56bd
00000360: e78f 3e3d 9b80 65bc 7503 65be d071 91be
00000370: 2d70 bdbd c0ff 823c 9ca1 343d 5cc9 05be
00000380: ac31 a8bd 9a93 93be 5cfc 65bc e8c1 45be
00000390: 3088 5dbd 0693 72bd c6ea 59be 03df 51be
000003a0: f4ea bebd 5999 0fbe eaa7 54bd 8fc5 fcbd
000003b0: 91d0 b43d f347 1fbe 047a 16bd 6d18 2dbc
000003c0: 3cb4 a3bd f216 08be 7500 cebd 7e12 a0bd
000003d0: f7ae e1bd 07c7 09be f903 ccbd ab32 24be
000003e0: 1c02 f4bd d87a 5abe 429b cfba 7dce 45be
000003f0: 3ecb 19be d722 81bd 0e9b edbd 7ee1 31bd
0.11600213 -0.040977772 0.029605204 0.076507084 -0.09754469 0.07373403 0.06345155 -0.10245413
-0.09518024 0.025316404 -0.049350373 -0.010280386 -0.060730036 0.113791175 0.07220061 0.008099055
0.10485861 0.00091931096 -0.12158776 0.078936316 0.0012032272 -0.066301376 -0.11189395 0.08608553
0.017803773 0.050306257 0.10439224 -0.023626633 -0.044329476 0.07833879 0.068763725 -0.04403937
-0.04295158 0.06612648 -0.0077988543 -0.008332721 -0.00989289 -0.022749946 0.0022118092 -0.015045992
0.013923715 -0.11553818 0.08690291 -0.0234675 0.03884969 -0.03654856 -0.10933167 0.0019520978
0.082477964 -0.06825154 0.108872555 0.10406162 -0.06828966 0.018557139 -0.02447465 -0.059602275
-0.109105036 -0.10449371 0.06593661 -0.073507674 0.06901384 0.082622156 0.06339853 0.028264167
0.040185582 -0.11350352 -0.10867736 -0.02989661 0.011936952 -0.05383169 -0.088071644 -0.06534421
-0.06964523 -0.07786038 0.03676701 -0.016951403 -0.060291257 0.0024541258 0.14000887 0.06785443
-0.13041714 0.021667302 -0.12855113 0.040361542 0.011065089 -0.01679162 0.07058079 -0.05089805
0.105386265 -0.0076769986 -0.06445625 0.080895856 0.084076695 0.051317327 -0.0302432 0.056081083
-0.048181564 0.03137671 0.10152506 -0.06348896 0.05585841 0.051155504 0.054457016 0.07174268
-0.0064118924 0.0006094886 0.044697154 0.011518311 0.061789107 0.009980934 -0.00013780409 -0.10478513
0.0068858354 0.032734826 -0.032074366 -0.0025378657 0.120316945 -0.0030312224 -0.08540283 -0.004456072
-0.032011226 -0.112782374 -0.0748842 0.087618046 0.109667115 -0.08460659 -0.023894317 0.09601728
-0.14325833 -0.018805938 0.015110119 0.0802923 0.024811968 -0.045654956 -0.20347658 0.02544885
-0.14893043 -0.037416488 0.016611388 -0.043331344 -0.2708938 -0.1552291 -0.08302728 0.029266033
-0.2770358 -0.25935018 -0.22091714 -0.19240436 -0.07721095 -0.015254206 -0.28270128 -0.008094282
-0.020705847 -0.27608925 -0.06947561 -0.08048524 0.05612906 -0.00560774 -0.2026468 -0.08670237
-0.19457176 -0.3262993 0.01571632 -0.338188 0.06128733 -0.09593684 -0.01827679 -0.23576388
-0.32249337 -0.184528 -0.25698286 -0.1557237 -0.23705 -0.15010187 -0.21534264 0.065683216
-0.1351 -0.078538865 -0.118053466 -0.0040227617 -0.18925378 0.020538028 0.1535595 -0.14771657
-0.21620166 -0.19361007 -0.10891771 -0.028446354 -0.2821014 0.09155183 -0.20204413 0.0028961408
-0.23655742 -0.069067106 -0.29389536 -0.11445015 -0.24412458 -0.06267268 -0.052086152 -0.025417352
0.06419061 -0.18457294 0.07613498 -0.11769649 -0.30203587 -0.2252297 0.019900436 -0.006108017
-0.01541737 -0.17437287 -0.20709288 -0.116301104 -0.2425224 -0.17280129 -0.07542867 -0.052430432
0.046523955 -0.014007713 -0.223646 -0.28407145 -0.092499115 0.015991092 0.044099435 -0.13065094
-0.08212599 -0.2882355 -0.014037218 -0.1931225 -0.054084957 -0.059222244 -0.21280965 -0.20495228
-0.093221575 -0.14023341 -0.051917948 -0.12342369 0.088288434 -0.1555479 -0.036737457 -0.010564906
-0.07993361 -0.13290003 -0.10058681 -0.07816027 -0.110197 -0.13454829 -0.09961695 -0.16034953
-0.11914465 -0.21335924 -0.0015839117 -0.1931705 -0.15018937 -0.06305473 -0.1160184 -0.043427937

weight_ih_l1 f4 [384, 128]
00000000: e03c a63b e52f 843d 2bc0 af3d b0ae 97bd
00000010: c3a1 1cbd b2fb 753d e1cf 8f3d 7c2f 2bbd
00000020: 80c4 113d 5323 2ebd d0a7 143d 3c34 cabc
00000030: d0d2 073c 46fe 593d 5809 64bd 20e4 7ebb
00000040: d15a 46bd a010 71bc ea47 92bd ec4f f53c
00000050: 408e 9fbd 4567 33bd e669 8dbd 5a53 6e3d
00000060: dfa7 963d c378 963d 5b07 893d 4009 903c
00000070: 1093 54bc 838d 893d 662b 3e3d 9702 88bd
00000080: f88e 2a3c f5c8 8ebd febd 7d3d 0089 f93b
00000090: 931b 803d 9e59 003d cff4 8b3d e01d 81bd
000000a0: def5 753d a7a2 55bd 1a3e 83bd bb82 af3d
000000b0: 9235 433d 266e 47bd 7016 7dbc 9111 a63d
000000c0: e465 a1bd 4257 a9bd 4448 40bd 0098 9a3c
000000d0: b611 633d cabc 73bd b958 973d 4db9 0cbd
000000e0: 5d77 8e3d 54da c13c 55a0 9d3d 3697 6cbd
000000f0: e0d6 87bc f89f 2dbd 2282 0a3d d793 b0bd
00000100: aa24 433d 002b 9dbc b2cd 5f3d 4e9d d7bc
00000110: e6f0 a3bd 9429 bb3c 404d 81bb b604 10bd
00000120: f843 fd3c 0091 d7b9 5846 ff3c 6e9c 45bd
00000130: 3c00 d33c 2036 53bd 9016 2cbd 89dd 933d
00000140: d3e1 9a3d f403 98bc 0093 ddba c4e3 5fbd
00000150: 5ae2 623d b5c6 973d 13d1 863d 1ca9 28bd
00000160: 9acc 223d 4277 0d3d 58fd 6ebc b23c 4a3d
00000170: 28c3 a9bc a558 a93d 22a3 273d 74b3 9b3c
00000180: 14bc 8dbc 1c8e 9b3c 3019 94bb 2ee0 77bd
00000190: 6a07 323d a0f3 02bb c418 a9bd 5311 0dbd
000001a0: d0d2 e1bb 2299 783d d0ac 23bc f6e2 4b3d
000001b0: 0b58 95bd deae 2ebd 20df 663c c6ed 9abd
000001c0: 6094 5e3b 78f7 adbd 89a0 9fbd 72e9 1ebd
000001d0: b475 54bd 8003 deba 003e 46ba 4466 b8bc
000001e0: dba4 0dbd 3988 89bd ce1f 60bd 4ebb 413d
000001f0: d44e 9ebd 7e7b 86bd 5a3b 433d a454 93bd
00000200: ce33 2fbd 8e54 5a3d 2889 92bc 2825 37bd
00000210: 294e 9a3d f6be 5e3d a8cd b2bd 8c01 7fbd
00000220: 029a 273d 60c7 fb3b 8b54 ac3d 0cf1 f13c
00000230: 5c49 16bd f2fc 433d 638a 953d 870c 8d3d
00000240: b83a 93bd 4027 2ebb 9e19 2dbd b0d1 103c
00000250: 7c5f 65bd 6089 ffbb 00cd 27bc 3897 633c
00000260: 3027 6ebc a44f b93c a11f 05bd af1b a83d
00000270: 2072 2f3b 0093 1dbb 35c3 a3bd d829 8d3c
00000280: 6e6c 723d de4b aabd 9933 2abd 3e8c b0bd
00000290: b533 3bbd 3148 a43d 75a1 9b3d 84bd ccbc
000002a0: a8de 7cbc ac9c 2abd ff76 96bd 14d9 bf3c
000002b0: 5826 683c 10a8 cabb 7c01 abbc 71c6 afbd
000002c0: a55e b33d 3e15 fbbc a67d 013d 247d 0cbd
000002d0: 37a3 10bd 8f46 9f3d b8a7 583c 3ea3 39bd
000002e0: e028 603b 2593 853d 11cb a4bd 50b7 01bc
000002f0: 038b 993d 18b1 d53c b50b b13d 40d5 07bb
00000300: 6817 053c 3272 193d 5008 8fbc a043 f33c
00000310: 1a33 5a3d b402 8fbd fb8f 14bd d0a0 883c
00000320: 1353 9b3d 4804 bebc cc47 8b3c 5693 293d
00000330: 2895 98bd e38a 8c3d 44ab 87bc c08d 953c
00000340: 6466 60bd 9ba5 a1bd bf4d 9c3d a105 9f3d
00000350: 87b2 a2bd 11a6 79bd 2ee5 d4bc 0ad4 783d
00000360: 1356 8dbd 2b31 67bd ee07 653d 4866 4dbd
00000370: 3bb2 a7bd 0688 1e3d d606 573d e2f6 1e3d
00000380: 83db 59bd f2f3 103d f1e1 18bd b0cc b53b
00000390: 18df a6bd 7c73 b1bd 8486 ae3c e6af 523d
000003a0: c248 0d3d a961 a93d c804 c9bc 399d 50bd
000003b0: be25 763d 6e3f 6f3d 71f0 9fbd b62b 723d
000003c0: 9db2 933d 51f7 933d d805 09bd 401f bcbc
000003d0: 3083 fe3c 0858 8bbc 50c5 9bbd 421c 293d
000003e0: 9508 a83d f04f 87bc 3ab9 8dbd 61d0 943d
000003f0: 9ac1 363d 70a9 dc3b a061 8e3c b0be 4abc
0.005073175 0.06454448 0.08581575 -0.07406366 -0.038240205 0.06005449 0.07022072 -0.04179333
0.035587788 -0.042514157 0.03629285 -0.02468311 0.008290008 0.05322101 -0.055672973 -0.0038893297
-0.048426453 -0.014713436 -0.07142623 0.029945336 -0.07790804 -0.043799657 -0.06904964 0.05818496
0.073562376 0.07347252 0.06690856 0.017582536 -0.012974516 0.06716444 0.046428107 -0.06641119
0.010410063 -0.06971923 0.06194877 0.0076152086 0.06255259 0.031335466 0.06833803 -0.06304526
0.06004893 -0.05215707 -0.06408329 0.08569857 0.04765851 -0.04868903 -0.015447244 0.08108819
-0.07880762 -0.08268596 -0.046943918 0.018871307 0.055436812 -0.059506215 0.073899694 -0.034356404
0.069563605 0.023663677 0.076965965 -0.057761393 -0.016581953 -0.042388886 0.03381551 -0.08621948
0.047642387 -0.019185543 0.054639526 -0.026320126 -0.08004932 0.022846974 -0.0039459765 -0.035160743
0.0309162 -0.0004111603 0.031161472 -0.048244886 0.025756948 -0.05156529 -0.042013705 0.07219989
0.07562604 -0.018556572 -0.0016904771 -0.054660574 0.055391647 0.07410947 0.065828465 -0.0411769
0.039745905 0.03453756 -0.014586769 0.04937429 -0.02072294 0.08268861 0.04092706 0.019006468
-0.017301597 0.018988661 -0.004519604 -0.06051653 0.0434641 -0.0019981638 -0.08256677 -0.03444035
-0.006891586 0.060692914 -0.009989932 0.049776994 -0.072921835 -0.042647235 0.014091283 -0.07564883
0.003396295 -0.084944665 -0.077942915 -0.03879685 -0.051870063 -0.0016938299 -0.00075623393 -0.022509702
-0.034581047 -0.067154355 -0.05471783 0.04729777 -0.07729879 -0.06566523 0.047664024 -0.07193878
-0.042774014 0.053303294 -0.017887667 -0.04471317 0.07534439 0.054381333 -0.08730632 -0.062257335
0.040918358 0.0076836795 0.08414563 0.029533885 -0.036691055 0.04784865 0.07301786 0.06887155
-0.07188934 -0.0026573688 -0.04226076 0.008839056 -0.055999264 -0.007798359 -0.010241747 0.013891034
-0.01453571 0.022620983 -0.032500867 0.08208405 0.0026770905 -0.0024043918 -0.07996217 0.017231867
0.059185438 -0.08315252 -0.041553114 -0.08620499 -0.04570361 0.08021582 0.07599155 -0.024992712
-0.015433945 -0.04165332 -0.073469155 0.02341894 0.014169298 -0.0061845854 -0.020874731 -0.085827716
0.087582864 -0.030649778 0.03161397 -0.03429903 -0.035311904 0.0777713 0.013223581 -0.045321696
0.003420405 0.06522206 -0.08046544 -0.00791724 0.074972175 0.026085421 0.08644811 -0.0020726472
0.008123256 0.03746242 -0.017460018 0.029695332 0.05327139 -0.069829375 -0.036270123 0.016678244
0.075842045 -0.0231954 0.017002009 0.041400276 -0.07450324 0.06862428 -0.016561158 0.018256068
-0.054785147 -0.07892915 0.076320164 0.077647455 -0.07944208 -0.06094939 -0.025988188 0.06074909
-0.06901183 -0.056443375 0.055915765 -0.05014637 -0.08188292 0.03870394 0.052496754 0.038809665
-0.05318786 0.035388894 -0.03732485 0.0055480823 -0.081480205 -0.08664605 0.021304376 0.05143728
0.034493215 0.0827058 -0.024538413 -0.05093119 0.060094588 0.0584101 -0.078095324 0.059123717
0.07211802 0.07224906 -0.03345284 -0.02296412 0.031068414 -0.01700975 -0.07605994 0.041286714
0.08204762 -0.01651761 -0.06920095 0.072663076 0.044618227 0.0067340657 0.017380536 -0.012374565

weight_hh_l1 f4 [384, 128]
00000000: c41e e63c c827 30bc d00e 77bc 50c8 853c
00000010: 3a5d 183d 48a6 abbd e099 e8bb 3efb 59bd
00000020: 0073 7dbd a224 763d c8f8 8cbd cf66 96bd
00000030: 9637 183d 85ec 84bd 98ca 2ebc f063 1e3c
00000040: 35c9 a23d a030 d3bc 8ca3 b53c 0a95 6f3d
00000050: 1cd8 d63c 620e 86bd 93a3 9a3d 917a 58bd
00000060: 9685 f6bc d88e bf3c 702d e23b b2d5 5b3d
00000070: 00f1 a1bc 984f b0bd df23 9e3d 14e3 e73c
00000080: 6024 83bc 5af0 7ebd a23a 713d 4e74 013d
00000090: f870 133d c4ef ad3c c63d 3fbd 812b a5bd
000000a0: d4a6 ae3c f03e 65bc ac96 74bd 6ec8 16bd
000000b0: b3d1 a53d 204b 023d 28b5 ec3c 96f1 303d
000000c0: 1208 4d3d 68fd 8bbd ab54 863d 2635 47bd
000000d0: e06c c43c 559c a7bd 82c7 7f3d a2e7 453d
000000e0: c7c9 923d 0674 4ebd 1c21 9ebc 468d 18bd
000000f0: e958 13bd 1569 923d ec17 85bd 082c db3c
00000100: 9eea 4abd 6b14 80bd 26b8 4a3d 6acf 9bbd
00000110: a6d5 083d d289 3e3d ff31 91bd 585e 6ebd
00000120: 7349 813d f217 613d 0060 9d3a b4a5 84bc
00000130: 146a 95bd a5fb 8c3d d980 59bd a141 863d
00000140: 4749 6bbd 56b6 6c3d b1ed a43d 9eaa 0a3d
00000150: d01e fe3b e482 d5bc 60de 3bbd 681c 7e3c
00000160: 5803 4fbd a45d f03c 6848 b63c a5dd 8bbd
00000170: b4f4 48bd b847 a63c 4a20 363d a264 713d
00000180: d685 8fbd 2ce5 a43c 605b 9abc 3621 203d
00000190: fc5b a63c de92 053d 42f4 29bd 781b 9b3c
000001a0: d58e 94bd ca4c 8ebd fc2a cabc 4213 683d
000001b0: 884d 1dbd 82aa 723d bc31 ca3c b23f 6f3d
000001c0: 3459 e8bc 2b86 b0bd 69de b43d 8420 8e3c
000001d0: 8398 66bd 7f7f aabd 182e 7c3c a0b9 41bb
000001e0: 503c 8fbd 5a7c 7d3d 8f47 973d 0224 043d
000001f0: a1f4 a73d d4a0 9a3c 1a8b 213d 1e64 2bbd
00000200: 70bf 05bd b698 283d 3b65 a23d 9208 7bbd
00000210: 5a66 7a3d 6067 5fbb 8a7e a3bd 36b0 1b3d
00000220: 0087 713c 59e4 3abd b3ca 923d 3b68 98bd
00000230: ee34 4d3d 504d 9a3b 7262 30bd 6aa1 8ebd
00000240: 8846 793c 7413 bcbc 7760 853d c0d4 573c
00000250: b088 cebc d0f5 003d fe27 3b3d ca66 19bd
00000260: 8028 7c3b df1d a2bd 5e99 613d 8b1b 39bd
00000270: 1c63 bc3c 4a1e 373d 5283 4b3d 1fa4 843d
00000280: 7234 003d 48e4 0e3d 102b 8cbc 0e41 6bbd
00000290: 4f8c 6dbd 82b2 1e3d e42b a8bd 4c33 96bd
000002a0: 9cae c1bc 52f0 4d3d 6617 74bd 88b7 a2bc
000002b0: 80fc c33b cfa3 3dbd 7d55 a7bd 52b2 8abd
000002c0: 722c 633d 0075 4ebc 9847 3bbc bc97 e43c
000002d0: da99 003d fc16 af3c 709f e6bb 88c7 c83c
000002e0: 0c9a 2bbd 1f0e 20bd 0090 45b9 0004 843b
000002f0: 108f aabd e5d2 863d 3019 db3c 95bd 963d
00000300: fec3 253d b01c a3bd 3e38 333d 24d0 8ebc
00000310: b866 a5bc 70a3 c33c 7e1f 023d 7b11 94bd
00000320: 75d0 0abd 2262 6b3d c58f 01bd f388 913d
00000330: 8676 3d3d 35dc 973d a889 1c3c 5850 aabc
00000340: 42f8 6b3d c090 70bc 6630 36bd 456d 903d
00000350: 4c8a 9d3c c2f4 13bd ab7e 44bd 7d8b 4abd
00000360: a040 96bd ba46 9dbd d234 093d 10ed 71bc
00000370: c780 9e3d a2e4 4e3d e4d1 93bd 3755 983d
00000380: 0a54 6f3d 7206 afbd 8cbd a8bc 8a26 a5bd
00000390: c699 3c3d 9a6b 65bd 117c b43d 2883 eabc
000003a0: 06d3 303d 7f6a 11bd 4f20 28bd c0e9 fc3c
000003b0: f279 91bd 5616 64bd 026b 0abd e4ba a93c
000003c0: 7799 92bd b83e 133c 2a94 8bbd 6471 fb3c
000003d0: ee42 723d aac9 533d 98ec 96bc b327 28bd
000003e0: 887a 813c 1616 433d 5110 05bd c2f3 4e3d
000003f0: be1a d5bc a157 903d 1041 b2bd 4f14 69bd
0.028090842 -0.010751672 -0.015079215 0.016330868 0.037198283 -0.08381325 -0.0070984215 -0.05321812
-0.06187725 0.06009353 -0.06883389 -0.07343828 0.037162386 -0.06490425 -0.010668419 0.009667382
0.079485334 -0.025780022 0.022172712 0.058491744 0.026226096 -0.06545712 0.075507306 -0.052851263
-0.030092996 0.023383543 0.006902389 0.053670593 -0.019768238 -0.08608931 0.077216856 0.028306521
-0.016008556 -0.062240936 0.058893807 0.031605057 0.035996407 0.021232493 -0.04668977 -0.08064938
0.021319784 -0.013992056 -0.059714004 -0.03681224 0.080966376 0.031809926 0.028894976 0.043199144
0.050056525 -0.06835443 0.06559118 -0.04863467 0.023977697 -0.08184115 0.062446125 0.048316605
0.07167392 -0.050403617 -0.019302897 -0.037244104 -0.035973463 0.07148949 -0.06498703 0.026754394
-0.049540155 -0.062538944 0.049492024 -0.076079205 0.033406876 0.046518154 -0.07089614 -0.058195442
0.063128375 0.054954477 0.001200676 -0.016192295 -0.072956234 0.06883935 -0.053101394 0.065554865
-0.05744293 0.057791077 0.080531485 0.03385412 0.007755138 -0.02606339 -0.04586637 0.015509702
-0.0505403 0.029341526 0.022251323 -0.06829385 -0.049061492 0.02029787 0.044464387 0.05893386
-0.07007949 0.020128809 -0.0188424 0.039094172 0.020307533 0.032610767 -0.041492708 0.018933997
-0.072538055 -0.0694824 -0.0246787 0.05665899 -0.038404018 0.05924464 0.024681918 0.058410354
-0.028362848 -0.086193405 0.08831484 0.017349489 -0.05629779 -0.08325099 0.015391849 -0.0029560104
-0.069939256 0.06188617 0.073866956 0.032260902 0.08200956 0.018875517 0.0394393 -0.041843526
-0.032653272 0.04116126 0.079294644 -0.06128747 0.061132766 -0.0034088716 -0.0798312 0.038009845
0.014741659 -0.045627926 0.07167568 -0.074417554 0.050099306 0.0047089234 -0.043062635 -0.06964381
0.01521457 -0.022958495 0.0651254 0.013173282 -0.025211662 0.031484425 0.045692436 -0.037451543
0.0038476288 -0.07915854 0.055077903 -0.045192283 0.022996478 0.04470662 0.049685784 0.06476616
0.031300016 0.034885675 -0.017110378 -0.057435088 -0.057995137 0.038744457 -0.082114965 -0.07334003
-0.02364283 0.050278015 -0.059592627 -0.019862905 0.005981028 -0.0462988 -0.081706025 -0.06772293
0.05546231 -0.012601137 -0.0114306435 0.027904384 0.031396724 0.021373264 -0.0070380494 0.024509206
-0.041894957 -0.039075967 -0.00018841028 0.004028797 -0.08328068 0.06583194 0.026745409 0.07360379
0.040470116 -0.07964456 0.04375481 -0.017433234 -0.020190582 0.023881644 0.031768315 -0.07229897
-0.033890206 0.057466634 -0.03163125 0.07106199 0.04625561 0.07415048 0.009554304 -0.020790264
0.057609804 -0.014682949 -0.04447975 0.070520915 0.019230984 -0.03612209 -0.047972362 -0.049449433
-0.07336545 -0.07679506 0.03349764 -0.014765993 0.07739406 0.05051101 -0.07217768 0.074381284
0.058429755 -0.08546151 -0.020598195 -0.08063991 0.046045087 -0.05601082 0.08812726 -0.028626993
0.043169998 -0.035501953 -0.041046437 0.03087318 -0.07103337 -0.055685364 -0.033793457 0.020719
-0.07158177 0.008987121 -0.068153694 0.030693717 0.05914586 0.051705994 -0.018423364 -0.041053485
0.015805498 0.047628485 -0.032486264 0.050525434 -0.026013728 0.07047964 -0.08703816 -0.056904133

bias_ih_l1 f4 [384]
00000000: 403f c9bc 7071 e0bc 0e6d 30bd 8cc9 e03c
00000010: d85b 0e3d 9181 af3d 5554 6cbd 48f7 853c
00000020: ae85 1a3d 27cf a03d 6e90 96bd 84ba ccbc
00000030: 235e afbd e0ef 223c a047 663b 3645 e7bc
00000040: 6c95 19bd 4de1 833d 1591 aa3d 6c45 95bd
00000050: 8978 8a3d 46b6 2a3d 8048 0fbc d2bc 273d
00000060: b64e 90bd 0c24 34bd 29c3 9ebd 1032 9d3c
00000070: 80c7 c13b aef0 b3bd 53b6 a63d 20ce a0bd
00000080: 9b20 a63d c825 49bc 5cdc 70bd 2a55 92bd
00000090: 405a acbc 88a4 1ebc 9cfe cd3c 40d7 a83c
000000a0: fae1 393d a5d8 903d fc9f 70bd 0ab9 33bd
000000b0: 08cb d13c 654b a63d ef16 af3d 78dc 353c
000000c0: a327 32bd 1a9f 6a3d 31bb 2dbd fc1e a8bc
000000d0: 6096 b2bd f8bd f03c da41 463d f90f 6abd
000000e0: b8c5 67bc 99ab a53d 2aae 84bd 3fa8 b0bd
000000f0: ba3a 5abd 9cf8 103d a2d5 573d ac36 4bbd
00000100: 49da b43d 05f5 8f3d 8b51 883d e743 abbd
00000110: 6ac6 8cbd 9822 20bc 06b6 2f3d 101b 21bd
00000120: 52ce 663d ed9b a23d 3bca b3bd e379 4abd
00000130: 9761 9c3d de38 0f3d 30a2 a8bb ec3b ba3c
00000140: 2838 a4bc 33b7 af3d 0a1d 7f3d 5227 203d
00000150: ab60 933d 57c9 913d 0b1a 69bd dd7c a63d
00000160: 50f5 17bc a220 563d 4a2b 273d b602 733d
00000170: 2033 15bb 8401 91bc 8f35 91bd d090 57bc
00000180: 5634 59bd ad01 b23d dadc 6d3d 7232 553d
00000190: 9887 f63c ac09 87bd e8e2 e03c 2e3f 623d
000001a0: e1e9 a43d 802f 38ba e986 29bd be67 233d
000001b0: 6b92 69bd 6ef3 96bd 5c89 ebbc c09b a8bb
000001c0: a151 17bd a0e3 52bb 8057 e03a cf0e 823d
000001d0: b00d 10bc 5ddb 29bd 00fa 6e3b 5606 12bd
000001e0: b237 afbd c018 853c e1db 7ebd 58a2 fc3c
000001f0: 538b 973d 6b40 933d bf95 88bd 4a4f 763d
00000200: ecf8 ce3c 774c 933d b02a db3c 5884 92bc
00000210: 8bf4 92bd a059 a43b 9481 de3c 858c a43d
00000220: 107a 9cbb 78f6 84bc 68db 57bc fb66 8b3d
00000230: a2e4 8cbd aeb6 573d ca86 4c3d 9044 c7bb
00000240: abbe 8c3d e007 20bd b2e5 f5bc 90fb ae3b
00000250: 028a 2f3d 669c 2c3d ec7c 71bd 8627 353d
00000260: 6b5f 8c3d eebe 1ebd 8076 ec3c 88a4 c63c
00000270: fe5a 773d 6f47 853d 7855 97bd b15d 76bd
00000280: b4f0 b0bd c837 8abc 18c8 31bc 2e0f 42bd
00000290: 57b7 76bd 3201 26bd 9267 363d 086b 903c
000002a0: 7538 61bd f841 35bc 5e62 95bd 1d29 a23d
000002b0: a15b 86bd 0824 6a3c 802f 2aba 26cb 93bd
000002c0: 00f5 61bd 0096 3aba 766e 95bd 19a5 a43d
000002d0: d0cd e73c 48b3 ab3c 7915 a5bd 009e efb9
000002e0: 00ec 25ba e023 8e3b 022b 91bd 21e3 21bd
000002f0: 89b0 873d 98b4 a2bd 1dc8 b13d 2fb3 9cbd
00000300: a07f 2fbb 207c 50bc ea73 4a3d 8a41 a1bd
00000310: 4056 c4ba 0e39 6d3d 62b7 5bbd ae1b f2bc
00000320: b2c1 173d 8457 6cbd e961 8f3d af8f 8f3d
00000330: 2f9d 9e3d 9741 53bd 95d8 8f3d 7eac 88bd
00000340: 1476 d1bc 11ba 35bd 685b 4cbd e440 a9bc
00000350: 602b 343b 00f3 fab9 a74e a23d c8b3 e73c
00000360: 0504 b1bd c87e e63c 402d 08bc 00fc 9abc
00000370: 8e45 1bbd 6498 f53c 4b67 963d 9a54 80bd
00000380: 3b32 5ebd 7fcc a63d e533 22bd fd4a 7ebd
00000390: c67c 7b3d 6820 afbc 48f0 bd3c 14ff 813c
000003a0: 82fa 433d fe31 563d d506 a53d 8a00 1b3d
000003b0: 5ad9 a1bd 364d 2f3d 219f a73d 22fe 4bbd
000003c0: 092f 19bd e0f7 9c3b 8925 7ebd 10bb f63c
000003d0: 055e 8e3d 7b5c 893d 058d a2bd 2a81 eebc
000003e0: c07a 70bd 93b3 813d c2ba 5f3d bea3 513d
000003f0: 4dc5 27bd ba1a 733d 0310 7ebd 322d 773d
-0.024566293 -0.027397841 -0.043072753 0.027439855 0.034755558 0.08569635 -0.057697613 0.016353264
0.037725143 0.07852011 -0.073517665 -0.024991281 -0.08562877 0.009944886 0.0035137907 -0.028231245
-0.037496015 0.06439457 0.083284535 -0.07288632 0.067612715 0.041677736 -0.008745313 0.040951557
-0.07046263 -0.04397969 -0.077520676 0.01918891 0.005913675 -0.087861404 0.08140244 -0.07851815
0.08111688 -0.012277074 -0.0588039 -0.0714515 -0.021039128 -0.009682782 0.025145821 0.020610452
0.045381524 0.07072572 -0.058746323 -0.04387764 0.025609508 0.08119849 0.08549296 0.011099927
-0.04349483 0.057280637 -0.042414848 -0.020522587 -0.08720088 0.02938746 0.048402645 -0.05714414
-0.014146261 0.0808937 -0.06478532 -0.086258404 -0.053278662 0.035393342 0.05269397 -0.049612686
0.08830697 0.07029156 0.06656178 -0.08362561 -0.06873782 -0.009773873 0.0428982 -0.03933245
0.056349106 0.07939897 -0.08778807 -0.049432646 0.07635801 0.034966342 -0.0051462874 0.022733651
-0.020046309 0.08579864 0.062283553 0.0391 0.07196172 0.07118481 -0.056909602 0.081292845
-0.009274796 0.052277215 0.040812768 0.059328757 -0.0022766069 -0.017700918 -0.070902936 -0.013157085
-0.053028427 0.08691726 0.05807195 0.05205006 0.030093953 -0.06593642 0.027451947 0.055236034
0.08052421 -0.0007026121 -0.041388426 0.039893858 -0.0570244 -0.07370649 -0.028752021 -0.00514552
-0.03694308 -0.0032179132 0.0017115921 0.06350481 -0.008792326 -0.041468967 0.003646493 -0.035650574
-0.08555545 0.016247153 -0.06222141 0.03083913 0.07399621 0.07190021 -0.06669187 0.06013421
0.02526518 0.07192319 0.026753753 -0.017885372 -0.07175549 0.005015567 0.027161397 0.080346145
-0.004775293 -0.016230807 -0.013174869 0.06806751 -0.06879546 0.05266445 0.049933232 -0.0060811713
0.068723045 -0.03907001 -0.030016754 0.005340047 0.042856224 0.04214134 -0.058957025 0.044227146
0.06854137 -0.038756303 0.028865099 0.024248376 0.06038951 0.065077655 -0.07389349 -0.060147945
-0.086396605 -0.016872302 -0.010850929 -0.047377758 -0.06023344 -0.040528484 0.044532366 0.017629161
-0.054985482 -0.011063091 -0.07294153 0.07917998 -0.065604456 0.014290817 -0.00064920634 -0.07216482
-0.05516529 -0.00071176887 -0.072964594 0.080393024 0.028296381 0.020959511 -0.08060736 -0.00045703351
-0.0006329417 0.0043377727 -0.07088281 -0.039523248 0.06625468 -0.07944602 0.08680747 -0.07651364
-0.0026778951 -0.012724906 0.04942695 -0.07873829 -0.0014979318 0.05791574 -0.053641684 -0.029554214
0.037049957 -0.05770065 0.07001097 0.07009827 0.07744824 -0.051576223 0.070237316 -0.06673525
-0.025569 -0.0443669 -0.04989186 -0.020660825 0.0027491674 -0.00047864765 0.07925158 0.028283969
-0.08643345 0.028136626 -0.00831157 -0.018918991 -0.03790813 0.029979892 0.0734392 -0.062661365
-0.054247122 0.08144473 -0.03960027 -0.062083233 0.06139829 -0.021377757 0.023185864 0.015868701
0.047846325 0.05229377 0.08057944 0.03784231 -0.07902785 0.042798243 0.08184648 -0.049802907
-0.03739837 0.004790291 -0.062047515 0.030118495 0.069515266 0.067070924 -0.079370536 -0.029114325
-0.058710814 0.06333079 0.054621466 0.051181547 -0.040959645 0.05935166 -0.06202699 0.060345836
