models/GRU_model_14.pt (torch_old, 345776 bytes, 6 tensors)

weight_ih_l0 f4 [384, 58]
0	0x3e8a412e	0.27002853
1	0x3dfcda4a	0.12346323
2	0xbe898bd1	-0.26864484
3	0x3e07ec88	0.13273823
4	0x3dbc4605	0.09193043
5	0x3cbba343	0.022904998
6	0x3c90bead	0.017669046
7	0xbd738de5	-0.059461493
8	0xbea0260b	-0.31279024
9	0x3d6457c3	0.05574776
10	0xbe476a50	-0.19474149
11	0xbeb2399c	-0.34809577
12	0xbe9749ab	-0.29548392
13	0x3f089875	0.5335763
14	0x3e6242c5	0.22095783
15	0xbe31e3f9	-0.17372121
16	0x3d566094	0.052338198
17	0x3eac18e8	0.33612752
18	0xbe42d5f5	-0.1902693
19	0xbdd7bb71	-0.105337985
20	0xbe085a8c	-0.13315791
21	0xbdabd882	-0.08390905
22	0xbbba1604	-0.005678894
23	0xbc7f2753	-0.0155733405
24	0xbe496111	-0.19665934
25	0x3dd62d73	0.104578875
26	0x3a36bba6	0.0006970711
27	0x3c951172	0.018196795
28	0x3c99d7d2	0.018779669
29	0x3dc86728	0.097853005
30	0xbc1c2c24	-0.009532008
31	0x3d2b0ce9	0.04176036
32	0x3db23d73	0.08703127
33	0xbc88cfa0	-0.016700566
34	0xbd322830	-0.043495357
35	0x3e26d8f2	0.16293696
36	0x3ce0ba0f	0.02743247
37	0xbd11c73a	-0.035590388
38	0xbd56cc6c	-0.052441046
39	0xbda18cdd	-0.07888196
40	0xbd4bf420	-0.049793363
41	0xbc1a1d34	-0.009406377
42	0xbd3bc808	-0.04584506
43	0xbd1ed292	-0.038775034
44	0xbb970749	-0.0046090228
45	0x3d2be177	0.041963067
46	0xbd3690a0	-0.04457152
47	0x3c6dd953	0.014517146
48	0x3cdb5e3e	0.026778337
49	0x3cd6e355	0.026231447
50	0x3cd9627a	0.026536215
51	0xbd25d68c	-0.04048781
52	0xbcd76a08	-0.026295677
53	0xbce95d70	-0.028486937
54	0x3ca43b8e	0.02004793
55	0x3c91d118	0.017799899
56	0xbd88321d	-0.06650183
57	0xbe02e229	-0.12781586
58	0x3e92d2c3	0.28676423
59	0x3dddfb82	0.10838987
60	0x3e68c652	0.22731903
61	0xbe8efe8e	-0.27928585
62	0xbda1cfd9	-0.07900972
63	0xbdeb1b1c	-0.1147978
64	0xbd1f4e38	-0.038892955
65	0x3e63724a	0.22211567
66	0xbea301b6	-0.31837243
67	0xbd9c4bc8	-0.076316416
68	0xbd3156f2	-0.043295808
69	0x3e083f5b	0.13305418
70	0xbd39d777	-0.0453715
71	0x3ef8e6e6	0.48613662
72	0xbe31a939	-0.1734971
73	0xbdf0ccb1	-0.11757792
74	0x3b8dacbe	0.004323571
75	0xbe24ef49	-0.16106905
76	0x3e85e70c	0.26152837
77	0x3e0092fe	0.12556073
78	0x3d3cbb1f	0.04607689
79	0xbde16043	-0.110046886
80	0x3d98c6cc	0.074597925
81	0x3dabb861	0.08384777
82	0xbe26a605	-0.16274269
83	0xbe4b3d09	-0.19847502
84	0xbddd49b9	-0.10805077
85	0xbd220843	-0.03955866
86	0xbd19d57c	-0.03755711
87	0x3d2b55c0	0.041829824
88	0xbc148c0b	-0.009066592
89	0xbd9d3392	-0.07675852
90	0xbd984f83	-0.07437041
91	0xbcbfb5e5	-0.023402164
92	0x3cc2a7ed	0.023761714
93	0x3c0c61d8	0.00856825
94	0x3d20b86e	0.039238386
95	0x3cea42a6	0.028596234
96	0x3d12a02c	0.035797283
97	0xbda2f70b	-0.07957276
98	0x3d5a3c84	0.05328037
99	0x3d3f7928	0.046746403
100	0xbd94dba6	-0.07268457
101	0xbd971236	-0.0737652
102	0x3d7ded4e	0.06199389
103	0xbd345070	-0.044022024
104	0x3d639099	0.05555782
105	0x3ca2bf9e	0.01986676
106	0x3db3e17d	0.08783243
107	0xbc188a63	-0.009310338
108	0x3cb25402	0.021768574
109	0x3cb955ea	0.022623975
110	0x3bd8ac04	0.0066123027
111	0x3d255906	0.040368102
112	0xbd3da9fb	-0.046304684
113	0x3d9c0dc3	0.07619812
114	0xbdcb4c80	-0.099267006
115	0x3dcdf64e	0.100567445
116	0xbdca1acb	-0.098683916
117	0xbd80c1a8	-0.06286937
118	0xbcbd1c02	-0.023084644
119	0xbe2a205a	-0.16613904
120	0x3df982ea	0.12183173
121	0xbd10b818	-0.035331815
122	0xbe4d84ce	-0.20070192
123	0x3d040d6f	0.032239374
124	0x3f0cb991	0.5497065
125	0x3e9074b6	0.28214043
126	0xbe07761b	-0.13228647
127	0x3eb5960e	0.35466045
128	0x3e50285e	0.20327899
129	0x3e9bef70	0.30456114
130	0x3d9dcb42	0.07704784
131	0xbe75f110	-0.2401774
132	0xbd2fd8a6	-0.04293122
133	0x3db4ffa6	0.088378236
134	0x3c2d75b2	0.010587143
135	0xbe5501d2	-0.20801476
136	0x3e05cf47	0.13067351
137	0xbdebbb72	-0.11510362
138	0xbe1150e3	-0.14191012
139	0x3da8518c	0.08218679
140	0xbee94b01	-0.45565036
141	0xbe659784	-0.2242108
142	0xbdeaede1	-0.11471153
143	0xbd56bacf	-0.05242425
144	0x3d4d3a21	0.050104264
145	0x3d57fd22	0.05273164
146	0x3c96c606	0.018404972
147	0x3c6a9c94	0.014319558
148	0x3d5beb60	0.053691268
149	0xbd342e43	-0.04398943
150	0x3bd1f7f4	0.006407732
151	0xbd2fcd1a	-0.04292021
152	0x3e0259e1	0.12729599
153	0x3d07b34d	0.03312998
154	0xbdf65c8d	-0.120293714
155	0xbde5d263	-0.11221769
156	0xbd2d207e	-0.042267315
157	0x3da0793b	0.07835623
158	0x3d1a8e08	0.037733108
159	0xbd773669	-0.060354624
160	0x3b8ea193	0.0043527572
161	0x3ca7cf19	0.020484494
162	0xbc8a404f	-0.016876368
163	0xbb4432d7	-0.002993753
164	0x3ce025c4	0.027361758
165	0xbce686f2	-0.028140519
166	0xbd8266c2	-0.06367256
167	0xbd17b624	-0.037038937
168	0x3dd005d5	0.10157362
169	0xbd7766f1	-0.060400907
170	0xbdae6b70	-0.08516586
171	0xbd617227	-0.055040505
172	0x3d69475b	0.056952816
173	0xbd68b43d	-0.056812514
174	0xbf08c1b6	-0.5342058
175	0x3e01a5d5	0.12660916
176	0x3cba67eb	0.02275463
177	0xbf072b2f	-0.5280027
178	0xbebbcde2	-0.36680514
179	0x3e5fc695	0.21853097
180	0xbdf2b5f3	-0.1185111
181	0x3e1749ea	0.1477429
182	0x3e047f8b	0.12939279
183	0xbd612c73	-0.05497403
184	0xbe1ad2cd	-0.15119477
185	0xbc8811e6	-0.016610097
186	0x3de7d893	0.11320605
187	0x3d66a222	0.056306966
188	0x3f014da8	0.5050912
189	0x3e0ef618	0.13961065
190	0xbd649b0b	-0.055811923
191	0x3e43099d	0.19046636
192	0xbe041714	-0.12899429
193	0x3f298825	0.66223365
194	0x3ee247a5	0.44195285
195	0x3d9c8861	0.076432
196	0x3ccaa3b6	0.024736267
197	0xbd856286	-0.065129325
198	0xbeda6544	-0.42655385
199	0xbdf66e30	-0.12032735
200	0xbbc84980	-0.0061122775
201	0xbcc2bc6e	-0.02377149
202	0x3b89ba28	0.0042030998
203	0xbc5f307b	-0.0136223985
204	0xbd0ea25a	-0.0348228
205	0x3b894eeb	0.004190316
206	0xbd4ba085	-0.04971363
207	0x3d3c5601	0.045980457
208	0xbd316773	-0.043311547
209	0xbcfc370b	-0.030787965
210	0xbd46b61f	-0.048513528
211	0xbd0899dc	-0.033349857
212	0xbba8cc55	-0.0051513114
213	0x3d387ccc	0.04504089
214	0x3d83c537	0.064341
215	0x3cf894f2	0.03034446
216	0xbd1ce6cf	-0.038306054
217	0x3d83f3dc	0.06442997
218	0xbd654a4d	-0.055979062
219	0x3d13c9c8	0.036081105
220	0x3d6d480d	0.05793004
221	0x3df5c3a2	0.120002046
222	0xbd1e0de7	-0.038587477
223	0x3d5f266e	0.05448001
224	0xbc8e90ee	-0.017403092
225	0xbd351206	-0.04420664
226	0x3e6c316f	0.23065732
227	0x3d616090	0.05502373
228	0xbdafb9ce	-0.08580361
229	0x3d09aef4	0.033614114
230	0xbd3bb513	-0.045826983
231	0xbe2f76e7	-0.17135201
232	0x3e976471	0.29568818
233	0x3e8be4f2	0.2732311
234	0xbb3372a1	-0.0027381557
235	0xbe226d23	-0.15861945
236	0x3e8d0113	0.27539882
237	0x3d9a267d	0.07526872
238	0x3d23fe1a	0.040037252
239	0x3d55c96e	0.05219405
240	0xbdd75eee	-0.10516153
241	0xbec37f0f	-0.38182876
242	0xbdfc5df8	-0.123226106
243	0x3e449c98	0.19200361
244	0xbde24ec2	-0.11050178
245	0x3ec7ef5e	0.3904981
246	0xbdb5cd0b	-0.088769995
247	0x3c2bd02a	0.010486642
248	0xbe313a8e	-0.17307493
249	0xbeaf2ccb	-0.34213862
250	0xbde19023	-0.1101382
251	0xbd1e9c5c	-0.038723335
252	0x3dbe06f1	0.09278668
253	0x3cdaa10a	0.026688118
254	0xbd95dfb0	-0.07318056
255	0xbd4511c8	-0.04811266

weight_hh_l0 f4 [384, 128]
0	0x3de7a4e5	0.11310748
1	0xbb0d336a	-0.0021545538
2	0x3d4eda8b	0.050501388
3	0xbebbbbd9	-0.36666754
4	0xbd78fd49	-0.060788427
5	0xbe3d608a	-0.18493858
6	0x3d7ec4fc	0.062199578
7	0x3edc5b0f	0.43038222
8	0x3e00981e	0.12558028
9	0x3d640e37	0.05567762
10	0xbe0af38b	-0.13569467
11	0xbe224f05	-0.15850456
12	0x3f113c87	0.5673298
13	0x3da9a095	0.08282582
14	0xbe32deb2	-0.17467764
15	0x3e33ec7a	0.17570677
16	0x3e8289f6	0.2549588
17	0xbe571b06	-0.21006402
18	0xbec0c6ea	-0.3765176
19	0xbd2dbe4b	-0.042417806
20	0x3da4dc27	0.08049803
21	0x3dff0029	0.124512024
22	0xbe488eed	-0.19585772
23	0xbd64e7cf	-0.055885132
24	0x3ecf8a96	0.4053542
25	0xbb3ef6af	-0.0029138734
26	0xbf01f983	-0.5077135
27	0xbe96af28	-0.2943051
28	0xbe574822	-0.2102361
29	0xbe329aac	-0.17441815
30	0xbca4808b	-0.020080825
31	0xbee031bc	-0.43787944
32	0x3d39edda	0.04539285
33	0x3d6db21d	0.05803119
34	0xbe3f7845	-0.18698223
35	0xbf0250fb	-0.50904816
36	0xbe9f8cdc	-0.31162155
37	0xbdf575ad	-0.119853355
38	0xbf03973d	-0.51402646
39	0xbd8e067e	-0.06934832
40	0xbe00d411	-0.12580897
41	0xbe003f89	-0.12524237
42	0xbe4bbc90	-0.1989615
43	0x3ef5861e	0.47953886
44	0xbd357f9a	-0.044311143
45	0x3d50b02e	0.050949268
46	0x3e100ff4	0.14068586
47	0x3ec71cb6	0.38889092
48	0x3dba4591	0.090953
49	0x3e8090a3	0.2511035
50	0x3dd8072d	0.10548244
51	0xbde4d3a7	-0.11173182
52	0xbe1b989d	-0.15194936
53	0x3e2113c4	0.15730196
54	0x3d9d25c5	0.076732196
55	0x3e4331db	0.19061987
56	0x3edfed81	0.4373589
57	0x3e0d76d8	0.13814867
58	0xbe2259f3	-0.15854625
59	0x3d918f17	0.0710737
60	0x3e338fab	0.17535274
61	0xbe720606	-0.2363511
62	0x3ec45fc9	0.38354328
63	0x3d424c9e	0.04743635
64	0xbea92603	-0.33036813
65	0x3e49cb58	0.19706476
66	0x3e013c47	0.1262065
67	0xbf07f0df	-0.53101915
68	0xbd19e9f8	-0.037576646
69	0xbf10c41c	-0.5654924
70	0xbd8c2181	-0.06842328
71	0xbcf9d9a1	-0.030499281
72	0xbe901b5e	-0.2814588
73	0x3e1f58b4	0.15561181
74	0xbe822e6a	-0.25426036
75	0x3d82c5f2	0.06385411
76	0x3e699bbd	0.22813316
77	0x3e87c46a	0.2651704
78	0x3c6e920f	0.01456119
79	0x3ec41dd9	0.38304022
80	0x3e639f00	0.22228622
81	0xbe4be5c7	-0.19911872
82	0xbe55dfc7	-0.20886146
83	0xbec597ec	-0.3859247
84	0xbe0b140e	-0.13581869
85	0xbdccc04c	-0.09997615
86	0xbda09d91	-0.078425534
87	0xbed7f56d	-0.42179433
88	0xbcf9b3fd	-0.030481333
89	0xbea56216	-0.32301396
90	0x3db0e9dc	0.08638355
91	0x3e82677d	0.2546958
92	0x3ea3321d	0.3187417
93	0x3c9bd5d7	0.019022865
94	0xbf22395a	-0.6336876
95	0xbec4a3b0	-0.38406134
96	0xbedd1505	-0.431801
97	0x3e3b9445	0.18318279
98	0x3cf44a09	0.029820459
99	0x3c9a0db2	0.018805359
100	0xbe0a12be	-0.13483712
101	0xbec17e3c	-0.37791622
102	0xbe0df17f	-0.13861655
103	0x3f1808f4	0.5938866
104	0xbc86a4ba	-0.01643597
105	0xbe1a825a	-0.15088788
106	0x3e8ef455	0.27920786
107	0xbdb61f79	-0.08892722
108	0x3daf7243	0.085667156
109	0x3c38b6f6	0.01127409
110	0xbdbb54c6	-0.091470286
111	0x3e196121	0.14978458
112	0x3f00f1a9	0.50368744
113	0xbd464d10	-0.048413336
114	0xbe9c76da	-0.30559427
115	0x3e47ec4d	0.19523735
116	0xbcbc0269	-0.022950368
117	0xbe8c0373	-0.27346382
118	0x3e00e10f	0.12585853
119	0xbe9a4e68	-0.30137944
120	0xbe0300b2	-0.12793234
121	0xbe04dece	-0.12975618
122	0x3e19df26	0.1502653
123	0x3db77360	0.08957553
124	0xbe1f4b96	-0.15556177
125	0x3ea6fe0c	0.32615697
126	0x3e528271	0.20557572
127	0x3e615138	0.22003639
128	0xbeb1a2cc	-0.34694517
129	0xbe18c7ee	-0.14920017
130	0xbc8eaec3	-0.017417317
131	0x3dcf250a	0.101144865
132	0xbc9bab66	-0.019002628
133	0xbd07c777	-0.03314921
134	0x3e87baa5	0.26509586
135	0x3e4af7a6	0.19821033
136	0x3e2ba38c	0.16761607
137	0xbe65e0f9	-0.22449102
138	0x3e9b44a5	0.3032581
139	0x3e428a96	0.18998179
140	0xbec056db	-0.37566265
141	0x3c6dd9ea	0.014517287
142	0x3e84335c	0.25820434
143	0xbd30e513	-0.043187212
144	0xbed9e114	-0.42554533
145	0x3de3ba9c	0.11119577
146	0x3e44db2e	0.19224235
147	0xbeb0089c	-0.34381568
148	0x3c88ced5	0.016700188
149	0x3dfeb0a6	0.12436037
150	0x3d44882f	0.047981437
151	0xbdeba1b4	-0.11505452
152	0xbda6c222	-0.08142497
153	0xbd8724d4	-0.06598821
154	0x3e94436e	0.28957695
155	0x3d399d30	0.04531592
156	0x3cd73745	0.026271472
157	0xbe569618	-0.20955694
158	0xbe9ee25a	-0.31032068
159	0x3d9fe531	0.07807387
160	0x3eaf3f93	0.3422819
161	0xbdcf06ec	-0.10108742
162	0x3ed892b5	0.4229943
163	0x3dc4a50c	0.09601793
164	0xbc00d41d	-0.007863072
165	0xbe5919e0	-0.21201277
166	0x3d31b75a	0.04338775
167	0x3e2113a8	0.15730155
168	0x3e4eef7e	0.20208547
169	0xbc5defdf	-0.013545959
170	0xbf2b5307	-0.66923565
171	0xbe6b7539	-0.22993936
172	0xbeb008e0	-0.3438177
173	0x3c2cff88	0.01055897
174	0x3ea3b932	0.3197723
175	0xbb7baddf	-0.0038403196
176	0x3e69522b	0.22785251
177	0x3e76c28e	0.24097654
178	0xbf253be9	-0.6454454
179	0x3e109862	0.1412063
180	0xbcecefe6	-0.028922986
181	0x3bf95350	0.0076088086
182	0xbbe46464	-0.0069699753
183	0xbe66b732	-0.22530821
184	0x3e91f6d7	0.28508636
185	0x3d6bac25	0.057537217
186	0x3c9a5778	0.018840536
187	0xbebc940d	-0.36831704
188	0xbeab6a4b	-0.33479533
189	0xbc65f7c7	-0.0140361255
190	0x3e208cbf	0.1567869
191	0xbe8dae22	-0.27671915
192	0xbe89c595	-0.26908556
193	0x3e1199eb	0.14218871
194	0xbe011f3b	-0.1260957
195	0x3eb27520	0.34854984
196	0x3e7eae7a	0.24871245
197	0x3e37beaf	0.17943834
198	0xbd0d3e28	-0.034483105
199	0x3e7256c8	0.23665917
200	0x3e775294	0.24152595
201	0xbed82a86	-0.42219943
202	0x3ee24a6f	0.44197413
203	0x3e07b279	0.13251676
204	0xbd9aac19	-0.07552356
205	0xbe6184a9	-0.22023262
206	0xbe2d9bd0	-0.16953969
207	0xbf0c87e6	-0.54894865
208	0x3f28109b	0.6565034
209	0x3ddd644d	0.108101465
210	0xbe0fda1a	-0.14048043
211	0x3d3a418a	0.04547266
212	0xbddc46ba	-0.107556775
213	0xbe167d76	-0.14696297
214	0x3e2a13af	0.16609071
215	0x3dac5106	0.084138915
216	0xbe19c903	-0.15018086
217	0xbd23c6ae	-0.039984398
218	0x3d0f2b71	0.03495354
219	0x3de56712	0.112013
220	0xbea6be88	-0.3256724
221	0xbe9c40d7	-0.3051822
222	0x3c3edc0d	0.011649144
223	0x3d77ef67	0.060531046
224	0xbe1d458b	-0.1535856
225	0x3eb287a1	0.34869102
226	0xbd1f747d	-0.03892945
227	0xbda55361	-0.08072544
228	0x3dd787c9	0.10523946
229	0xbe90ec9d	-0.28305522
230	0x3e1dd182	0.15411952
231	0xbd52d92f	-0.051476654
232	0xbec1fb93	-0.37887248
233	0xbdb8b643	-0.09019139
234	0x3eacaf11	0.33727315
235	0x3d2dd2fd	0.042437542
236	0x3c9fb58b	0.019495746
237	0x3e57f621	0.21089984
238	0x3e529937	0.2056626
239	0xbdf06238	-0.11737484
240	0xbebe30d1	-0.3714662
241	0x3eb7d34b	0.3590339
242	0x3f044c43	0.51678866
243	0xbdb2d2be	-0.08731602
244	0x3ed647c3	0.41851625
245	0xbe650808	-0.22366345
246	0xbd50d1a1	-0.050981168
247	0xbea7e09e	-0.32788557
248	0xbcd96fb0	-0.026542515
249	0xbd59bdd1	-0.05315954
250	0x3f0be4dc	0.54646087
251	0x3e5976c9	0.21236719
252	0xbe2164fd	-0.1576118
253	0xbe94707c	-0.2899207
254	0x3e886cca	0.266455
255	0xbed88b30	-0.42293692

bias_ih_l0 f4 [384]
0	0xbeecc6f0	-0.46245527
1	0xbce3a5e9	-0.027789073
2	0x3d4de7eb	0.050270002
3	0xbd0ff958	-0.035149902
4	0xbeb60d86	-0.35557193
5	0xbeb499b9	-0.3527353
6	0x3e3273b0	0.17426944
7	0xbd05329c	-0.032518968
8	0xbee53412	-0.4476629
9	0x3ce14531	0.027498813
10	0x3dcf9a88	0.10136896
11	0xbe8bb716	-0.2728812
12	0xbd70806e	-0.05871623
13	0xbed929bb	-0.4241465
14	0xbde92564	-0.11384085
15	0xbd9d85df	-0.076915495
16	0xbd16af8e	-0.036788516
17	0xbd7b4895	-0.061348516
18	0xbed963a2	-0.42458826
19	0xbd882b25	-0.06648854
20	0xbe4fc509	-0.20290007
21	0xbefe4e81	-0.4966927
22	0xbee2eab6	-0.44319695
23	0xbe28a621	-0.16469623
24	0xbea3654a	-0.31913215
25	0xbe173a5d	-0.14768358
26	0xbe73bba4	-0.23802048
27	0xbe465f17	-0.19372211
28	0xbd4a3174	-0.04936357
29	0xbf254642	-0.6456033
30	0xbe3d3b06	-0.18479547
31	0xbe7669a8	-0.24063742
32	0xbe59a2f0	-0.21253562
33	0xbdf5f2ee	-0.12009226
34	0xbd07dd08	-0.033169776
35	0xbe402807	-0.18765269
36	0xbe2d6e9a	-0.16936722
37	0xbe249bfb	-0.16075127
38	0xbe0e0581	-0.13869287
39	0xbeef8e74	-0.4678837
40	0xbe0268a7	-0.12735234
41	0xbdb16a7e	-0.0866289
42	0xbeaf7f31	-0.34276727
43	0xbf028dcf	-0.5099763
44	0xbf0675a0	-0.5252323
45	0xbe4ba2f3	-0.19886379
46	0xbde27142	-0.110567585
47	0xbe60910b	-0.2193033
48	0xbeffc783	-0.49956903
49	0xbdaa85cc	-0.08326301
50	0xbed5b27d	-0.41737738
51	0x3d4a788d	0.049431372
52	0x3d5f4bb2	0.054515548
53	0xbe6e3ca8	-0.23265326
54	0xbe2aa5ef	-0.16664861
55	0xbebdfa91	-0.3710523
56	0xbed7a651	-0.42119077
57	0xbe179be8	-0.14805567
58	0xbefd7980	-0.4950676
59	0xbe657a2d	-0.22409888
60	0xbebf903f	-0.3741474
61	0xbf03ed68	-0.5153413
62	0xbf130892	-0.5743495
63	0xbdf4ae9c	-0.119473666
64	0xbebae1e4	-0.36500466
65	0xbeecc78f	-0.46246
66	0xbe98f915	-0.29877535
67	0xbe93aca1	-0.28842643
68	0xbf23963c	-0.63901114
69	0xbe803ace	-0.25044864
70	0x3d821403	0.06351473
71	0xbe60b0c3	-0.21942429
72	0xbe0d236f	-0.13783048
73	0xbee40ae0	-0.44539547
74	0xbe3c3fe6	-0.1838375
75	0xbe86d4a6	-0.26334113
76	0xbe71cee1	-0.23614074
77	0xbdafec03	-0.085899375
78	0xbe3a9b8d	-0.182234
79	0xbe1d54b9	-0.1536435
80	0xbe17e983	-0.14835171
81	0xbee12f8b	-0.43981585
82	0xbca1403e	-0.019683953
83	0xbeaa83d3	-0.333037
84	0xbe1d7b46	-0.15379056
85	0xbe8f5707	-0.27996084
86	0xbed25498	-0.41080165
87	0xbebfdd68	-0.37473607
88	0xbe689541	-0.22713186
89	0xbde6d9b2	-0.11271991
90	0xbeedf488	-0.46475625
91	0xbdc43733	-0.09580841
92	0x39f2a25b	0.000462788
93	0x3bb68d6d	0.0055710585
94	0xbecd1cd8	-0.4006107
95	0xbe2712b1	-0.16315724
96	0xbe9b0d9c	-0.3028382
97	0xbeaa798e	-0.33295864
98	0xbe819916	-0.25312108
99	0xbec6b2c5	-0.38808265
100	0xbdcea89a	-0.10090752
101	0xbe64d491	-0.22346713
102	0xbbaec842	-0.005333931
103	0xbeca5df9	-0.3952482
104	0xbed2dbac	-0.4118322
105	0xbe501f1e	-0.2032437
106	0xbf4712f3	-0.7776329
107	0xbeb042ed	-0.3442606
108	0xbe90911d	-0.28235713
109	0xbd8e866d	-0.069592334
110	0xbebed07e	-0.37268442
111	0xbe6d1510	-0.23152566
112	0xbb09508a	-0.0020952546
113	0xbe3aad20	-0.18230104
114	0xbee1f62d	-0.4413313
115	0xbf0cfd3d	-0.5507391
116	0xbdc7bfb1	-0.09753359
117	0x3d7b1729	0.061301384
118	0xbf15ac65	-0.5846618
119	0xbedf0b50	-0.43563318
120	0xbf20243b	-0.62555283
121	0xbd680fad	-0.056655575
122	0xbe95796c	-0.291942
123	0xbe544c54	-0.20732242
124	0xbec27354	-0.37978613
125	0xbe9251ce	-0.28578037
126	0xbef5dfcb	-0.48022303
127	0xbe27354a	-0.16328922
128	0xbf0a352e	-0.53987396
129	0x3e344b7a	0.17606917
130	0xbe9b1289	-0.3028758
131	0xbf66bd21	-0.9013234
132	0x3dfbb955	0.12291209
133	0x3dba3c99	0.09093589
134	0xbef915a4	-0.48649323
135	0xbeee563a	-0.4655016
136	0xbf41e46e	-0.7573918
137	0xbf1b2a9b	-0.60611886
138	0xbe5209bf	-0.2051153
139	0xbdb3def4	-0.08782759
140	0xbee1a18d	-0.44068566
141	0xbef12b7d	-0.4710349
142	0xbd973e14	-0.07384887
143	0xbe6a9a4c	-0.22910422
144	0xbf4e8a57	-0.8067984
145	0x3ed2ae62	0.4114867
146	0xbf336871	-0.7008124
147	0xbf1cc719	-0.612413
148	0xbf3375f6	-0.7010187
149	0x3d585625	0.05281653
150	0x3de7c5f2	0.11317052
151	0xbc451f08	-0.012031324
152	0x3ed86806	0.42266864
153	0x3e96f081	0.29480365
154	0x3e9d5ccd	0.30734864
155	0xbed2ac5f	-0.41147134
156	0xbd5ec908	-0.054390937
157	0xbf432f75	-0.7624429
158	0x3daebe7d	0.085324265
159	0x3dd5618f	0.104189985
160	0xbc9b5942	-0.01896346
161	0xbd9b9ed4	-0.075986534
162	0xbecbef27	-0.39830896
163	0xbf264435	-0.64947826
164	0x3f3e5f2c	0.7436397
165	0xbe1234ea	-0.14277998
166	0xbeb5ba9f	-0.35493943
167	0xbf1e4619	-0.6182571
168	0xbe3a5a42	-0.18198493
169	0xbeea2c5f	-0.45736977
170	0xbf29a34c	-0.66264796
171	0xbd9a2143	-0.075258754
172	0xbc83547b	-0.016031494
173	0xbef4f6ad	-0.4784445
174	0x3c6df075	0.014522661
175	0x3d8d5d81	0.069026
176	0xbd425c3b	-0.04745124
177	0x3de18449	0.110115595
178	0x3e4f7960	0.20261145
179	0xbc304631	-0.010758922
180	0xbf602ada	-0.87565386
181	0xbe95fffb	-0.2929686
182	0xbf689fc4	-0.90868783
183	0x3e8b4756	0.27202863
184	0xbea09207	-0.3136141
185	0xbd782a9f	-0.06058752
186	0xbf1db6db	-0.6160714
187	0xbcc060ef	-0.023483722
188	0xbc4c3e4c	-0.012466025
189	0xbd8a4dcb	-0.06753119
190	0xbec0b598	-0.37638545
191	0xbe28e566	-0.16493759
192	0xbf0fb22f	-0.5613126
193	0x3d47d068	0.048782736
194	0xbe594eb4	-0.21221429
195	0x3e3f7efd	0.18700786
196	0xbee2420e	-0.4419102
197	0xbee8dc1f	-0.4548044
198	0xbeea59bd	-0.4577159
199	0xbec24218	-0.3794105
200	0x3edf082a	0.43560916
201	0xbe9d7f35	-0.30761114
202	0xbf6c05d2	-0.9219638
203	0xbd82d0ca	-0.063874796
204	0x3de76840	0.11299181
205	0xbc857680	-0.016291857
206	0x3d87daa8	0.06633502
207	0x3cb78444	0.022401936
208	0xbe162786	-0.14663514
209	0xbee6c103	-0.4506913
210	0xbf62925b	-0.8850457
211	0xbf3842c5	-0.7197688
212	0xbd07ed13	-0.033185076
213	0xbee24fad	-0.44201413
214	0x3ed87d68	0.42283177
215	0xbdb4ab98	-0.088217914
216	0x3ebd8100	0.37012482
217	0xbe9b68b9	-0.30353335
218	0xbfbf0c21	-1.4925576
219	0xbf15220a	-0.58255064
220	0xbf066e32	-0.52511895
221	0xbd8575d1	-0.06516612
222	0xbe6d7b50	-0.23191571
223	0x3ebb4587	0.36576483
224	0xbeb30be9	-0.34970024
225	0x3c3394dc	0.010960784
226	0xbee3a2b0	-0.44460058
227	0x3ce77f46	0.02825893
228	0xbed0e917	-0.40802833
229	0xbdf637dc	-0.12022373
230	0xbeacf589	-0.33781078
231	0xbf330724	-0.6993277
232	0xbe6ea885	-0.23306473
233	0x3ca414f2	0.020029519
234	0xbf00ed6d	-0.50362283
235	0xbeba5b86	-0.36397952
236	0xbecf3f35	-0.4047791
237	0xbdd00a20	-0.10158181
238	0xbe1f68ed	-0.1556737
239	0xbe85cb84	-0.26131833
240	0xbf16b4ae	-0.58869445
241	0x3e2daaf1	0.1695974
242	0xbea586c9	-0.32329395
243	0xbd7ac6a2	-0.061224587
244	0xbe95a416	-0.2922675
245	0xbeee97d2	-0.46600205
246	0xbec6f23d	-0.38856688
247	0xbe9e8a63	-0.30964956
248	0xbdfe5cc7	-0.124200396
249	0xbdceee1d	-0.1010401
250	0xbe7a6b7b	-0.24455063
251	0x3ecd0053	0.4003931
252	0xbf50e516	-0.8159956
253	0xbebc12fe	-0.3673324
254	0xbe34eeca	-0.17669216
255	0xbe561dac	-0.20909756

bias_hh_l0 f4 [384]
0	0xbeed26bc	-0.46318614
1	0x3e0b1fda	0.13586369
2	0xbc783f62	-0.01515183
3	0x3dc0d595	0.094157375
4	0xbe8f7d36	-0.28025216
5	0xbec61d2d	-0.38694134
6	0x3d50fbb1	0.05102128
7	0xbdca3f5a	-0.098753646
8	0xbf19c40e	-0.6006478
9	0x3e03f562	0.12886575
10	0x3d5dfb73	0.05419488
11	0xbe8087e5	-0.2510368
12	0x3d10564b	0.035238545
13	0xbf0f7844	-0.56042886
14	0xbb3d5199	-0.0028887747
15	0xbdca04c3	-0.098641895
16	0x3d61e1c0	0.055146933
17	0xbe35df3f	-0.17760943
18	0xbec62484	-0.38699734
19	0xbc07a249	-0.008278438
20	0xbe46f3ff	-0.19429015
21	0xbf05bc74	-0.5224068
22	0xbeecbbce	-0.46237034
23	0xbe74d0f1	-0.2390783
24	0xbeb5cfdc	-0.35510147
25	0xbe82549c	-0.25455177
26	0xbe6e9b27	-0.23301373
27	0xbe58e7c3	-0.2118216
28	0xbd16c876	-0.03681227
29	0xbf3661b2	-0.7124282
30	0xbe8ad3d3	-0.27114734
31	0xbe85913c	-0.26087368
32	0xbe326e94	-0.17424995
33	0xbe2851fc	-0.16437525
34	0xbccc3c23	-0.02493102
35	0xbe1f0f7f	-0.15533255
36	0xbe4dbde4	-0.20091969
37	0xbe6ca677	-0.23110376
38	0xbd82512f	-0.06363141
39	0xbecfeb48	-0.40609193
40	0xbdc25464	-0.094887525
41	0xbe48fdca	-0.19628063
42	0xbe9f0663	-0.3105956
43	0xbf23cc5c	-0.639837
44	0xbef9f2f3	-0.48818168
45	0xbe9c8a4b	-0.3057426
46	0xbdd820b6	-0.10553114
47	0xbe923274	-0.28554118
48	0xbeed0769	-0.46294716
49	0xbdd86614	-0.10566345
50	0xbee913d9	-0.45522955
51	0x3e1a8dd3	0.15093164
52	0x3e1c90c5	0.152896
53	0xbea78636	-0.32719582
54	0xbe96108a	-0.29309493
55	0xbebe0e6b	-0.37120375
56	0xbe984f5f	-0.29748055
57	0xbe1396c0	-0.14412975
58	0xbf134a5b	-0.5753533
59	0xbdfa0577	-0.122080736
60	0xbecd7433	-0.40127715
61	0xbf2c0006	-0.67187536
62	0xbefe79a0	-0.49702168
63	0xbdceeeed	-0.10104165
64	0xbeb96490	-0.36209536
65	0xbeff7f06	-0.499016
66	0xbea36643	-0.31913957
67	0xbe8ec159	-0.27881888
68	0xbf2dd66a	-0.67905295
69	0xbe8870cb	-0.26648554
70	0x3e0e2a58	0.1388334
71	0xbeaac5eb	-0.33354124
72	0xbe00e3fb	-0.12586968
73	0xbee74a7e	-0.4517402
74	0xbdc7d41a	-0.09757252
75	0xbe50cb84	-0.20390135
76	0xbdc7fbe8	-0.09764844
77	0xbddf7b39	-0.10912175
78	0xbdbf21e4	-0.09332636
79	0xbe46aafb	-0.19401161
80	0xbe699387	-0.22810183
81	0xbf066680	-0.5250015
82	0x3bd9c62a	0.0066459375
83	0xbec56cb9	-0.3855951
84	0xbe343392	-0.17597798
85	0xbe242e20	-0.1603322
86	0xbebe5adc	-0.37178695
87	0xbe94c352	-0.29055268
88	0xbe8b81fb	-0.27247605
89	0xbe166fed	-0.14691134
90	0xbeaf4fd0	-0.3424058
91	0xbde329e7	-0.110919766
92	0xbd87e331	-0.0663513
93	0x3d0812c4	0.03322102
94	0xbf03b211	-0.5144358
95	0xbe85fa23	-0.26167402
96	0xbe5446b0	-0.2073009
97	0xbe9bdd6c	-0.3044237
98	0xbe5657b6	-0.20931897
99	0xbec31cad	-0.38107815
100	0xbde9afbe	-0.11410473
101	0xbe872ec1	-0.26402858
102	0x3cdf02ca	0.02722301
103	0xbed2dca9	-0.41183975
104	0xbec249c8	-0.37946916
105	0xbe531260	-0.20612478
106	0xbf2b385f	-0.6688289
107	0xbedc73a1	-0.43056968
108	0xbe3f378b	-0.18673532
109	0xbd4ff488	-0.050770313
110	0xbec51766	-0.38494414
111	0xbe1a1102	-0.1504555
112	0xbcdc5aef	-0.02689883
113	0xbe700974	-0.23441106
114	0xbf018e92	-0.5060817
115	0xbf03fab6	-0.5155443
116	0xbdf41d87	-0.119196944
117	0x3d3834b8	0.04497215
118	0xbf368782	-0.7130052
119	0xbebdc760	-0.37066174
120	0xbf0ac425	-0.5420554
121	0xbda8db45	-0.08244947
122	0xbeaee85e	-0.34161657
123	0xbe8ab467	-0.2709076
124	0xbef088a6	-0.46979254
125	0xbe8e2bb6	-0.27767724
126	0xbefb8d41	-0.49131206
127	0xbd266b76	-0.040629826
128	0xbf154462	-0.5830747
129	0x3e19912e	0.14996788
130	0xbe5cf52a	-0.21577898
131	0xbf873db7	-1.0565709
132	0x3dcf57b5	0.10124151
133	0x3e018dbe	0.12651727
134	0xbeec3a0c	-0.46138036
135	0xbf06b3fc	-0.52618384
136	0xbf250f48	-0.6447644
137	0xbf32ef59	-0.69896466
138	0xbe276875	-0.16348441
139	0xbe25a060	-0.1617446
140	0xbefa70f5	-0.48914304
141	0xbeaabd31	-0.33347467
142	0x3c2cbbf9	0.010542863
143	0xbe5aa22c	-0.21350926
144	0xbf490089	-0.7851644
145	0x3ec4ddb2	0.3845039
146	0xbf280321	-0.65629774
147	0xbf0b7919	-0.54481655
148	0xbf33100c	-0.6994636
149	0x3c3847b8	0.011247568
150	0x3da96c2a	0.08272584
151	0xbd9eab65	-0.07747535
152	0x3f0c0ffc	0.5471189
153	0x3eb6af29	0.35680512
154	0x3eb67d4f	0.35642478
155	0xbef2630d	-0.47341195
156	0xbbd7831a	-0.006576908
157	0xbf3d45fd	-0.7393492
158	0xbd01a0cf	-0.0316475
159	0x3dc4127d	0.09573839
160	0x3c55cc33	0.013049173
161	0xbdcec6f2	-0.100965396
162	0xbed7c027	-0.42138788
163	0xbf361541	-0.7112618
164	0x3f34aa2e	0.70572174
165	0xbe03a2bf	-0.12855051
166	0xbe5d640e	-0.21620199
167	0xbf145331	-0.5793944
168	0xbe9d786f	-0.30755946
169	0xbf0084ab	-0.50202435
170	0xbf27c2a0	-0.6553135
171	0xbe0edd53	-0.13951616
172	0x3cd4d22d	0.025979126
173	0xbec4038b	-0.38283953
174	0x3d53531c	0.05159293
175	0x3e2acd1a	0.16679803
176	0xbdd65fbb	-0.10467478
177	0x3e139659	0.14412822
178	0x3e56f222	0.20990804
179	0x3dd62be3	0.104575895
180	0xbf4fea52	-0.8121692
181	0xbeb46a31	-0.35237268
182	0xbf7c6297	-0.98587936
183	0x3ecb71fa	0.39735395
184	0xbe1d8d1a	-0.15385857
185	0xbdae62a4	-0.08514908
186	0xbf16ebdd	-0.5895365
187	0xb9c923c6	-0.0003836436
188	0xbc68e0a4	-0.014213715
189	0xbdbb4896	-0.09144704
190	0xbeaed748	-0.34148622
191	0xbe9c8aa8	-0.30574536
192	0xbf1a03ff	-0.6016235
193	0x3e14840d	0.14503498
194	0xbd9dfbdc	-0.07714054
195	0x3e55d9ef	0.20883916
196	0xbf0d6aed	-0.5524128
197	0xbea87929	-0.32904938
198	0xbedc647d	-0.43045416
199	0xbef29c56	-0.473849
200	0x3ea29334	0.31752932
201	0xbe893161	-0.26795486
202	0xbf68078a	-0.90636504
203	0xbe260cfa	-0.16215888
204	0x3e5e47c0	0.21707058
205	0xbcfa6f2a	-0.030570585
206	0x3e2aeeb7	0.16692625
207	0x3c8bdc0c	0.0170727
208	0xbc17e13a	-0.009270007
209	0xbf0fa983	-0.5611803
210	0xbf634623	-0.88778895
211	0xbf482523	-0.78181666
212	0x3c53ae47	0.012919969
213	0xbeecbba3	-0.46236905
214	0x3ea5dcb6	0.32394952
215	0x3c1f2eac	0.009715717
216	0x3e9455f8	0.2897184
217	0xbe91986b	-0.28436598
218	0xbfad0ed3	-1.3520149
219	0xbf12b644	-0.57309365
220	0xbf0750c4	-0.52857614
221	0xbcb66af1	-0.02226779
222	0xbe323fb0	-0.17407107
223	0x3ecebf21	0.40380195
224	0xbeb45b75	-0.35226026
225	0x3da712cd	0.08157883
226	0xbece86e4	-0.40337288
227	0x3d43585b	0.047691684
228	0xbec44d9d	-0.38340464
229	0x3d0afbc6	0.033931516
230	0xbed26ba5	-0.4109775
231	0xbf329e2a	-0.6977259
232	0xbe8baa7f	-0.27278516
233	0x3dd72255	0.10504595
234	0xbf075231	-0.5285979
235	0xbe9d1562	-0.30680376
236	0xbf070f26	-0.5275749
237	0xbdab76b6	-0.08372252
238	0xbdddd8f3	-0.108323954
239	0xbe850f67	-0.25988314
240	0xbf137550	-0.5760088
241	0x3dce4226	0.100712106
242	0xbea5bdc3	-0.3237134
243	0x3d839c86	0.06426339
244	0xbe3fd9fb	-0.18735497
245	0xbee98b4e	-0.45614094
246	0xbed22f3b	-0.4105166
247	0xbe92e887	-0.2869303
248	0xbdbba879	-0.09162993
249	0xbcc79350	-0.024362236
250	0xbe90ce86	-0.28282565
251	0x3ea5ca97	0.32381126
252	0xbf624668	-0.8838868
253	0xbebae000	-0.36499023
254	0xbdf5d797	-0.12004011
255	0xbd850e30	-0.06496847

weight f4 [55, 186]
0	0xbf998da6	-1.1996353
1	0x3eaaa3bb	0.3332804
2	0xbdd68c22	-0.10475947
3	0x3eaa7870	0.33295012
4	0xbf1a7406	-0.6033329
5	0x3e8aa58d	0.2707943
6	0xbedf71f2	-0.4364162
7	0x3ef2cb48	0.47420716
8	0x3f497385	0.78691894
9	0x3eb44f1d	0.3521661
10	0xbe3deaab	-0.1854655
11	0x3f38856a	0.72078574
12	0x3e25509e	0.16144034
13	0xbdf3d424	-0.11905697
14	0xbf045045	-0.5168498
15	0xbe99345a	-0.29922754
16	0x3e5aac57	0.21354805
17	0x3e4a7a81	0.19773294
18	0xbf172470	-0.59039974
19	0xbd9488af	-0.07252633
20	0xbf027649	-0.5096174
21	0xbdd15506	-0.10221295
22	0x3b25801d	0.0025253363
23	0xbdb91e01	-0.09038926
24	0x3ed5557c	0.41666782
25	0xbe8f520a	-0.27992278
26	0xbd78f8e5	-0.06078424
27	0xbd33a5ad	-0.043859173
28	0xbd844508	-0.06458479
29	0xbcc547f6	-0.024082165
30	0xbc822b94	-0.01588992
31	0x396f5000	0.00022822618
32	0xbd6ac534	-0.057316974
33	0xbc677cab	-0.014128844
34	0x3bde3917	0.006781708
35	0x3d046ab0	0.032328308
36	0xbd546ecc	-0.051863477
37	0x3d5d1d86	0.053983234
38	0x3d1766ab	0.036963146
39	0xbd4dd3a5	-0.050250668
40	0x3cfcf71e	0.030879553
41	0xbd1de8b2	-0.038551994
42	0xbd3cdf68	-0.046111494
43	0x3d096fc6	0.03355386
44	0xbc1915c8	-0.009343572
45	0xbd929dd9	-0.07159013
46	0xbcfe8630	-0.031069845
47	0xbc968394	-0.018373288
48	0xbcd50f94	-0.026008405
49	0x3cc9c29a	0.024628926
50	0x3d22c751	0.039740864
51	0x3a6c2f00	0.0009009689
52	0xbb555700	-0.0032553077
53	0x3d674552	0.056462593
54	0x3d3fbf1a	0.046813108
55	0xbd674d9a	-0.05647049
56	0xbe429d73	-0.19005375
57	0xbe18dc08	-0.14927685
58	0x3e841fa8	0.25805402
59	0xbf3d0533	-0.7383606
60	0xbcfcc7d1	-0.030856999
61	0xbf586a98	-0.8453765
62	0xbed4c3f5	-0.41555753
63	0x3ecf1aa8	0.40450025
64	0xbf04fa6a	-0.519446
65	0xbefd803f	-0.49511907
66	0x3c96ab45	0.018392215
67	0xbf9a6e33	-1.206488
68	0xbec1dd52	-0.37864166
69	0x3f356d83	0.70870227
70	0x3d874faa	0.066069916
71	0x3ec98d6a	0.39365703
72	0xbef9ecde	-0.48813528
73	0xbee61682	-0.44939047
74	0x3f966442	1.1749346
75	0xbf1b5af0	-0.60685635
76	0x3f309d80	0.68990326
77	0xbe23f584	-0.16011626
78	0x3e900166	0.28126067
79	0xbedbec97	-0.4295394
80	0xbe485651	-0.19564177
81	0xbe482f03	-0.19549184
82	0xbe8f6d05	-0.28012863
83	0xbc7f512c	-0.015583318
84	0x3f181867	0.59412235
85	0xbb207e2d	-0.002448927
86	0x3f73f965	0.9530242
87	0xbf8c7189	-1.0972148
88	0xbf00b934	-0.502826
89	0x3f041e94	0.5160916
90	0x3e50fcd3	0.20408945
91	0x3f9614b7	1.1725072
92	0xbf47b810	-0.7801523
93	0xbf3262da	-0.69682086
94	0x3e925087	0.28577062
95	0x3e7ff3fb	0.24995415
96	0xbe998204	-0.29982007
97	0x3eed4c6d	0.4634737
98	0x3fb4b477	1.4117573
99	0x3e969476	0.29410142
100	0x3c6505ce	0.013978435
101	0xbf9fcfeb	-1.2485327
102	0x3d2fb292	0.042894907
103	0xbd222798	-0.03958854
104	0x3fa50719	1.2892791
105	0xbe142195	-0.14465936
106	0x3f30301c	0.6882341
107	0xbe6cfbeb	-0.23142974
108	0x3ef8aa17	0.48567268
109	0xbec02d06	-0.3753435
110	0xbf25be2b	-0.647433
111	0x3e973fc1	0.29540828
112	0x3f212709	0.6295019
113	0xbece55f2	-0.40299946
114	0xbf0fda51	-0.561925
115	0xbe816649	-0.2527335
116	0xbf247f31	-0.6425658
117	0xbed8f985	-0.42377868
118	0xbf598b8c	-0.84978557
119	0x3f5b1d3c	0.85591483
120	0x3e9febb1	0.31234506
121	0x3f952a14	1.1653466
122	0xbec7b9ca	-0.39008933
123	0xbfad9a5a	-1.3562729
124	0xbcc7b169	-0.024376588
125	0x3f07d12a	0.53053534
126	0xbe759bee	-0.23985264
127	0x3f0ee9c8	0.5582547
128	0x3e947d9b	0.2900208
129	0xbe3a4df7	-0.18193804
130	0x3e09ac50	0.13444638
131	0x3cd1078d	0.025516296
132	0x3f9464ab	1.1593221
133	0x3f65e273	0.8979866
134	0xbe556413	-0.20838957
135	0x3dfc0950	0.12306464
136	0x3e1333af	0.14375184
137	0xbe483c6a	-0.19554296
138	0xbf35a3f7	-0.70953315
139	0xbf20702f	-0.6267118
140	0xbe9dd7ad	-0.3082861
141	0x3f862762	1.0480769
142	0xbf30cdb8	-0.690639
143	0x3f7d6a45	0.9899028
144	0x3f185e55	0.5951894
145	0x3e62e2c6	0.2215682
146	0x3f12bc46	0.5731853
147	0xbec84c1d	-0.3912057
148	0xbf22d74e	-0.6360978
149	0xbdac7e49	-0.084225245
150	0x3ee88847	0.4541647
151	0x3f15ad4f	0.5846757
152	0xbe0ef374	-0.13960057
153	0xbf0eaec5	-0.5573543
154	0xbf3cc805	-0.73742706
155	0x3f3f91f6	0.74832094
156	0x3f04c740	0.5186653
157	0x3f9ba615	1.2160059
158	0xbf309675	-0.6897958
159	0x3f594b36	0.8488039
160	0x3f943007	1.1577157
161	0x3ee451be	0.44593614
162	0xbf3dfdf2	-0.74215615
163	0x3d7dece2	0.061993487
164	0x3eebd902	0.46064
165	0x3f0ca3f9	0.549377
166	0xbe0c4e5c	-0.13701767
167	0xbf856272	-1.0420668
168	0x3f3044e8	0.6885514
169	0xbf8ba5a5	-1.0909926
170	0x3f5ef5c3	0.8709375
171	0xbe9b9123	-0.30384168
172	0xbe132055	-0.14367802
173	0xbee0b8ef	-0.43891093
174	0xbf4a568c	-0.7903831
175	0xbe0a6222	-0.13513997
176	0x3f2b7267	0.6697144
177	0x3e615dbf	0.22008418
178	0x3ea70d0d	0.32627144
179	0x3e93e728	0.28887296
180	0x3f2405af	0.6407117
181	0x3eb33bf7	0.35006687
182	0x3ecb49fa	0.39704877
183	0xbf935063	-1.1508907
184	0x3f92e2c5	1.1475455
185	0xbe49ab9a	-0.19694367
186	0xbf8effca	-1.1171811
187	0xbe927ec1	-0.2861233
188	0x3f2ef429	0.6834131
189	0xbec14064	-0.3774444
190	0x3f2bfcc8	0.6718259
191	0x3dccdabc	0.10002658
192	0xbf07c248	-0.53030825
193	0xbead2e3f	-0.33824345
194	0x3e4ee6fa	0.20205298
195	0x3f595c37	0.84906334
196	0x3cde1845	0.027111182
197	0x3e974029	0.29541138
198	0xbd7e3f54	-0.062072113
199	0xbd6b7b84	-0.05749084
200	0xbd817be8	-0.06322461
201	0xbda1428a	-0.078740194
202	0x3f84671a	1.0343964
203	0x3ea4d64b	0.32194743
204	0x3df8096c	0.12111172
205	0x3f22d74f	0.63609785
206	0xbedd77fd	-0.43255606
207	0xbe8d9a03	-0.27656564
208	0xbd5091cb	-0.05092029
209	0xbd59230c	-0.05301194
210	0xbedc06ec	-0.4297403
211	0xbe8bb1d3	-0.27284107
212	0x3b474d46	0.0030411049
213	0xbd6cf4a8	-0.05785051
214	0xbd659b1a	-0.05605612
215	0xbccc8c3c	-0.024969213
216	0x3d55c90e	0.052193694
217	0xbcab1be6	-0.020887326
218	0x3cc37110	0.023857623
219	0x3cf141f4	0.029450394
220	0x3ca76250	0.020432621
221	0xbd2b4563	-0.04181422
222	0x3d56e2aa	0.052462257
223	0xbd6aaee9	-0.057295714
224	0xbd8829d5	-0.06648604
225	0x3cd9e838	0.026599988
226	0x3d6ac32a	0.05731503
227	0x3bf40b30	0.0074476227
228	0x3d0638ac	0.03276889
229	0x3c772a28	0.015085734
230	0xbd2a30a2	-0.041550286
231	0xbd82e90c	-0.063921064
232	0xbd2bb125	-0.041916985
233	0xbc563ed4	-0.013076503
234	0x3d5ce71a	0.053931333
235	0xbbb2f845	-0.005461725
236	0xbb0d981e	-0.0021605561
237	0xbc4c83b0	-0.012482569
238	0x3c1e1380	0.009648204
239	0xbb87d282	-0.0041449675
240	0x399a6300	0.0002944693
241	0xbc0bfa40	-0.008543551
242	0xbe345072	-0.17608812
243	0xbd946332	-0.072454825
244	0xbfdb2b7a	-1.7122643
245	0xbe5b7b57	-0.21433769
246	0x3edeb317	0.4349601
247	0xbe060fa5	-0.13091905
248	0x3fd90b19	1.6956512
249	0x3eaac248	0.3335135
250	0x3d747afa	0.059687592
251	0x3ee73990	0.45161104
252	0x3e00b668	0.12569582
253	0xbe601cbc	-0.21885961
254	0x3ebee2e1	0.3728247
255	0xbf0d07f9	-0.5509029

bias f4 [55]
0	0xbf72019e	-0.9453372
1	0x3e931cc6	0.2873289
2	0xbf87e226	-1.061589
3	0x3e3d4112	0.18481854
4	0x3e9cfcca	0.30661613
5	0x3f90830b	1.1289991
6	0xbf24e758	-0.644155
7	0x3e164ce6	0.14677772
8	0x3e23bbfe	0.15989682
9	0x3f87dd7f	1.061447
10	0xbda38b35	-0.07985536
11	0x3c6a143a	0.014287049
12	0x3e77ad73	0.2418726
13	0x3f5c4b0b	0.86052006
14	0xbef184f0	-0.47171736
15	0x3fd439b4	1.658011
16	0xbf8fc86c	-1.1233039
17	0x3f5c14cc	0.85969234
18	0x3f3cb4d2	0.7371341
19	0xbfd1d647	-1.6393517
20	0xbfe77d19	-1.8085052
21	0xbf7e702e	-0.9938992
22	0xbedd1836	-0.43182534
23	0x3eccd09c	0.40002906
24	0x3f8b8bea	1.0902073
25	0xbf927d9e	-1.1444585
26	0x3febe280	1.8428497
27	0xbe25f3d1	-0.1620629
28	0x3ed8873c	0.42290676
29	0xbf33cb5a	-0.70232165
30	0xbf093841	-0.5360146
31	0x3f4dfe85	0.8046649
32	0x3f36dd74	0.7143166
33	0x3f8b14e2	1.0865748
34	0xbe63bee1	-0.22240783
35	0xbed54714	-0.4165579
36	0x3e6367de	0.22207591
37	0x4006395f	2.0972517
38	0xbeba7476	-0.36416978
39	0x3f177895	0.5916837
40	0xbf56097f	-0.8360824
41	0xbf592e23	-0.84836024
42	0x3fab26ff	1.3371276
43	0xbf8402d8	-1.0313368
44	0x3fb1cd4a	1.3890774
45	0x3e31d6dc	0.17367119
46	0xbf92ebe3	-1.1478237
47	0xbf101498	-0.56281424
48	0x3e0e80d7	0.13916336
49	0x3d57f957	0.052728023
50	0x40068253	2.1017044
51	0xc005ee91	-2.092686
52	0xbec9d64b	-0.39421305
53	0xbf93cd57	-1.154704
54	0xbf6bc319	-0.9209457
