models/grumodel.pt (torch_old, 345717 bytes, 7 tensors)

weight_ih_l0 f4 [384, 58]
000000 76 6c 1a bd a8 dd 42 bd 76 e1 01 3d a4 fc 3f bd
       -0.037701093 -0.04757467 0.031709157 -0.046871796
000010 78 50 a5 bd 08 b4 a8 3c f0 5b 70 3c 13 81 a8 3b
       -0.08071989 0.020593658 0.014670357 0.00514234
000020 38 b2 12 3d 29 89 03 3d f7 c9 4b 3c 6e d0 d6 bc
       0.035814494 0.032113228 0.012438289 -0.026222434
000030 3c df 1a 3c 88 d3 ff bc 8e d3 0d 3d f2 b3 15 3d
       0.009452637 -0.031228796 0.034625582 0.036548562
000040 3d 1c 3b 3d 37 11 8e bd 32 cf ad 3c 16 e1 16 bd
       0.045681227 -0.06936877 0.021216962 -0.036835752
000050 bc 75 8c 3c 1f 6c c1 bc 9b 10 f6 3c cf 48 b6 bc
       0.017145984 -0.023611126 0.030037215 -0.022251515
000060 e1 01 ce bc 0b ff 4b bb 4a d8 35 bd 62 c4 78 3c
       -0.02514738 -0.003112736 -0.044395722 0.01518354
000070 dc e2 a2 3d b9 ad 7d bc 02 f7 84 bc 9b bc 31 3d
       0.07953426 -0.015483313 -0.016231064 0.04339276
000080 26 48 b0 bd 46 4a 45 bd 2f 48 a0 bd 38 4c ab 3d
       -0.08607511 -0.048166536 -0.07826268 0.08364147
000090 b3 e0 e6 3c 3b cf ed bb 67 b2 9d 3c 73 37 03 bd
       0.028183317 -0.00725737 0.019250108 -0.032035302
0000a0 cf ff 55 3d 02 05 ac 3d a3 1a aa bd 80 f1 9b bd
       0.05224591 0.08399393 -0.08305862 -0.07614422
0000b0 f6 51 9d 3d eb 41 18 3c 70 c2 79 bd 73 0e 92 ba
       0.076816484 0.00929306 -0.060976446 -0.0011143222
0000c0 46 6f b4 bd 07 49 0d 3d 3b 2f 9a 3c 11 80 2f bd
       -0.08810286 0.034493472 0.01882135 -0.042846743
0000d0 9c 60 10 bd 43 a0 e8 3c dc 2a 92 bc 3e d9 21 bd
       -0.035248384 0.028396731 -0.017842703 -0.03951382
0000e0 c8 9e 6c 3d 6a d5 66 bd 7e 98 1c 3d 2b 47 b2 3d
       0.057768613 -0.05635587 0.038231365 0.087049805
0000f0 55 45 76 3d 7d 34 d1 3c 7d 9b 88 bc 4a ec 33 bd
       0.060124714 0.025537724 -0.016675705 -0.043926515
000100 20 46 aa bd 59 61 2d bd f2 c1 89 3d 65 4e d5 3c
       -0.083141565 -0.042329166 0.06726445 0.026038358
000110 bb 62 90 bd 50 c8 99 bd b5 a5 9d 3c 1e 70 c7 bc
       -0.07050081 -0.0750891 0.019244054 -0.024345454
000120 3d 54 4b bd 74 39 4f 3d ba c2 4b 3d e0 72 a9 3c
       -0.049640883 0.0505919 0.049746253 0.02068466
000130 6c 2f 1a 3d c4 a4 8e bd e9 ed 69 bc 1d 5c 4b 3d
       0.03764288 -0.0696502 -0.014277914 0.049648393
000140 5a a0 9c 3b 17 0e 71 bd b8 2e 86 3b 49 7f ba bc
       0.0047798576 -0.058851328 0.004094925 -0.022765772
000150 98 e4 5e 3d c4 92 0b 3d 07 b2 ab 3d 4e ea 76 3d
       0.054417223 0.034075513 0.083835654 0.060282044
000160 6c 9f 0d bd d2 e1 87 3c 70 3c 54 bd 78 89 70 bc
       -0.034575865 0.016587172 -0.05181545 -0.014681213
000170 a8 7a 26 bd 74 1f 49 3a 7a 9f 0f 3d b5 37 22 bd
       -0.040644318 0.00076722284 0.035064198 -0.039603908
000180 f0 6b 3b bd 50 07 b2 bb 6f 13 57 bc d5 9f 3e bd
       -0.045757234 -0.0054330006 -0.013127192 -0.046539146
000190 71 d6 01 bd a6 8b 39 bd b3 4a 14 bc 96 44 bc 3c
       -0.031698648 -0.045299195 -0.009051013 0.022981923
0001a0 15 18 9b 3d 43 88 0c bd ae 19 a4 3d 3e 19 4d 3d
       0.07572953 -0.034309637 0.080127105 0.0500729
0001b0 5c 58 33 bd be 52 16 3d 4f 88 9d 3d 1d 9f 5d 3d
       -0.043785438 0.036700003 0.076920144 0.05410682
0001c0 19 32 7e bc d4 51 63 bd 2f a4 26 3d 36 2a 0a 3d
       -0.015514874 -0.05549796 0.04068392 0.03373166
0001d0 48 03 9c 3d f0 a3 a7 bc b3 f9 b7 bd f4 8a 90 bc
       0.07617813 -0.020463914 -0.08983173 -0.017644383
0001e0 31 a9 9b 3d 35 51 75 bd ae d7 9b 3d 01 34 b7 3d
       0.0760063 -0.0598919 0.07609497 0.08945466
0001f0 5e ab 80 bb ae 9e c0 bd 70 ec 94 bd 73 da a6 3c
       -0.0039266786 -0.09405266 -0.072716594 0.020367837
000200 f4 86 9b bd a4 7b 13 bd c5 64 bf 3b c7 52 36 3d
       -0.075941 -0.036006585 0.00584087 0.044512536
000210 b7 db e2 3c 7e cc 93 bd 61 9d 4f bd 71 ac 88 bd
       0.027692659 -0.07216738 -0.050687198 -0.066735156
000220 a6 56 b3 bd f8 34 26 3d 55 10 82 bd 50 61 b3 bd
       -0.08756761 0.04057786 -0.06350771 -0.08758795
000230 35 92 38 bc 1a 79 9b bd 98 3d 0c 3d 6b bf 1e 3d
       -0.011265327 -0.07591458 0.034238428 0.03875677
000240 b4 64 a1 3c 04 60 2b 3d d2 61 b2 3d 33 4e 98 bc
       0.01970134 0.041839615 0.08710064 -0.018591976
000250 53 c9 8e 3c ef c3 8c bd 7f b3 85 bd 47 80 8a bd
       0.017429983 -0.06873309 -0.06528377 -0.06762748
000260 e0 db c7 bc eb 0a 0c 3c ba 6d 31 bc 0e eb af bd
       -0.024396837 0.008547525 -0.0108293835 -0.08589755
000270 a2 55 1a 3d 56 fd 29 bc ed 4e 96 3d 16 41 82 3b
       0.037679322 -0.010375341 0.07339273 0.003975044
000280 89 40 d0 3b fe 7e 61 3d 86 23 cd 3c 6b 96 a7 3d
       0.0063553494 0.05505275 0.025041353 0.08182987
000290 c5 43 01 bd dc e1 df 3b 7c 2e 6f 3d 18 6a 5e 3d
       -0.03155877 0.0068323445 0.05839394 0.054300398
0002a0 0c 58 9d 3d 59 ad fa 3c fd 71 6a 3d 0a 32 8e bd
       0.07682809 0.030600237 0.057237614 -0.06943138
0002b0 22 df 62 bd 6d 65 8d bd 93 34 8b bd 1c 6a 95 3d
       -0.055388577 -0.06904111 -0.06797137 0.072956294
0002c0 27 d4 90 3c 07 0b 85 bd 95 d9 3e bc 84 98 2d 3d
       0.017679287 -0.06496244 -0.011648555 0.04238178
0002d0 70 a5 96 3d c2 91 49 bd 95 49 25 3d 6f 10 78 3d
       0.073557734 -0.04921127 0.040353376 0.060562547
0002e0 f0 1a 3f bd 88 58 04 3b 63 d0 06 bd 64 2e cf 3c
       -0.04665655 0.002019437 -0.032913577 0.025290675
0002f0 4f b0 ad 3c 7e 25 4b 3d fb 61 9e bd a7 7b 90 bd
       0.021202235 0.049596302 -0.07733532 -0.07054835
000300 58 a8 8c 3b cd b7 b0 3c bd e5 96 3c cc 72 b5 3d
       0.004292529 0.021572018 0.018420095 0.088597864
000310 c1 85 59 bd 9b 23 6b bd 75 0e 8e 3d 50 d9 9f bd
       -0.053106073 -0.057407003 0.06936351 -0.07805121
000320 e2 92 99 bd da 50 b9 3c 73 eb 08 3c 78 4d e8 bc
       -0.07498719 0.02262156 0.008356917 -0.028357252
000330 47 80 3e 3d 2f 2d 62 bd cd 50 b3 bd 7f 2c 8c 3c
       0.046509054 -0.05521887 -0.08755646 0.017111061
000340 54 11 5c bc 75 ee 85 bd b9 4f c2 bc bc 0f 2f bd
       -0.013431866 -0.06539623 -0.023719655 -0.042739615
000350 c8 c3 86 bd 94 73 4f 3c dd 50 a3 bd 13 e6 a8 bc
       -0.06580311 0.012661833 -0.07974408 -0.02061752
000360 bb 0a 5a bd f1 3c 32 bd dc 4b a3 bd ec 19 84 3d
       -0.05323289 -0.04351515 -0.079734534 0.06450257
000370 2d df f5 bb 03 75 69 3c 81 1e a5 bd b8 a6 69 bb
       -0.0075034113 0.014249089 -0.08062459 -0.003565235
000380 25 33 92 bd eb 24 21 ba f7 8f ca 3c 1f ab 02 bd
       -0.07138661 -0.0006147164 0.02472685 -0.031901475
000390 fe 0f 1e bd 63 f2 a5 3d bf b2 5b bd 1c bf 08 3b
       -0.03858947 0.08102872 -0.053637262 0.0020865863
0003a0 6b 55 9f 3d 73 44 a0 3d 74 e6 56 bd ad 8a 81 3d
       0.07779964 0.07825556 -0.05246587 0.063252784
0003b0 f6 62 de bc 19 a6 94 bd d1 47 86 3d 05 90 32 bd
       -0.027146798 -0.07258243 0.06556667 -0.04359438
0003c0 67 d3 a6 3d 0d 41 1e bd 48 c9 f1 bc 82 6c aa 3d
       0.081457905 -0.038636256 -0.029514924 0.083214775
0003d0 93 e7 ef 3c 53 db 8b 3d 2b 29 99 bd bd 9d f2 3c
       0.029285228 0.06828942 -0.07478555 0.029616231
0003e0 f1 a2 a8 bd d6 23 16 bd d4 b3 52 bd ee 63 93 bd
       -0.082342036 -0.03665527 -0.05144103 -0.071967945
0003f0 f1 10 8b bc d3 04 39 bc a7 16 a8 bd 6e 30 23 bd
       -0.016975852 -0.011292654 -0.082074456 -0.039841108

weight_hh_l0 f4 [384, 128]
000000 d8 4c 9a 3d ac 68 9e bd 91 b9 d8 39 07 d8 00 bd
       0.07534188 -0.07734808 0.00041336988 -0.03145602
000010 4b 8b d8 bc 7a b7 ec bc d6 46 71 bd a0 be f9 3c
       -0.026433608 -0.028896082 -0.058905445 0.030486405
000020 28 22 a4 bd 02 71 a6 bd 55 ca 81 3d cf 90 04 bd
       -0.08014327 -0.08127023 0.0633742 -0.032364663
000030 b5 40 80 bd a2 4d 9c 3d 70 95 94 bd 57 28 6d 3d
       -0.06262342 0.07631995 -0.072550654 0.0578998
000040 d8 2f 99 bd f2 d2 cb bb c7 e3 6d 3c 77 fb 83 3d
       -0.074798286 -0.006220215 0.014519638 0.064444475
000050 84 32 f7 bc 7e a6 1e 3d 10 76 3e 3c 02 02 96 bc
       -0.030175455 0.038732998 0.011624828 -0.018311504
000060 09 56 a2 bd 0c 2c 50 bd a4 6d 6b bb fd bd 49 3d
       -0.07926566 -0.050823256 -0.0035923505 0.049253453
000070 cf 38 4d 3c 36 48 fc bc d3 6c c0 bc 4a 5f a8 3d
       0.012525751 -0.030796152 -0.023489391 0.082213
000080 1c 94 59 3d 49 b8 97 3d 79 04 7a bd 6b d5 21 bd
       0.053119764 0.074081965 -0.06103942 -0.03951017
000090 67 97 b8 3d 63 3c 7f 3c 3f 37 9d 3d 32 95 a1 bc
       0.09013253 0.015578362 0.07676553 -0.019724462
0000a0 71 4d 83 3d 9b 41 8e bd f4 92 f4 3b dd 91 95 bd
       0.06411255 -0.06946107 0.0074638072 -0.07303212
0000b0 54 e4 06 bd e6 c6 92 3d 26 b3 17 3d 26 89 84 3d
       -0.032932594 0.07166843 0.037036084 0.064714715
0000c0 ca 03 92 bd 82 8e d3 3b 60 75 9d 3d f2 be eb bc
       -0.07129629 0.0064561972 0.07688403 -0.028777573
0000d0 8a 8c 44 bd e0 42 a0 3d 20 b4 a2 bd 2f 26 67 3d
       -0.04798559 0.078252554 -0.07944512 0.0564329
0000e0 dc cf af bb e0 8b 8c 3d a0 7f 95 bc dc 48 9d bd
       -0.005365355 0.068626165 -0.018249333 -0.076799124
0000f0 c7 84 ce bc 34 96 79 bd fd 7f 8d 3c 9c 8f f4 bc
       -0.025209798 -0.06093426 0.017272944 -0.029853635
000100 78 94 94 3d 65 6e 93 3b 36 af 32 3d 7f 07 31 3d
       0.07254881 0.004499244 0.043624125 0.04322004
000110 5c 7f e9 3c 71 79 99 bd b2 9e 81 bd ce 59 50 3d
       0.028503112 -0.07493866 -0.06329097 0.050866894
000120 ec 00 a9 3c ed 1e 20 bc 94 8d 83 bd 8a 7a 18 3d
       0.020630322 -0.009772998 -0.06423488 0.037226237
000130 1a e8 89 3d 07 8b 4c 3c c3 01 e0 bc c7 47 76 3d
       0.06733723 0.012484319 -0.02734459 0.060127046
000140 af 2d 16 3d 58 0f 6b 3d b2 c3 b9 3c 26 98 12 3d
       0.03666466 0.05738768 0.022676323 0.03578963
000150 60 ff 39 bd 2f ca 23 bd 91 5c 4e bc 51 92 33 bd
       -0.04540956 -0.03998774 -0.012595312 -0.04384071
000160 59 bf 96 bd 68 c2 6c 3d cc 50 43 3d 70 d7 46 bd
       -0.073607154 0.057802588 0.047684476 -0.0485453
000170 11 56 48 bb 96 b4 5c 3d 1b 78 96 3d d0 29 ac 3d
       -0.0030568878 0.053883158 0.07347127 0.084064126
000180 cf 06 24 bc 7a 50 a6 3d 40 28 99 bd 38 22 c0 3d
       -0.010011389 0.081208184 -0.0747838 0.09381527
000190 41 49 12 bd da 4e 01 bd f7 ec 88 3d 5e ca 86 3d
       -0.03571439 -0.03156934 0.066858225 0.06581567
0001a0 03 62 5e bd 22 4d 72 bd 42 b8 a4 3b dc 46 72 3d
       -0.05429269 -0.05915559 0.005026848 0.059149608
0001b0 ee 80 4a 3d f5 0b c4 bb f0 32 ba bc de 72 c0 3c
       0.049439363 -0.0059828707 -0.022729367 0.023492273
0001c0 f2 4a 8a bd 6e f8 8f 3d 8f ce 14 bc cb a3 89 3d
       -0.06752576 0.07029806 -0.0090824505 0.06720694
0001d0 d1 d3 af 3d ef 94 8f bc 11 b4 23 bd 5d fe 0b 3d
       0.08585323 -0.017527072 -0.039966647 0.034178127
0001e0 84 63 10 bd 56 00 68 bd 9d f4 73 3d 10 42 a7 3d
       -0.035251155 -0.056640945 0.059559453 0.08166897
0001f0 ed 9f ef bc ee 29 07 3d 2d 09 4f bd 6a 23 05 bc
       -0.029251063 0.03299897 -0.05054586 -0.008126119
000200 70 67 95 bc f5 fd a3 3c a7 70 08 3d b7 37 23 3c
       -0.0182378 0.020018557 0.03331056 0.009962014
000210 4e 6b 9e bd ad ee 30 3d 68 57 a0 3c 9c 45 99 3d
       -0.077353105 0.04319637 0.019572929 0.0748398
000220 29 0f 80 bc 94 58 f4 bc d5 88 6c 3d 90 56 d3 bd
       -0.015632229 -0.029827394 0.05774768 -0.10319245
000230 2f d9 03 3d 56 54 95 3d 89 d1 bb ba cf c3 9d 3c
       0.032189544 0.072914764 -0.0014329414 0.019258408
000240 df 76 83 bd 4b 1c 40 3d d5 c9 7e bc 78 af 34 3d
       -0.06419157 0.046901982 -0.01555105 0.044112653
000250 f2 ea 50 bc cc 78 a9 bd 3b b2 98 3d 54 c0 8c 3d
       -0.012751328 -0.08274993 0.0745587 0.06872621
000260 ce c3 73 bd 85 80 b0 bd 52 f1 49 bd 67 21 59 bd
       -0.059512906 -0.08618263 -0.049302407 -0.05301037
000270 57 e5 98 bc 03 8a 31 bd ff b0 98 3d 95 48 c7 bc
       -0.018664045 -0.04334451 0.07455634 -0.024326602
000280 e4 8a 45 3b 8c 48 b1 3d 94 9d dd bc dd 2a 2e 3d
       0.00301426 0.08656415 -0.027052678 0.042521346
000290 80 ba 95 3d dd 28 ae 3d a7 f4 c2 3d 0f ca d3 bc
       0.07310963 0.08503888 0.0951932 -0.025853185
0002a0 79 21 8e 3d eb fc 5b bd 08 9b 4c bd 53 46 ff bc
       0.06939978 -0.053708 -0.049952537 -0.031161463
0002b0 61 83 97 3d 5c ef 95 3d 5e 5b 06 bd 5b 40 8e 3d
       0.073981054 0.07321045 -0.03280198 0.069458686
0002c0 46 12 41 bd c9 c0 98 3d 30 27 6a 3d 6c 46 b8 3d
       -0.047136568 0.07458646 0.05716628 0.08997807
0002d0 66 7a 14 3c 52 a4 90 bd b7 d2 9c bc 92 4b 15 3c
       0.009062385 -0.070625916 -0.019143445 0.009112256
0002e0 17 64 27 3d 9b d8 a3 bd e4 fb eb 3c 1e d9 36 3c
       0.040866937 -0.080002986 0.028806634 0.011160163
0002f0 fd 74 ee 3c 4c 01 61 bd 85 6f e9 ba 7b 9a 5e 3d
       0.029108519 -0.054932877 -0.0017809725 0.054346543
000300 43 8c 5a 3d 35 b5 ab bd 15 09 37 bc 19 2a 65 3c
       0.05335642 -0.08384172 -0.011171599 0.013987088
000310 3f 93 88 3d 62 c0 9c 3d 74 97 d0 bb 88 e2 b7 3c
       0.0666871 0.076538816 -0.006365711 0.022446886
000320 56 b5 24 3d 45 f9 76 bd 44 e2 35 bd a1 12 6a 3d
       0.040211998 -0.060296316 -0.044405237 0.057146672
000330 8f c9 18 bd b5 e7 b1 bd 39 58 59 3d 2d 9a 78 bd
       -0.037301596 -0.08686773 0.05306265 -0.06069391
000340 00 5b cc 3c 64 cc 5d bc 70 14 3a bd e0 3e 6e 3d
       0.024945736 -0.0135375 -0.045429647 0.05816543
000350 65 68 a6 3d e8 3c 11 bd fd 05 e7 bc 9b c9 a1 bd
       0.081253804 -0.035458475 -0.028201098 -0.07899781
000360 f4 65 ac bd 35 30 74 bc 89 2f a1 3d e6 1b 3d bd
       -0.084178835 -0.014904072 0.07870395 -0.046169184
000370 a1 54 b2 3d b4 8e 9d 3d 86 87 1e 3d 5f b6 76 3c
       0.08707548 0.07693234 0.038703464 0.015058129
000380 99 d3 86 bd 52 3f 5f bc 66 66 6f 3c 09 cf 49 bd
       -0.06583328 -0.013625937 0.014611816 -0.04926971
000390 2f 6c ac bd e4 ee a9 bc 22 bb a3 bd 97 80 24 3c
       -0.08419072 -0.020743795 -0.07994677 0.010040424
0003a0 de a7 db 3c 33 9b ed 3b 4c f8 d7 3c cf 36 1e 3c
       0.026813444 0.007251167 0.026363514 0.009656622
0003b0 e9 b6 0c bc 3c 91 0a 3d 58 5f 45 bc 21 eb 0b 3d
       -0.008588531 0.033829913 -0.0120466575 0.034159783
0003c0 27 19 98 3d cf 65 10 bd bb 93 82 bd bb c8 76 bd
       0.074266724 -0.035253342 -0.063758336 -0.060250025
0003d0 c6 16 66 3b 9c 60 67 3d 93 0e 91 3d 6d 76 40 3d
       0.003510879 0.05648862 0.07082858 0.04698794
0003e0 bf 4e 7a 3c 5c ae 6e 3d cb 98 b4 bd 0b b8 65 bc
       0.015277564 0.05827175 -0.088182054 -0.01402093
0003f0 7b 4e 92 bd 6c 64 b7 bd 63 61 36 bc 57 57 0d bd
       -0.07143875 -0.08954701 -0.011131617 -0.034507122

bias_ih_l0 f4 [384]
000000 8b 7c 62 3c 75 05 f5 3c b6 99 af bc 09 24 f8 3c
       0.013823639 0.029909829 -0.0214356 0.03029062
000010 c9 78 0a 3e 09 f7 d2 3c 3a b5 25 bc d5 ff c5 3d
       0.13522638 0.025752561 -0.010114009 0.09667937
000020 1a 69 e4 3b 2b b0 f9 3d de 4a 73 3d 27 f4 de 3c
       0.006970537 0.121918045 0.05939757 0.02721603
000030 dd 21 51 3d 59 ce 92 3d 03 11 45 3d fc 25 cc 3c
       0.051057685 0.07168264 0.048111927 0.024920456
000040 d7 56 d2 3d ab 4e 09 3d 4a de 17 bd ee 0a 05 bd
       0.1027047 0.03352229 -0.037077226 -0.032481126
000050 61 31 b9 bb 2c 8d 5b bd e9 97 9d 3d 01 bd d5 3d
       -0.0056516384 -0.05360143 0.0769499 0.1043644
000060 6c 8b 8a 3d d5 9e 65 3b 41 ca 3b 3d ee 15 a2 3b
       0.06764874 0.0035037298 0.04584718 0.004946462
000070 ea 15 8b 3b 11 ab d2 3d 3d 14 b2 3c f4 c8 c9 3d
       0.0042445557 0.102865346 0.021738166 0.09852782
000080 16 7e cf 3d 0e 57 35 bc d7 e7 8c 3d d4 73 ce 3c
       0.10131471 -0.011068119 0.068801574 0.025201716
000090 cb a6 80 bd bb f2 ab 3c 73 1b 6e 3b 5b ea d6 bc
       -0.06281813 0.020989766 0.003633228 -0.026234796
0000a0 f4 17 5c bd e2 62 9d 3c 31 55 a5 bb a0 42 9d 3d
       -0.05373378 0.01921219 -0.005045556 0.07678723
0000b0 40 60 eb 3d 22 93 38 3d 5d 23 40 3c bd 51 ed 3d
       0.114929676 0.04506219 0.011727181 0.11587856
0000c0 49 ef c7 3d 34 de 4b bc 23 10 9b bd 6e 92 1c 3e
       0.09762437 -0.012443114 -0.07571437 0.15290233
0000d0 37 41 e9 bc 23 f6 fd 3c 75 e1 ba 3c 0b 51 86 bd
       -0.02847348 0.031001156 0.022812584 -0.065584265
0000e0 09 eb 02 bd ef 28 92 bb 74 f1 04 3c 3b 0b 7e 3d
       -0.03196243 -0.004460446 0.008114208 0.06202243
0000f0 eb 11 88 bc ea 09 09 3e 7f 50 3d bd df ae 8e bc
       -0.016610106 0.13382688 -0.046219345 -0.01741737
000100 f7 c7 97 3d d8 cc 30 bd fa c6 75 bb 1f 73 c0 3d
       0.07411187 -0.043164104 -0.0037502632 0.093969576
000110 14 c5 ec 3d ce 0e cb 3d ab 41 08 bd 1d 32 8d 3a
       0.11561027 0.09914933 -0.03326575 0.0010772381
000120 74 f9 f6 3d ef 29 e7 3d 99 bf e9 39 cf dd 44 3d
       0.12059298 0.11287295 0.00044583975 0.048063096
000130 6f fb b3 bc 27 27 db 3d 40 a4 ca 3d 14 d9 3c bd
       -0.021970479 0.10700827 0.098946095 -0.04610546
000140 6d 2f e1 bc 19 0c 3d 3d 68 0d c9 3c 86 27 7b 3d
       -0.027488435 0.046154115 0.024542525 0.06131699
000150 fb 16 ab 3d db d2 8e bd 99 37 e0 3b bf 35 02 3a
       0.083539926 -0.06973811 0.0068425653 0.0004967115
000160 ad f5 a8 bc b0 d8 db 3c 60 57 94 3d 60 7f 97 3c
       -0.02062496 0.026836723 0.07243228 0.018493354
000170 e4 53 c2 bc e6 1e 4a bd bb 11 4a 3d 35 38 03 3e
       -0.023721643 -0.049345873 0.049333315 0.1281441
000180 ec 88 b1 3d ed fb ce 3c 46 27 a0 bd a3 82 f2 3d
       0.08668694 0.025266612 -0.07819991 0.11841323
000190 ad 00 1e 3d 16 74 b0 3d cd 7f 4e bd cd ab 3c bd
       0.038574863 0.08615892 -0.05041485 -0.04606228
0001a0 92 22 a2 bc 4c 41 08 bc bf 71 40 bd 91 bd c3 bb
       -0.019791875 -0.008316349 -0.046983477 -0.005973526
0001b0 cf b6 00 3d 19 c1 b5 3d e0 f0 e3 3c bb 1a f5 3c
       0.03142434 0.08874721 0.02782482 0.029919973
0001c0 b1 79 3b 3d 32 03 f7 3d 1f 93 b7 bb 0e 12 be 3d
       0.04577035 0.12061156 -0.005602255 0.092807874
0001d0 a8 cf 86 3d 4b 6f 74 3d 03 5a 6f 3d e9 37 08 bc
       0.06582576 0.05967645 0.05843545 -0.008314111
0001e0 b8 a8 59 3d 9a 5b a6 3d e2 d4 8b 3d ab 11 2d 3d
       0.05313942 0.0812294 0.068277135 0.042253178
0001f0 97 99 45 bd db f4 c6 3d 2b 39 2c 3d 9c 9b b1 3c
       -0.048242178 0.09714671 0.042046707 0.021680646
000200 e6 1b e6 bd 33 c6 1a be c2 13 9a bd 26 0e 28 be
       -0.1123579 -0.1511467 -0.075233 -0.16411647
000210 2d e6 60 3d b5 4e e4 bd 76 25 f1 bd 06 4f a0 bd
       0.054907013 -0.11147825 -0.11774723 -0.078275725
000220 e2 fa 08 be 1d 26 65 be 3b ac dc 3c 80 19 88 be
       -0.13376954 -0.2237782 0.026937595 -0.26581955
000230 a3 b4 86 bd 61 04 3e 3d e7 77 09 be c9 3f f9 bc
       -0.065774225 0.046390895 -0.13424645 -0.030425923
000240 1a a6 52 bd ba dd 07 bc 8b b2 83 bd 3b 29 d9 bd
       -0.051427938 -0.00829261 -0.06430539 -0.10603567
000250 09 34 84 bd d1 94 f7 bd fb 97 04 be 8b 9a c3 bc
       -0.064552374 -0.12088931 -0.12948601 -0.023877403
000260 6f 49 02 be 6b e9 be bd c8 41 b7 bd c7 9a 4b be
       -0.12723325 -0.09321865 -0.08948094 -0.19883262
000270 48 55 56 3c 6c 01 b9 bc 43 31 57 bd a2 09 0b be
       0.013081856 -0.022583686 -0.052537214 -0.13577893
000280 a2 8a 94 bc 47 7e 5a bd 79 b7 43 be b0 ed 0d be
       -0.018132512 -0.053343084 -0.19112958 -0.13860202
000290 ba 22 e9 bd a9 95 40 3c 5b ad dd bd 09 f6 a8 bd
       -0.11383577 0.011754432 -0.108240806 -0.082500525
0002a0 66 b5 03 be 35 d7 f1 bd 45 08 02 be 07 d1 7a bd
       -0.12862167 -0.118086256 -0.12698467 -0.0612345
0002b0 06 73 0f be 0d b8 89 be 54 24 19 be ba 6c 32 be
       -0.14008722 -0.26898232 -0.14955264 -0.17424288
0002c0 dd 21 5a be ba e1 3a bd c3 d2 17 bd 48 4d 35 be
       -0.2130198 -0.045625426 -0.037066232 -0.17705262
0002d0 d8 22 ab bc ff 5c 7e 3c 0d a1 19 be a7 87 c4 bd
       -0.020890638 0.015525102 -0.15002842 -0.09596186
0002e0 15 22 7f 3c 2e 44 7e bd c9 ae 1a be 48 12 97 bd
       0.015572091 -0.06207674 -0.15105738 -0.07376534
0002f0 ca 7b b0 bc bd 47 12 be 74 a2 e6 bd 08 18 de bd
       -0.021543402 -0.14285178 -0.11261454 -0.10844427
000300 19 81 3a 3d a2 14 8f bd aa 8a be bc 8d 91 b6 bd
       0.045533273 -0.06986357 -0.02325948 -0.0891448
000310 73 3b 57 be e3 87 16 bd 9d cf ec bd a7 f0 c5 bd
       -0.21018772 -0.036750685 -0.115630366 -0.096650414
000320 04 12 66 be 39 09 b9 bd f9 d4 cb bd 84 e5 9e bd
       -0.2246781 -0.09034962 -0.09952731 -0.077586204
000330 35 f0 f5 bd ef 3c 0f be 8e 6f 37 be ab 88 83 bd
       -0.120087065 -0.13988088 -0.17913648 -0.06422552
000340 49 c5 b7 bd 1d 22 d6 bd a1 1b 14 ba f5 55 1e be
       -0.08973176 -0.10455725 -0.0005649869 -0.15462478
000350 bd 47 f1 bd 25 cf 00 bc 25 ed 17 be c8 b8 e3 bd
       -0.11781261 -0.007861887 -0.14836557 -0.111192286
000360 40 f8 e8 bd 12 81 a6 bd df cd 35 be 4b db ca bd
       -0.11375475 -0.08130087 -0.17754315 -0.09905108
000370 7a 8f a0 bc e6 c3 9d bd 97 40 85 bd 34 81 00 be
       -0.019599665 -0.0770338 -0.0650646 -0.12549287
000380 39 4d 7d be 79 d3 25 be 14 bb 90 bd e2 09 bf bd
       -0.2473649 -0.16193952 -0.07066932 -0.09328057
000390 8b cd 14 bd f3 d4 13 be a3 79 be bd 1f 03 79 bc
       -0.036328834 -0.14436702 -0.09300544 -0.015198498
0003a0 f5 0c 36 bd 5a d7 11 be 39 e7 04 be f2 73 be bc
       -0.04444595 -0.14242306 -0.1297883 -0.023248646
0003b0 e3 16 13 be 9c 1c 09 be 60 56 38 be 50 3d ae 3c
       -0.143642 -0.1338982 -0.180017 0.02126947
0003c0 ef 17 3a be b4 1c 6b be 8a 52 01 be c8 8f f9 bd
       -0.18173192 -0.22960168 -0.12629142 -0.12185627
0003d0 88 18 25 bd 32 bc 4a bc f3 40 74 bd fd f9 44 bd
       -0.040306598 -0.012373971 -0.059632253 -0.04808997
0003e0 4c f9 aa 3c 4f 83 dc bd a1 e6 96 3c b5 03 24 bd
       0.020870827 -0.107672326 0.01842052 -0.040042598
0003f0 d6 87 0c 3b 29 f1 b5 bd b6 1d d0 bd 11 63 84 bd
       0.002144327 -0.08883888 -0.10161917 -0.06464208

bias_hh_l0 f4 [384]
000000 17 95 0c bd 86 4f 56 3c 33 44 5a 3d af 35 84 bd
       -0.03432187 0.013080483 0.053287696 -0.06455552
000010 b2 5b ae bc 51 65 c7 3d b2 90 03 3d 0a 88 c7 bc
       -0.021283958 0.097361214 0.032120414 -0.02435686
000020 9e 91 f4 bc e9 72 a2 3c a4 23 c4 bc cf 90 d3 3c
       -0.029854592 0.019830184 -0.023942776 0.025825886
000030 bf 1b a0 3d fc 64 cd 3c 74 2d b4 3d f6 23 8c 3d
       0.07817792 0.025072567 0.08797732 0.068427965
000040 eb 1b 02 3d 81 c2 72 3d bb fb 02 3d 3e 82 28 3d
       0.031764906 0.059267525 0.03197835 0.041139834
000050 c5 e3 ec 3d 42 ae 42 3d d1 2a 11 3d 94 cd 39 bc
       0.11566881 0.047529466 0.035441224 -0.011340518
000060 cf 38 f6 3c 0e fc 8f 3d f2 55 d4 3d 4b 2f 44 bd
       0.030056385 0.070304975 0.10367955 -0.047896665
000070 84 17 ee bc 5f a0 87 3c 89 1b 84 3d 76 a9 e7 3b
       -0.029063947 0.016555963 0.064505644 0.007069762
000080 5a f6 d6 3c 60 35 b2 bc 22 d6 64 3d e6 08 72 3d
       0.026240516 -0.021753967 0.055868275 0.059090517
000090 96 2e 8c 3d c8 80 96 bc 25 22 d7 bc d9 45 8d 3d
       0.06844823 -0.018371955 -0.026261399 0.06898088
0000a0 c2 aa 8a 3c 5c 1b ef bc 9a 04 93 3d 28 83 68 3d
       0.016927127 -0.02918785 0.07178612 0.056765705
0000b0 a0 37 c2 3d a0 0c ac 3d 50 af b8 bb 0d 6e ec 3d
       0.09483266 0.084008455 -0.0056361333 0.11544428
0000c0 a4 1e fd 3d 60 6e c7 3d 49 a2 07 3c 9b 11 95 3d
       0.1235936 0.09737849 0.008278438 0.072787486
0000d0 ba cf 04 bd 25 66 0d bd b4 14 25 3c 37 5c 8a 3d
       -0.032424666 -0.03452124 0.010075737 0.0675587
0000e0 9c 58 67 3d fa 89 97 3d e3 e5 6c bd 22 6f 1d 3d
       0.05648099 0.07399364 -0.057836425 0.038436063
0000f0 7a ec 89 3d d4 ae f6 3a dd 52 84 3d 5b 85 b5 bc
       0.067345574 0.0018820413 0.064611174 -0.022158315
000100 d6 26 f7 bc 7c 3e be 3d a3 1b a4 3d 8f 55 83 3d
       -0.030169886 0.09289262 0.08013084 0.064128034
000110 97 b7 cb 3c 09 f3 d6 3d dd 7d 7e 3d 02 31 92 3c
       0.024867816 0.10495574 0.06213175 0.017845634
000120 a0 7a 4f 3d a0 bc de bc 35 32 93 bd cd 23 6c bc
       0.050654054 -0.027189553 -0.071873106 -0.014412832
000130 7b 4b 8c 3d 71 65 4c bd 5d c8 2c bd 00 90 2f 3d
       0.06850334 -0.04990143 -0.04218327 0.04286194
000140 f1 f6 34 b9 ff 5d 8e 3d 79 d0 59 bd 9d 97 c3 3c
       -0.0001725813 0.06951522 -0.05317733 0.023876006
000150 30 94 fc 3d de ec b5 3d 93 fe dd bc 5b d1 9d 3d
       0.12332952 0.088830695 -0.02709893 0.07705947
000160 08 d2 5b 3d 8f 22 5b 3d 1b 41 a8 3d ce c7 bf 3c
       0.0536671 0.053499755 0.08215543 0.023410704
000170 ed dc 86 3c 03 e3 18 bd cd e1 dc 3c dc 52 55 3d
       0.016462767 -0.03732587 0.026963139 0.052080974
000180 b5 7d 97 bc bb 11 48 3b 70 c0 e0 3c aa 01 aa 3c
       -0.018492559 0.0030528146 0.027435511 0.020752747
000190 98 e2 49 bd a9 bd 55 3b 7a 6f fa bc c6 53 32 3d
       -0.049288362 0.0032614267 -0.030570734 0.043536924
0001a0 b3 47 87 3d 99 32 dd 3d 1a b9 6c 3d 66 f5 ff bc
       0.066054724 0.10800666 0.057793714 -0.031244945
0001b0 62 5a 17 bd 36 da cf 3d 17 81 4d bd 7a 86 55 bd
       -0.03695143 0.10149042 -0.050171938 -0.0521302
0001c0 fa 96 37 bb d1 63 0a 3d 60 18 76 3d 94 88 9c 3d
       -0.0028013573 0.0337866 0.06008184 0.07643238
0001d0 11 9c 7b 3c 21 54 92 3c 9d 8e 98 3d aa 9e 7b bd
       0.015357033 0.017862381 0.07449076 -0.06143061
0001e0 89 97 a6 3b 10 e4 fa 3c bc 0e cf 3d 1b c3 93 3d
       0.0050839824 0.030626327 0.10110232 0.07214948
0001f0 54 81 7b bc 2d 0c 7a 3d 74 96 fb bc 7e ce b2 3c
       -0.015350658 0.061046768 -0.03071139 0.021826979
000200 35 2a fc bd 68 2d 40 be 9a 36 9c bd b7 bd 01 bd
       -0.12312738 -0.18767321 -0.07627602 -0.031675067
000210 05 de 3c 3d 83 f7 0a bd bb 2f da bd 1f f0 03 bd
       0.04611017 -0.03392745 -0.10653635 -0.03221142
000220 a8 41 0f be 8b 60 0c be aa 89 8c bd 55 70 7e be
       -0.1398989 -0.13708703 -0.06862195 -0.24847539
000230 34 86 91 bd 90 85 1d 3d 4a 24 25 bc 50 94 eb bd
       -0.07105675 0.038457453 -0.010079453 -0.11502898
000240 de a4 9c bd f1 11 89 bd 39 eb 4e 3d b0 74 36 be
       -0.076486334 -0.06692875 0.050517295 -0.1781795
000250 2a 5d d0 bd 89 e8 1a be 22 a6 40 be 32 37 0f be
       -0.1017402 -0.15127768 -0.18813375 -0.13985899
000260 71 b4 1b be 6e 2d 0e bc 43 f6 d3 bd 02 5b 26 be
       -0.15205552 -0.0086778235 -0.10349705 -0.16245654
000270 4d 88 3a bd 5b 08 6e 3c 7c d3 55 bc 36 2a 96 bc
       -0.045540143 0.014528359 -0.01305091 -0.018330675
000280 55 2d b7 bd a9 73 c2 3c 8b 47 e3 bd bc 59 fe bc
       -0.08944193 0.023736792 -0.1109763 -0.031048648
000290 b1 c2 b8 bc 18 81 8d bd dc 7c 04 be 0c 56 cb bd
       -0.022553774 -0.06909388 -0.12938255 -0.099285215
0002a0 53 91 f1 bc 92 30 39 be 1f ff a3 bd f3 c9 c5 bd
       -0.029488241 -0.18084934 -0.08007645 -0.096576594
0002b0 53 5b d7 bb 81 8e 14 be 1d 18 12 be c9 8d ef bd
       -0.006572166 -0.14507486 -0.14267011 -0.11696965
0002c0 c6 af 4e be 69 7f ef bd 7c 3f 3a bb be 6e 8e bd
       -0.2018424 -0.116942234 -0.0028419187 -0.06954716
0002d0 0f 6a 81 bc d9 63 45 bd 8a e6 04 be bb 57 dc bd
       -0.015797643 -0.048190925 -0.12978569 -0.10758921
0002e0 f7 94 9d bc 05 10 7c bd 6a b1 22 be 96 bf 66 be
       -0.019236071 -0.061538715 -0.1588799 -0.22534022
0002f0 91 da b0 bd ff e0 c1 bd 83 09 a9 bd 64 da 5e bd
       -0.08635438 -0.09466743 -0.08253767 -0.054407492
000300 d4 d4 b5 bd 4c 39 df bd e1 41 8c bb 15 0a eb bd
       -0.08878484 -0.108996004 -0.0042803143 -0.11476532
000310 18 f9 63 be a9 a5 57 bd fc 76 66 be f8 3a d8 bd
       -0.2226299 -0.05264822 -0.22506326 -0.105581224
000320 05 ec 90 bd 96 78 08 be ee 2a 67 3d 64 7b 91 bd
       -0.07076267 -0.1332725 0.056437425 -0.07103613
000330 18 14 2d 3c d1 ff c7 bd 51 ff 7c be 0d 52 a3 bc
       0.010563873 -0.0976559 -0.2470677 -0.019936586
000340 de 2e ff bd 5a ca 79 bc 70 9f 1c 3d 89 25 c5 bd
       -0.12460111 -0.015245998 0.03823799 -0.096263
000350 fb 5c c9 bd 06 45 f8 3a d3 96 c3 bd 92 36 f9 bd
       -0.09832188 0.0018941469 -0.09550252 -0.121686116
000360 bb 99 9c bd 83 8f c6 bd b6 27 88 bd 0b 40 05 be
       -0.07646509 -0.096953414 -0.06648199 -0.13012712
000370 6a 59 05 be fa e0 4a bd 40 19 87 bc 15 4e dc bd
       -0.1302239 -0.04953096 -0.016491532 -0.107570805
000380 f0 49 40 be 90 7c 47 bd 92 40 80 bd 74 3f 09 be
       -0.18778205 -0.048702776 -0.06262316 -0.13403112
000390 a9 f5 ce bd 0c 48 da bd b9 d7 ad bd a9 70 64 3d
       -0.1010545 -0.10658273 -0.084884115 0.055771504
0003a0 2c 02 d3 bd 9e 53 fb bd a5 87 1f be 55 78 a2 bd
       -0.103031486 -0.12271808 -0.15579088 -0.07933108
0003b0 49 95 2b bd 59 18 fd bd 20 4b b7 bd b0 79 17 3c
       -0.041890416 -0.123581596 -0.08949876 0.009245321
0003c0 28 49 cf bd dd ab 7a be dc a6 94 bc 62 20 21 3d
       -0.10121375 -0.24479623 -0.018145971 0.039337523
0003d0 5b 65 2b be 71 15 f5 bc 4d 61 54 bd 69 70 17 3c
       -0.16737883 -0.02991745 -0.051850606 0.009243109
0003e0 eb b4 5d bc b8 b8 08 bc ea 20 59 bc 2c f0 88 bd
       -0.013531904 -0.008344822 -0.013252476 -0.06686434
0003f0 3f 42 83 bd 0c 6c 0e be fd f6 38 be ad 99 a9 bd
       -0.0640912 -0.13908404 -0.18062969 -0.082812645

weight f4 [55, 186]
000000 d7 92 35 bf ff 53 42 3e f5 24 0e be be eb a1 3e
       -0.70927185 0.18977354 -0.13881285 0.3162517
000010 7e 99 fc be 05 46 e1 3d 8b 52 34 be 83 75 42 3f
       -0.49335855 0.10999683 -0.17609613 0.7596056
000020 1c 25 8f 3e 3b a0 af 3d 24 00 b6 3e ad 1f 7b 3e
       0.27958 0.085754834 0.35546982 0.24523802
000030 8b 0f 94 bc ad 6c 42 3d b0 4e fc be 44 f6 e9 bd
       -0.018073818 0.047466923 -0.49278784 -0.114239246
000040 d9 2f 54 bd 4f a0 af 3d 97 5e e5 be 70 21 8d bd
       -0.051803444 0.08575498 -0.4479873 -0.06891143
000050 9a 43 66 be 13 6d 0a 3d 70 a2 38 3d dc 4d 27 ba
       -0.22486725 0.033795428 0.045076787 -0.00063821464
000060 f1 3f 57 3e 60 f0 b0 3d 20 4a ec 3c 71 04 6a 3d
       0.21020485 0.08639598 0.02884394 0.057133142
000070 0e 26 af 3b b2 ec 67 3d c8 af 6f 3c c4 8c a6 3c
       0.0053451126 0.056622215 0.014629312 0.020330794
000080 a0 5c 72 bd be fe 85 bc b4 d9 80 bd 00 37 61 3a
       -0.059170365 -0.016356822 -0.062915236 0.00085912645
000090 0b 67 81 bd 32 c1 62 3d 36 1a 07 3d c0 dd e4 ba
       -0.06318482 0.055360027 0.03298398 -0.0017461106
0000a0 14 9e b6 3c 70 d2 03 bc bc 2a 32 3d 3d d3 06 bd
       0.022292174 -0.008045778 0.043497786 -0.032916296
0000b0 a0 f5 de bc 03 80 85 bd 40 40 c8 3b 93 92 90 bd
       -0.027216733 -0.06518557 0.006111175 -0.07059207
0000c0 c5 df 1f bd 90 29 45 3d b9 35 73 bd b4 e0 92 bc
       -0.039031763 0.04813534 -0.059377406 -0.017929412
0000d0 26 72 07 3d 10 03 85 bd dd ff 86 3d d0 a6 0f 3c
       0.033067845 -0.06494725 0.06591771 0.008767799
0000e0 61 d9 35 bd e9 0e bd bd bc 2c 83 3d 37 aa 61 be
       -0.04439676 -0.092313595 0.06405017 -0.22037588
0000f0 01 1a d6 bc 03 a3 62 3e aa 7f 2c bd 38 66 5b 3e
       -0.026135447 0.22132497 -0.042113937 0.21425712
000100 c5 03 9a 3d 60 76 be 3c f8 ed a4 3d 6f 1d 9f bd
       0.0752025 0.023249805 0.080532014 -0.07769286
000110 e9 4c 6d 3d 4c 99 66 be d8 8d 5d 3d 47 af 81 3c
       0.057934675 -0.22519416 0.05409035 0.015830649
000120 51 6b 2a 3e d8 a3 1f bd 61 49 36 3e d9 06 21 3d
       0.166425 -0.038974613 0.1780143 0.03931317
000130 c6 01 d4 bd ba 7a 85 3e 8d 0c 08 3e 51 bf fc bd
       -0.10351901 0.26070195 0.13286038 -0.12341178
000140 7d fc b3 bd 16 c0 1d be 12 43 9e bd d6 28 10 be
       -0.08788393 -0.15405306 -0.077276364 -0.14078078
000150 21 53 20 be fb 9f 70 be 39 fd 1b be 29 22 3e 3d
       -0.15656711 -0.23498528 -0.15233316 0.046419296
000160 62 ba d5 3a b9 d9 f6 bc 18 fd 1e 3e ec be 92 bd
       0.0016306157 -0.030133115 0.15526235 -0.07165322
000170 2b 31 e4 3d c8 9d 2d be 41 72 36 3e e6 c9 3a 3e
       0.111421905 -0.1695472 0.17817022 0.1824108
000180 95 15 c2 3c 60 6e 34 bc b4 dc 0c be 42 eb 14 be
       0.023691932 -0.011012644 -0.13756067 -0.14542869
000190 ed 5b 03 bd 77 3a 78 bd 23 81 74 bd 86 30 7a 3e
       -0.03207009 -0.06060263 -0.059693467 0.24432573
0001a0 92 3f ee bd 3c 95 4d be 34 d0 a0 3e 4c 4d be 3d
       -0.11633219 -0.2007646 0.31408846 0.09292087
0001b0 a7 2a 95 3d b6 e3 40 3e b7 8b bf 3c 48 e0 4d bd
       0.07283526 0.18836865 0.02338205 -0.05026272
0001c0 dd 01 13 be 3d 24 8a 3d 68 21 a3 bd 72 55 d6 bd
       -0.1435618 0.06745193 -0.07965356 -0.10465516
0001d0 a4 65 11 3e df 96 5a 3e 7a 86 23 3e bb 40 f4 bd
       0.14198929 0.21346615 0.15969267 -0.11926409
0001e0 d3 85 68 be cd 43 0b 3e d3 b0 63 3d 8b d2 37 be
       -0.227073 0.13600083 0.055588555 -0.1795141
0001f0 72 4a f5 bd 02 74 24 3d 14 be 24 be 07 20 34 be
       -0.1197709 0.040149696 -0.16088134 -0.17590342
000200 ad ac 28 be 25 72 83 be 81 63 e8 bc 1b 33 b3 3d
       -0.1647212 -0.25673023 -0.02836776 0.08749982
000210 04 3b b2 bd e4 ce ec 3d fa 87 83 bb b3 3c cb bd
       -0.087026626 0.11562899 -0.0040140124 -0.09923687
000220 f0 87 6f be 76 11 c2 bd 3a 43 ba bc fb 62 8b be
       -0.233917 -0.09475987 -0.022737134 -0.27223954
000230 31 75 59 bd 16 85 e4 bd 64 87 08 3e fe 50 c4 3d
       -0.053090278 -0.11158197 0.13332897 0.095857605
000240 96 b6 3b 3c da a8 a2 3d 06 7e cd 3d 28 dd 7a 3e
       0.011457106 0.07942362 0.10033803 0.24498427
000250 f3 51 05 3e 5f 2f 70 be 3f 26 92 3d 9a a0 ec bd
       0.13019542 -0.2345557 0.07136201 -0.1155407
000260 5b 37 75 be 5e 85 fb bd f8 16 99 3e e9 ab 72 be
       -0.23946898 -0.12281297 0.29900336 -0.23698391
000270 07 df 43 3e ee d7 94 be 66 d6 b2 bd 86 16 37 be
       0.19128047 -0.2907099 -0.087322995 -0.17879686
000280 df 83 4f be 93 1b 72 bd ce 40 e6 bc b3 e8 a5 bd
       -0.20265149 -0.059108328 -0.028107073 -0.081010245
000290 42 25 b1 bc f7 ff 1e 3e ad c4 19 bd 14 bb 1d 3e
       -0.021624211 0.1552733 -0.03754108 0.15403396
0002a0 ba 27 84 3e ab 10 9a 3d dc cf fe 3d 97 c6 a4 be
       0.2581156 0.075227104 0.1244199 -0.32182762
0002b0 cc e7 48 3e 17 2d cb bd e1 05 25 3e e9 cc 2d 3e
       0.19619673 -0.099207096 0.16115524 0.16972698
0002c0 08 0f 84 3d 3e 35 a1 3c 6f 54 16 be aa 6e 4c 3d
       0.064481795 0.019678708 -0.14680646 0.049910225
0002d0 ca cb 54 3c 09 74 d8 3c f9 2b d8 3d d1 f6 31 be
       0.01298804 0.026422517 0.10555262 -0.17379309
0002e0 eb a4 87 be 77 54 6d 3e d7 e2 4f bf 27 49 bd 3c
       -0.2649301 0.23176752 -0.81205505 0.02310617
0002f0 f7 c4 54 3e d3 d1 1d be f4 0b 9f 3f 78 15 83 bd
       0.20778261 -0.15412073 1.2425523 -0.06400579
000300 75 6c 86 be 78 ed c5 3c ec 74 a3 be 7c 34 03 3f
       -0.2625462 0.024161085 -0.31925142 0.5125196
000310 0b f4 40 bc 80 63 09 3e 3c c3 48 3d f9 57 23 bd
       -0.011776934 0.13416862 0.049014315 -0.03987882
000320 78 16 f0 be dd 31 5b 3c 38 55 38 3e 0e 88 17 3e
       -0.46892142 0.013378588 0.18001258 0.14797994
000330 76 ef 14 3e 20 fb 88 3e 8e 18 16 be 4d 54 d6 3b
       0.14544472 0.26754093 -0.14657804 0.006540811
000340 53 7b b6 bc ab 3d 0c 3d 16 c5 5e be 58 85 57 3e
       -0.022275602 0.0342385 -0.2175487 0.2104696
000350 3a ca 6f 3c 08 e1 8e 3c 7b 5e 22 bd d8 0e 5f bd
       0.014635617 0.017441288 -0.039640885 -0.054457515
000360 d8 42 27 bc 48 f6 f8 3c a5 7e 0b bd 83 4e 9a bb
       -0.010208808 0.030390874 -0.034056325 -0.0047090664
000370 fd 70 69 bd c3 15 93 bd 78 00 95 bd 80 82 a3 3b
       -0.05699252 -0.07181885 -0.0727548 0.004989922
000380 38 b0 92 bc a6 8c 8d bc 08 53 16 3d b0 7f 2b bc
       -0.017906293 -0.01727898 0.03670028 -0.010467455
000390 e8 63 81 bd 25 67 8d 3d 44 bb 8a bd 6a d4 1a bd
       -0.06317884 0.06904439 -0.06773999 -0.03780023
0003a0 60 4a 2d 3b 58 ec 8c bd 40 4d da ba 92 6d 2a 3d
       0.0026442036 -0.068810165 -0.0016655102 0.0416084
0003b0 d2 f2 41 3d 90 51 4f bd 4b 2d 53 bd c8 8b 26 3d
       0.047350712 -0.050614893 -0.051556867 0.04066065
0003c0 5c ca 1a bd 80 b1 52 3d f9 8b e2 bc 8d 1d ae bc
       -0.03779064 0.05143881 -0.027654635 -0.021254325
0003d0 fd 4a 03 be bc db 09 be dc d2 20 3e 1f 7d 02 bd
       -0.12821575 -0.13462728 0.15705436 -0.031857606
0003e0 90 e1 e7 3c f4 55 e8 bd ba e4 43 3d d9 a8 06 be
       0.028305799 -0.11344519 0.047825553 -0.13150348
0003f0 cc 1e e5 bd 42 23 67 bc b2 8c 32 bd 63 d9 33 be
       -0.11187515 -0.014107527 -0.04359121 -0.17563395

bias f4 [55]
000000 93 5e 8a 3d 48 bc ff 3e 24 01 6a 3e 66 a2 00 be
       0.0675632 0.49948335 0.22851998 -0.1256195
000010 84 4b c4 bd 66 96 b2 3d df 94 37 bd 2b e4 1f bd
       -0.09584716 0.087200925 -0.04481971 -0.039035957
000020 dc 79 34 3c d8 b1 48 3d a7 c8 a8 3e 46 96 c7 bc
       0.011015382 0.04899773 0.32965586 -0.024363648
000030 9a de ce bb 72 39 69 be e9 73 77 3d 94 8f a3 be
       -0.0063131573 -0.2277582 0.060413275 -0.3194548
000040 02 9b 99 bd 31 4f 53 be 4d 45 9e 3d 8a 40 00 bd
       -0.075002685 -0.20635678 0.07728062 -0.03131155
000050 f7 c0 7f be 1b f3 7d bd 72 bd c3 3d c2 f0 7a bd
       -0.24975954 -0.06199942 0.09557618 -0.06126476
000060 51 44 8a 3e 4b a5 39 3a 2a c9 f4 3d e8 c6 67 3e
       0.27005246 0.00070818205 0.119524315 0.2263447
000070 35 cb d1 be 95 23 c8 3d 34 2c 74 3e 6d 05 a4 be
       -0.40975347 0.09772412 0.23844987 -0.3203539
000080 c4 6d c0 3e 72 19 1f bc 2c e6 d4 3d ef 80 b8 bd
       0.37583745 -0.0097106565 0.10395464 -0.09008967
000090 c7 b3 43 3d 14 f1 a4 3d 57 16 4d 3e 66 d4 84 3d
       0.04777887 0.080537945 0.20028053 0.06485824
0000a0 a1 50 c9 bd a8 51 8b 3d e2 f9 fb 3b 7c c4 0c 3e
       -0.09829832 0.06802684 0.0076897005 0.13746828
0000b0 6c fb 9a 3c 59 93 b6 bd aa de 17 3d ca d6 25 be
       0.018918715 -0.08914823 0.037077583 -0.16195217
0000c0 38 3d 0c 3e 41 58 65 bd 35 35 74 3d b4 33 11 be
       0.13695228 -0.05599237 0.059621055 -0.1417988
0000d0 79 11 03 be 62 0a 4f be fb 15 21 bd
       -0.12799634 -0.20218804 -0.039327603

weight f4 [55]
000000 00 00 54 42 00 00 3c 42 00 00 54 42 00 00 88 41
       53.0 47.0 53.0 17.0
000010 00 00 10 41 00 00 10 41 00 00 f0 41 00 00 00 41
       9.0 9.0 30.0 8.0
000020 00 00 98 41 00 00 30 41 00 00 c0 40 00 00 88 41
       19.0 11.0 6.0 17.0
000030 00 00 40 41 00 00 00 40 00 00 44 42 00 00 00 40
       12.0 2.0 49.0 2.0
000040 00 00 10 42 00 00 80 3f 00 00 40 40 00 00 70 41
       36.0 1.0 3.0 15.0
000050 00 00 40 42 00 00 1c 42 00 00 b8 41 00 00 98 41
       48.0 39.0 23.0 19.0
000060 00 00 00 41 00 00 3c 42 00 00 80 40 00 00 18 42
       8.0 47.0 4.0 38.0
000070 00 00 80 3f 00 00 70 41 00 00 4c 42 00 00 40 40
       1.0 15.0 51.0 3.0
000080 00 00 90 41 00 00 30 41 00 00 f0 41 00 00 d0 41
       18.0 11.0 30.0 26.0
000090 00 00 40 41 00 00 40 40 00 00 14 42 00 00 a0 40
       12.0 3.0 37.0 5.0
0000a0 00 00 4c 42 00 00 b8 41 00 00 40 40 00 00 24 42
       51.0 23.0 3.0 41.0
0000b0 00 00 40 40 00 00 a0 41 00 00 5c 42 00 00 88 41
       3.0 20.0 55.0 17.0
0000c0 00 00 00 41 00 00 20 41 00 00 80 3f 00 00 34 42
       8.0 10.0 1.0 45.0
0000d0 00 00 d8 41 00 00 58 42 00 00 44 42
       27.0 54.0 49.0
