models/LSTM_model_8.pt (torch_old, 971993 bytes, 11 tensors)

weight_ih_l0 f4 [512, 58]
00000000: d9ab d6be 3a83 923d 7c38 e5bb adaf 1d3e
00000010: 482f 353e 79e2 313d 21ae 15bd 21c7 b63d
00000020: 5636 53be e489 de3d cd0b b43d 6c2b acbe
00000030: fa36 ca3d d171 27bf 4eba 32be 07b6 153e
00000040: ef0e 6e3d 90da 18bd ae4d 06be 56e1 953e
00000050: b582 e7bd ea3d 123d 5451 263e 8f0c 9a3d
00000060: 2e9f acbe d874 c83e bea6 2cbd c0c6 febb
00000070: e5d8 453d 291b dabc 1c02 4a3e 4a68 61bd
00000080: 683c 4fbd c251 fd3d 92da bebd 5df7 de3d
00000090: 892a bebc ca03 dabd 9bf8 96bd 0d06 483d
000000a0: 5429 01be f8dd 8ebd 1f8e ffbc 56ef 88bd
000000b0: ca87 613d af80 253d 579f 08bd fae4 5cbd
000000c0: 4d32 a03d 547f 05bd 228a b5bd 3b85 633d
000000d0: b1f3 c2bc 1305 73bb 54ee 83bb ecb2 8ebc
000000e0: 461a 0cbd 6cba d13d 26a6 c6bd 4a8a ce3e
000000f0: c2ed 873d f047 213e 3669 a7bd 8316 73bd
00000100: cb8c 3c3e fc06 863d 6baa 563c d87a 243e
00000110: 4e75 3dbe f24b 5dbe d2aa 03be 29ed 56be
00000120: aa96 883e f13d 9fbd 560f febd 4b3d 873e
00000130: 68ee 4cbe 42af 4e3d bb3b 8abc b8ba e5bd
00000140: dd98 90bd 465f c63c 1827 1cbe 4d12 c5bd
00000150: 2335 3f3d e0c6 c8ba 2344 783d b30f 80bc
00000160: 4d9e 2d3d 0f3b 0a3d c324 0ebd 9039 603d
00000170: 7182 8e3d b3e3 afbd 0d80 c0bd 05fd bcbb
00000180: 6479 96bd 6cc6 a7bd 0072 81bd 382a 263d
00000190: 489e 22bd 91d5 14bc 8ebe 3cbd 4151 3f3d
000001a0: f81a 48bc 7dc3 31bd 2191 d7bb dcb0 f3bb
000001b0: 8dee 023d d260 35bd 1698 14be 2b5e 85bc
000001c0: 5ae6 9a3c c047 11bc 152d ab3d e624 06bd
000001d0: ceca 97be bd29 3b3d 9c4e 7d3e 150e e13d
000001e0: 66b4 28bf f021 1cbe e3c5 f03e fe13 acbe
000001f0: 346f 0c3e 9124 553e 6ac0 cabe 318b d03c
00000200: 7943 713d 5128 563e d6b3 99be 5d61 ea3d
00000210: fa5b 0abe b000 3b3e 7d7f 5b3d 2ead 293e
00000220: f8a8 53be 541d 7f3e 7a5f f13e 0245 d9bd
00000230: 2f0a febe 71eb 013f 181b 66be 18da b8bd
00000240: 5ce6 8c3d 80a5 b5bd 94af 65bd 7c7b 843d
00000250: ab3e 51be ccb6 f03d 2cce 443e a778 17be
00000260: 3d96 d93d b031 4ebe 03ce 34be c15f 96bd
00000270: 6ab8 0a3e d5cd 0ebe 9888 71bd 41a6 37bd
00000280: e715 8bbd bbd1 903d 8006 c2bc f5f9 31bc
00000290: ead2 0dbd a676 47bd 8b2b 263c adc1 053e
000002a0: 69aa e43e c67f 6dbc 8b92 933d 55bd 5abd
000002b0: e906 96bd f84c bb3d f234 c7be 7af3 973e
000002c0: 4207 063e c9d1 f83d 1313 be3d 8039 49bb
000002d0: 9a34 a93d 1b11 913e 83e3 9bbd 682c 2cbe
000002e0: 2d51 053e 9a64 eebc c55f a43d 9175 4ebe
000002f0: 8bca 98bd f838 b8bd fc63 64bd 5ba9 8a3e
00000300: d948 e33d 7c05 e2be cace 253e d139 cbbd
00000310: ed85 e63c e418 983d 53f7 043d 5524 e1bc
00000320: fb13 24bb 4a14 81bd 703e 2ebd ef98 86bc
00000330: 0cca 4d3d 895a ca3c e365 393c 1e86 7a3d
00000340: b9fa d93d 6ae6 4a3d 018f 653d eb70 8a3d
00000350: 48c9 e13d 5747 273d c744 83bd 7890 aa3c
00000360: b439 ae3c 1912 de3c 61b2 eabb 8fb2 91bd
00000370: b32e 84bd e57b 4d3c fad0 443d 8994 82bd
00000380: 3703 4ebd 31ad 013d f4af 13be bd05 37bc
00000390: a59d b2bc e18b a73d 9c3f 0d3d 43f4 03bd
000003a0: 6004 9bbe 9f72 743d 1ea0 1abd acda 333e
000003b0: ef25 f9bc 2830 913d 46fc 7ebe ae58 0c3e
000003c0: e16a 8e3d 8702 66bd 088b 553e af88 2abe
000003d0: 28a9 123e 707c 87be 5fed 923d 5c96 783d
000003e0: 393e 003d cb7b 97bd ee48 273d fc07 8e3e
000003f0: c980 73bd 6fb5 f53d da37 b83d 3b67 9c3d
-0.41927984 0.07153936 -0.006995259 0.15399046 0.17693818 0.04342887 -0.036543015 0.089246996
-0.20626196 0.10866144 0.08791313 -0.33626878 0.09873767 -0.65408045 -0.17453882 0.14620219
0.05811971 -0.037317812 -0.1311557 0.2927348 -0.11304227 0.035703577 0.16241962 0.075219266
-0.33715194 0.39151645 -0.042151205 -0.0077751577 0.04830255 -0.02662428 0.19727367 -0.0550311
-0.050594717 0.1236911 -0.09319033 0.108870246 -0.023213642 -0.10645254 -0.073716365 0.048833895
-0.12613422 -0.06975931 -0.031195698 -0.06686275 0.05506114 0.040405925 -0.033355083 -0.053929307
0.07822094 -0.032592133 -0.08864237 0.05554698 -0.023797842 -0.0037081882 -0.0040262137 -0.017419301
-0.034204744 0.10240635 -0.09699659 0.4033988 0.066371456 0.15750098 -0.08174364 -0.05934764
0.18413083 0.06544301 0.013102154 0.16062486 -0.1850178 -0.21611002 -0.12858132 -0.20988907
0.26677448 -0.07775486 -0.12405269 0.2641395 -0.2001282 0.050460108 -0.016874185 -0.112172544
-0.07060406 0.024215352 -0.15249288 -0.09622631 0.046681534 -0.0015318058 0.060611855 -0.015632486
0.042387296 0.03374773 -0.034703027 0.054742396 0.069584735 -0.08588352 -0.09399424 -0.005767467
-0.07347372 -0.08192143 -0.06320572 0.040567607 -0.03970173 -0.009084121 -0.046080165 0.04670835
-0.012213461 -0.043399323 -0.00657858 -0.0074368548 0.03196578 -0.04428179 -0.14511141 -0.016280254
0.018908668 -0.008867204 0.08358208 -0.032750033 -0.29646915 0.0456941 0.24737018 0.10989014
-0.65900266 -0.15247321 0.47025976 -0.33609003 0.13714296 0.2081473 -0.39599925 0.025456997
0.058902238 0.20913817 -0.30020016 0.11444352 -0.13511649 0.18261981 0.05358838 0.16569969
-0.20669925 0.24913532 0.47143155 -0.10608865 -0.49617144 0.5074988 -0.22471273 -0.09025973
0.06879875 -0.08869457 -0.056075647 0.06468865 -0.20434062 0.11753616 0.19219273 -0.14792119
0.10624359 -0.20136142 -0.17656712 -0.07342482 0.13546911 -0.13945706 -0.058968157 -0.044836286
-0.06791287 0.07071253 -0.02368474 -0.010862817 -0.03462497 -0.048697136 0.010142217 0.13062163
0.44661263 -0.014495796 0.07205685 -0.053403217 -0.07325537 0.0914554 -0.38907582 0.29677945
0.13088706 0.12149388 0.09280982 -0.0030704439 0.08261986 0.28333363 -0.07611754 -0.16813815
0.13019247 -0.029100705 0.08026079 -0.20162036 -0.07460507 -0.08995241 -0.055759415 0.27082333
0.11097879 -0.4414481 0.16192165 -0.09923137 0.028140033 0.074266225 0.03246243 -0.027483145
-0.0025036323 -0.06302698 -0.042540014 -0.016430346 0.050241515 0.024701374 0.011315796 0.06116306
0.10643525 0.049536146 0.056044582 0.06759819 0.110247195 0.04083952 -0.064096026 0.020820841
0.02126775 0.027108239 -0.0071623777 -0.071141355 -0.0645422 0.012541746 0.048050858 -0.06375987
-0.050296035 0.03165931 -0.1442259 -0.011170802 -0.021803686 0.08180977 0.03448449 -0.032215368
-0.30276775 0.059679624 -0.037750356 0.17563885 -0.030413596 0.07089263 -0.24900922 0.13705704
0.06953979 -0.056154754 0.20853817 -0.16653703 0.1432234 -0.26462126 0.07174181 0.06069027
0.03130934 -0.073966585 0.040841036 0.27740467 -0.05944899 0.11997496 0.08995028 0.07636877

weight_hh_l0 f4 [512, 128]
00000000: 4e93 713e 177d c93d cba6 c0bd 2ae6 20be
00000010: 4598 8cbd 2f67 a1bd d919 6b3d 9604 e03d
00000020: 7a7d ea3d 8311 07be 2ea2 ab3c 0577 813d
00000030: aa8c 14be ad04 56bd a59d 153d 2a29 903d
00000040: 43aa cebd b7f9 57bd 092d 03be 8777 803c
00000050: edb4 31bd 41c6 3ebe d408 1fbe ecad c53d
00000060: 0dd7 0c3e c9d2 58bd 40fe 5cbe a402 41bc
00000070: e2e6 4b3e b920 da3c c46b 44be 9eaf 613d
00000080: 362b 03be 1598 c8bd 01dc 23bd 5f70 56bd
00000090: b9d2 37be e363 97bd 0eff 51be bca1 883d
000000a0: dfb9 a43e 92dd 1b3e 9aeb e6bd 0fa7 613e
000000b0: 78ec 1fbe ef34 25bd 5d29 b3bc f4b5 073e
000000c0: ac97 6c3d fff0 953d 261f f7bd 27f6 a9bc
000000d0: d1f0 803d 4496 b9bd 0100 91be 03a4 263d
000000e0: 4cf4 d6be b9fa 5e3e f2c9 833d c590 4fbd
000000f0: cc8d fd3d 10ae 72bc 4b59 f03d 4c98 22be
00000100: 6a5d 1dbe 2383 9ebe 3359 a13c b67f eabd
00000110: f2c7 d1bd 0d3e c1be 0632 153d ca78 c23b
00000120: f37b e23d 4d29 7ebd 1a85 aebd a2a0 d73d
00000130: 1fea 453e d9fa 7bbd 32e3 9abd ec60 833e
00000140: f135 d53d a053 4bbe ad31 8c3e 7270 71be
00000150: d0b6 86be f358 90be 8bb5 0fbe 9e81 8b3d
00000160: 9499 b1bd 19f5 cf3d ce60 2c3e 2631 4c3e
00000170: 65b0 043e b8c8 4cbd a834 9a3d 4992 3d3e
00000180: c3d6 7dbe 5a62 5abd 37ea 633c c506 c0bd
00000190: 55b2 623c 0f7f c93b 6c3a 893d f3f5 c63d
000001a0: 4a8f 183e f8af 003d 0304 b93c 1a77 003e
000001b0: 6378 803e 289b 20be 8b5e 1abb 709b 8b3d
000001c0: 3b74 2fbe 8fcf 31be 3470 29be 121e acbd
000001d0: d3ac 00bc be73 e33d 1146 2abe d5ea 97bd
000001e0: 5005 5abe 9bd1 a13e 5bba 7d3e abcf 453e
000001f0: fc48 41be 8e68 fe3d f33a 5abd 1b86 b3bd
00000200: 7fce 843d 1326 d8bb 58af efbd 1ef8 42be
00000210: 049d 4dbe 101a 753d edf7 cebd 7652 0ebe
00000220: 1d63 983d baa6 84bd 3ee5 1b3d 6853 133e
00000230: 909d 31bc 0040 e83c ad20 913d 4ea4 ba3d
00000240: ab4c 783e 14dd 9abb ea96 2c3b 4a70 d5bd
00000250: b1ee ce3d a30f 063e f6ff 25be 66f7 c2bd
00000260: e4a3 723d c968 9b3c d6d6 3fbe 315f 29be
00000270: 085f 253e 5c81 62be 1920 b63d 8425 75be
00000280: 2a1b 0f3e 18a8 74be e65a ac3e a862 2cbe
00000290: a62c 0bbe bb80 48bd f2a9 9ebe a7b4 563e
000002a0: dd49 e4bc fae7 a4bd f414 a9bb e785 8dbe
000002b0: 6efe 94bc f652 88bd 0f39 fb3d f60d 07bd
000002c0: 207c a13c 12f2 13be 9396 2dbe 9507 043e
000002d0: 5625 373e 0d5c 613e c89f 18bd 1ea2 673d
000002e0: 13ac 993e 1aa6 18bd 7db7 aebc 7b77 613e
000002f0: f814 913d caa7 863d f105 d0bd bf10 0a3e
00000300: f722 083d fb79 913d d168 b23d bc76 4e3d
00000310: ed97 d63d b6cf 5b3e fd2c 023e 51e5 1b3e
00000320: 3177 8fbd ffaa 2bbd 898b ccbd f38c 6d3d
00000330: f928 90bd 2bb1 39bd 3bd2 a03d d4af 1e3e
00000340: 5883 113b 7d28 12bc f3b0 1fbe 2cb9 bbbc
00000350: df99 c23d 24fe cebd 2364 f0bc d3e1 333e
00000360: 3130 4e3e e71b 66be fde6 67be 0e65 1abc
00000370: 6a92 bb3d 008f af3e fa0a 1e3e 68e9 cc3a
00000380: 9f04 653e 67f8 f63d ddff da3d 7f5e 9cbd
00000390: 8529 00be ec2c d63d 5571 40be 4f13 5d3e
000003a0: 0475 4dbd ec92 013d 2e2b f7bd 9eb5 91ba
000003b0: c56b 3dbe a1eb 3b3e 7f42 673d 85c9 883d
000003c0: 479a 82be 6720 193e 4367 47be 89b1 c3bd
000003d0: 862b a73e 91e9 b63e cfd8 85bd ab7d 8abd
000003e0: 6ae7 0f3e e8e2 74be 8601 953e 8103 5e3d
000003f0: 6305 64bc e596 4fbd 854a ad3d caa9 473d
0.23591349 0.09838312 -0.09406813 -0.157128 -0.068649806 -0.07881009 0.057397697 0.10938375
0.11449714 -0.13190274 0.020951357 0.06321529 -0.14506784 -0.052250553 0.036527295 0.070391014
-0.100910686 -0.05272838 -0.12810148 0.015681995 -0.043385435 -0.18630315 -0.15530711 0.096523136
0.1375391 -0.052935395 -0.21581364 -0.011780415 0.19912294 0.026626932 -0.19181734 0.055099122
-0.12809452 -0.09794632 -0.040004734 -0.05235326 -0.17951478 -0.07392099 -0.20507452 0.066714734
0.32173058 0.15221241 -0.11275406 0.22036384 -0.1561755 -0.040333685 -0.02187031 0.13253003
0.057761833 0.07321357 -0.12066488 -0.020747257 0.06295932 -0.09061864 -0.28320315 0.040683758
-0.4198326 0.2177533 0.064350024 -0.050675172 0.12380561 -0.014812008 0.11735781 -0.15878409
-0.15367666 -0.30959424 0.019695854 -0.1145014 -0.10243215 -0.37742653 0.03642466 0.0059348093
0.11058798 -0.062051106 -0.08521481 0.10528685 0.19327591 -0.061518524 -0.07562865 0.25659883
0.10410679 -0.19856119 0.2738165 -0.2357805 -0.2631135 -0.28192863 -0.14034097 0.06811832
-0.08671871 0.101541705 0.16833803 0.19940624 0.12957914 -0.049996108 0.07529575 0.18512835
-0.24788956 -0.05331645 0.013910822 -0.09376291 0.013836463 0.00614918 0.06700596 0.0971488
0.1489841 0.031417817 0.02258492 0.12545434 0.25091848 -0.15684187 -0.0023554887 0.06816757
-0.17134182 -0.17364334 -0.16546708 -0.08404173 -0.0078537045 0.111060604 -0.1662829 -0.074178375
-0.21291089 0.3160523 0.2477812 0.193175 -0.18875498 0.12422286 -0.053278875 -0.08765813
0.064846985 -0.0065963357 -0.11703366 -0.19039962 -0.20079428 0.05983931 -0.10105882 -0.13898644
0.07440779 -0.06477113 0.03806042 0.14387286 -0.0108407885 0.02835083 0.070863105 0.0911337
0.24247997 -0.0047260616 0.002633507 -0.10421808 0.101041205 0.13091902 -0.16210923 -0.09519844
0.05923833 0.018970864 -0.18734297 -0.16540219 0.16149533 -0.22119659 0.08892841 -0.23940092
0.13975206 -0.23892248 0.336631 -0.1683451 -0.13591251 -0.048950892 -0.30989033 0.20967351
-0.027867252 -0.080520585 -0.0051599685 -0.27641222 -0.018187728 -0.066564485 0.122667424 -0.0329723
0.019712508 -0.14447811 -0.16951971 0.12893517 0.17885336 0.22007771 -0.037261754 0.05655109
0.30014095 -0.03726778 -0.021327728 0.22018234 0.070840776 0.06574972 -0.10157383 0.1348295
0.03323647 0.07103344 0.087113984 0.050406203 0.10478196 0.21465954 0.12712474 0.15224196
-0.07005156 -0.04191112 -0.09987552 0.057995748 -0.07039065 -0.045334976 0.07852598 0.1549676
0.002220353 -0.008920786 -0.15594845 -0.022915445 0.09502005 -0.10107067 -0.029344624 0.17566614
0.20135571 -0.22471581 -0.22646709 -0.009423507 0.09158786 0.34288788 0.15433875 0.0015633525
0.22365044 0.12059098 0.10693333 -0.07635211 -0.12515838 0.10457787 -0.18793233 0.21589397
-0.050160423 0.031634256 -0.12068783 -0.0011116748 -0.18498142 0.18351604 0.0564599 0.06679062
-0.2550833 0.14953767 -0.19472985 -0.095553465 0.32650393 0.35725072 -0.065354936 -0.067622505
0.14053121 -0.23914683 0.29102725 0.05420256 -0.0139173 -0.050681014 0.08461479 0.048745908

bias_ih_l0 f4 [512]
00000000: 116a 293e a917 123d cb7e ab3e b7c3 da3e
00000010: 312d ab3e c3de 2d3c 7560 863e 14f9 873d
00000020: fd12 893d 6cf3 d53d a3f7 b93d b18c ff3e
00000030: 8232 be3d 3b2f 203f 06e2 b03d 1c86 b93e
00000040: 3725 623d c843 7e3c 642e 833e 66fc 173d
00000050: 8ea5 203e 311b d53d 81a9 243e a3df b8bd
00000060: c125 bc3e 47b9 99bd b832 35be 5e73 22be
00000070: d2a9 43be 58c4 723e ac6f 6b3d 4938 51be
00000080: 3cad 5fbe b7f0 c83d 7fb0 c53e 0f8b a13e
00000090: da81 24be 0e8a 18be ffac a13e 450c d73d
000000a0: 466a eb3c 0878 e23e d3d8 663e 2343 c33e
000000b0: b4a9 a33e 8b25 063e a373 683e 05a7 6d3b
000000c0: 15ca d23d 41a1 aabe e914 b0bd 2dc5 e0bd
000000d0: 4e46 f43d 8cc0 c23d dd3d 5cbd 66bc eb3d
000000e0: 0b7e 643e 0aaa b4bd 96e1 9d3c 4f18 213f
000000f0: daea 8ebe cbf2 4cbe 0985 c23d ff74 233f
00000100: 69aa 813e 1736 153e aac2 183c 7e6a cd3e
00000110: bd07 823e 249d 853e 8cb8 a93d 34d8 333e
00000120: 5c6d 1c3e d4e9 b33e bd1f 543c b440 283e
00000130: 5425 8d3e 6c05 8e3d 29b3 083f 89e1 c43d
00000140: 5dab 653d 44ef 09bd 4cbc 5b3e 9316 013f
00000150: 0ebf 1d3e 9749 5d3c f988 393e c063 863d
00000160: 5140 b2bd 1767 9b3e 9d8d 723e bdc2 ef3d
00000170: 85f6 35bd b9fa e2bb 0f19 7b3e 46a1 9f3e
00000180: dce7 173f 0c19 a1bd 0971 843e ac19 2b3e
00000190: e6c9 573d b9d7 2bbe 2f42 a53d 8c9c 9f3e
000001a0: 037e 103e dd87 d6be 1b60 473f 1417 873e
000001b0: 3266 903d 406b 44be e460 b1bd c401 1f3c
000001c0: bb37 353e ced5 543e 36cb a6bc 683d fe3d
000001d0: c91e 88be e05f 0e3e 5cca b23e c745 77be
000001e0: 3158 5fbd e400 62bd c73f 7c3d aa70 a43d
000001f0: fc15 96bd 70f4 b8be c536 203e 687a 9a3e
00000200: 248e cfbc 5695 823e a554 22be 811a 2bbe
00000210: 3a70 31be 0872 3d3f dafc d33c e883 433e
00000220: 96fa 9e3e eb66 053d 9a4a c53d 9907 dcbd
00000230: 96ae 983e 86b6 abbe 48ec b7bd baf0 eabd
00000240: fa47 c23e 254f be3e 3252 253e a902 153e
00000250: a3c7 3fbe d387 ab3b 3a0f 1e3d 131a 783e
00000260: 9f7e 18bd c865 d93e 3696 683e eef2 973e
00000270: 5e9d ef3e 4f76 2a3e 4bea 4a3e 02bb c53e
00000280: 6a63 2a3e 8683 523e d858 483b f5e3 69be
00000290: 1e06 9f3e e1b3 083f 83ef c7be bdcd 09bd
000002a0: 26f5 773e 2d90 1abe 6528 b0bd 37d1 9fbd
000002b0: 2034 8abd 3ed8 793e 2929 3d3d 418d 8a3e
000002c0: 7f1e 5c3d b4ab 023f c0ac 973e 5b22 ad3e
000002d0: a25f fc3d 3246 5cbc 1af1 8b3e 3ae8 66bd
000002e0: e397 26be 99aa 4b3e b54f 4b3e a30f 72be
000002f0: 02dd 0b3f bbd8 ef3e 3888 993e 1326 3abe
00000300: d5bd 46be 27f6 f03e 6be1 793e de26 48bd
00000310: e161 003e 924f 66be e8d7 ed3e 247a a3bd
00000320: bd24 0b3f dd54 edbc 0e00 863d 837a bf3e
00000330: f938 7a3d e684 633e 3d95 70be 66e6 83bc
00000340: 2f3c b53d 2f34 013e d3c1 ce3d 2c3a 45bd
00000350: 646a ba3d 48c2 883e f86f 4c3e c220 103f
00000360: 53c2 0d3e 6516 b9bd 83df 44bd b35f 643e
00000370: c53d 363e 71a4 293e 7c36 b0bd 7739 f93d
00000380: d32a a2be d450 9d3e 0d9a 8bbc a52e fbba
00000390: 3669 413d f74d 103f 54a7 383e 3ed2 c03b
000003a0: 319a 113e ecb3 fa3e 8e4d 8ebe a1c1 c33c
000003b0: fe27 c63e d80a bd3e fecb 193e 5106 393e
000003c0: 8fda 843e 806a 6d3e 7322 9f3e 5ffa bf3e
000003d0: 522a 973e d32e 4b3e b937 28bd 08a9 f63d
000003e0: 0f0a cf3e 3443 823e d333 643e 57cf 1b3e
000003f0: ea4f 043e 302d 5d3f fccb d73d 0a9b 6abd
0.16544367 0.035667095 0.33495173 0.42727444 0.33432916 0.010612193 0.26245466 0.06639305
0.06693075 0.1044682 0.09080436 0.49912027 0.09286977 0.6257207 0.086368605 0.3623513
0.055211272 0.01551909 0.2562133 0.03710594 0.15688154 0.10405577 0.16080286 -0.0902703
0.36747554 -0.07506042 -0.17695129 -0.15864322 -0.1910775 0.23707712 0.057479545 -0.20431627
-0.21843427 0.09811538 0.38611218 0.31551406 -0.1606516 -0.14896414 0.31577298 0.10500387
0.028737199 0.44232202 0.2254365 0.3813716 0.3196541 0.13100259 0.22700362 0.0036262881
0.1029245 -0.33326152 -0.08597738 -0.10975108 0.11927472 0.09509382 -0.053769935 0.115105435
0.22313707 -0.08821495 0.019272607 0.62927717 -0.27913553 -0.20014493 0.09498031 0.63850397
0.25325325 0.14571415 0.009323755 0.4012031 0.2539653 0.2609645 0.08287153 0.17562944
0.15276092 0.35139334 0.01294702 0.16430932 0.27567542 0.06934628 0.53398377 0.0961333
0.056071628 -0.033675447 0.21458548 0.5042507 0.15404913 0.013506315 0.18118657 0.065619946
-0.08703674 0.3035209 0.23686834 0.11707065 -0.044424552 -0.006926861 0.24521278 0.3117773
0.59338164 -0.078661054 0.2586749 0.16709012 0.05268278 -0.1678151 0.08069264 0.31174123
0.1411057 -0.4190053 0.7788102 0.26384795 0.07050742 -0.19181538 -0.086610585 0.009705011
0.1769704 0.20784685 -0.02036057 0.12414056 -0.26585987 0.13903761 0.34920013 -0.24147712
-0.054527465 -0.05517663 0.06158426 0.080293015 -0.07328412 -0.3612399 0.15645893 0.30171514
-0.025336333 0.2550456 -0.15852602 -0.16709329 -0.17327967 0.7400212 0.025877405 0.19093287
0.31050557 0.032568853 0.0963337 -0.10743637 0.29820698 -0.33537692 -0.08980614 -0.11471696
0.3794554 0.37169757 0.16144636 0.14551796 -0.18728499 0.0052346974 0.03858874 0.24228697
-0.03723013 0.42460465 0.22713551 0.29677528 0.4679975 0.16646694 0.19815938 0.38619238
0.16639486 0.20557985 0.0030570533 -0.22840865 0.31059355 0.53399473 -0.3904992 -0.033643473
0.2421461 -0.15094061 -0.08601455 -0.078035764 -0.06748223 0.24398896 0.04618183 0.27060893
0.05374002 0.5104325 0.29623985 0.33815274 0.12322928 -0.01344447 0.27332383 -0.056373812
-0.16268878 0.19889297 0.19854625 -0.23638777 0.54634106 0.4684504 0.2998674 -0.18178587
-0.19408353 0.470628 0.24402396 -0.04886519 0.12537338 -0.22491291 0.46453786 -0.07982281
0.54352933 -0.02897113 0.06542979 0.37398157 0.06108949 0.22218665 -0.2349443 -0.016101073
0.0884937 0.12617563 0.10095563 -0.04815118 0.09102324 0.26710725 0.19964588 0.56299984
0.1384366 -0.090374745 -0.04806472 0.22302131 0.17797 0.16566636 -0.08604142 0.12169164
-0.31673297 0.3072573 -0.01704123 -0.0019163681 0.047219478 0.56368965 0.1803258 0.005884438
0.14218976 0.48965394 -0.27793545 0.02389604 0.38702387 0.36922336 0.15019223 0.18068816
0.25947997 0.23185158 0.3108097 0.37495705 0.29524475 0.19842081 -0.041068766 0.12043959
0.40437362 0.25441897 0.22285394 0.15215813 0.1292111 0.86397076 0.10536954 -0.057276763

bias_hh_l0 f4 [512]
00000000: c2cb 403e d365 b33d f122 643e 3dc5 e23e
00000010: dfe9 a63e 4fa6 9d3d a0fc b73e 4244 2bbd
00000020: a18f 2d3d 33cc 133d d468 343e 5f4c 063f
00000030: 4f3d 933d 0c6e 3e3f 4950 1c3e 6b9e af3e
00000040: 98fd a63d 9fc8 fd3c e077 6d3e 46e3 0d3d
00000050: 29aa f83d abbd fb3d 8a24 f13d dbf3 69bd
00000060: 6b69 ad3e 6aea 2abe 3795 0cbe 7afe 1abe
00000070: 56be 88be 100c 753e 0e22 2fbd 4684 04be
00000080: a9fa 77be 4f3f b03d 21ac 8b3e 7569 af3e
00000090: d48c 2dbe 2c75 4abe 5a45 8e3e e02c 6e3d
000000a0: f8a9 af3d c072 9b3e 5143 423e bed5 c33e
000000b0: 8838 603e d2e3 203e 0855 373e 14a3 a83d
000000c0: 790a e63d 07de d2be 4739 3abe 39ae 0fbe
000000d0: 23a8 4c3e 1963 2f3e 7d26 ffbd 1ce2 0dbd
000000e0: 0e3c 743e bf97 a2bd 510d 003d 90c1 1a3f
000000f0: 4c20 7abe 951d 92be 420a 823d 6cd4 153f
00000100: 8aec 923e bd3e b93c 47ac 7abc 5326 e43e
00000110: 806b 573e 76bd b83e c0eb 4c3d d6dc 933e
00000120: ada3 3e3d 71a5 a73e 1036 4fbd 6393 ed3d
00000130: e930 993e 3d60 683d c3a4 c73e f22e 293d
00000140: dabf 0f3e 7a43 fbbc bfae 643e 239a fd3e
00000150: a53f b03d 46cf d13d a313 053e 003d 393d
00000160: d840 aa3a 91f3 993e bd83 7e3e 41c3 983d
00000170: 8625 bfbd 6c65 9fbc 0a3e ab3d 20bb 943e
00000180: 2cd7 1e3f b226 8bbd 40f1 ba3e 961b 473e
00000190: 358e 403b 7127 50be a8de 5cbc e1d9 b53e
000001a0: ea41 8f3d e492 d4be ca41 433f f887 0c3e
000001b0: dd55 563d d2f4 a5bd 8f6a 2bbe a874 8e3d
000001c0: d678 9a3e 3c52 983e 66f6 1dbc fec7 a83c
000001d0: 6696 a1be f35d 773e 97c3 c43e 29c3 49be
000001e0: f02c b9bd b4b5 0bbd 5a0b 193e b237 1c3e
000001f0: 9881 3b3d 76ea aebe d587 e03d 4357 5c3e
00000200: 89bd 08bd f6ba 9e3e 6feb bfbc 8d5e 80bd
00000210: ba89 f9bd c66f 113f ea25 89bd 4e07 763e
00000220: 076e 813e 9873 a33d 0b2f 0e3e a11f eebd
00000230: 6ec6 ac3e cbeb a9be 4404 093b a39c b4bd
00000240: d9c4 d73e c8de b93e 5067 b43d 1204 613e
00000250: 64dc 3bbd dd48 f63b acb3 5a3d 9fe6 af3e
00000260: 3844 16bd 55d1 043f 170a 943e 3c42 4d3e
00000270: db4d c43e ed2e 6d3e a7c2 5a3e 271e b93e
00000280: 3918 253e c214 453e f062 ac3d 8ec0 56be
00000290: 5971 403e cd24 053f 203c 0abf 973b efbd
000002a0: e44a 5e3e 9ca3 8ebc d90d 8a3c 56f0 39bd
000002b0: a1a3 f7bd 395a 603e 549c 263e 5cbc 983e
000002c0: 5ee2 e83d d22f e03e 80c8 823e f9db a73e
000002d0: 6bde 113e 4711 19bd 33a1 453e 0c41 833d
000002e0: 26e9 2cbe 7aba 4c3e 2e45 0f3e 9fa1 4fbe
000002f0: dd1a 1a3f f829 023f 2e44 753e cec7 03be
00000300: 85c0 97be 2cb3 a83e a5e7 9a3e 2f6b 5bbd
00000310: 37a4 d5ba 5345 6abe 5605 df3e 7f4c 51bd
00000320: f0f5 1d3f 18a3 013c 0987 513d 4a02 d83e
00000330: c1e4 7cbd b46c 593e 68bb 1bbe 8620 0c3e
00000340: e7dc 963d 6886 fd3d 81fe 063d a4b4 f6bb
00000350: 0c6f 6db9 1f25 a13e a4dd 353e 2ac6 1e3f
00000360: d02e c63d 1368 26be bd39 d83c bfac 8a3e
00000370: 9467 fb3d b775 7d3e ea38 183d 8ffc de3c
00000380: 85ef d6be 2920 b03e fe85 76bc 66ff b93d
00000390: dde3 063e 213f 093f 971a 443e 28e6 53bc
000003a0: 18eb 3d3e 0bcf e93e 193d 3dbe 41b3 da3c
000003b0: 86c3 ae3e f2b8 a63e d45d 273e 491b a93e
000003c0: ba2a 373e 3750 1a3e 5b33 6d3e 533b a83e
000003d0: b177 893e b4c3 5b3e 9d19 afbd e5ea 013e
000003e0: c87e ef3e e020 703e 0f64 643e 07ef 8d3c
000003f0: 2c0a 143e 3a72 3b3f ede0 873d 2e92 24be
0.18827727 0.08759656 0.22278954 0.44291106 0.32600304 0.076977365 0.35934925 -0.041813143
0.042373303 0.03608341 0.17618114 0.52460283 0.07189428 0.7438667 0.15265001 0.3430055
0.08153838 0.030979453 0.2319026 0.034640573 0.121418305 0.12292036 0.117745474 -0.057117324
0.3386949 -0.16690984 -0.13728796 -0.15136138 -0.26707715 0.23930383 -0.042757086 -0.12941083
-0.24216713 0.08605825 0.2727976 0.34260145 -0.16948253 -0.1977126 0.27787286 0.058148265
0.08577341 0.30360985 0.18970992 0.3824901 0.21896565 0.15711907 0.1790353 0.0823423
0.11232466 -0.41185018 -0.18185912 -0.14031304 0.19986014 0.17127647 -0.12458513 -0.034639463
0.23851034 -0.079390995 0.0312627 0.604516 -0.24426383 -0.28538194 0.06349613 0.58527255
0.2869609 0.022612924 -0.015299863 0.4456049 0.21037102 0.36082047 0.050029516 0.28879422
0.046542812 0.3274341 -0.050588667 0.116003774 0.29920128 0.056732405 0.3899289 0.041304536
0.1403803 -0.030671824 0.22332285 0.4953166 0.08605889 0.102446124 0.12995772 0.04522419
0.0012989296 0.3006864 0.24854942 0.07459117 -0.09333329 -0.019457541 0.083614424 0.29049015
0.62047076 -0.0679449 0.36512184 0.19444117 0.0029381637 -0.20327546 -0.01348082 0.3551779
0.06994994 -0.4151832 0.7627226 0.13723743 0.05232798 -0.081033364 -0.16739868 0.06955844
0.30170316 0.2975024 -0.0096412655 0.020603176 -0.31560057 0.24156933 0.38430473 -0.19703354
-0.09041774 -0.034108832 0.14945737 0.15255621 0.045777887 -0.34163254 0.10963408 0.21517663
-0.03338388 0.31002015 -0.023427693 -0.06268034 -0.121844724 0.5681118 -0.06696685 0.24026224
0.25279257 0.07981032 0.13885133 -0.116271265 0.3374514 -0.33187708 0.0020907084 -0.088189386
0.4214237 0.3630278 0.08808768 0.21974209 -0.045864478 0.00751601 0.053394005 0.34355637
-0.036686152 0.51881915 0.28913948 0.20044798 0.3834065 0.23162432 0.21363316 0.36155817
0.16122521 0.192462 0.08417308 -0.20971891 0.18793239 0.5200928 -0.53997993 -0.11681288
0.21708256 -0.017412 0.016852306 -0.045395218 -0.120917566 0.21909417 0.16270572 0.29831207
0.11371301 0.43786484 0.25543594 0.32785013 0.14245002 -0.037369993 0.19299774 0.06408891
-0.16885814 0.1999301 0.13991234 -0.20276497 0.6019724 0.5084529 0.2395179 -0.12869188
-0.29639068 0.32949197 0.30254856 -0.053569015 -0.001629955 -0.22878008 0.43558758 -0.051098343
0.61703396 0.00791242 0.05115417 0.42189246 -0.061741594 0.21232873 -0.15208209 0.13684282
0.073663525 0.123791516 0.032957558 -0.0075288583 -0.0002264345 0.31473634 0.1776033 0.62021124
0.096768975 -0.16250639 0.02639472 0.2708492 0.12275615 0.24751936 0.037163652 0.027220039
-0.41979614 0.34399536 -0.015046595 0.090819165 0.1317286 0.5361195 0.19150768 -0.0129332915
0.18546712 0.45665774 -0.18480338 0.026696803 0.34133548 0.32562977 0.16344386 0.3302863
0.17887393 0.15069662 0.23164122 0.3285776 0.2684913 0.21461374 -0.08549807 0.12687261
0.46776414 0.23450041 0.22303794 0.017325891 0.14457005 0.7322117 0.06634698 -0.16071388

weight_ih_l1 f4 [512, 128]
00000000: e8f9 7abd 0049 8dbc a2a7 3e3d ff86 a2bd
00000010: 54c0 77bd 402b c63c 00e9 c3ba cece 3b3d
00000020: 46a1 35bd 29b8 9a3d c419 f83c d8a9 1fbd
00000030: a83e abbc 3230 4d3d 786b 1f3c 0a9f 563d
00000040: 0076 bfbb 8098 5eba 24de de3c ec50 8a3c
00000050: 7882 103d 18f1 a63c 5765 973d f864 c13c
00000060: 5e1e b2bd 7e80 aabd a0a9 093c 7edf 533d
00000070: 9a38 5e3d 80fd 67bb 800d 6abc 5692 233d
00000080: ca1c 793d 7240 473d 387f c6bc 9754 9cbd
00000090: 046d a2bc 0881 fc3c 4640 21bd 680a 2e3c
000000a0: 62f9 23bd 0025 9f39 e2bd 92bd 4a5b 36bd
000000b0: 6fea 4dbd 4c79 85bc e86a 583c cb2d 9d3d
000000c0: faba 3b3d 508f f43b bedf 733d 90a3 9fbc
000000d0: 6378 9abd 30b8 983b 8472 ee3c f288 673d
000000e0: 997a 47bd 5a62 453d c002 afbc 3601 25bd
000000f0: c12e a03d ec50 0f3d 4c9e b9bc 0820 99bd
00000100: 1cff f4bc a162 943d d35d 63bd d011 e8bb
00000110: 60de dbbb 965a 5a3d d64f 573d 676c 8bbd
00000120: 5be6 58bd 311a a0bd 6109 05bd 94e2 66bd
00000130: 627b 013d ba97 91bd 4f51 17bd 686f 17bc
00000140: 7235 0ebd 71e7 b33d 1c9e 86bc 4774 7ebd
00000150: 1dd3 923d 667d 1c3d 767e 1cbd 6099 0cbb
00000160: 4041 9eba ca5f 663d f5be 933d 0d06 a6bd
00000170: 8015 f0bc 4286 7a3d fe22 163d b0d5 01bd
00000180: c78c 8e3d d866 7d3c 6a1d 15bd 6c4e c93c
00000190: d1b8 a23d b501 8dbd 56d2 98bd d42f ae3c
000001a0: eda8 89bd 05fa a8bd efdf 8f3d a74d 87bd
000001b0: 15f0 a6bd e689 99bd 38bf b6bc fee2 78bd
000001c0: 3908 00bd 6686 8ebd 806a 3dbc fa73 d5bc
000001d0: b752 8abd db35 6fbd 0841 26bd 521b 053d
000001e0: 7003 103c 26d9 6cbd 2221 55bd 1251 acbd
000001f0: 6027 ac3b dbd3 31bd 86fa 583d e02b 6dbd
00000200: 7767 883d f370 b33d 3d16 b43d 5613 6c3d
00000210: 947f f63c 3c8f b03c 6f05 8f3d f653 04bd
00000220: c00d 57bb 54c1 a53c 0ad3 6a3d c90d 9d3d
00000230: 8aeb 93bd 6509 9e3d 00be 973a 43d8 a93d
00000240: 665a 6e3d 060f 2b3d f6e4 4cbd ef23 9b3d
00000250: d45f b33c bcc6 c6bc c884 c73c ea98 533d
00000260: c843 d63c 5820 62bd f56b 91bd 3800 b6bc
00000270: b4c4 a8bd 7216 b3bd 3608 13bd 1c0a 9f3c
00000280: 53ed 58bd 5696 adbd fc49 b0bc 3856 8ebd
00000290: c9ac 62bd ff02 853d a26a 75bd 1e12 b3bd
000002a0: 5a61 443d c8c8 97bd aa0e 9dbd 4fd0 44bd
000002b0: 9460 a9bd e84a d83c f831 cebc 04b8 2abd
000002c0: 55ef 8f3d 0265 233d 8815 8d3c 64d6 e13c
000002d0: ca54 5abd bad3 3b3d 7342 903d 4322 a63d
000002e0: 83ee b43d 08c9 3d3c 30a3 c4bb 5acd 473d
000002f0: c0ab ccbc 70e9 fcbb 804d b5bc 53e9 903d
00000300: 22eb 96bd b484 ed3c d630 6a3d 8a01 9abd
00000310: ff38 7fbd d012 bcbb 08ac cebc b78f 863d
00000320: ea2d 7c3d f7b8 39bd 73ee 4ebd a099 13bc
00000330: 761b 08bd dce7 883c f3a0 60bd 071f 52bd
00000340: beca 383d f489 87bc 5d7c 93bd 5869 f3bc
00000350: 482f 623c 4ecf 343d 6896 153d 6a99 32bd
00000360: ff45 15bd 344d a4bd 8873 a7bc 82df 18bd
00000370: 60ab 6fbc acef 973c 40c4 48bb 6358 83bd
00000380: aa40 603d bccf 153d e73f 7dbd ebd9 a8bd
00000390: 1b99 893d 3b77 b33d 200e fb3c 4071 6d3b
000003a0: 769a aabd 6893 70bc 2a84 383d 4a6f 16bd
000003b0: 55b3 9cbd 16e8 0bbd d27b 773d 51ec 8dbd
000003c0: 7ab5 abbd 0c8f fd3c 4a18 513d 7adf 74bd
000003d0: 8198 9b3d 71f4 85bd 0a02 283d 31df a03d
000003e0: 9f9e 993d d4ed 96bd 600d 4bbd 7f4c 5ebd
000003f0: be13 79bd a729 88bd 83d8 8a3d 402f fb3a
-0.061273485 -0.017246723 0.046546586 -0.07935905 -0.060486153 0.024190545 -0.0014946759 0.04585152
-0.044343255 0.07554657 0.030285724 -0.038980335 -0.0209039 0.05009479 0.009730212 0.052397765
-0.005842924 -0.0008491352 0.027205534 0.01688429 0.035280675 0.020378634 0.07392376 0.023607716
-0.08697198 -0.08325289 0.008402258 0.05172681 0.0542532 -0.00353989 -0.014285445 0.03993448
0.06081847 0.048645444 -0.024230585 -0.07633322 -0.019827373 0.030823246 -0.039367937 0.010622598
-0.04003275 0.0003035441 -0.071651235 -0.044520654 -0.0502724 -0.01629319 0.013209082 0.0767475
0.04583261 0.0074633732 0.05953955 -0.019487172 -0.07542493 0.0046606287 0.02910734 0.056527086
-0.048700903 0.0481895 -0.021363616 -0.040284358 0.078214176 0.034989282 -0.02265849 -0.074768126
-0.029906802 0.072453745 -0.0555094 -0.0070822015 -0.006709859 0.053309046 0.05256637 -0.068077855
-0.05295406 -0.078174956 -0.032479648 -0.056368425 0.031611808 -0.07109018 -0.036942776 -0.00924287
-0.03471894 0.08784378 -0.016432814 -0.06212261 0.07169173 0.038205527 -0.03820654 -0.0021453723
-0.0012073889 0.056243695 0.072141565 -0.08106623 -0.029307127 0.061163194 0.036654465 -0.03169793
0.06960445 0.015466414 -0.036405005 0.024573527 0.07945407 -0.06885091 -0.074619934 0.02126304
-0.06721673 -0.082508124 0.07025134 -0.06606608 -0.08151261 -0.07497005 -0.022307977 -0.06076335
-0.03125784 -0.06959228 -0.011561036 -0.026056278 -0.06754058 -0.05840097 -0.040589362 0.032496758
0.008789882 -0.057824276 -0.05203355 -0.084139004 0.0052537173 -0.04341493 0.052973293 -0.05790317
0.06660359 0.08761778 0.08793304 0.057635628 0.03009013 0.021552674 0.06983458 -0.032306634
-0.0032814592 0.020233788 0.05733017 0.07668645 -0.0722266 0.077166356 0.001157701 0.08293202
0.05819168 0.041762374 -0.05002304 0.07575213 0.02189628 -0.024264686 0.024355307 0.051659502
0.026155367 -0.055206627 -0.07100669 -0.022216901 -0.08240643 -0.087445155 -0.035896502 0.019414
-0.052960705 -0.0847594 -0.021519653 -0.06950039 -0.055340562 0.06494712 -0.059916146 -0.0874369
0.047944404 -0.07411343 -0.076688126 -0.04805022 -0.08270374 0.026402906 -0.025170311 -0.041679397
0.07028071 0.03989125 0.017222181 0.02756805 -0.053303517 0.045856215 0.07043924 0.08112004
0.08834555 0.011583574 -0.006000899 0.048779823 -0.02498424 -0.0077182576 -0.022131681 0.07075753
-0.07369067 0.028993942 0.05717548 -0.07519825 -0.062310215 -0.0057395473 -0.025228515 0.0657038
0.061567225 -0.04534241 -0.05052037 -0.009008795 -0.033229314 0.016712122 -0.054840993 -0.05129912
0.045115225 -0.016545273 -0.07201455 -0.029713318 0.013805218 0.044143014 0.03652039 -0.04360334
-0.036443707 -0.08022538 -0.020440832 -0.03732253 -0.014628261 0.018546902 -0.0030634552 -0.06413343
0.05474917 0.036575064 -0.06182852 -0.082446896 0.06718656 0.08762976 0.030646384 0.0036230832
-0.08330242 -0.014683582 0.045047916 -0.036727227 -0.07651392 -0.03415688 0.06042082 -0.069298394
-0.08384223 0.030952 0.051048554 -0.059783436 0.07597447 -0.06540764 0.04101757 0.078550704
0.07500958 -0.07369581 -0.049573302 -0.05427217 -0.060809843 -0.066485696 0.067795776 0.0019163862

weight_hh_l1 f4 [512, 128]
00000000: a6fb 5f3d 9b76 ae3d 0660 233d f057 6c3c
00000010: 58d8 753c 6a69 8ebd d2aa 013d 0c76 9ebd
00000020: ca33 333d a58c 8a3d 090d 86bd f45d f03c
00000030: b215 3e3d 981b 6abd 881f 113c f93b ab3d
00000040: 19a7 a93d aea0 213d 3b8d a6bd e61f 37bd
00000050: 63ad 9b3d 38fd 29bd 16fc fcbc f597 51bd
00000060: 4249 5d3d fcb3 1dbd b199 b13d d6b5 8ebd
00000070: f069 acbd ef6a 8dbd 075b 9e3d b02a 833c
00000080: 9099 023c 8a33 96bd fe9c 6d3d 615c a03d
00000090: 508b c3bc ff73 9f3d 2ab7 5e3d c041 87bd
000000a0: 8806 dc3c 686e 9ebd 4294 81bd 02c3 4ebd
000000b0: 2dab 963d 96da 663d 884e 78bd 9cf5 cebc
000000c0: 7819 4dbc b694 103d 3f80 9e3d ef47 9bbd
000000d0: bcbb cbbc 1c52 29bd 02ea 263d 57f5 77bd
000000e0: 688b 4ebc 6ea5 1cbd e0a7 e43c 3024 b3bd
000000f0: a0c5 f93c 5afb 0c3d 5012 75bc dcb6 80bd
00000100: 80b9 f6bb 38d1 9fbc b01f ad3c 523d 2c3d
00000110: ff77 5bbd b7e1 973d aebf 53bd 2dcd a0bd
00000120: b86a 17bd 80d5 813a 26ef 08bd 409e 383b
00000130: b6a7 10bd fc08 f2bc e0a8 4f3c dc18 81bc
00000140: f019 e73b d637 473d 3f8e 07bd 0613 213d
00000150: 6454 4cbd ccd1 b83c ae0d 1a3d aca8 62bd
00000160: de02 073d 8b29 a13d b293 8bbd f239 303d
00000170: 00e0 d638 5cbb c63c dee5 503d 415f 41bd
00000180: 4c46 34bd f2e4 453d 00b6 85b9 93e6 a8bd
00000190: 0dc0 943d c739 4bbd ccf6 30bd 3143 933d
000001a0: 90cb 523c cc68 9abd 44b1 06bd 90c9 05bc
000001b0: 8d1a 943d 73bb 8cbd 39ed 0bbd a08f b23c
000001c0: a800 90bd 9460 f53c 3564 4dbd e2ef 4fbd
000001d0: cc0d 6cbd 5ae7 29bd 1739 893d 62d7 163d
000001e0: 649f b3bd 63f6 98bd a986 3fbd f8ed 393c
000001f0: a320 803d 34b5 d5bc 441f eb3c 9051 f23b
00000200: e054 78bc 5351 9d3d 0a98 753d 74aa e8bc
00000210: 0084 50bb 70c5 e33b 14ab e43c 2608 663d
00000220: 5ef8 3b3d 6119 843d 60a0 bfbc d5a8 63bd
00000230: 5074 153c 1011 fc3c f88d 95bd 4a5f a7bd
00000240: eaca 6ebd 7f3f 9ebd cfbd 29bd a526 64bd
00000250: 77e1 adbd 80fe 3dba 6557 993d e498 d13c
00000260: 0660 7e3d 40c8 fc3c 48c8 02bc b6ec 10bd
00000270: 179c 923d 9efa 9ebd 1095 cbbc e54a 9a3d
00000280: 2082 6a3c 2723 ab3d c0ea 613b 95a2 8c3d
00000290: ba9a 9dbd 4096 5abb bcdd 9dbc 88ec 96bd
000002a0: 9320 5abd 3949 99bd 80b7 3bba 2233 513d
000002b0: 8a35 3f3d 1f21 07bd a4e5 abbc 50bf 5e3c
000002c0: 7c85 12bd dc02 dc3c 9533 7bbd 7698 463d
000002d0: aef4 8abd d8da 4dbc afa8 843d 20ae 98bc
000002e0: 040e e23c a0ff 85bb 81fe 983d aa70 3b3d
000002f0: ce82 283d 55a2 40bd 83f9 11bd 73f9 b33d
00000300: 000e 323a 6e02 653d 21f0 00bd 5e9e 9dbd
00000310: 3189 ae3d 0026 d03b 80e7 cf3a 3888 cfbc
00000320: 0003 03ba c5f5 8d3d 543b 55bd 38d1 54bc
00000330: 2294 7cbd 83f9 1bbd 1f76 a3bd cc73 c0bc
00000340: 021f 433d e0e5 093d 4c63 be3c a84a 4a3c
00000350: 4001 363c a5cd a33d bd84 993d 40af bf3c
00000360: 00d5 d23c 0823 9d3c 74f9 fc3c 10ca 2e3c
00000370: 982a 88bd 0711 39bd b01d a5bd e2af 5e3d
00000380: e7cf 86bd 4bb1 843d 60ea 85bd e6c7 68bd
00000390: 1a55 6bbd 4958 44bd f43d 73bd a2f7 4f3d
000003a0: b608 a5bd 6fea 943d 3e16 7d3d e849 45bd
000003b0: c416 a2bd 47af 913d e072 1cbb fc4c a53c
000003c0: 1ab1 1f3d 0a4a 7abd 200d 403b da21 423d
000003d0: 6e6f 333d 28fd 1ebc 3fbd b03d a4a7 cc3c
000003e0: 76f2 023d 4f21 1abd 7acd 313d 00f5 59ba
000003f0: c83a 283c cd29 8e3d a0a2 b8bb 090f 98bd
0.05468335 0.08518716 0.039886497 0.014425263 0.015005194 -0.069537 0.031657048 -0.077373594
0.04375056 0.06765107 -0.06545455 0.029341675 0.04640741 -0.05715522 0.008857615 0.08361048
0.082838245 0.039459877 -0.08132406 -0.044708155 0.0760143 -0.041501254 -0.030881923 -0.05117031
0.054024942 -0.038501725 0.086718924 -0.06968276 -0.084186435 -0.069051616 0.07732206 0.016011566
0.007971182 -0.07334049 0.058011048 0.0783012 -0.02387014 0.077857964 0.054373898 -0.06604338
0.026858583 -0.07735902 -0.06327106 -0.050478943 0.07356868 0.056360804 -0.06062177 -0.0252636
-0.012518279 0.03529807 0.07739305 -0.075820796 -0.024869792 -0.04133807 0.04075051 -0.06053671
-0.012606479 -0.038243704 0.02791208 -0.087471366 0.030489743 0.034419395 -0.014957979 -0.06284878
-0.0075294375 -0.019508943 0.021133274 0.042050667 -0.053581234 0.074160986 -0.051696472 -0.07851634
-0.03696701 0.0009905547 -0.033431195 0.0028170496 -0.03531619 -0.0295453 0.01267454 -0.015758924
0.0070526525 0.048637234 -0.03309464 0.039324783 -0.04988517 0.022560976 0.037610702 -0.05533664
0.03296172 0.07869252 -0.0681528 0.04302401 0.000102460384 0.024259262 0.05100047 -0.04720998
-0.044012353 0.048314042 -0.00025503337 -0.082471035 0.07263193 -0.049615648 -0.043204114 0.0719055
0.012865916 -0.0753952 -0.032883897 -0.008165732 0.07231627 -0.068716906 -0.03416178 0.021797001
-0.07031375 0.029953279 -0.050144393 -0.05076588 -0.057630345 -0.0414804 0.06700342 0.0368265
-0.08770636 -0.074688695 -0.04675928 0.01134824 0.06256225 -0.026087381 0.028701432 0.007394977
-0.0151569545 0.07681527 0.05995945 -0.02840159 -0.003181696 0.0069510266 0.027913608 0.056160115
0.04589116 0.06450153 -0.023391902 -0.055580933 0.009121969 0.030769855 -0.07302469 -0.08172472
-0.058298983 -0.07726955 -0.04144078 -0.055700917 -0.0849027 -0.0007247701 0.07487372 0.0255856
0.062103294 0.030857205 -0.007982321 -0.035381995 0.07158678 -0.07762645 -0.024851352 0.07533816
0.014313251 0.08356314 0.0034472197 0.068669476 -0.076955274 -0.0033353716 -0.01927077 -0.073693335
-0.05325372 -0.07484669 -0.00071608275 0.051074155 0.04668192 -0.03299057 -0.020983525 0.013595417
-0.035771832 0.026856832 -0.06132849 0.04848524 -0.0678495 -0.012564383 0.06477486 -0.018637717
0.027594574 -0.0040893108 0.07470418 0.04576174 0.04114037 -0.047029812 -0.035638344 0.08787813
0.00067922473 0.05591052 -0.031479005 -0.07696222 0.08522261 0.006352186 0.0015861839 -0.025333509
-0.00049977005 0.069316424 -0.052058533 -0.012989335 -0.061664708 -0.03807975 -0.07981514 -0.023492716
0.047636993 0.03366649 0.023240708 0.012346901 0.011108696 0.07998208 0.07496021 0.023398995
0.025736332 0.019181743 0.030880667 0.010668293 -0.06648749 -0.045182254 -0.08062303 0.054366954
-0.06582623 0.064791285 -0.06538844 -0.056831263 -0.057454206 -0.047935758 -0.059385255 0.05077327
-0.08058302 0.07271277 0.06178879 -0.048166186 -0.079144984 0.071135096 -0.0023872182 0.02017831
0.038987257 -0.061105765 0.0029304698 0.047395565 0.04380744 -0.009703912 0.08629846 0.024982281
0.03196951 -0.03762942 0.04340885 -0.0008314401 0.010267921 0.069415666 -0.005634621 -0.07424743

bias_ih_l1 f4 [512]
00000000: 1853 cdbc de48 67bd 0e19 3b3d 9cca dfbc
00000010: 134b 8abd e70e 89bd eec7 77bd a020 2b3c
00000020: 1ee4 5c3d f5cf 02bd 0eac 2c3d e13e b23d
00000030: 2e11 6e3d 80ed 093d 1d00 26bd 4171 62bd
00000040: c865 003d d7bc 893d e103 893d 3000 b2bd
00000050: f016 943b 108c 95bb f0b3 713c 95b2 b13d
00000060: 0293 6f3d bef5 a7bd e76b 8b3d b78c 8d3d
00000070: fc16 b8bc e803 c23c 4a9b 673d de4e 663d
00000080: 0065 ad3c 7e85 4a3d 61ea 843d 6aa7 1d3d
00000090: d1b9 4ebd 589f e3bc 462b 84bd b065 1bbc
000000a0: 6016 76bd 4029 ee3c eabb 043d 2a7c 093d
000000b0: c72c 2fbd 02a8 593d 8034 4a3c e053 95bd
000000c0: 427c 7fbd a68a b2bd 726d 6b3d 7bc7 4ebd
000000d0: 6553 9ebd da00 febc b020 cd3c c0d0 f33b
000000e0: 494c 25bd 5897 ab3c 4547 a4bd 3cef c93c
000000f0: 5824 123d 8796 863d 7294 193d cf66 7ebd
00000100: ba5c 01bd 8a8e f1bc ed3f b3bd be81 8cbd
00000110: 188a 0bbc f578 a8bd 2718 8a3d 277d a8bd
00000120: 8c67 8f3c 2a3e 4bbd 90bf 713c dedc 51bd
00000130: 8b99 8b3d c21c 6ebd 42f2 0e3d f4c9 aabc
00000140: aa35 043d 8922 943d 5bfe a83d 6cbd 053d
00000150: d8e4 97bd b016 01bc a853 18bc 46f6 8fbd
00000160: 2da0 49bd 65e5 883d cc9e e93c 00a6 43b9
00000170: 60d7 48bb 58a0 673c 7b5a 99bd 756f 35bd
00000180: 773f b0bd 6ca3 e43c 60af 74bd 0086 4dbb
00000190: c0b4 1dbb e0ae 723b 16ef 71bd c8a4 a8bd
000001a0: 7370 8b3d 2090 4fbd f0d4 f1bb abe8 38bd
000001b0: 3fd9 89bd 2091 92bd 7b81 a63d 8c7f b43c
000001c0: 1f86 9e3d 953a 0abd ee75 ecbc 78f4 2fbc
000001d0: e50f 9e3d e6ff 15bd fe9c f1bc 101f 843c
000001e0: 7015 8fbb 00eb 53bd ef79 863d 1064 0fbc
000001f0: dac6 733d 7065 a2bd b027 94bd 883e f93c
00000200: ca71 f6bc e04f 14bc 9f18 813d d2f6 0a3d
00000210: 3aa4 563d c6da 523d f1b0 39bd a1c1 a53d
00000220: fca2 b13c 06a2 5b3d b512 b43d d060 93bc
00000230: ece5 91bd b65b 193d 800b 67bc 388e 523c
00000240: faf0 243d a4ea 73bd 6c0d 103d 1c1e d8bc
00000250: 5843 b1bd af9f 9ebd 60bc 993c 8954 ab3d
00000260: c01e 4a3b 3406 43bd 0b2e a0bd 824a 663d
00000270: 2f65 9f3d 807c 45bd 2842 83bd f3f0 6bbd
00000280: d53b 6dbd 1f80 a73d ce75 b2bd 6b34 a1bd
00000290: 31cc 86bd cd86 9c3d 3c51 a3bc 1f1e 9bbd
000002a0: f051 06bd c8c0 703c d07c 1dbc 96f7 a5bd
000002b0: 15f5 b33d 8599 8abd a7a5 24bd a5c9 8f3d
000002c0: cef4 133d 988b 27bd 8b18 983d 40d1 5c3c
000002d0: a8ed 1fbc cb4d 90bd 3eef abbd 1e10 443d
000002e0: b8b4 95bd fece 8bbd a0f4 4e3c d7cb 60bd
000002f0: b60c 363d c887 d23c 801f bbbc 004d aabd
00000300: 5ab2 aabd 8f9d abbd f6c2 37bd 5545 3dbd
00000310: 1e4a 6dbd 63c4 39bd 4304 913d b834 90bd
00000320: 4dec 883d ac30 ab3c 0cbd d2bc bd7b 38bd
00000330: a624 6d3d c03d 16bc b26c 80bd 9630 b1bd
00000340: 56a6 81bd bdc7 b03d 3b08 a73d 48b3 97bd
00000350: 6c80 d43c ea7e e9bc c3cd 5abd d44e 90bd
00000360: 56a6 093d ddbd 10bd 9c46 f6bc 4028 113b
00000370: 641a 89bc 7287 613d df76 813d e5bc 983d
00000380: 88a3 5dbc 4048 15bd bafd 283d 129f 4c3d
00000390: 5cac b43c 0089 e2b9 2c80 96bd 034d 89bd
000003a0: ce6a 86bd 22dc 4b3d a7b4 b1bd 4411 9abd
000003b0: 8a37 603d 34a2 e93c 758c a03d 025c a8bd
000003c0: b9fb aabd 770d 3ebd 1251 5c3d d7fe 903d
000003d0: 0900 913d 7c46 a83c 5ce6 31bd cff2 29bd
000003e0: 6b52 51bd 3ab1 453d c282 313d 80b9 263a
000003f0: 7084 cd3b 105c ed3b e99c 44bd 033f 9bbd
-0.025064036 -0.056465976 0.04567819 -0.027318291 -0.067526005 -0.066922955 -0.060493402 0.01044479
0.053928487 -0.031936605 0.04215627 0.087033994 0.058121853 0.033673763 -0.04052745 -0.05528379
0.031347066 0.067254715 0.06690193 -0.08691442 0.004519336 -0.004563816 0.014752373 0.0867664
0.058489807 -0.082011685 0.0680769 0.06911605 -0.022471897 0.023683503 0.05654458 0.056227557
0.021166325 0.049443714 0.06490017 0.038489737 -0.050470177 -0.027785942 -0.06453566 -0.009484693
-0.060079932 0.029072404 0.03240577 0.033565678 -0.042767312 0.05313874 0.012341619 -0.072913885
-0.06237436 -0.08717851 0.057477422 -0.05048321 -0.0773075 -0.031006265 0.02504 0.0074406564
-0.040355954 0.02094619 -0.08021406 0.024650209 0.03567919 0.065716796 0.037495084 -0.062109765
-0.03158257 -0.029486913 -0.08752427 -0.06860684 -0.008516811 -0.08226196 0.06742888 -0.08226996
0.01750543 -0.04961983 0.014755145 -0.051236026 0.06816395 -0.058132894 0.034899004 -0.020848252
0.03227774 0.072331496 0.082516395 0.03265135 -0.07416695 -0.007878944 -0.009297289 -0.07029395
-0.04922502 0.066843785 0.028518103 -0.00018658489 -0.0030645952 0.01413735 -0.07487961 -0.044295747
-0.08605855 0.027909957 -0.059737563 -0.0031360388 -0.0024064034 0.0037030503 -0.0590659 -0.082345545
0.06808557 -0.050674558 -0.0073801205 -0.045143764 -0.067308895 -0.07156587 0.08130165 0.022033475
0.07740425 -0.033747274 -0.028864827 -0.010739438 0.077178754 -0.036620997 -0.029493805 0.016128093
-0.004366569 -0.051737785 0.06566226 -0.008751884 0.05951581 -0.07929504 -0.07234132 0.030425325
-0.030083556 -0.009052247 0.06303524 0.033926792 0.052402712 0.05147817 -0.04533476 0.080935724
0.021684162 0.053621314 0.087926306 -0.0179905 -0.07123932 0.037440978 -0.014101863 0.01285129
0.040268876 -0.059549943 0.03516905 -0.026381545 -0.08655423 -0.07745301 0.018766582 0.08365733
0.0030841082 -0.047613338 -0.07821282 0.0562234 0.07782971 -0.048214436 -0.06409103 -0.057602834
-0.05791839 0.08178734 -0.08713876 -0.07871326 -0.06581915 0.07642899 -0.019936197 -0.075741045
-0.032792985 0.0146944 -0.009612277 -0.08103864 0.0878698 -0.06767563 -0.04019704 0.070208825
0.036122136 -0.04090461 0.07426556 0.013477623 -0.0097612515 -0.07046088 -0.08395241 0.047866933
-0.0730986 -0.0682659 0.012631565 -0.054881897 0.044445716 0.025699511 -0.022842169 -0.08315468
-0.08334799 -0.08379661 -0.044863664 -0.0462087 -0.05793201 -0.045353305 0.07080891 -0.07041305
0.06685696 0.020897232 -0.02572491 -0.04503988 0.05789628 -0.009169996 -0.06270732 -0.08651845
-0.06330554 0.08631847 0.08155867 -0.07407242 0.025940143 -0.0285029 -0.053418886 -0.07046285
0.033605896 -0.035337318 -0.030062966 0.0022149235 -0.016736217 0.05506081 0.06321501 0.07457904
-0.013527758 -0.036445856 0.041257598 0.04995639 0.022054844 -0.00043208152 -0.073486656 -0.06704142
-0.0656334 0.049770482 -0.08677035 -0.075228244 0.054740466 0.028519727 0.0783929 -0.08220674
-0.083487935 -0.04639956 0.053788252 0.07079857 0.07080085 0.020541422 -0.04343258 -0.041491326
-0.05110399 0.04826472 0.04333759 0.0006360039 0.0062718913 0.0072436407 -0.048001204 -0.07580378

bias_hh_l1 f4 [512]
00000000: d645 283d db1e 99bd ccb2 c43c 0362 a7bd
00000010: 19af 823d 152f 56bd 0823 4bbd 8036 d5bc
00000020: 1687 6b3d e9af 9b3d 90e0 d33b d311 9f3d
00000030: 4015 27bc 3c7c e6bc 0766 8bbd 166e e3bc
00000040: e3ea 8cbd 68c7 6dbc ea39 2d3d 6b2b 8d3d
00000050: 6cf7 a5bc e611 33bd 0032 c9b9 c006 dcba
00000060: 95ba 933d 4d47 87bd 8494 a2bd b7d1 8a3d
00000070: 5815 22bc b009 d03b 550e 9c3d 9c22 58bd
00000080: 688b 113c 53f9 96bd e251 783d e170 8e3d
00000090: d961 26bd 7065 2ebc b137 98bd 2e25 4f3d
000000a0: 7215 09bd a14e 44bd b0f1 9abc 91b2 a63d
000000b0: b9a5 8f3d d9c7 a7bd 1be0 8d3d c04e d13a
000000c0: c095 f6bb a22a 2c3d 1d74 893d 067d 413d
000000d0: 003d 46bc 8c84 f63c 12cc 2e3d 73b4 943d
000000e0: 5ac4 a9bd 6c28 99bc 91a7 2cbd af36 1fbd
000000f0: 9cd3 bcbc ae85 99bd 20f2 99bb 5034 053c
00000100: 6378 7abd ea0a b1bd 0895 bb3c c0ef 743b
00000110: d1c0 1ebd d80d b6bc 58de 37bc 8c15 5abd
00000120: a4dc cfbc 10ac 00bd d877 07bc 5aeb 4d3d
00000130: 21af b13d 80e7 ffbb 1a53 043d 44fc c83c
00000140: 2630 24bd fe0f dcbc e1e4 8f3d 90de 1b3c
00000150: 354d b23d 4a90 d8bc cac2 83bd e069 b83c
00000160: de75 733d 6014 b03c 622d f9bc 12e8 463d
00000170: df85 a23d 409f 60bc f257 6cbd 5f2b aa3d
00000180: 0876 7c3c 20fb f3bb 5877 8cbd 8c35 aa3c
00000190: eb82 17bd a86b 76bd faad 5c3d dceb 12bd
000001a0: 9c2e a7bc 927e b3bd b49b ea3c 830d 11bd
000001b0: 3251 7abd 05b0 953d 5b59 32bd 9ed9 063d
000001c0: 7598 943d 1945 5dbd 2870 1b3c 9220 053d
000001d0: 68fd 38bc d741 ad3d 9134 ac3d 6cb5 87bc
000001e0: 586c 0e3d a5e0 8c3d a0d5 acbb 403c ceba
000001f0: aefa 5a3d 4845 0bbc 7170 b03d 3760 6fbd
00000200: b1b8 43bd e677 46bd 9d6c 8fbd 80a7 023d
00000210: c8d3 6cbc a243 79bd 1cb4 053d 6d65 883d
00000220: eca0 11bd 608b 443c a8c8 013d 3a21 533d
00000230: bfb8 8e3d e039 50bc 143e bb3c 3422 b1bc
00000240: 2732 9d3d 187b 8fbd a431 88bd 8a66 333d
00000250: e466 96bc 0020 78b9 9ab2 683d 9427 50bd
00000260: 728c 2f3d b5c4 a83d 38a7 4abc 0050 483c
00000270: d45d c5bc 7526 31bd a084 15bc 109c 0b3d
00000280: c124 893d ac0d 84bd a000 0a3d 61f1 54bd
00000290: 09af 8dbd 0125 ad3d 30f8 7bbc 8033 873c
000002a0: 2095 5e3b f39b 973d c368 8b3d 3824 1d3c
000002b0: 3eb1 95bd c33a 933d 40e1 0e3c 38bf 3dbd
000002c0: d0c4 1cbc 9282 6ebd f295 8cbd 5e4c a2bd
000002d0: d9fa 8d3d f4f4 91bc dffe 5abd 7da6 a73d
000002e0: afd4 923d e230 2d3d 3898 e03c 9a30 22bd
000002f0: d828 5abc a0f2 fdbc d083 f33c f7b5 a13d
00000300: 61be 9c3d 2612 3c3d f4af 153d e4d1 ec3c
00000310: db8c abbd d806 67bc e5c7 06bd e295 7bbd
00000320: 1a43 223d 1eea 563d cf7d 42bd 0716 b1bd
00000330: 2657 9dbd 5221 95bd f63e dabc 120d 85bd
00000340: ab9e a8bd 6890 8fbd ba12 6e3d 8824 2ebc
00000350: 9230 3e3d b3d8 0cbd fe08 61bd 23e1 81bd
00000360: 0954 50bd 7038 8ebd a332 8a3d 64db 92bd
00000370: 9631 683d 02ff 1abd 8424 c5bc bac2 1c3d
00000380: 9a5a a2bd 6a45 38bd 6a56 553d 7410 ed3c
00000390: e0bb 1d3c 9f0c 52bd f60b 6c3d 9a61 303d
000003a0: 9de1 a9bd 183e e83c fe5b 063d b021 a1bc
000003b0: 411c 41bd 0283 7f3d 488b 3fbd 270a 9bbd
000003c0: 8741 a43d 00a4 0abb 5cbc ef3c f7cf 873d
000003d0: 88ab 09bc 47b2 44bd 6ebb 103d a679 acbd
000003e0: a4ca 7cbd 6c6c d3bc 1026 31bc 66a3 e1bc
000003f0: dcc2 85bc eabe 0ebd dca1 983c fbfb ac3d
0.041082226 -0.07476588 0.024011038 -0.08172991 0.063810535 -0.052290995 -0.049593955 -0.026026964
0.057501875 0.076019116 0.006465979 0.077670716 -0.0101979375 -0.028135411 -0.068065695 -0.027762454
-0.068807386 -0.014512874 0.04229156 0.06893047 -0.020259582 -0.04371824 -0.0003837496 -0.001678668
0.07213322 -0.066053964 -0.07938483 0.06778281 -0.009892784 0.006348811 0.07619921 -0.05276738
0.008883335 -0.073717736 0.060624965 0.06955124 -0.04062066 -0.010644302 -0.07432497 0.050572567
-0.033467717 -0.04792655 -0.018914074 0.081395276 0.07014031 -0.08192415 0.0692751 0.0015968904
-0.007525176 0.042032845 0.067116 0.047238372 -0.0120995045 0.0300925 0.042675085 0.072609805
-0.08289404 -0.018696032 -0.04215199 -0.03887051 -0.023050122 -0.074962005 -0.004698053 0.008130148
-0.061149966 -0.0864466 0.022898212 0.0037374347 -0.038758103 -0.022223398 -0.0112224445 -0.053243205
-0.025373764 -0.03141409 -0.008268319 0.050273277 0.08675981 -0.0078095794 0.032305814 0.024534352
-0.04008498 -0.026863094 0.07026077 0.009513512 0.08706132 -0.02643599 -0.064336374 0.022511423
0.05943858 0.02149409 -0.030417148 0.048561163 0.0793569 -0.013709843 -0.05770106 0.08309054
0.015409 -0.007445708 -0.068587005 0.020777486 -0.036990087 -0.060161263 0.053876854 -0.035869464
-0.020407967 -0.08764376 0.028638698 -0.035413276 -0.06111259 0.07308964 -0.043542247 0.03292238
0.07255641 -0.054020975 0.009487189 0.032501765 -0.0112908855 0.084598236 0.08408464 -0.016566
0.034771293 0.06878785 -0.0052744895 -0.0015734509 0.053461723 -0.008500405 0.086151965 -0.058441367
-0.047783557 -0.048454188 -0.07003138 0.03189802 -0.014454789 -0.060855515 0.03264247 0.066599704
-0.035553858 0.01199612 0.0316855 0.05154536 0.06968831 -0.012709111 0.02285675 -0.021622755
0.076755814 -0.070059 -0.06650093 0.04379896 -0.018359609 -0.00023663044 0.056810953 -0.050818995
0.04285855 0.08240644 -0.01236897 0.012226105 -0.024092592 -0.043249566 -0.009125859 0.03408438
0.066964634 -0.0644792 0.033692002 -0.05198801 -0.06918151 0.084543236 -0.015378997 0.01650405
0.0033963397 0.07402792 0.06807091 0.009591155 -0.07309197 0.07188942 0.008720696 -0.04632494
-0.009568408 -0.05822999 -0.06864537 -0.07924722 0.06932611 -0.017816998 -0.05346572 0.08186052
0.071694724 0.042282946 0.027416334 -0.03959713 -0.013315402 -0.030999482 0.029725939 0.07896035
0.076534994 0.045915745 0.036544755 0.028908677 -0.083764754 -0.014100753 -0.032905478 -0.061422236
0.039614774 0.052469365 -0.04748326 -0.086467795 -0.07682638 -0.07281746 -0.02664135 -0.064966336
-0.082333885 -0.07009965 0.058123328 -0.010628827 0.04643304 -0.034386348 -0.054940216 -0.063417695
-0.050861392 -0.06944358 0.067479394 -0.07170752 0.056687914 -0.03784085 -0.024065264 0.038271643
-0.07927437 -0.044988073 0.052084364 0.02893851 0.009627312 -0.051281568 0.057628594 0.04306183
-0.082949854 0.028349921 0.032802574 -0.019669384 -0.047146086 0.0623808 -0.04676369 -0.07570296
0.08020311 -0.002115488 0.029264621 0.06631463 -0.008402713 -0.04802158 0.035334997 -0.0842164
-0.06171669 -0.025808536 -0.010812297 -0.027543735 -0.016328268 -0.03485004 0.018631868 0.08446499
