models/LSTM_model_4.pt (torch_old, 705168 bytes, 7 tensors)

weight_ih_l0 f4 [512, 186]
-0.0111723095 -0.07228974 -0.07033324 0.0123453075 0.05489074 0.0510994 -0.026840758 0.07601893
0.04202511 -0.0140988445 0.070335835 -0.0793892 0.07173944 0.02691148 0.08590057 0.026921015
0.070817806 0.013170858 -0.074956484 0.07796826 0.013172345 0.011930791 -0.08185574 -0.062147614
-0.05394248 0.075556375 0.049173523 -0.0801744 0.0014199866 0.0837926 0.035055164 0.08283992
0.042648844 0.07613222 0.043913536 0.0069579263 -0.06045592 0.0340613 -0.036255624 0.054067947
-0.04266376 -0.0369069 0.0040625073 -0.026926545 -0.04410887 -0.04661106 -0.06262108 -0.011605146
0.0705614 -0.05327523 -0.07582744 -0.011088887 0.092121445 -0.060576748 -0.0098289065 -0.0107466355
-0.04172169 -0.037263904 0.032816328 0.014883347 -0.0388475 -0.037570447 -0.061648943 -0.011154818
0.06222668 -0.093287654 0.048178975 0.04872265 0.023652488 -0.021660518 0.012554987 0.027047055
-0.06620848 -0.08207912 -0.08287386 -0.055929024 0.020975417 0.07646723 0.010317199 -0.048434373
-0.08644 0.062176265 0.077114224 -0.026501812 0.05776499 -0.07107355 -0.0456617 0.012894799
-0.041865632 0.015334532 0.04992397 0.05921449 0.081719205 -0.06942488 0.03033252 0.07907142
-0.05651167 -0.012936886 -0.044763744 -0.07071307 -0.031531204 0.00038601857 -0.046277337 -0.043893326
-0.052957032 0.045822136 -0.0077868914 -0.013887097 0.022857228 -0.05855603 -0.0089216065 -0.07575051
-0.028854176 0.07126451 -0.07769604 0.036875267 0.05363165 0.003115583 -0.0041293874 0.06593036
0.08104515 -0.053595588 -0.015560037 -0.04282907 -0.071211725 -0.054374434 0.07749438 0.032066453
0.028812088 0.05675218 0.08210576 0.054399528 -0.034465153 -0.044917855 0.052264 -0.059937667
0.012928493 0.008639345 0.045547724 -0.07792557 -0.027791029 -0.061761152 0.04788679 0.019323673
-0.020880323 -0.04509661 0.031055216 0.04299 0.0057361764 0.08651713 0.010708294 0.060136475
-0.021709135 -0.04091767 -0.0021956526 -0.03676039 -0.07590618 0.030535191 -0.0365296 0.06907794
0.033205114 -0.023362212 0.0857463 0.013445698 -0.051266115 -0.0148486085 0.026389161 0.018953085
-0.0018040846 -0.0018729965 0.039794136 -0.04291055 0.00095123093 -0.046357017 -0.08588286 -0.016651
-0.054979675 -0.035961356 0.06691512 -0.078436024 -0.08289958 -0.020831354 0.08202712 -0.06663763
-0.024206612 -0.06678245 -0.07772994 0.03767913 0.030737568 0.009293309 -0.06364664 0.033390917
0.012715358 -0.07579802 0.06331844 -0.011101073 -0.02020877 0.091275916 0.01589546 -0.07498304
0.052893627 0.06840464 -0.06409246 0.028218113 -0.01374646 0.026828468 -0.018680207 0.0710438
0.019533018 -0.011084968 0.018367412 -0.06332338 -0.010963917 0.04464384 -0.0026377223 -0.04192729
0.08319513 0.048339397 -0.08247263 0.075017445 -0.007566715 -0.03844415 0.0010049065 -0.064324066
0.06509325 0.0005811445 0.011322001 0.046088573 -0.0020317682 -0.054650124 0.05788963 0.033736024
0.008883974 0.0582438 -0.04529015 -0.042321503 -0.03604373 -0.021053055 -0.024535181 0.023684338
-0.053748347 -0.043736048 0.05595031 -0.0052156993 0.03765104 0.03622861 -0.03834924 -0.081068955
-0.045457788 0.032330222 0.08133507 -0.0674107 -0.015119756 0.07042704 -0.048276085 0.080587946
00000000: 100c 37bc a50c 94bd e00a 90bd f943 4a3c
00000010: 1dd5 603d 9b4d 513d 26e1 dbbc d0af 9b3d
00000020: 8622 2c3d d7fe 66bc 3c0c 903d ce96 a2bd
00000030: 21ec 923d 7775 dc3c a3ec af3d 7689 dc3c
00000040: ed08 913d 95ca 573c c982 99bd d3ad 9f3d
00000050: d2d0 573c 5d79 433c fba3 a7bd 7f8e 7ebd
00000060: caf2 5cbd 4dbd 9a3d 2d6a 493d 7a32 a4bd
00000070: d81e ba3a 749b ab3d 0196 0f3d faa7 a93d
00000080: 8eb0 2e3d 36eb 9b3d aede 333d 51ff e33b
00000090: a0a0 77bd dd83 0b3d c780 14bd 5a76 5d3d
000000a0: 32c0 2ebd b12b 17bd c81e 853b 0f95 dcbc
000000b0: 81ab 34bd 3deb 3ebd 7b3f 80bd 8323 3ebc
000000c0: 7f82 903d 2137 5abd 6b4b 9bbd 2aae 35bc
000000d0: 2baa bc3d 531f 78bd 6c09 21bc a812 30bc
000000e0: 5de4 2abd 09a2 18bd 6a6a 063d 48d9 733c
000000f0: 8e1e 1fbd 78e3 19bd 9a83 7cbd b3c2 36bc
00000100: 67e1 7e3d 990d bfbd 5157 453d 6791 473d
00000110: ddc2 c13c 6671 b1bc 6fb3 4d3c c991 dd3c
00000120: 5098 87bd 1919 a8bd c5b9 a9bd d515 65bd
00000130: a3d4 ab3c da9a 9c3d 7809 293c 1f63 46bd
00000140: 7407 b1bd 8aac 7e3d 10ee 9d3d 541a d9bc
00000150: fb9a 6c3d 028f 91bd c307 3bbd b544 533c
00000160: 4c7b 2bbd b03d 7b3c 147d 4c3d e58a 723d
00000170: 665c a73d a22e 8ebd e87b f83c 32f0 a13d
00000180: c878 67bd 3cf5 53bc 305a 37bd 04d2 90bd
00000190: dd26 01bd 8962 ca39 4e8d 3dbd 7dc9 33bd
000001a0: 79e9 58bd feaf 3b3d 2e29 ffbb b586 63bc
000001b0: 153f bb3c 73d8 6fbd ee2b 12bc 1523 9bbd
000001c0: 985f ecbc 21f3 913d 1a1f 9fbd 850a 173d
000001d0: dcac 5b3d cf2e 4c3b d04f 87bb 7f06 873d
000001e0: 00fb a53d 0c87 5bbd 87ef 7ebc 896d 2fbd
000001f0: 74d7 91bd bab7 5ebd 60b5 9e3d 1d58 033d
00000200: 5407 ec3c f974 683d 1127 a83d 0ad2 5e3d
00000210: 552b 0dbd c9fb 37bd c712 563d 3381 75bd
00000220: 08d2 533c 0a8c 0d3c 4090 3a3d 7197 9fbd
00000230: 03aa e3bc 43f9 7cbd f024 443d ae4c 9e3c
00000240: 360d abbc 39b7 38bd 8267 fe3c 4816 303d
00000250: 89f6 bb3b e52f b13d d771 2f3c aa51 763d
00000260: 5bd7 b1bc 4999 27bd f0e4 0fbb 1092 16bd
00000270: b374 9bbd f024 fa3c 10a0 15bd bc78 8d3d
00000280: 1602 083d 1c62 bfbc c29b af3d 584b 5c3c
00000290: 6bfc 51bd 9447 73bc 152e d83c 8043 9b3c
000002a0: 0977 ecba 557f f5ba 2dff 223d f9c2 2fbd
000002b0: 075c 793a dbe0 3dbd 5ae3 afbd ae67 88bc
000002c0: 5e32 61bd 374c 13bd cb0a 893d 11a3 a0bd
000002d0: 41c7 a9bd 84a6 aabc d6fd a73d 4f79 88bd
000002e0: f24c c6bc 3dc5 88bd e030 9fbd 6e55 1a3d
000002f0: 5acd fb3c f742 183c 2b59 82bd eac4 083d
00000300: 1454 503c fe3b 9bbd 19ad 813d 46e1 35bc
00000310: dd8c a5bc deee ba3d 3237 823c b590 99bd
00000320: fda6 583d bb17 8c3d e842 83bd ac29 e73c
00000330: d538 61bc 60c7 db3c 3c07 99bc 697f 913d
00000340: b503 a03c ba9d 35bc 4177 963c b0af 81bd
00000350: 00a2 33bc 76dc 363d a3dd 2cbb f3bb 2bbd
00000360: 3562 aa3d 88ff 453d 69e7 a8bd bfa2 993d
00000370: 35f2 f7bb 9d77 1dbd 11b7 833a 56bc 83bd
00000380: 9c4f 853d f257 183a ea7f 393c 5fc7 3c3d
00000390: 6a27 05bb cfd8 5fbd ad1d 6d3d c92e 0a3d
000003a0: 168e 113c 0d91 6e3d 2a82 39bd 5059 2dbd
000003b0: 97a2 13bd 7577 acbc 01fe c8bc a805 c23c
000003c0: 3a27 5cbd 9224 33bd 272c 653d 75e8 aabb
000003d0: fa37 1a3d 7364 143d 1814 1dbd 7b07 a6bd
000003e0: f231 3abd b26c 043d 0093 a63d 9f0e 8abd
000003f0: dab8 77bc 0d3c 903d 25bd 45bd 4b0b a53d

weight_hh_l0 f4 [512, 128]
0.02855044 -0.0016998115 0.08184087 -0.033858903 0.037708133 -0.041006744 -0.046463277 0.065059364
-0.083785765 0.044820752 0.036145683 0.0080953725 -0.05047903 -0.048648696 0.01224333 -0.042659547
-0.05870121 -0.049013834 -0.035559077 0.03688998 -0.0494184 -0.006980144 0.083843 -0.022847528
-0.06882847 -0.018770825 0.049942803 0.03261719 -0.06440232 0.072871804 -0.05793048 0.05619123
0.05500686 0.083277225 -0.06632476 -0.02487478 -0.0092457635 -0.0010012779 0.0093670115 -0.012413178
0.080089875 0.02664423 -0.075029835 -0.085847214 0.056683123 0.038900115 -0.015997512 -0.08842839
-0.009262323 -0.023175549 0.022527294 0.024592763 0.055240326 0.056528166 -0.012563797 0.055517837
-0.06683602 -0.0689258 -0.051802985 0.04352261 0.08649766 0.009051416 -0.029675322 0.05218049
0.06024331 -0.06679878 0.038251106 -0.041565325 -0.08118253 0.04835118 0.040438376 -0.083213724
-0.0023155625 0.010697345 -0.016900517 -0.056951117 0.059608098 0.062238082 -0.08602475 0.023576833
0.021315327 -0.045608062 0.036150634 -0.06839066 -0.037054434 -0.08075987 -0.050933696 -0.039101038
0.047533132 0.07024089 -0.06300821 0.019244283 -0.05221431 -0.002483561 -0.042316098 0.07044298
0.07819472 0.06979081 -0.011597137 -0.079208046 -0.0055472143 -0.08579671 0.032476015 0.0535308
-0.039514415 0.000776169 0.06297308 0.014996445 0.0526825 -0.047259253 -0.08436738 -0.004042465
0.020228956 -0.071877345 -0.08576376 0.047428045 -0.045610063 0.05323134 -0.07443271 -0.050616384
-0.0020434186 -0.005413843 -0.025825834 0.030681103 -0.08443364 0.044175185 0.015804859 0.048529606
-0.061882854 -0.036605444 -0.051149916 0.057109926 -0.05380219 0.06721616 0.08043487 -0.03634697
-0.03719563 -0.026691841 -0.041673485 0.07721669 -0.040921845 -0.08748501 0.06397795 -0.070946135
-0.02408086 0.023205744 -0.04444171 0.008341948 0.025995372 -0.026774103 0.07970023 -0.017678587
0.036350913 0.063935824 -0.020574573 0.029582258 0.037522025 0.07862072 -0.008416268 -0.03567793
-0.07607541 -0.06834739 0.0006728836 0.08400792 0.060283013 0.059319537 0.02928604 0.05508467
-0.0006058092 0.046713285 0.0653207 -0.0175664 0.05062794 0.07365601 -0.03078422 -0.09452348
0.025993578 0.03053267 0.013344377 0.018442258 0.057820376 -0.06762016 0.024623862 -0.07490076
-0.08540475 0.00466358 0.08625246 0.031320486 -0.031171411 -0.022050118 0.051438615 -0.07028742
0.06974585 -0.014206853 0.006653166 0.06646869 -0.0782063 -0.024129199 -0.062163986 -0.02918454
0.07360463 -0.025986234 0.029173741 0.07027008 -0.052472148 0.048313424 -0.008189386 0.060573075
0.07824724 -0.032769494 -0.04856253 -0.076273054 -0.040979456 -0.06177214 -0.033403166 0.029015359
0.0029102317 -0.044191293 -0.06565723 0.032576535 -0.030631656 -0.057223935 -0.078217976 -0.05616359
0.053498458 -0.0801972 -0.0047982116 -0.07959893 -0.032824513 0.05140797 -0.050149538 0.04378328
-0.038311932 0.011888435 -0.0040095085 0.036339004 -0.087644406 0.040486384 -0.075325206 -0.06560091
0.07895522 -0.01618391 -0.03184589 -0.033989795 0.04420097 0.020675434 0.013110424 0.036381032
0.05343945 -0.067996144 -0.046900727 0.014525092 -0.06391252 -0.009416691 -0.07033422 0.04578546
00000000: 9de2 e93c 36cc deba 309c a73d a2af 0abd
00000010: d873 1a3d b0f6 27bd 4750 3ebd d83d 853d
00000020: df97 abbd f795 373d 7f0d 143d 74a2 043c
00000030: 19c3 4ebd db43 47bd 3f98 483c c7bb 2ebd
00000040: ae70 70bd bbc2 48bd 65a6 11bd f319 173d
00000050: f36a 4abd b1b9 e4bb e1b5 ab3d bd2a bbbc
00000060: f1f5 8cbd 46c5 99bc d390 4c3d 9a99 053d
00000070: 5de5 83bd d03d 953d 8348 6dbd c628 663d
00000080: e04e 613d 408d aa3d 47d5 87bd 32c6 cbbc
00000090: 8b7b 17bc 503d 83ba 1878 193c a460 4bbc
000000a0: 2906 a43d 0045 da3c 3ea9 99bd aad0 afbd
000000b0: 902c 683d ba55 1f3d 370d 83bc f219 b5bd
000000c0: 00c1 17bc a6da bdbc 298b b83c c376 c93c
000000d0: ae43 623d 148a 673d 62d8 4dbc ac66 633d
000000e0: 53e1 88bd f828 8dbd 5e2f 54bd c444 323d
000000f0: af25 b13d 644c 143c a919 f3bc 36bb 553d
00000100: b0c1 763d cccd 88bd 31ad 1c3d 6740 2abd
00000110: 0743 a6bd e30b 463d b6a2 253d f56b aabd
00000120: b1c0 17bb eb43 2f3c f472 8abc 9345 69bd
00000130: 9f27 743d 5ced 7e3d be2d b0bd 3424 c13c
00000140: 7b9d ae3c 85cf 3abd b012 143d 6710 8cbd
00000150: 64c6 17bd 6e65 a5bd da9f 50bd 6928 20bd
00000160: 1ab2 423d 75da 8f3d 730a 81bd 30a6 9d3c
00000170: acde 55bd 3dc3 22bb a553 2dbd 6944 903d
00000180: 8e24 a03d 7cee 8e3d eb01 3ebc d437 a2bd
00000190: 68c5 b5bb 2fb6 afbd 9205 053d 1d43 5b3d
000001a0: ded9 21bd d277 4b3a 08f8 803d a6b3 753c
000001b0: 9bc9 573d eb92 41bd cec8 acbd a776 84bb
000001c0: 32b7 a53c 6e34 93bd e9a4 afbd e943 423d
000001d0: 9ed1 3abd 1b09 5a3d 2d70 98bd 2053 4fbd
000001e0: e0ea 05bb 9b66 b1bb b390 d3bc f056 fb3c
000001f0: 8beb acbd 0af1 343d 3179 813c fbc6 463d
00000200: e078 7dbd 97ef 15bd 9382 51bd 19ec 693d
00000210: af5f 5cbd a0a8 893d 0abb a43d 8fe0 14bd
00000220: 725a 18bd d9a8 dabc d1b1 2abd c923 9e3d
00000230: aa9d 27bd 572b b3bd df06 833d 354c 91bd
00000240: 3945 c5bc f919 be3c 8308 36bd aaac 083c
00000250: 3ff4 d43c 5d55 dbbc e039 a33d afd2 90bc
00000260: b2e4 143d c9f0 823d 028c a8bc 7e56 f23c
00000270: b2b0 193d e603 a13d 63e4 09bc 0523 12bd
00000280: 6dcd 9bbd b7f9 8bbd 7464 303a 580c ac3d
00000290: 52eb 763d 0bf9 723d 47e9 ef3c 77a0 613d
000002a0: 2bcf 1eba 6e56 3f3d dcc6 853d 69e7 8fbc
000002b0: 3e5f 4f3d f6d8 963d 302f fcbc 8795 c1bd
000002c0: 7cf0 d43c a61f fa3c 60a2 5a3c 3814 973c
000002d0: 0fd5 6c3d 707c 8abd fbb7 c93c 9265 99bd
000002e0: b0e8 aebd f2d0 983b 21a5 b03d e949 003d
000002f0: 305b ffbc 73a2 b4bc 4cb1 523d daf2 8fbd
00000300: ead6 8e3d dcc3 68bc cd02 da3b bd20 883d
00000310: a02a a0bd 99aa c5bc aa9f 7ebd 6b14 efbc
00000320: 06be 963d 15e1 d4bc c5fd ee3c c2e9 8f3d
00000330: 09ed 56bd 4ce4 453d c62c 06bc 791b 783d
00000340: 1740 a03d 4e39 06bd 81e9 46bd 0c35 9cbd
00000350: 13da 27bd c904 7dbd c2d1 08bd 9eb1 ed3c
00000360: 96b9 3e3b ee01 35bd 4c77 86bd f96e 053d
00000370: 3def fabc a563 6abd bf30 a0bd cb0b 66bd
00000380: 3321 5b3d 6e3e a4bd 513a 9dbb c404 a3bd
00000390: ff72 06bd 2a91 523d 9a69 4dbd 1956 333d
000003a0: f9ec 1cbd b6c7 423c 3262 83bb 35d8 143d
000003b0: e97e b3bd 0dd5 253d 1a44 9abd c559 86bd
000003c0: 46b3 a13d 1f94 84bc d670 02bd e238 0bbd
000003d0: 140c 353d 875f a93c 1bcd 563c 4704 153d
000003e0: 53e3 5a3d 9041 8bbd fa1a 40bd a7fa 6d3c
000003f0: 91e4 82bd 7748 1abc 630b 90bd 8989 3b3d

bias_ih_l0 f4 [512]
0.04808165 0.011536511 0.042515706 -0.04356636 0.037690613 0.14672858 0.08247978 -0.030993922
0.12313442 0.03612585 0.030518819 0.112809606 0.05357024 0.16042975 0.11793506 -0.035914585
0.10818507 -0.0063425875 0.2062577 0.11272538 -0.020398147 0.06925227 0.050514717 0.06251287
0.021568835 -0.016312309 -0.0016207598 0.069487266 0.050492402 0.07725994 -0.020223465 0.043284018
0.014899681 0.051501617 -0.04257892 0.1358079 -0.022594737 0.10263987 0.020635728 -0.022036674
-0.0012363859 0.04146011 0.07522462 0.039568886 0.23468125 -0.010607109 0.024408884 0.0249041
0.1210924 -0.0010241624 0.10719554 0.021855768 0.15394957 0.023268105 0.15449876 0.28057072
0.13769767 0.057704974 0.017332157 0.1193874 0.11256822 0.07230936 0.07738027 0.060034625
0.18573388 0.1606776 -0.03688378 0.21542974 0.052840944 0.15813453 0.03554077 -0.021736281
0.14224982 0.17670015 0.105017625 -0.040566403 0.099401176 0.043183923 0.19780193 -0.025078978
0.2502883 0.25394642 0.05363294 -0.01710411 0.047505196 0.065997295 0.14695467 -0.04805045
0.28809863 -0.021785473 0.056118336 0.11399764 0.33034846 0.08697471 0.12313041 0.13862851
0.04201235 0.015218917 0.024501102 0.030233765 -0.060834702 0.12694715 0.04424942 0.09253412
0.0076174964 -0.01358456 0.17542103 0.17859282 0.110108346 -0.0129275415 0.14738578 0.07177273
0.008248147 0.005287389 0.12973711 0.15377007 0.4125333 0.08594825 0.09475469 0.2153539
0.09343168 0.07875834 0.036807023 0.12245684 0.07206584 0.10207707 -0.012242305 0.057234883
0.06281526 -0.055325486 -0.044983547 0.0477492 0.045054242 -0.017532246 -0.015037293 0.047728833
0.13634163 0.091678396 0.07717228 0.07792314 0.0108429985 0.13170159 0.13281892 0.037604004
0.059664663 -0.06524714 -0.01329343 0.088773966 -0.020521015 -0.013513748 0.056534916 0.044436116
0.08462298 -0.038409013 0.03957326 -0.031197121 -0.03153918 -0.0048291567 0.09460605 0.117600456
-0.02251372 0.11682201 0.030505722 -0.011700905 -0.050088506 0.043451406 0.026567092 -0.054594163
0.071767084 0.0779876 -0.04314433 0.044573065 0.0647473 0.06807122 -0.056245662 0.09957964
-0.03625487 -0.018855056 0.17083895 0.046913795 0.00606003 -0.00278522 -0.04882797 0.04131137
0.09342528 0.082487404 0.11349404 0.1000695 0.10576533 -0.032323044 0.016548036 0.1184118
0.031139858 -0.028151512 -0.015732696 0.13889082 -0.046112474 0.089052804 -0.05063784 0.03841466
0.02600405 0.13605452 0.028857542 -0.05838674 -0.03674282 0.08998213 0.08485094 0.025172979
0.0519538 0.13344668 0.05100414 0.01374698 0.08491855 0.04022918 0.002993065 0.116183914
0.16113877 -0.0005596309 0.034372564 -0.008840502 0.13731106 -0.035503846 -0.0015596373 -0.024186496
-0.035874017 0.03938256 -0.04535168 -0.018186964 -0.016960973 0.011487674 0.02289337 -0.039984304
0.07864648 0.056208406 0.14501478 0.09182762 -0.010642686 0.13961945 -0.021443548 0.0538732
0.13045447 -0.030682163 0.029497512 0.11161514 0.16397873 -0.052705295 0.053713605 0.025167996
0.10769911 0.069443755 0.06594296 0.07340241 0.007996889 -0.012265876 0.045331094 -0.0063353125
00000000: 44f1 443d a203 3d3c f324 2e3d a472 32bd
00000010: 7961 1a3d 0440 163e 29eb a83d f7e6 fdbc
00000020: e62d fc3d b3f8 133d 9a02 fa3c b908 e73d
00000030: 786c 5b3d b247 243e f087 f13d 2c1b 13bd
00000040: 2290 dd3d 7bd5 cfbb 3835 533e 90dc e63d
00000050: 041a a7bc 22d4 8d3d 85e8 4e3d bf06 803d
00000060: 20b1 b03c 64a1 85bc ad6f d4ba 574f 8e3d
00000070: 1fd1 4e3d 763a 9e3d aeab a5bc 954a 313d
00000080: cb1d 743c 5cf3 523d 3c67 2ebd 3a11 0b3e
00000090: 9918 b9bc da34 d23d 420c a93c 4186 b4bc
000000a0: 3a0e a2ba 14d2 293d 5e0f 9a3d fc12 223d
000000b0: 4850 703e 71c9 2dbc 24f5 c73c af03 cc3c
000000c0: 4bff f73d 303d 86ba 5689 db3d de0a b33c
000000d0: f5a4 1d3e c19c be3c ec34 1e3e f7a6 8f3e
000000e0: 9e00 0d3e 0d5c 6c3d 2bfc 8d3c 6281 f43d
000000f0: 2b8a e63d ee16 943d 8c79 9e3d dee6 753d
00000100: 0631 3e3e ab88 243e 7213 17bd 9d99 5c3e
00000110: bf6f 583d 05ee 213e 3393 113d 4910 b2bc
00000120: f0a9 113e e2f0 343e 7b13 d73d f528 26bd
00000130: d892 cb3d a0e1 303d 978c 4a3e 6e72 cdbc
00000140: ca25 803e 4405 823e 37ae 5b3d eb1d 8cbc
00000150: cf94 423d 9729 873d 497b 163e 8cd0 44bd
00000160: aa81 933e 7377 b2bc 57dc 653d 9877 e93d
00000170: 6f23 a93e cc1f b23d cc2b fc3d a2f4 0d3e
00000180: 2415 2c3d c458 793c 89b6 c83c cdac f73c
00000190: cf2d 79bd 6ffe 013e e13e 353d 8782 bd3d
000001a0: 319c f93b c691 5ebc 92a1 333e 09e1 363e
000001b0: 7c80 e13d 0ace 53bc 4cec 163e 95fd 923d
000001c0: 3c23 073c d541 ad3b ced9 043e e775 1d3e
000001d0: 9137 d33e a305 b03d bf0e c23d bc85 5c3e
000001e0: 1c59 bf3d 0d4c a13d f6c2 163d a7ca fa3d
000001f0: 4197 933d c80d d13d f393 48bc 206f 6a3d
00000200: 49a5 803d fa9c 62bd ab40 38bd aa94 433d
00000210: cc8a 383d c99f 8fbc fa5e 76bc 4f7f 433d
00000220: 249d 0b3e e2c1 bb3d 800c 9e3d 2b96 9f3d
00000230: d5a6 313c c8dc 063e af01 083e a806 1a3d
00000240: ef62 743d 4ba0 85bd b0cc 59bc 20cf b53d
00000250: b01b a8bc c468 5dbc 2891 673d a502 363d
00000260: d04e ad3d c552 1dbd 9217 223d 1b91 ffbc
00000270: 3a2f 01bd e73d 9ebb d1c0 c13d 82d8 f03d
00000280: b16e b8bc 6140 ef3d 23e7 f93c 27b5 3fbc
00000290: 9b29 4dbd 1afa 313d 3ba3 d93c 219e 5fbd
000002a0: 9ffa 923d f6b7 9f3d 1cb8 30bd 3f92 363d
000002b0: 3c9a 843d ec68 8b3d da61 66bd 69f0 cb3d
000002c0: fd7f 14bd eb75 9abc 68f0 2e3e ae28 403d
000002d0: 3793 c63b 3d88 36bb d6ff 47bd 1c36 293d
000002e0: c155 bf3d 28ef a83d 906f e83d 3df1 cc3d
000002f0: 7e9b d83d 2b65 04bd bf8f 873c e381 f23d
00000300: 0419 ff3c 009e e6bc dbe1 80bc 6539 0e3e
00000310: 6fe0 3cbd 5161 b63d a069 4fbd b158 1d3d
00000320: 7206 d53c e051 0b3e a766 ec3c ef26 6fbd
00000330: a47f 16bd 8d48 b83d 54c6 ad3d 9037 ce3c
00000340: 82cd 543d 3fa6 083e b8e9 503d 033b 613c
00000350: c7e9 ad3d 5ac7 243d 4c27 443b d5f1 ed3d
00000360: 9001 253e 32b4 12ba 3fca 0c3d c1d7 10bc
00000370: 459b 0c3e 7b6c 11bd be6c ccba c222 c6bc
00000380: a2f0 12bd 9b4f 213d afc2 39bd d4fc 94bc
00000390: bdf1 8abc cc36 3c3c e08a bb3c 95c6 23bd
000003a0: 6811 a13d c93a 663d c17e 143e 1f10 bc3d
000003b0: a95e 2ebc 67f8 0e3e 61aa afbc 25aa 5c3d
000003c0: db95 053e 2959 fbbc c4a4 f13c 7b96 e43d
000003d0: 0aea 273e 82e1 57bd cc02 5c3d 1d2d ce3c
000003e0: 5a91 dc3d 8738 8e3d 1a0d 873d 0154 963d
000003f0: 6205 033c d0f6 48bc 19ad 393d 7498 cfbb

bias_hh_l0 f4 [512]
0.018591985 0.115550116 0.0483868 -0.02725069 0.13501506 0.027200665 0.19114842 0.029609727
0.24776676 0.09866849 0.014532885 0.1618345 -0.023795115 0.16241018 0.05856062 -0.00031027608
0.19237639 -0.04198054 0.22916777 0.036581066 0.10899445 0.049640913 0.14807294 -0.008778694
0.09741193 -0.0056027393 0.004721217 0.1348725 0.13057058 0.0711796 -0.0037459906 0.022293063
0.0055813706 0.19426778 0.10688723 0.07374053 0.028826743 0.10207611 0.13163279 0.115634024
0.0667813 0.12536776 0.077889904 0.0014517365 0.23691212 0.031337608 0.11342965 0.12591073
0.09700237 -0.054606464 0.19370879 -0.017516326 0.12385851 -0.025295349 0.07582419 0.20544563
0.14305037 0.08720995 0.09722567 0.10053067 0.068738796 -0.020505363 0.15331797 0.04007359
0.1870614 0.13519825 -0.039220557 0.25426453 0.035825014 0.05399605 0.0883006 -0.0066674054
0.11139317 0.10448907 -0.058293432 0.06261848 0.03584983 0.08814443 0.14359371 0.06302484
0.17742191 0.11583201 0.07881512 -0.023687765 0.08960075 0.065739796 0.13126348 0.059120864
0.3150303 0.11479233 0.06559361 0.015377707 0.42017996 -0.014825892 0.007235408 0.004901584
0.16851467 0.020270776 0.115927756 0.053219117 0.085579716 0.04840283 0.17411853 0.084151804
0.012243427 0.11416885 0.043315664 0.03761941 -0.029325714 0.013536091 0.0005480397 0.11354383
0.044866875 0.026423996 0.049919326 -0.0040429807 0.42458856 0.06964802 0.120281264 0.20019998
0.20413893 0.046247326 0.06923186 -0.007107394 0.03482844 0.055837236 0.03836835 0.098294705
0.05737876 -0.042821705 0.08182271 -0.058846228 0.01720308 0.121700495 -0.046464972 0.070603244
0.042157937 -0.024014141 0.010933551 -0.029276088 -0.03521296 0.021345662 0.06624763 -0.044032585
0.01719865 0.10201746 0.04932947 -0.03564268 0.12941235 -0.017967518 0.14414573 0.05278391
-0.0129176825 -0.04695161 0.121670395 0.12580094 -0.04342521 0.105569616 0.119462974 0.031981
0.078479476 0.13245596 0.040133655 0.010765065 0.06316491 0.08568863 0.10754073 -0.04898824
0.05324063 0.008670514 0.0008325194 0.07088388 0.1502779 0.099203624 0.07394631 0.060962327
0.0679995 0.014447962 0.17948157 -0.03828483 0.07422324 -0.011228443 -0.0036071425 0.018426985
0.046969138 0.12512898 -0.038862307 0.15136772 -0.0027549102 -0.0077628517 0.12403353 0.060379524
0.061794102 0.0020497737 -0.006720561 0.026631318 0.10935088 0.08008186 -0.0052230046 -0.029345194
0.04748778 0.13960537 0.07055738 0.022066867 0.06165138 -0.025361458 0.14814866 -0.06623641
0.081830315 0.1250663 0.076847576 -0.0050429446 -0.010413911 0.024160488 0.12190507 0.03465979
0.15339082 0.028701788 0.04906489 -0.024227375 0.19011307 -0.017512495 0.09110741 -0.04223897
0.13698885 0.072344854 -0.028186135 0.03908363 -0.012646181 -0.039500937 0.12896037 0.0017507455
0.016920518 -0.050884724 0.13909516 0.091395445 0.051722135 0.107463636 0.12896058 -0.033757593
0.10811187 0.02757235 -0.05189353 0.074142076 0.056442037 -0.052691974 0.027452791 0.15043361
-0.019846708 0.07593202 0.04940411 0.110077925 -0.029356327 0.011542846 0.08942487 0.03563969
00000000: 384e 983c 8aa5 ec3d 3d31 463d d73c dfbc
00000010: 6341 0a3e eed3 de3c 69bc 433e 1990 f23c
00000020: 92b6 7d3e b512 ca3d 561b 6e3c f1b7 253e
00000030: f9ed c2bc db4e 263e 43dd 6f3d 8dac a2b9
00000040: 51fe 443e c9f3 2bbd f5aa 6a3e 07d6 153d
00000050: 7b38 df3d 4554 4b3d 6fa0 173e 83d4 0fbc
00000060: e87f c73d 2f97 b7bb 70b4 9a3b 041c 0a3e
00000070: 4bb4 053e 9cc6 913d 4b7f 75bb f19f b63c
00000080: eee3 b63b 22ee 463e b1e7 da3d 4605 973d
00000090: 1026 ec3c 480d d13d bfca 063e 88d1 ec3d
000000a0: a2c4 883d 6860 003e be84 9f3d 3248 be3a
000000b0: 1799 723e dd5b 003d ce4d e83d beee 003e
000000c0: 2ea9 c63d 07ab 5fbd 995b 463e 667e 8fbc
000000d0: 88a9 fd3d 3138 cfbc b749 9b3d 5760 523e
000000e0: cc7b 123e 219b b23d 411e c73d 06e3 cd3d
000000f0: edc6 8c3d ddfa a7bc 63ff 1c3e 3424 243d
00000100: 068d 3f3e 6971 0a3e bca5 20bd f62e 823e
00000110: 40bd 123d f62a 5d3d f2d6 b43d 407a dabb
00000120: 1a22 e43d 5efe d53d 18c5 6ebd 1e3e 803d
00000130: 45d7 123d 1185 b43d 3b0a 133e 2b13 813d
00000140: 17ae 353e 5539 ed3d d269 a13d d80c c2bc
00000150: 9980 b73d 96a2 863d ef69 063e b828 723d
00000160: a74b a13e 3e18 eb3d f155 863d c7f2 7b3c
00000170: d421 d73e 4ce8 72bc 0017 ed3b 779d a03b
00000180: 1c8f 2c3e e60e a63c 886b ed3d 4afc 593d
00000190: 6b44 af3d 0c42 463d 214c 323e c857 ac3d
000001a0: a898 483c 5cd1 e93d c46b 313d cf16 1a3d
000001b0: 7b3c f0bc 7bc6 5d3c 52aa 0f3a ab89 e83d
000001c0: 54c6 373d 2377 d83c 3578 4c3d fb7a 84bb
000001d0: ac63 d93e 9fa3 8e3d 0656 f63d 3901 4d3e
000001e0: cc09 513e d66d 3d3d 6fc9 8d3d 24e5 e8bb
000001f0: 44a8 0e3d 96b5 643d 2228 1d3d bc4e c93d
00000200: fe05 6b3d d065 2fbd aa92 a73d be08 71bd
00000210: 79ed 8c3c 1c3e f93d 0e52 3ebd 6f98 903d
00000220: cdad 2c3d 4eb9 c4bc a322 333c 68d4 efbc
00000230: 773b 10bd 19dd ae3c d6ac 873d 835b 34bd
00000240: 2fe4 8c3c 88ee d03d b30d 4a3d 0ffe 11bd
00000250: ac84 043e 9e30 93bc f09a 133e f133 583d
00000260: b0a4 53bc 5550 40bd 542e f93d f6d1 003e
00000270: a2de 31bd e234 d83d 01a9 f43d 82fe 023d
00000280: d9b9 a03d 89a2 073e 3063 243d f55f 303c
00000290: 9b5c 813d 857d af3d 503e dc3d e5a7 48bd
000002a0: d912 5a3d c60e 0e3c 6e3d 5a3a 912b 913d
000002b0: 73e2 193e 452b cb3d 2a71 973d a2b3 793d
000002c0: 5243 8b3d 25b7 6c3c 04ca 373e 8ed0 1cbd
000002d0: 5b02 983d 81f7 37bc cf65 6cbb 30f4 963c
000002e0: b662 403d d021 003e 152e 1fbd 2400 1b3e
000002f0: b98b 34bb 855f febb 4b05 fe3d 8550 773d
00000300: d01b 7d3d 7f55 063b 2738 dcbb ec29 da3c
00000310: 5bf3 df3d f501 a43d bd25 abbb 5565 f0bc
00000320: 8c82 423d b6f4 0e3e 6380 903d 93c5 b43c
00000330: 2886 7c3d d5c2 cfbc 48b4 173e f4a6 87bd
00000340: a796 a73d 6111 003e 4362 9d3d 493f a5bb
00000350: 1c9f 2abc 37ec c53c 5ea9 f93d 6df7 0d3d
00000360: 7c12 1d3e 0320 eb3c 44f8 483d 7d78 c6bc
00000370: 00ad 423e 5d76 8fbc 8696 ba3d c502 2dbd
00000380: ce46 0c3e 8a29 943d 9ce6 e6bc 2816 203d
00000390: ed31 4fbc bccb 21bd 300e 043e 4579 e53a
000003a0: e69c 8a3c 806c 50bd f66e 0e3e 892d bb3d
000003b0: 97da 533d e515 dc3d 3e0e 043e 6745 0abd
000003c0: c269 dd3d 69df e13c 4f8e 54bd cdd7 973d
000003d0: c42f 673d 8ad3 57bd ade4 e03c 450b 1a3e
000003e0: 9095 a2bc 3f82 9b3d f75b 4a3d 8970 e13d
000003f0: ae7c f0bc 351e 3d3c 6324 b73d ecfa 113d

weight f4 [55, 186]
-0.8326836 0.18867485 -0.07499438 0.47175974 -0.53218096 0.0883101 -0.18191049 0.82187194
0.33791173 0.092568696 0.3130915 0.26699036 0.045177776 0.12875555 -0.53493994 -0.0043619666
-0.009257441 0.2000691 -0.45871356 -0.07293838 -0.1758186 -0.0092689255 0.028941054 0.025426995
0.26558504 0.06282718 -0.0037972804 0.0039390475 -0.04672263 0.00824371 0.034992747 0.044191122
-0.038746156 -0.028135305 -0.010956965 -0.01700088 -0.012605764 -0.0044336095 -0.019290801 0.068792455
-0.07220739 0.030603118 -0.030463886 0.030312747 0.0061869007 -0.07072244 -0.036570366 -0.017605945
0.055531718 -0.055529978 -0.026775187 0.054595985 -0.06349024 0.06326826 -0.023585957 -0.008416198
-0.08363127 -0.03068888 -0.025652189 -0.107313275 0.0551301 0.06641717 0.16475901 0.008355905
-0.27638534 0.010510632 -0.2764398 -0.067628734 0.10000225 0.14465958 0.10963842 -0.16756567
0.21342272 0.010023005 0.07334128 0.07204299 -0.17890227 -0.035756823 -0.016605893 -0.042348906
0.2099324 -0.07356321 0.21847384 -0.17264868 0.1457888 -0.20667842 -0.035279807 0.10504828
0.068916604 0.12278048 0.026227104 -0.07349802 -0.060016736 0.14199534 -0.05348695 -0.1449034
0.12618746 -0.101528406 0.08312707 -0.009479857 0.004940166 0.20607394 0.334335 0.035970546
-0.11421972 0.0504609 -0.075112574 -0.036930244 -0.15966551 -0.16476035 -0.22261226 0.14755672
0.15339164 -0.26288825 0.23250005 0.09191477 0.11377735 0.0669196 0.011657773 -0.005841665
0.15262184 -0.11555709 0.2895033 0.21359254 -0.12448828 -0.01538667 0.04023894 -0.12121592
-0.042055223 -0.1033913 -0.06908039 0.055555694 -0.07250733 -0.05897247 -0.21955673 -0.11631821
0.1640428 -0.04006371 0.41845804 0.22915034 0.015613956 0.060009245 0.11840657 0.12576771
0.16052487 -0.011345344 -0.40567532 -0.2075826 -0.079146855 -0.023831466 0.24363485 0.17513816
0.019576406 -0.13230413 -0.123571336 -0.055353597 -0.012451905 -0.037266523 -0.0642907 0.0912893
0.019596461 -0.043097313 0.11559177 0.019235719 0.1568515 0.2587859 -0.009191221 0.056555964
-0.21310247 -0.039921165 0.05217663 0.044343047 0.21527547 0.03441736 0.4636312 0.1122692
-0.17732693 -0.059095837 0.1510778 -0.059940908 0.1975311 -0.06429074 -0.005057051 -0.0742274
-0.17317928 -0.120639116 -0.82052606 -0.09604055 0.15477906 -0.1801622 1.2284122 -0.014434388
-0.264555 0.1183426 -0.26807526 0.48820403 -0.02746316 0.09095527 0.047940545 -0.083087474
-0.46971625 -0.03076079 0.16576612 -0.0014834645 0.11881521 0.321601 -0.22567824 -0.04208917
-0.04127946 0.0072286683 -0.2175058 0.11687798 -0.04535542 -0.020953387 -0.06499392 -0.0022361204
0.0021945238 -0.046219625 0.054716654 0.045700047 0.06015026 -0.006137222 0.018831924 -0.06448738
-0.020997994 -0.038616214 0.022351503 0.059948422 0.031169616 -0.007746719 0.06189869 -0.050563425
0.036410198 0.0095084915 0.014862679 0.039014034 -0.05885795 0.013078138 0.008558527 0.019929552
-0.072334625 0.03040263 0.023299197 -0.049669657 -0.033375904 0.048618056 0.045842744 -0.0093005
0.07527249 0.060683753 0.039231755 0.019438747 -0.087508194 0.059414987 0.017346958 0.074287646
00000000: c12a 55bf fb33 413e a796 99bd 7e8a f13e
00000010: 033d 08bf eddb b43d be46 3abe 3366 523f
00000020: c402 ad3e a894 bd3d 874d a03e f6b2 883e
00000030: 550c 393d 7fd8 033e d3f1 08bf d4ee 8ebb
00000040: 86ac 17bc eade 4c3e 81dc eabe b860 95bd
00000050: cb09 34be b1dc 17bc ca15 ed3c 464c d03c
00000060: c3fa 873e 89ab 803d cbdb 78bb 2013 813b
00000070: 3a60 3fbd a010 073c 8e54 0f3d c001 353d
00000080: 4ab4 1ebd 037c e6bc d884 33bc 6e45 8bbc
00000090: 6888 4ebc d047 91bb be07 9ebc 0fe3 8c3d
000000a0: 78e1 93bd 64b3 fa3c 668f f9bc 7052 f83c
000000b0: 7cbb ca3b edd6 90bd cfca 15bd 583a 90bc
000000c0: 3a75 633d 6773 63bd a357 dbbc 0aa0 5f3d
000000d0: 2c07 82bd ca92 813d 5637 c1bc 18e4 09bc
000000e0: df46 abbd 3f67 fbbc 8a24 d2bc 10c7 dbbd
000000f0: 1ad0 613d ba05 883d 96b6 283e 35e7 083c
00000100: 6182 8dbe c934 2c3c 8489 8dbe ef80 8abd
00000110: fbcd cc3d a421 143e 1c8a e03d 5696 2bbe
00000120: 7c8b 5a3e 8837 243c f433 963d 468b 933d
00000130: 2832 37be bf75 12bd 1509 88bc 0c76 2dbd
00000140: 85f8 563e 4fa8 96bd 9bb7 5f3e d1ca 30be
00000150: a949 153e 82a3 53be 8f81 10bd 8d23 d73d
00000160: 2624 8d3d 5574 fb3d 39da d63c 2186 96bd
00000170: 1cd4 75bd 3a67 113e 2215 5bbd 8f61 14be
00000180: 4937 013e 20ee cfbd 863e aa3d 6751 1bbc
00000190: 1ee1 a13b 0c05 533e f52d ab3e da55 133d
000001a0: 07ec e9bd 17b0 4e3d 9fd4 99bd 2b44 17bd
000001b0: 5b7f 23be f0b6 28be 78f4 63be 1c19 173e
000001c0: b312 1d3e 4a99 86be 7e14 6e3e d03d bc3d
000001d0: 1904 e93d 250d 893d 3e00 3f3c 706b bfbb
000001e0: e648 1c3e 32a9 ecbd c739 943e 01b8 5a3e
000001f0: b6f3 febd 5f18 7cbc 96d1 243d 0d40 f8bd
00000200: 1942 2cbd d1be d3bd 057a 8dbd 5e8e 633d
00000210: b97e 94bd 1e8d 71bd 7bd3 60be 3e38 eebd
00000220: d6fa 273e d819 24bd 2240 d63e 63a6 6a3e
00000230: aed1 7f3c 41cc 753d 257f f23d 40c9 003e
00000240: a260 243e d2e1 39bc adb4 cfbe 8890 54be
00000250: bf17 a2bd 353a c3bc 6a7b 793e 6b57 333e
00000260: b35e a03c bc7a 07be f812 fdbd 74ba 62bd
00000270: 1303 4cbc c8a4 18bd d8aa 83bd e2f5 ba3d
00000280: c288 a03c cf86 30bd 61bb ec3d 3a94 9d3c
00000290: ae9d 203e 967f 843e c696 16bc 3aa7 673d
000002a0: 8937 5abe 6084 23bd 29b7 553d 0ea1 353d
000002b0: 2c71 5c3e 38f9 0c3d 1261 ed3e 65ed e53d
000002c0: 3195 35be 7a0e 72bd 24b4 1a3e 9984 75bd
000002d0: 9845 4a3e ddaa 83bd 9eb5 a5bb 8904 98bd
000002e0: e955 31be a411 f7bd ff0d 52bf e8b0 c4bd
000002f0: 677e 1e3e 717c 38be 9c3c 9d3f 367e 6cbc
00000300: c173 87be 9b5d f23d 2941 89be e1f5 f93e
00000310: 6cfa e0bc c246 ba3d 4e5d 443d c429 aabd
00000320: a67e f0be 0dfe fbbc 98be 293e cf70 c2ba
00000330: 6455 f33d e3a8 a43e 3218 67be b265 2cbd
00000340: a714 29bd 77de ec3b d7b9 5ebe b95d ef3d
00000350: 9bc6 39bd 70a6 abbc 881b 85bd e08b 12bb
00000360: 00d2 0f3b ca50 3dbd 921e 603d f92f 3b3d
00000370: 1e60 763d c01a c9bb 6845 9a3c f611 84bd
00000380: fc03 acbc 092c 1ebd 801a b73c 7a8c 753d
00000390: 6c57 ff3c 30d8 fdbb 7b89 7d3d 981b 4fbd
000003a0: dc22 153d 81c9 1b3c 9882 733c 2ecd 1f3d
000003b0: 0915 71bd b045 563c 1039 0c3c 4d43 a33c
000003c0: 2d24 94bd f00e f93c f5dd be3c 6972 4bbd
000003d0: 2cb5 08bd ba23 473d 9ac5 3b3d 2061 18bc
000003e0: 7728 9a3d 878f 783d 7ab1 203d 023e 9f3c
000003f0: 7f37 b3bd 215d 733d 351b 8e3c 1f24 983d

bias f4 [55]
0.1964316 0.4484537 0.07851319 -0.12173893 -0.06185507 -0.032699768 -0.014250302 -0.1372216
-0.055448186 -0.031286314 0.2633188 -0.073463626 -0.0244568 -0.21111943 0.004708693 -0.22393562
0.010144792 -0.23760119 0.003648474 -0.047858365 -0.30283803 -0.20366517 0.046988256 0.23131655
0.28733352 -0.0025704082 0.14313407 0.3326098 -0.2870432 0.1944664 0.37583163 -0.42706662
0.44979554 -0.092443764 0.18058106 -0.37561965 -0.024798032 0.19719248 0.24947491 0.0512299
0.00869309 -0.057381794 -0.09283439 0.17064935 -0.021830818 0.012004695 0.116105914 -0.24735591
0.2313978 -0.07151129 0.017167626 -0.2154643 -0.09559317 -0.23648873 0.011184151
00000000: 5e25 493e b99b e53e 86cb a03d 4352 f9bd
00000010: be5b 7dbd 31f0 05bd 197a 69bc d283 0cbe
00000020: a31d 63bd 1426 00bd b9d1 863e 1974 96bd
00000030: a159 c8bc b12f 58be 614b 9a3b 614f 65be
00000040: 5736 263c ba4d 73be 3d1b 6f3b 2207 44bd
00000050: 960d 9bbe 9a8d 50be c276 403d 3fde 6c3e
00000060: 611d 933e 4b74 28bb bd91 123e d54b aa3e
00000070: 54f7 92be 3322 473e 016d c03e 7aa8 dabe
00000080: 9a4b e63e 2853 bdbd 3eea 383e 3851 c0be
00000090: 3e25 cbbc d3ec 493e 5a76 7f3e 72d6 513d
000000a0: 766d 0e3c 2c09 6bbd f51f bebd b4be 2e3e
000000b0: 8bd6 b2bc 57af 443c f0c8 ed3d de4a 7dbe
000000c0: 8bf3 6c3e 8374 92bd 1fa3 8c3c aca2 5cbe
000000d0: 5ac6 c3bd 1a2a 72be bb3d 373c

weight f4 [55]
53.0 47.0 53.0 17.0 9.0 9.0 30.0 8.0
19.0 11.0 6.0 17.0 12.0 2.0 49.0 2.0
36.0 1.0 3.0 15.0 48.0 39.0 23.0 19.0
8.0 47.0 4.0 38.0 1.0 15.0 51.0 3.0
18.0 11.0 30.0 26.0 12.0 3.0 37.0 5.0
51.0 23.0 3.0 41.0 3.0 20.0 55.0 17.0
8.0 10.0 1.0 45.0 27.0 54.0 49.0
00000000: 0000 5442 0000 3c42 0000 5442 0000 8841
00000010: 0000 1041 0000 1041 0000 f041 0000 0041
00000020: 0000 9841 0000 3041 0000 c040 0000 8841
00000030: 0000 4041 0000 0040 0000 4442 0000 0040
00000040: 0000 1042 0000 803f 0000 4040 0000 7041
00000050: 0000 4042 0000 1c42 0000 b841 0000 9841
00000060: 0000 0041 0000 3c42 0000 8040 0000 1842
00000070: 0000 803f 0000 7041 0000 4c42 0000 4040
00000080: 0000 9041 0000 3041 0000 f041 0000 d041
00000090: 0000 4041 0000 4040 0000 1442 0000 a040
000000a0: 0000 4c42 0000 b841 0000 4040 0000 2442
000000b0: 0000 4040 0000 a041 0000 5c42 0000 8841
000000c0: 0000 0041 0000 2041 0000 803f 0000 3442
000000d0: 0000 d841 0000 5842 0000 4442
