models/LSTM_model_2.pt (torch_old, 693888 bytes, 7 tensors)

weight_ih_l0 f4 [512, 186]
0	0x3d124235	0.03570767
1	0xbc8f897e	-0.017521616
2	0x3d292c9e	0.041302316
3	0x3d3b9145	0.045792837
4	0xbd661cea	-0.05617992
5	0x3b95473c	0.004555611
6	0x3cbe5832	0.023235414
7	0x3d792a30	0.06083125
8	0xbd63f852	-0.05565674
9	0xbc5f6627	-0.013635195
10	0xbc63199f	-0.013861089
11	0xbc8ed510	-0.01743558
12	0x3d4f5c25	0.050624985
13	0x3cde21bb	0.027115693
14	0x3dbfe0c3	0.09369042
15	0xbda86934	-0.08223191
16	0x3d927318	0.07150859
17	0x3d31b0f6	0.043381654
18	0x3d2a4adb	0.041575294
19	0xbd27cfbe	-0.040969603
20	0x3ce7ef04	0.028312214
21	0x3d597801	0.05309296
22	0xbd3ce105	-0.046113033
23	0xbd51f915	-0.051262934
24	0x3d1e33d7	0.038623657
25	0x3d0e7017	0.034774866
26	0xbbf73cda	-0.007545096
27	0xbb472df3	-0.0030392378
28	0x3d86fd8a	0.065913275
29	0x3d729be5	0.059230704
30	0x3cf01d80	0.029310942
31	0xbd4cb251	-0.049974743
32	0x3cb7852f	0.022402374
33	0xbc54fb5c	-0.012999382
34	0xbd9db31a	-0.077001765
35	0x3d8ccee0	0.06875396
36	0x3d88c839	0.066788144
37	0x3d5d8bfa	0.05408857
38	0xbccecb2b	-0.025243362
39	0xbd57cbe8	-0.052684695
40	0xbc953ced	-0.018217528
41	0x3ce96dac	0.028494678
42	0x3d2628c5	0.040566225
43	0x3b4722e7	0.0030385794
44	0xbd9d517b	-0.07681557
45	0xbda54c12	-0.0807115
46	0x3c909a5a	0.017651726
47	0x3c96dbb5	0.018415311
48	0x3d8cbb41	0.06871653
49	0xbd4f27f8	-0.050575227
50	0x3d60c489	0.05487493
51	0x3d41fd4d	0.047360707
52	0x3db93b55	0.0904452
53	0xbd61aa2b	-0.055093925
54	0x3d318bf6	0.043346368
55	0xbd783db8	-0.060605735
56	0xbc86e84b	-0.016468188
57	0xbdc2124c	-0.09476146
58	0xbd57496e	-0.052560262
59	0xbd761f35	-0.060088355
60	0x3d16dfc2	0.036834486
61	0x3d37ab2c	0.044840977
62	0xbd9dd5c8	-0.07706791
63	0x3d8cae29	0.06869156
64	0x3d3ff42d	0.046863724
65	0xbd231130	-0.039811313
66	0xbd5979eb	-0.053094786
67	0xbd917431	-0.0710224
68	0x3d82dcca	0.063897684
69	0xbd5d1a2a	-0.05398003
70	0xbc8ccfc6	-0.017188918
71	0xbd8b8d6b	-0.06814083
72	0xbc6c711b	-0.014431263
73	0xbd8159a8	-0.06315929
74	0xbd4badb3	-0.0497262
75	0xbce17648	-0.027522221
76	0x3c5cc424	0.013474498
77	0xbd8f11c9	-0.06985814
78	0xbd9e3de3	-0.07726648
79	0xbd885cfd	-0.06658361
80	0xbd0bf1df	-0.034166213
81	0xbc27e165	-0.010246609
82	0xbcbf4320	-0.023347437
83	0x3d9079c7	0.07054477
84	0x3d2d0b35	0.042247016
85	0xbd9d3f1d	-0.076780535
86	0xbc830830	-0.015995115
87	0xbd892af2	-0.06697644
88	0x3c71c313	0.014755982
89	0xbd1a805e	-0.037720077
90	0x3d3948c2	0.045235403
91	0x3d592b9a	0.053020097
92	0x3d9896a6	0.07450609
93	0xbdc32d99	-0.095301814
94	0xbd8244f7	-0.0636081
95	0xbd86b63d	-0.06577728
96	0x3c713422	0.014721902
97	0x3dbaee3d	0.091274716
98	0xbd3bc5c4	-0.0458429
99	0xbd5948b5	-0.053047854
100	0xbcf1c19f	-0.029511271
101	0xbc9f18b4	-0.019420959
102	0x3d3cd82a	0.046104588
103	0x3d543424	0.051807538
104	0x3d21df9e	0.0395199
105	0x3db5b70c	0.08872804
106	0x3d85e2da	0.06537409
107	0x3d75b4bc	0.059986815
108	0xbd81759a	-0.06321259
109	0xbda7bfeb	-0.08190902
110	0x3d842497	0.064522915
111	0x3d98dd41	0.07464076
112	0xbc78e6fa	-0.015191788
113	0x3d6af8ed	0.0573663
114	0x3c30eafc	0.010798212
115	0x3d2e930a	0.042620696
116	0x3d7a60ce	0.061127476
117	0xbc7ea4be	-0.015542207
118	0xbc885cc7	-0.016645802
119	0xbd6438a4	-0.05571808
120	0x3d3cff98	0.04614219
121	0xbc8eedd9	-0.017447399
122	0x3d262eb7	0.040571894
123	0xbd3759eb	-0.044763487
124	0x3c80474e	0.015659
125	0xbd126691	-0.035742346
126	0x3d3a8876	0.045540296
127	0x3db0fdb2	0.086421385
128	0xbcd98235	-0.026551345
129	0x3d0da428	0.03458038
130	0x3d20b116	0.039231382
131	0xbd9eea30	-0.077595115
132	0x3a7a2279	0.000954188
133	0x3bc3e5a4	0.005978303
134	0x3da2d181	0.07950116
135	0x3d9b65c7	0.07587772
136	0xbdbbf0ad	-0.09176765
137	0x3d601632	0.054708667
138	0xbd623bf0	-0.055232942
139	0xbd61598d	-0.055017043
140	0xbc31932d	-0.010838312
141	0x3c48faef	0.0122668585
142	0x3da25df5	0.07928077
143	0xbd23ca9f	-0.039988156
144	0x3cca93d2	0.02472869
145	0xbd8f9f91	-0.07012857
146	0xbd3d446a	-0.046207823
147	0x3d176156	0.03695806
148	0x3a3b5ba6	0.00071471406
149	0xbcbd0c19	-0.023077058
150	0x3bc4a507	0.006001118
151	0xbd560fdb	-0.052261215
152	0xbd2aa02a	-0.04165665
153	0x3d699918	0.057030767
154	0x3d09c4ea	0.033635058
155	0x3d5c8d84	0.053845897
156	0x3d00e31e	0.031466596
157	0x3da76d55	0.0817515
158	0xbd32b682	-0.043631084
159	0x3d672101	0.05642796
160	0x3cd3f952	0.025875721
161	0x3d66cff5	0.056350667
162	0xbca49498	-0.020090386
163	0xbda71fa7	-0.08160334
164	0xbd6b44f7	-0.057438817
165	0x3d6eb576	0.058278523
166	0x3c865912	0.016399894
167	0x3d136aee	0.035990648
168	0xbc532af5	-0.01288866
169	0x3bdba62d	0.0067031593
170	0xbccc9ce8	-0.024977162
171	0x3d93cbf7	0.072166376
172	0xbccfc874	-0.025364138
173	0x3ca6f86c	0.020382129
174	0x3c36e7b9	0.011163645
175	0xbd970cbd	-0.073754765
176	0xbc3b9052	-0.011447983
177	0xbc9c7229	-0.019097405
178	0x3da16965	0.078814305
179	0x3cc865ad	0.024462545
180	0xbc60d9a7	-0.013723767
181	0xbc63e3b0	-0.013909265
182	0x3c43269c	0.011911061
183	0x3d8e5f20	0.069517374
184	0x3d7ee742	0.062232263
185	0xbbb6a682	-0.0055740485
186	0xbd3c1bd6	-0.045924984
187	0xbd05e935	-0.032693107
188	0xbd12c644	-0.035833612
189	0xbd8584df	-0.06519484
190	0xbd74eaed	-0.059794355
191	0xbd12493b	-0.03571437
192	0x3ce8248a	0.028337736
193	0xbc745c0e	-0.014914526
194	0xbc955339	-0.01822816
195	0xbd209479	-0.039204095
196	0x39da9e4e	0.00041698146
197	0x3d3d6b09	0.046244655
198	0x3d4ec139	0.05047724
199	0xbcf7797a	-0.030209292
200	0xbb9b6c1e	-0.004743113
201	0x3d0faf8c	0.035079524
202	0x3d831a1f	0.064014666
203	0xbb0636fa	-0.0020479546
204	0xbd402b6f	-0.04691642
205	0x3b3bafe6	0.002863878
206	0x3c8bd3bc	0.017068736
207	0x3d810743	0.06300213
208	0xbd877051	-0.066132195
209	0x3dacca40	0.084370136
210	0xbd1f2025	-0.038849015
211	0xbcec1801	-0.02882004
212	0xbd8707c7	-0.0659328
213	0x3cd1a8be	0.025593158
214	0xbcff6331	-0.031175228
215	0xbd011f7c	-0.031524166
216	0xbda3433c	-0.07971808
217	0xbcfa4607	-0.03055097
218	0xbccc09bb	-0.024906984
219	0xbb82f0bf	-0.0039959843
220	0xbd272a1d	-0.040811647
221	0x3b0b9979	0.0021301194
222	0xbbd2a1ef	-0.0064279954
223	0xbcef4d1c	-0.029211573
224	0x3db5accd	0.0887085
225	0x3d8b5d1b	0.06804868
226	0x3c42fcf3	0.011901128
227	0x3b86bf25	0.0041121417
228	0xbd14f4fb	-0.036366444
229	0xbd0fbd32	-0.03509254
230	0xbd9cc863	-0.07655408
231	0xbd8d8213	-0.06909575
232	0x39e01446	0.00042739714
233	0xbd12433e	-0.03570866
234	0x3d45012a	0.048096813
235	0xbca0a3f3	-0.019609427
236	0xbd569ef6	-0.05239769
237	0x3d31a7aa	0.043372788
238	0xbdb00d60	-0.08596301
239	0xbd4b79e0	-0.049676776
240	0xbcd96f88	-0.02654244
241	0xbda909c8	-0.08253819
242	0xbd9b9118	-0.07596034
243	0xbda40ed8	-0.08010644
244	0x3cd9d886	0.026592504
245	0x3d1e4157	0.03863653
246	0xbd8ac79f	-0.06776356
247	0x3cc808f7	0.024418337
248	0xbca5a974	-0.020222403
249	0x3d6238e8	0.05523005
250	0x3d902230	0.07037771
251	0xbb7de06b	-0.00387385
252	0xbd13c134	-0.036072925
253	0xbd3f460e	-0.04669767
254	0xbbd37a2f	-0.0064537744
255	0x3d9cbdbc	0.076533765

weight_hh_l0 f4 [512, 128]
0	0xbdbf645e	-0.093453154
1	0xbd651bdd	-0.055934776
2	0x3d90df13	0.07073798
3	0x3d905dbd	0.07049129
4	0x3cdabc33	0.026701069
5	0x3d852125	0.065004624
6	0xbce23e2d	-0.027617538
7	0xbd51a7a0	-0.05118525
8	0xbcc415d8	-0.023936197
9	0x3cb6ca23	0.022313183
10	0x3d5d7bcd	0.054073144
11	0x3c087b4a	0.008330176
12	0xbd8895ed	-0.06669221
13	0xbd60dfec	-0.05490105
14	0xbd69a157	-0.05703863
15	0xbd17eebe	-0.037092917
16	0xba80762c	-0.0009800843
17	0x3be792a6	0.0070670424
18	0x3d81c717	0.063368015
19	0xbd76a657	-0.060217228
20	0x3c39f346	0.011349505
21	0xbcd32eb5	-0.025779108
22	0xbd3f9ce2	-0.046780474
23	0xbd99d1fb	-0.07510754
24	0xbd1991ea	-0.03749267
25	0xbd10b544	-0.03532912
26	0xbcfbf9b6	-0.03075872
27	0xbd010408	-0.031497985
28	0xbdad9f70	-0.08477676
29	0x3cd9cd2a	0.026587088
30	0x3d5d2596	0.053990923
31	0x3d73c2c7	0.059511926
32	0x3da27f31	0.07934416
33	0xbd25ad49	-0.04044846
34	0x3d886506	0.06659894
35	0xbd981d6b	-0.07427486
36	0x3d358182	0.04431296
37	0xbd965f3d	-0.07342384
38	0x3cccb13b	0.024986854
39	0xbc5f3668	-0.013623811
40	0x3d5e2fb0	0.054244697
41	0x3da820e0	0.082093954
42	0x3d2a8866	0.041633986
43	0xbd90f203	-0.0707741
44	0x3d73cd6a	0.05952207
45	0x3c6a794e	0.014311148
46	0x3d59e288	0.053194553
47	0xbcb2a9de	-0.021809515
48	0x3d931aca	0.07182844
49	0x3d25e7c6	0.04050424
50	0xbcfc9c6d	-0.030836308
51	0x3b0e1b6d	0.0021683828
52	0x3b931a44	0.004489215
53	0x3c3579ae	0.011076374
54	0x3cc91bc3	0.02454937
55	0xbc9c688b	-0.019092819
56	0xbdabc524	-0.08387211
57	0xbd48ac59	-0.04899249
58	0x3d85bca0	0.06530118
59	0xbd34d6bb	-0.044150095
60	0xbcf09004	-0.029365547
61	0xbcc4b4cc	-0.024011992
62	0x3d4c88ca	0.04993514
63	0xbd6fe357	-0.058566418
64	0x3db442d2	0.088018075
65	0xbd902ce9	-0.07039816
66	0x3d82cc5b	0.06386634
67	0xbd59cc55	-0.05317338
68	0x3d1d8272	0.03845448
69	0xbccdd3ea	-0.025125463
70	0xbda4f2e7	-0.080541424
71	0xbdb10309	-0.08643157
72	0x3d086461	0.033298854
73	0x3d36970f	0.044577654
74	0x3d23b090	0.039963305
75	0x3c40b753	0.011762458
76	0x3d28a67e	0.041174404
77	0xbc5e644f	-0.01357372
78	0x3d873516	0.06601922
79	0x3dbd3814	0.09239212
80	0x3721f522	9.653422e-06
81	0xbc2d1d4c	-0.010566067
82	0xbc0dee37	-0.008662752
83	0xbd83f193	-0.06442561
84	0xbd3f2cdc	-0.04667364
85	0xbd926e2a	-0.071499184
86	0x3d71a048	0.058990747
87	0xbd633bd6	-0.055476986
88	0xbd56418b	-0.0523086
89	0x3d538c5c	0.05164753
90	0xbcd3217f	-0.025772808
91	0xbd7ad09b	-0.061234098
92	0x3cb7f2dd	0.022454673
93	0xbd5286ba	-0.051398017
94	0x3db78948	0.08961731
95	0x3d1199a3	0.03554691
96	0xbccc4c1f	-0.024938641
97	0xbd1dc358	-0.038516372
98	0xbcc71d89	-0.024306076
99	0xbda4f041	-0.08053637
100	0x3d3f38ea	0.046685137
101	0xbbdc0571	-0.006714516
102	0x3db26ba2	0.087119356
103	0xbd28b018	-0.04118356
104	0xbc88e800	-0.016712189
105	0xbd67a56a	-0.056554236
106	0xbd4a5432	-0.0493967
107	0xbd258dde	-0.0404185
108	0x3c610b7f	0.013735651
109	0x3c598d84	0.013278369
110	0x3d23579a	0.039878465
111	0xbda39068	-0.07986528
112	0xbbe6a55d	-0.007038756
113	0x3c614b37	0.013750843
114	0x3cfacbbc	0.030614726
115	0xbbd80954	-0.006592909
116	0x3ac3bfe9	0.0014934513
117	0xbda076d3	-0.07835164
118	0xbd850b9c	-0.06496355
119	0x3d231584	0.03981544
120	0x3d602db8	0.0547311
121	0xbdb2a777	-0.08723348
122	0x3d996a86	0.07491021
123	0x3db0be29	0.0863002
124	0x3d621c14	0.05520256
125	0xbda73627	-0.081646256
126	0xbd53d8de	-0.051720493
127	0x3db31b2d	0.08745418
128	0xbc17fd7c	-0.009276744
129	0xbcb23942	-0.021755818
130	0xbd50cb26	-0.050974987
131	0xbcf7897d	-0.030216927
132	0xbdb34d08	-0.08754927
133	0xbc2482a5	-0.010040914
134	0xbd953264	-0.07285002
135	0x3d841c3c	0.06450698
136	0xbdb9d253	-0.09073319
137	0x3da36625	0.07978467
138	0xbc1b11a9	-0.00946466
139	0x3da3bf60	0.07995486
140	0x3c5a95a9	0.013341346
141	0xbd680dfd	-0.056653965
142	0x3ca6e4fe	0.020372864
143	0xbd79c238	-0.060976237
144	0xbd1801bf	-0.03711104
145	0x3bf03967	0.0073310616
146	0x3d980ab1	0.07423914
147	0xba82318b	-0.0009932978
148	0xbd547d21	-0.051877145
149	0xbd87e8e4	-0.06636217
150	0x3cb2ed5f	0.021841703
151	0x3c4fe015	0.012687703
152	0xba40a416	-0.00073486695
153	0x3d28ef07	0.04124358
154	0x3c89a05b	0.016800096
155	0xbd60e9fa	-0.054910637
156	0x3c7ebecb	0.015548418
157	0xbc8e2599	-0.017351912
158	0x3d2b13a7	0.04176679
159	0xbcdb951f	-0.026804505
160	0xbd78c1a9	-0.060731564
161	0x3c4a8e72	0.012363063
162	0xbd7f9352	-0.062396355
163	0xbcfad2d7	-0.030618114
164	0x3da1dd5b	0.07903548
165	0x3cf59fa9	0.029983358
166	0x3d301438	0.042988032
167	0x3ceb67af	0.028735964
168	0x3db2b85c	0.0872657
169	0x3da70900	0.081560135
170	0xbd811ca8	-0.06304294
171	0x3d73d6dd	0.05953108
172	0xbd245236	-0.040117465
173	0xbcd7dc99	-0.026350306
174	0x3cccc590	0.024996549
175	0x3cc8a1b2	0.024491165
176	0xbd738c0d	-0.059459735
177	0x3cf10573	0.029421544
178	0xbbe6e3af	-0.007046185
179	0xbd2e63d7	-0.042575683
180	0xbd8eea76	-0.069783136
181	0x3da7e519	0.08197994
182	0xbd5973c1	-0.053088907
183	0xbb036146	-0.0020046993
184	0xbaf6a126	-0.0018816337
185	0xbc026c8d	-0.007960451
186	0x3d8a0c7a	0.06740661
187	0x3d8fde68	0.070248425
188	0x3dab05f1	0.083507426
189	0xbd826605	-0.06367115
190	0x3d454f35	0.04817124
191	0xbc136531	-0.008996294
192	0xbd9fb4d3	-0.07798161
193	0xbcdce001	-0.026962282
194	0xbcf788c8	-0.03021659
195	0x3d933a05	0.07188801
196	0xbd1c1287	-0.038103607
197	0xbcb25103	-0.021767145
198	0xbbdca6d8	-0.0067337565
199	0x3d9f2aea	0.07771857
200	0x3d181319	0.037127588
201	0x3d81a63c	0.06330535
202	0xbcf80e47	-0.030280245
203	0xbd982615	-0.074291386
204	0x3d6f3c5f	0.058407184
205	0xbd897614	-0.06711975
206	0xbd871bc4	-0.06597093
207	0xbd998a43	-0.074970745
208	0x3d005bb5	0.03133746
209	0x3da367bd	0.07978771
210	0xbdaae9e9	-0.08345396
211	0xbc42bf0a	-0.011886368
212	0x3d7bb136	0.0614483
213	0x3d9565a8	0.0729478
214	0xbd6bcf2e	-0.05757063
215	0x3d9fea3f	0.07808351
216	0x3db6d113	0.089265965
217	0x3d5c7189	0.053819213
218	0x3d5d4167	0.05401745
219	0xbce4a360	-0.027909935
220	0x3d4cd78a	0.05001024
221	0xbda0c3e9	-0.07849867
222	0xbc22175a	-0.009893263
223	0x3d8ef7f0	0.06980884
224	0xbd87d507	-0.066324286
225	0xbcfdaf1f	-0.030967293
226	0xbda79b72	-0.08183946
227	0xbc766807	-0.0150394505
228	0x3cbe1bf7	0.023206694
229	0x3af9e067	0.001906407
230	0xbd56bf6d	-0.05242865
231	0xbc6d1523	-0.014470371
232	0x3d16ba96	0.036799036
233	0xbca6144e	-0.020273354
234	0x3d4a46f7	0.049384084
235	0x3d0bcccf	0.034130868
236	0x3d1426aa	0.036169685
237	0xbd4c72b2	-0.04991407
238	0xbcd2c2f0	-0.025727719
239	0x3ce9379a	0.028468896
240	0xbda9dce5	-0.082940854
241	0x3d8187f9	0.06324763
242	0x3d9f6ced	0.07784448
243	0xbd2d5cc2	-0.04232479
244	0x3daec790	0.08534157
245	0x3c8f8531	0.017519565
246	0xbd2915cd	-0.041280556
247	0x3d86e9c0	0.06587553
248	0x3d6c4596	0.05768355
249	0x3cf9ef31	0.030509563
250	0x3d1c377f	0.038138863
251	0xbc3f56e0	-0.011678427
252	0xbcd17daa	-0.025572617
253	0xbd2fe491	-0.042942587
254	0x3cac13bb	0.021005502
255	0x3ccd8616	0.025088351

bias_ih_l0 f4 [512]
0	0x3e01ecc9	0.12687983
1	0xbd253782	-0.04033614
2	0x3d0a8afd	0.033823956
3	0x3df9baa9	0.12193806
4	0x3e0a48be	0.13504311
5	0x3e3a3a26	0.18186244
6	0x3def8382	0.11695005
7	0x3e7817f3	0.24227886
8	0x3d0c9f94	0.034331873
9	0x3e2824ee	0.16420338
10	0xbcc8179a	-0.024425317
11	0x3dcc3626	0.099712655
12	0x3e130403	0.14356999
13	0x3d54bddb	0.051938873
14	0x3d8c668a	0.06855495
15	0x3d0138ee	0.031548433
16	0x3ca2e0d5	0.019882599
17	0x3da0dd00	0.078546524
18	0x3d54fc85	0.051998634
19	0x3d82eda6	0.06392984
20	0x3e004e4d	0.1252987
21	0x3d103a0d	0.03521161
22	0x3e6a4534	0.22877961
23	0x3cde733a	0.027154554
24	0x3dc657ab	0.0968469
25	0x3e48bd6f	0.19603513
26	0x3d9a530f	0.075353734
27	0x3dd89ac4	0.10576394
28	0x3de1db12	0.110281125
29	0x3dd436c5	0.10362009
30	0x3d8eee49	0.06979043
31	0x3d9af890	0.07566941
32	0x3d9ffaac	0.07811484
33	0x3d99e379	0.0751409
34	0x3c5c75cb	0.013455818
35	0x3e02dc35	0.12779315
36	0x3d8ba6da	0.06818934
37	0x3d6ae64e	0.057348542
38	0x3de9add7	0.114101104
39	0x3e0eab70	0.13932586
40	0x3e110d37	0.14165197
41	0xbd40583a	-0.04695914
42	0x3daf1f55	0.08550898
43	0xbd0703ee	-0.032962732
44	0x3dd1b90d	0.10240374
45	0x398c07c4	0.00026708667
46	0x3e69ff7b	0.22851364
47	0x3d9841a6	0.074343964
48	0x3e2430c9	0.16034235
49	0x3ec32b80	0.38119125
50	0x3db77cdd	0.08959363
51	0x3e597298	0.2123512
52	0x3cf57e8b	0.029967567
53	0x3e92f91b	0.28705677
54	0x3e2d0fb7	0.16900526
55	0x3dc9d97b	0.09855934
56	0x3e6d218f	0.23157333
57	0x3dbda12c	0.09259257
58	0x3e2cf4f7	0.16890322
59	0x3e14f883	0.14547925
60	0x3d7400e1	0.05957115
61	0x3d7a1f42	0.061064966
62	0x3e03d838	0.1287545
63	0x3e1acd7b	0.15117447
64	0xbc05d2fa	-0.0081679765
65	0x3ddf1184	0.10892013
66	0x3e3c4f38	0.18389595
67	0x3e14a78a	0.14517036
68	0x3d2dae7e	0.042402737
69	0x3e033ef2	0.1281698
70	0x3e3f3f11	0.18676402
71	0x3e416ff9	0.1889037
72	0x3e140e0b	0.14458482
73	0x3dad9bb5	0.084769644
74	0x3da0c114	0.07849327
75	0x3d7aac40	0.061199427
76	0x3de8659b	0.11347505
77	0x3e5157e7	0.20443688
78	0x3e8982cd	0.26857606
79	0x3e0cc2f7	0.13746248
80	0x3e040caf	0.12895463
81	0x3c64be94	0.013961453
82	0xbcfacb9b	-0.030614665
83	0x3d4be3ac	0.04977767
84	0x3badfa51	0.005309381
85	0x3e69739c	0.22798008
86	0x3e2257b5	0.1585377
87	0x3d82b6af	0.063825004
88	0x3ddaa205	0.10675434
89	0x3d7b9f12	0.061431
90	0x3c3cb6fe	0.011518238
91	0x3d8f4a93	0.06996646
92	0x3e2abc41	0.16673376
93	0x3d8d4665	0.06898192
94	0x3e2c3db7	0.16820417
95	0x3d857de9	0.06518156
96	0x3e276f84	0.16351134
97	0x3e17d874	0.14828664
98	0x3d9e8f99	0.07742233
99	0x3c8f9680	0.017527819
100	0x3d7a812f	0.061158355
101	0x3e68a2a6	0.22718295
102	0x3c48840e	0.012238516
103	0x3e012d2a	0.12614885
104	0xbcbe68f6	-0.023243409
105	0x3e408bea	0.18803373
106	0x3cc464f5	0.023973921
107	0xbb9fe6b4	-0.004879797
108	0x3d1a78af	0.03771275
109	0x3dd9210c	0.10602006
110	0x3e4bcbdf	0.1990199
111	0x3e37197b	0.17880814
112	0x3df74297	0.12073248
113	0x3d9da617	0.07697695
114	0x3e83485e	0.2564115
115	0x3e4451a0	0.19171762
116	0x3dac0ebf	0.0840125
117	0x3e1b93d8	0.15193117
118	0x3e424015	0.18969758
119	0x3db21734	0.08695832
120	0xbc8e516b	-0.017372807
121	0x3dbce305	0.09222988
122	0x3de4fcb2	0.1118101
123	0x3c055fd0	0.008140519
124	0x3e3eaf1b	0.18621485
125	0x3cadeaec	0.021230184
126	0x3dd5d209	0.10440452
127	0x3da734f4	0.08164397
128	0x3d2b9f99	0.04190025
129	0xbd5664be	-0.05234217
130	0xbd174b99	-0.03693733
131	0x3d82e3a0	0.06391072
132	0xbd150b9e	-0.036388032
133	0x3d3ecd2f	0.046582397
134	0x3d507fa1	0.050902966
135	0x3da770cc	0.08175811
136	0x3d0a5139	0.033768866
137	0x3e01c81b	0.1267399
138	0xbceec8f5	-0.029148558
139	0xbd319d97	-0.04336318
140	0x3cfd0e8c	0.030890726
141	0x3caf37e9	0.021388965
142	0xbd6e18cf	-0.058129128
143	0x3ca9ee4f	0.020743517
144	0xbc003309	-0.007824668
145	0x3d99eb69	0.07515604
146	0x3c41e982	0.011835458
147	0x3d3b954c	0.045796677
148	0xbcf3dfa8	-0.029769734
149	0x3d302af0	0.0430097
150	0x3d558dff	0.05213737
151	0x3b6ffec6	0.0036620363
152	0xbb4229b6	-0.0029626912
153	0x3d8fa774	0.07014361
154	0xbcc22d58	-0.023703262
155	0x3cd8af0f	0.026450662
156	0x3ced09c3	0.028935319
157	0xbd8f0183	-0.0698271
158	0x3deaa96d	0.11458097
159	0xbbce59e7	-0.0062973383
160	0xbd224a10	-0.039621413
161	0x3dd083a5	0.10181359
162	0x3dd30611	0.103038915
163	0x3d05ea91	0.032694403
164	0xbccf52c0	-0.025308013
165	0x3d0cb57d	0.03435277
166	0x3de3b3d2	0.111182824
167	0xbcca4c94	-0.024694718
168	0x3d20a5e0	0.03922069
169	0xbd536a5f	-0.051615115
170	0x3cb17b4d	0.02166524
171	0xbcd5233c	-0.026017778
172	0xbd82c603	-0.06385424
173	0xbd9e2f44	-0.07723859
174	0x3d350b2a	0.0442001
175	0x3db1ee70	0.086880565
176	0x3daf4d78	0.08559698
177	0x3e20fb7e	0.15720937
178	0x3d21c28c	0.039492175
179	0x3c736fd7	0.014858208
180	0xbd0854a0	-0.03328383
181	0x3cd33a06	0.025784504
182	0x3dcf9e42	0.10137607
183	0xbcd58fd7	-0.026069565
184	0x3d1332be	0.035937063
185	0x3d776f6b	0.06040899
186	0x3d237582	0.039906986
187	0xbd1ef700	-0.038809776
188	0x3d5ca112	0.053864546
189	0x3da16092	0.078797475
190	0x3dfad593	0.12247767
191	0x3dba923a	0.09109922
192	0x3d289304	0.04115583
193	0x3c14ec5e	0.009089557
194	0x3e1f512c	0.15558308
195	0x3cbd0262	0.023072425
196	0x3e30b106	0.17255029
197	0x3ddbce46	0.10732703
198	0xbd2f25b0	-0.04276055
199	0xbb37d41a	-0.0028050006
200	0x3da0b651	0.07847274
201	0xbd29db9f	-0.041469213
202	0x3dfbc65f	0.12293696
203	0xbd211dfd	-0.03933524
204	0xbc273d13	-0.010207432
205	0x3e4ee561	0.20204689
206	0x3d5b373e	0.05351948
207	0x3dc54883	0.09632971
208	0xbce30335	-0.02771149
209	0x3db75268	0.089512646
210	0x3d450fa6	0.048110627
211	0x3e02dcf5	0.12779601
212	0xbbc06670	-0.0058715865
213	0xbc55b93b	-0.013044651
214	0x3dfc2dc7	0.12313419
215	0x3d2f4845	0.04279353
216	0xbcc2dfcb	-0.023788353
217	0x3d1689d6	0.036752544
218	0x3db9de2f	0.09075581
219	0x3e06220d	0.13098927
220	0x3e428f60	0.19000006
221	0xbb84454c	-0.004036581
222	0xbc260972	-0.010134088
223	0x3de3edbb	0.11129328
224	0x3d921863	0.07133558
225	0x3e1652f9	0.14680089
226	0x3d511122	0.05104173
227	0x3d9c5df2	0.07635106
228	0x3ddcfa3c	0.10789916
229	0x3cf0bc30	0.02938661
230	0x3d473bb1	0.04864091
231	0xbd402004	-0.046905532
232	0x3d9fd70f	0.07804691
233	0xbcb423f3	-0.021989798
234	0x3d8747b9	0.06605477
235	0xbceb1fb1	-0.028701635
236	0x3b375dab	0.0027979414
237	0xbcd03121	-0.025414051
238	0x3d8782d1	0.06616748
239	0x3df4808a	0.119385794
240	0x3d4bc894	0.049751833
241	0x3db9a570	0.09064758
242	0x3da0ed99	0.07857818
243	0x3df595b4	0.11991444
244	0x3d9ad28a	0.075596884
245	0x3d49456c	0.04913847
246	0x3dfb5b23	0.12273242
247	0x3d94d707	0.07267576
248	0x3dcb53c5	0.09928087
249	0x3dae90c3	0.08523705
250	0x3c2ac16d	0.010422093
251	0x3d3c5a20	0.045984387
252	0x3c469ac5	0.012121861
253	0x3ce6c5c3	0.028170472
254	0x3e110c4b	0.14164846
255	0xbd4067f1	-0.046974126

bias_hh_l0 f4 [512]
0	0x3e1eecca	0.15520015
1	0x3dce3336	0.100683615
2	0x3dd5eb3b	0.10445257
3	0x3d5f40a5	0.05450501
4	0x3dfc345e	0.12314676
5	0x3caa39e6	0.020779561
6	0x3a099396	0.0005248127
7	0x3e1f6aa8	0.1556803
8	0x3d68adad	0.056806255
9	0x3e62549f	0.22102593
10	0x3d8b3411	0.0679704
11	0x3de98b66	0.11403541
12	0x3e1ab122	0.15106633
13	0x3db5b7a2	0.08872916
14	0xbce0eb20	-0.027455866
15	0xbc038bd3	-0.008028942
16	0xbd4de38d	-0.050265837
17	0x3d4d8d09	0.05018333
18	0x3c5bb1a4	0.013409052
19	0x3cbd9817	0.023143811
20	0x3e38c993	0.18045644
21	0x3dab16cd	0.08353958
22	0x3dbd6c82	0.09249212
23	0x3d74ef16	0.059798323
24	0x3dc2ed86	0.0951796
25	0x3d845d37	0.06463092
26	0x3e301da6	0.1719881
27	0x3e009b05	0.12559135
28	0x3c5694af	0.013096972
29	0xba2015db	-0.00061067723
30	0x3ca6ee9d	0.020377452
31	0x3e271a37	0.16318594
32	0x3b8fde47	0.004390511
33	0x3d976839	0.07392926
34	0x3d90ff9c	0.070800036
35	0x3e19567f	0.14974402
36	0x3d9cde8b	0.07659634
37	0x3b974ab3	0.004617059
38	0x3cecc16c	0.028900824
39	0x3dc11858	0.09428471
40	0x3d9fe084	0.07806495
41	0xbcd0a8cc	-0.025471114
42	0x3e2483c1	0.16065885
43	0x3dc4d7c1	0.09611464
44	0x3e04e5e7	0.12978326
45	0x3bee4886	0.007271829
46	0x3e776873	0.24160938
47	0x3df0e6a8	0.11762744
48	0x3dfb181a	0.122604564
49	0x3e9b9d10	0.30393267
50	0x3c4162f0	0.011803374
51	0x3e0bc78d	0.13650341
52	0x3d6b941c	0.057514295
53	0x3e777d70	0.24168944
54	0x3dbff3b6	0.09372656
55	0xbc8a92c2	-0.016915683
56	0x3e4a3879	0.19748105
57	0xba32c199	-0.00068190094
58	0x3dd2a30c	0.10285005
59	0x3e1ac5a3	0.15114455
60	0xbc07e751	-0.008294896
61	0x3cce59df	0.025189338
62	0x3d57ac6c	0.05265467
63	0x3e272672	0.1632326
64	0xbc22ff75	-0.009948601
65	0xbcf7846e	-0.030214515
66	0x3e1c5849	0.15268053
67	0x3dd5bc9f	0.10436367
68	0x3e33c7b5	0.17556651
69	0x3d92e8ec	0.071733326
70	0x3e0c91a2	0.1372743
71	0x3dc68d74	0.09694949
72	0x3d8d498c	0.068987936
73	0x3b98edef	0.004667036
74	0x3e046416	0.12928805
75	0x3e204f68	0.15655291
76	0x3cbede67	0.02329941
77	0x3e7218fd	0.23642345
78	0x3e8bcca1	0.27304557
79	0x3e37a215	0.17932923
80	0x3e061685	0.13094528
81	0x3e139658	0.1441282
82	0x3dc49a82	0.095997825
83	0x3b25e209	0.002531173
84	0xbd4df6b9	-0.05028412
85	0x3e34d7c2	0.1766043
86	0x3d803b98	0.062613666
87	0x3dbad2da	0.09122248
88	0x3e1ef7b7	0.15524183
89	0x3e0c73c2	0.13716033
90	0x3d5395ab	0.051656406
91	0x3e018551	0.12648512
92	0x3da56265	0.08075408
93	0x3dfbfc68	0.12304002
94	0x3db7e197	0.08978575
95	0x3c876c0a	0.01653101
96	0x3de9ef89	0.11422641
97	0x3e53d437	0.20686422
98	0x3db377c8	0.08763081
99	0x3dc6e030	0.09710729
100	0x3e0efa7d	0.13962741
101	0x3dba4b1c	0.09096357
102	0x3d0ac19e	0.033876054
103	0x3caa96de	0.020823892
104	0x3e135c73	0.14390735
105	0x3dc77f80	0.097411156
106	0xbb4a5814	-0.0030875253
107	0x3ced28a7	0.028950049
108	0x3dbdb8ef	0.09263789
109	0x3d275731	0.040854637
110	0x3e3356ca	0.17513576
111	0x3e003021	0.1251836
112	0x3e585a94	0.21128303
113	0x3d9701b1	0.073733695
114	0x3e6c2364	0.23060375
115	0x3dda1c26	0.106499
116	0x3e1ced11	0.15324809
117	0x3e2df80a	0.1698915
118	0x3defac31	0.11702765
119	0x3dcd920b	0.10037621
120	0xbd656b4f	-0.05601054
121	0x3e26deca	0.16295925
122	0x3e38e837	0.18057333
123	0x3d8f07d6	0.069839165
124	0x3d908978	0.0705747
125	0x3e305c87	0.17222796
126	0x3d7ac88b	0.06122641
127	0x3727d605	1.0003806e-05
128	0x3c60ed53	0.0137284575
129	0xbcbade4e	-0.022811081
130	0xba7a9e42	-0.00095603254
131	0xbc5e3936	-0.013563445
132	0x3c78dd7c	0.015189525
133	0x3c98a9de	0.018635686
134	0xbcbfe14b	-0.023422858
135	0x3d27fdf7	0.041013684
136	0x3cda3e1a	0.02664094
137	0x3dcd1b44	0.10014966
138	0xbd70b023	-0.058761727
139	0x3d5adabb	0.053431254
140	0xbac8db65	-0.0015324174
141	0x3c806a0d	0.015675569
142	0xbd35faa7	-0.044428494
143	0xbd270c0f	-0.040782984
144	0xbd6eedef	-0.05833238
145	0x3ded9069	0.1159981
146	0x3da427ef	0.08015429
147	0xbccd43e2	-0.025056783
148	0xbb8705d1	-0.0041205664
149	0x3dc2f6af	0.095197074
150	0x3cc6c8c0	0.024265647
151	0x3dc2e140	0.09515619
152	0x3d155e85	0.036467094
153	0x3dcedc02	0.10100557
154	0x3d3cf053	0.04612763
155	0x3dd47921	0.10374666
156	0xbd155ca5	-0.036465306
157	0xbce0510f	-0.027382402
158	0x3d82441f	0.06360649
159	0x3d611efb	0.054961186
160	0x3d09a4f7	0.03360459
161	0x3d77b4d3	0.06047518
162	0x3dba174b	0.09086474
163	0xbb74180c	-0.0037245778
164	0x3d11f41b	0.035633188
165	0x3de034b2	0.10947551
166	0x3e09d87d	0.1346149
167	0x3c351af2	0.011053788
168	0xbcbf7656	-0.023371857
169	0x3cebe6af	0.028796522
170	0x3d789f07	0.060698535
171	0xbb8525b3	-0.004063332
172	0xbd6c4817	-0.057685938
173	0x3d3190ee	0.043351106
174	0xbbe53395	-0.0069946744
175	0xbc7895c6	-0.0151724275
176	0xbcb3782c	-0.021907888
177	0x3e0f95ab	0.14021938
178	0x3c02c434	0.007981349
179	0x3c1d1061	0.009586425
180	0x3dcbbd85	0.09948257
181	0x3e1970ad	0.14984389
182	0x3d4d309c	0.050095186
183	0xbceceade	-0.028920587
184	0x3d86d4b7	0.06583541
185	0xbc81def8	-0.01585339
186	0x3da28e64	0.07937315
187	0xbb66d47d	-0.0035221868
188	0xbd5642d4	-0.052309826
189	0x3d9e42e8	0.07727605
190	0x3e0c2ef7	0.1368979
191	0x3d92a9b0	0.071612716
192	0x3dad2a86	0.08455376
193	0x3d268603	0.040655147
194	0x3d69962d	0.057027984
195	0x3d985eba	0.07439943
196	0x3df041c4	0.11731294
197	0x3d9e2afe	0.07723044
198	0xbd435489	-0.04768804
199	0x3e059116	0.13043627
200	0xbcd908c1	-0.026493432
201	0x3dabdb12	0.08391394
202	0x3dc52432	0.09626044
203	0x3d7a0bd4	0.061046436
204	0x3c0fe4ce	0.008782579
205	0x3dbdc5c8	0.092662394
206	0x3e22ab5e	0.15885684
207	0x3ccf161c	0.025279097
208	0x3db780b3	0.08960094
209	0xbcd3066e	-0.025759902
210	0xbc19e4e9	-0.009392955
211	0xbd11652c	-0.035496876
212	0x3d7c2fd6	0.061569057
213	0x3e0044d0	0.1252625
214	0xbbe57183	-0.007002057
215	0xbd0ce277	-0.03439566
216	0x3d0eab97	0.03483161
217	0x3d76f371	0.060290758
218	0x3db2ce65	0.08730773
219	0x3d60ae0b	0.05485348
220	0x3e183178	0.14862621
221	0xbbdfc4e9	-0.0068288934
222	0x3a1dc303	0.0006018134
223	0x3d649017	0.055801477
224	0x3dc131eb	0.09433349
225	0x3dd535eb	0.10410675
226	0x3cc0f4f3	0.0235543
227	0x3d621f34	0.05520554
228	0x3c97cfeb	0.01853176
229	0x3d128f81	0.035781387
230	0xbd8a3d67	-0.06749993
231	0xbc02f9f4	-0.007994164
232	0xbd032077	-0.032013383
233	0x3ca72ab9	0.020406114
234	0x3d612750	0.054969132
235	0x3dace2f5	0.08441726
236	0x3d641ee6	0.05569353
237	0x3c9ce356	0.019151371
238	0x3dd159e1	0.10222221
239	0x3d9a6721	0.075392015
240	0x3daaabb3	0.0833353
241	0x3c8dbf20	0.01730305
242	0x3a97e860	0.0011589639
243	0x3e0de681	0.13857462
244	0x3d442c63	0.047893893
245	0x3e00313c	0.12518781
246	0x3d801037	0.06253093
247	0x3d809d4b	0.06280001
248	0xbd58d788	-0.05293992
249	0x3dc33d17	0.09533136
250	0x3dcd5df9	0.100276895
251	0xbcae75c4	-0.02129639
252	0x3d1362fb	0.035983067
253	0xbccab432	-0.024744127
254	0x3dc21cd2	0.09478153
255	0xbcac3286	-0.021020185

weight f4 [40, 186]
0	0x3f046377	0.5171427
1	0xbd7019cd	-0.058618356
2	0xbdd19a31	-0.10234488
3	0xbea85268	-0.3287537
4	0xbc8b147a	-0.016977537
5	0xbdae8237	-0.0852093
6	0xbeba1205	-0.36341873
7	0xbe9a2ac3	-0.3011075
8	0xbe86e4da	-0.26346475
9	0xbc7431dd	-0.014904466
10	0xbe85f1ac	-0.26160944
11	0x3e2750cd	0.16339417
12	0xbe3b5a34	-0.18296129
13	0x3d388e81	0.045057777
14	0x3f33490a	0.70033324
15	0x3c6656e6	0.014058804
16	0xbd3cc818	-0.04608926
17	0xbe94a04f	-0.29028556
18	0x3f0c1132	0.5471374
19	0xbed8061a	-0.42192155
20	0xbe096802	-0.13418582
21	0xbcc8254b	-0.024431845
22	0xbc441d01	-0.011969806
23	0xbc254feb	-0.010089855
24	0xbd391b19	-0.045191858
25	0x3ecaacba	0.39584905
26	0x3d858899	0.065201946
27	0x3d767409	0.060169253
28	0xbd48eeaf	-0.04905575
29	0xbd3efada	-0.04662595
30	0x3d5ade1b	0.053434473
31	0xbcb9a854	-0.022663273
32	0x3cad4ff0	0.021156281
33	0xbd66ebe1	-0.056377295
34	0xbbabe591	-0.0052458723
35	0x3bc46540	0.0059935153
36	0xbd854c8a	-0.06508739
37	0x3d5ddae6	0.054163836
38	0x3d22fb94	0.039790705
39	0xbcfa5a86	-0.030560743
40	0xbd0e9c3b	-0.03481696
41	0x3d84897f	0.06471538
42	0xbd53d03c	-0.05171226
43	0x3cd7b9c4	0.026333697
44	0x3cabb040	0.020958066
45	0xbd8d18ac	-0.068894714
46	0x3d0bf11c	0.034165487
47	0x3b8a87c0	0.0042276084
48	0x3d7d230a	0.061800994
49	0x3abf80c0	0.0014610514
50	0xbd2c3203	-0.042039882
51	0xbd2cd86e	-0.04219859
52	0xbd78a402	-0.060703285
53	0xbd410d5d	-0.047131885
54	0xbcb378f2	-0.021908257
55	0x3d4027f0	0.046913087
56	0x3d525fec	0.05136101
57	0x3d34b83a	0.044121005
58	0xbe2fc296	-0.17164072
59	0x3dd5ab9b	0.10433122
60	0xbd1c9fb4	-0.038238242
61	0xbcfc700c	-0.030815147
62	0xbdd5beaa	-0.10436757
63	0x3ca189e9	0.019719081
64	0xbd9e5055	-0.07730166
65	0xbe14f977	-0.14548288
66	0xbd7238c3	-0.059136163
67	0x3e31d851	0.17367674
68	0x3ce93037	0.028465373
69	0x3d48f1d3	0.049058747
70	0x3e03bf20	0.12865877
71	0x3c987b82	0.01861358
72	0x3cd27250	0.025689274
73	0xbe060f46	-0.13091764
74	0x3cf6bc17	0.030118985
75	0x3dfb4f16	0.12270944
76	0x3cf0d19a	0.02939682
77	0xbd866d92	-0.06563868
78	0xbe005015	-0.12530549
79	0xbcbf3814	-0.02334217
80	0x3e1a1d59	0.15050258
81	0x3dbccf19	0.09219188
82	0xbdce04b8	-0.10059494
83	0xbd22faba	-0.039789893
84	0xbdfe038a	-0.12403019
85	0xbc6a7ec1	-0.014312447
86	0x3d80f0c2	0.06295921
87	0x3ce89045	0.028389106
88	0x3db52990	0.08845818
89	0x3e59539c	0.212233
90	0xbba4aeb7	-0.0050257104
91	0xbd1d735b	-0.03844009
92	0x3d2e1b38	0.042506427
93	0xbddb812b	-0.10717996
94	0x3db7b900	0.08970833
95	0xbd88a061	-0.06671215
96	0x3d75a09a	0.059967615
97	0xbd1c77f3	-0.03820033
98	0x3dd41826	0.103561684
99	0x3d987a0d	0.07445154
100	0xbd8dfaa6	-0.06932573
101	0xbd39f94d	-0.045403767
102	0x3d8cc59f	0.06873631
103	0x3dd17ad0	0.10228503
104	0xbd3cd632	-0.04610271
105	0x3d0db6fc	0.034598336
106	0x3e28fc4f	0.16502498
107	0x3e3113a1	0.17292644
108	0xbd5f3ad8	-0.054499477
109	0xbd797f80	-0.06091261
110	0x3dd87afa	0.10570331
111	0x3e7fb283	0.2497044
112	0x3e26658c	0.16249675
113	0xbd0ebefe	-0.034850113
114	0x3e001517	0.12508045
115	0xbdf80ad4	-0.1211144
116	0xbe30b056	-0.17254767
117	0x3e1886e6	0.1489521
118	0x3ca11300	0.01966238
119	0xbc584800	-0.01320076
120	0x3d188b10	0.037241995
121	0x3d621e54	0.055204704
122	0xbdf5881c	-0.119888514
123	0xbc2bd6bf	-0.010488211
124	0xbe3fc81f	-0.18728684
125	0x3dacd5db	0.08439227
126	0xbe0c25db	-0.13686316
127	0x3df2f3f1	0.118629344
128	0x3e4d29a0	0.2003541
129	0x3d1c2476	0.03812071
130	0xbe1cfd62	-0.15331033
131	0x3c111f93	0.008857626
132	0xbd510c9a	-0.05103741
133	0x3db89d00	0.090143204
134	0x3d30830b	0.043093722
135	0xbe2be440	-0.16786289
136	0x3e7ff593	0.24996023
137	0x3d99de31	0.07513083
138	0x3d0cae1b	0.034345727
139	0x3da4f6c1	0.08054877
140	0xbdb0d95b	-0.08635207
141	0xbca03912	-0.019558463
142	0xbd653d28	-0.055966526
143	0xbd9a97d4	-0.0754849
144	0x3dd30de0	0.10305381
145	0x3e3ff338	0.18745124
146	0xbd92fdca	-0.07177313
147	0x3e129f3a	0.14318553
148	0xbdbf39a0	-0.09337163
149	0xbbd7069e	-0.006562068
150	0x3e083579	0.13301648
151	0x3dc01470	0.09378898
152	0x3d89be94	0.06725803
153	0x3db641a6	0.0889924
154	0xbd15ad6f	-0.036542352
155	0xbdc954db	-0.09830638
156	0xbd247790	-0.040153086
157	0x3d2771af	0.0408799
158	0xbe2287c2	-0.158721
159	0x3e70e310	0.23524117
160	0xbd965719	-0.07340831
161	0xbdd72507	-0.10505109
162	0xbe1147b2	-0.14187506
163	0xbd808a99	-0.062764354
164	0x3d739680	0.0594697
165	0x3c567ba1	0.013090999
166	0xbd7e9e55	-0.062162716
167	0xbc146ca2	-0.009059103
168	0xbe212d24	-0.15739876
169	0x3d0dc775	0.034614045
170	0xbe850fa1	-0.25988486
171	0x3e0ed0b4	0.13946801
172	0x3d5c4770	0.053779066
173	0xbd939a38	-0.07207149
174	0x3ca90dfd	0.020636553
175	0x3d651d67	0.055936243
176	0xbd4dfd10	-0.050290167
177	0xbd17193a	-0.036889292
178	0xbd09afcc	-0.03361492
179	0x3d644c1b	0.055736642
180	0x3cfa03a0	0.030519307
181	0x3d8a955f	0.067667715
182	0xbda18492	-0.07886614
183	0x3c8c6c98	0.017141625
184	0xbdf76209	-0.120792456
185	0xbd6b06a2	-0.057379372
186	0xbebe3443	-0.37149248
187	0x38bbda80	8.957554e-05
188	0xbe0dc66c	-0.13845223
189	0x3d822749	0.06355149
190	0x3f21d079	0.6320873
191	0xbc35d805	-0.011098866
192	0x3dfd6d95	0.12374417
193	0x3f0e85e1	0.55673033
194	0xbf2e9677	-0.6819834
195	0xbd953508	-0.072855055
196	0x3e30a6ae	0.17251083
197	0x3cfb1a62	0.030652229
198	0xbc5a099b	-0.013307954
199	0x3deb17c9	0.11479146
200	0xbf2ca8b0	-0.67444897
201	0xbcb4fee4	-0.022094198
202	0xbd5a99ca	-0.05336932
203	0xbd38afc4	-0.0450895
204	0xbd57efa9	-0.052718792
205	0x3e8b9365	0.2726089
206	0xbe9adcfa	-0.30246717
207	0xbdbf4e63	-0.09341123
208	0x3d071aba	0.032984473
209	0xbb362e49	-0.0027798584
210	0x3ec2fbd7	0.38082764
211	0xbda10b81	-0.07863522
212	0x3c9d78e1	0.019222679
213	0x3cde98fa	0.027172554
214	0xbc683644	-0.014173094
215	0xbcca595e	-0.024700817
216	0xbd05c177	-0.032655206
217	0xbd78b24b	-0.06071691
218	0x3cd1d268	0.025613025
219	0x3d3e8e3e	0.04652237
220	0x3d225769	0.039634142
221	0x3d8d56fb	0.06901356
222	0x3c3b7040	0.011440337
223	0x3c8df24c	0.01732745
224	0x3bb35a30	0.0054733977
225	0xbd287ae0	-0.041132808
226	0xbd8e8ccb	-0.06960448
227	0x3a2a4600	0.0006495416
228	0xbd7934fc	-0.060841545
229	0x3d949747	0.07255416
230	0x3d91d883	0.071213745
231	0x3d133614	0.035940245
232	0x3d31402e	0.043274097
233	0xbd43eb9f	-0.047832128
234	0x3b3dda20	0.0028969124
235	0xbc83b4c2	-0.016077403
236	0xbc4a9ad0	-0.012366012
237	0xbccfc630	-0.025363058
238	0xbd939fc8	-0.0720821
239	0x39ae810e	0.0003328402
240	0x3c49a598	0.012307547
241	0x3d957923	0.072984956
242	0xbd063252	-0.032762833
243	0x3d683772	0.0566935
244	0xbdf5ef3f	-0.12008523
245	0xbd1914ab	-0.037373226
246	0xbe08d03d	-0.13360687
247	0x3d9f4baf	0.077781074
248	0xbd35d890	-0.044395983
249	0x3d770e9a	0.06031666
250	0x3cb820fe	0.02247667
251	0xbd39814e	-0.04528933
252	0xbd270108	-0.040772468
253	0x3e329146	0.1743823
254	0x3d5735f3	0.052541684
255	0xbd76aa3c	-0.060220942

bias f4 [40]
0	0xbebbb5ec	-0.36662233
1	0xbdbb5de5	-0.09148768
2	0xbd5b796d	-0.053582598
3	0xbe576235	-0.21033557
4	0xbd20bb35	-0.039241035
5	0x3d14884b	0.03626279
6	0xbe68378c	-0.2267744
7	0xbcd3e370	-0.025865287
8	0x3c789e82	0.01517451
9	0x3e9767c2	0.29571348
10	0x3e9c65d6	0.30546445
11	0xbe5bdc7a	-0.21470824
12	0xbd86a040	-0.06573534
13	0xbc163f9d	-0.00917044
14	0xbd2a9ce2	-0.04165352
15	0x3e2be0c5	0.16784962
16	0x3e72cf35	0.23711856
17	0x3e587354	0.21137744
18	0x3ee34212	0.44386345
19	0xbea5c387	-0.32375738
20	0xbd14fbaa	-0.036372818
21	0xbc00457d	-0.007829067
22	0xbecc66ba	-0.39922124
23	0x3e6c0b45	0.23051174
24	0x3f000075	0.500007
25	0xbd8308ff	-0.063982
26	0x3cd22039	0.02565013
27	0x3e6f56f3	0.23373012
28	0x3e6c0c0c	0.2305147
29	0x3e3887e5	0.1802059
30	0xbe5365e3	-0.20644335
31	0xbd198f03	-0.037489902
32	0xbe06c16f	-0.13159727
33	0xbea043e9	-0.3130181
34	0x3eccaaae	0.39973968
35	0x3dc0cd2e	0.09414135
36	0xbe22e04d	-0.15905876
37	0xbd051375	-0.03248926
38	0xbeeb24e4	-0.45926583
39	0xbd316116	-0.04330548

weight f4 [40]
0	0x41500000	13.0
1	0x41500000	13.0
2	0x41600000	14.0
3	0x40000000	2.0
4	0x41400000	12.0
5	0x40400000	3.0
6	0x41400000	12.0
7	0x41a80000	21.0
8	0x40000000	2.0
9	0x41200000	10.0
10	0x41b00000	22.0
11	0x40800000	4.0
12	0x40800000	4.0
13	0x40a00000	5.0
14	0x41c00000	24.0
15	0x41b80000	23.0
16	0x40e00000	7.0
17	0x3f800000	1.0
18	0x41500000	13.0
19	0x40800000	4.0
20	0x40400000	3.0
21	0x41b00000	22.0
22	0x40800000	4.0
23	0x41980000	19.0
24	0x41300000	11.0
25	0x41200000	10.0
26	0x41c80000	25.0
27	0x40c00000	6.0
28	0x41000000	8.0
29	0x41000000	8.0
30	0x41b80000	23.0
31	0x41980000	19.0
32	0x40000000	2.0
33	0x41400000	12.0
34	0x40e00000	7.0
35	0x41600000	14.0
36	0x41200000	10.0
37	0x3f800000	1.0
38	0x41c80000	25.0
39	0x41800000	16.0
