models/LSTM_model_6.pt (torch_old, 971616 bytes, 10 tensors)

weight_ih_l0 f4 [512, 58]
00000000: cc4b 81bd d54f 3f3d 05c6 e73c b4c7 713d
00000010: 0a73 273c 0d9b 79bd 10c1 66bd c859 12bd
00000020: 614d 66bc 199e babb 60ae b93c 84ae 413c
00000030: f85f 763d cb13 55bc fcb0 45bd 7541 4dbd
00000040: 70d4 5039 6837 393d fcfe 103d c20e 303c
00000050: 652e 003d d691 2e3d fbc0 91bc b089 143a
00000060: ffda 833d 6557 16bc 3562 273d 1449 943d
00000070: 38ed 783d 0f7c 123d 8778 ea3c ee1d 053d
00000080: 4785 a73d bb2e 7c3d 126e b9bc 20e6 36bc
00000090: 6b7f e1bc e192 753d bb2a 5ebd adcb 953d
000000a0: 5626 fc3c 27fb 2abd f7f3 6abd 4741 3ebc
000000b0: 128b fb3c ebf1 ac3d bb03 2ebd d350 35bd
000000c0: b4e7 b1bc 6f25 553c 6ecf 153d d999 70bd
000000d0: 8dda 8c3d 3ede 72bd c11d 593d 5492 f8bc
000000e0: 357e 513d fbe1 2c3d 694c 273d 186d a9bd
000000f0: 5604 9ebd 45c6 0a3d fe99 8bbd 78ad 423d
00000100: aac1 7ebd eaf6 b23c 76ec 303d a4cf 36bd
00000110: 79d6 253d 29e8 993b 8f2b 9bbd 88de c53b
00000120: dbb1 9dbd eff9 343d 356c b1bd b22e acbd
00000130: cfa1 01bc 7be6 fbbb 8765 07bd 0761 b63c
00000140: 4e4e e23c 9abb 70bd 104a 8dbc 28f9 ca3c
00000150: 735d 6cbc 7c5b 763d 010d 1dbc ba65 a7bd
00000160: 2179 c9bc af44 a93d 36cc 70bd 68b2 993d
00000170: c997 86bc 4bde d9bc eba7 85bd ae9e b1bc
00000180: 55c7 d53c fd13 99bd d262 53bc 4136 953d
00000190: ef7c ae3d 6394 e43c d1f2 963d 20c9 5abd
000001a0: 056c 883c 11f5 89bd ce22 b4bb 4c88 57bd
000001b0: 2c7f 6bbd 3034 9abd 868c 813b 427f 42bc
000001c0: fac9 a8bb fc04 9bbd 2cea af3d c65a 9a3d
000001d0: 5447 c2bc a753 843d 80b9 9b3d 63db af3d
000001e0: 4117 9e3d e9e4 3dbd 1764 01bd 4423 aa3d
000001f0: 37e7 b2bc 0b1a bdbc 512d 893d 26d3 4f3d
00000200: 9390 98bd 9858 a23d bf12 9d3d 7936 1fbd
00000210: 121c e0bb bdb3 52bd c035 b63d e2e2 60bd
00000220: a97a 20bc 651d 673d c503 8cbd f27c 24bd
00000230: 61d7 8cbd 8bda 73bc 7e15 c2bc 7e0d 45bd
00000240: c957 723c 8dd6 16bc 3ffa d0bc ee03 f3bb
00000250: f363 acbd 48df ba3c a559 923c 6a12 93bd
00000260: 8abf 83bd 10ad e53c 01c1 373d 7ea1 a03d
00000270: a28d e4bc 450c f8bc fd7b 533d c4c5 c53c
00000280: 6855 1c3d aa75 a63d 40c0 5d3c 0ec8 9ebd
00000290: 32e8 f9bb 9e6c 12bd 5117 0d3d 2a93 99bd
000002a0: 0af5 39bd f992 a3bd fec8 7d3d d868 62bc
000002b0: 2401 733d 1b07 a93c bf1c 8d3c 2c5e 23bd
000002c0: dd83 bd3b 04e6 ae3c c7be ca3d 37c6 74bd
000002d0: 7dd7 19bd a5fe 2a3d c0a9 683d 0b38 ab3c
000002e0: ddec b93c 399a 5d3c 358f 5abd 0f66 a4bc
000002f0: 5640 e83c 8d52 cbbc 3a67 b23d 9e43 3a3d
00000300: e72b b33d 51d3 0c3d 491b 06bd a0f3 90bd
00000310: 6455 513c d4ef 6bbd 2532 03bc ad64 4d3d
00000320: 9c49 8dbd f0d9 39bd 5a6d 3d3d c272 373d
00000330: 5967 feb9 92cf 73bd 7b42 f2bc 0a37 823d
00000340: 7494 ad3c 9a31 b43d 856c ff3c a120 423d
00000350: b481 843c ae05 31bb e178 a8bd 9684 a83d
00000360: 269e 883d ee19 973d cd70 9cbd 101a df3c
00000370: cd97 a83d 0c00 56bd 40e8 d43a b107 833b
00000380: e072 90bd 7141 aa3d dedb a53d 94da 913c
00000390: 4355 06bd 14f3 5bbd 086d 2d3c 8450 e13c
000003a0: 9cf1 053d c823 4abd 9bc0 99bd 056d 533a
000003b0: f1f0 e53c dde4 9d3d e509 683d 3c36 d83c
000003c0: 3194 163d 7c27 3c3d 7e4d 88bd 2383 993d
000003d0: 8465 9dbc 1dab ac3d 2d41 df3b 8fe0 1dbc
000003e0: 1445 b3bd 0962 e63b c4c5 0cbd 5360 0d3d
000003f0: f20b 7e3d 6dcc b73c 34e9 a93d aed4 12bd
-0.06313285 0.046706993 0.028292665 0.059028342 0.010220299 -0.060938884 -0.056336462 -0.035730153
-0.0140565345 -0.0056951162 0.022666156 0.011821393 0.060150117 -0.013005207 -0.04826449 -0.050111253
0.00019915565 0.045218855 0.035399422 0.010745706 0.031294245 0.04261955 -0.017792216 0.0005666269
0.064382546 -0.00917611 0.040865142 0.07240501 0.060773104 0.035762843 0.028621925 0.032499246
0.081797175 0.061568003 -0.022635493 -0.0111632645 -0.027526578 0.059954528 -0.05423997 0.07314239
0.030779999 -0.041743424 -0.05736157 -0.011612243 0.030705962 0.0844458 -0.042484026 -0.044266533
-0.02171693 0.013009413 0.036574773 -0.05874047 0.06877623 -0.059293978 0.05300689 -0.030343212
0.05114575 0.0422077 0.040844355 -0.08272761 -0.07715671 0.03388049 -0.06816481 0.047528714
-0.06219641 0.021846253 0.043194257 -0.044631615 0.04048774 0.004696865 -0.075766675 0.0060384907
-0.07699939 0.044183668 -0.08663217 -0.08407344 -0.007912113 -0.0076873875 -0.03305581 0.022263063
0.02762523 -0.05877266 -0.01724723 0.02477701 -0.014426577 0.06014584 -0.00958562 -0.081737
-0.024593892 0.082650535 -0.0587885 0.075047314 -0.016429799 -0.026595255 -0.065261684 -0.02168211
0.026096025 -0.074745156 -0.012901979 0.07285739 0.08519923 0.027902788 0.07370532 -0.053414464
0.01665307 -0.06736196 -0.005497313 -0.052620217 -0.057494327 -0.07529485 0.0039535193 -0.011871161
-0.0051510306 -0.0756931 0.085895866 0.07536845 -0.023715653 0.06461268 0.07603741 0.085867666
0.07719279 -0.046360884 -0.031589594 0.08307508 -0.021838767 -0.023083707 0.066980965 0.050738476
-0.0744945 0.07927054 0.07669591 -0.03887031 -0.0068392837 -0.051440943 0.08896971 -0.054903872
-0.009794869 0.056424517 -0.068366565 -0.04015822 -0.06877018 -0.014883648 -0.023691889 -0.04810857
0.014791437 -0.009206426 -0.025509952 -0.00741624 -0.08417501 0.022811547 0.017865011 -0.071812466
-0.064330176 0.028036624 0.044861797 0.07843302 -0.027899567 -0.030279288 0.051631916 0.024142154
0.038167387 0.081279114 0.0135346055 -0.07753001 -0.007626557 -0.035748117 0.034446064 -0.074987724
-0.045399703 -0.07987017 0.06195926 -0.013818942 0.05932726 0.020633271 0.017225621 -0.03988473
0.0057835416 0.021349914 0.09899669 -0.059759345 -0.03755902 0.041746754 0.05680251 0.020900747
0.022695953 0.013525539 -0.05335923 -0.020068197 0.02835099 -0.024819637 0.08711095 0.04547464
0.08748608 0.034381215 -0.032740865 -0.07077718 0.012776706 -0.057601765 -0.008007561 0.05014484
-0.068988055 -0.045373857 0.046246864 0.044787176 -0.00048523655 -0.059524126 -0.029572716 0.06358154
0.021188952 0.08798523 0.031179676 0.0473944 0.016175129 -0.0027011442 -0.08226181 0.08228414
0.066707894 0.073779926 -0.076387025 0.027234107 0.08232079 -0.05224614 0.0016243532 0.0039987196
-0.07053161 0.08313263 0.08098577 0.017804421 -0.032796156 -0.053698614 0.010585077 0.027504213
0.03270112 -0.04935053 -0.0750744 0.00080652564 0.028068991 0.07709668 0.05665006 0.026393048
0.03676242 0.045936093 -0.066554055 0.074957155 -0.019213445 0.08431075 0.0068131895 -0.0096360585
-0.0875341 0.0070307297 -0.03436829 0.03451569 0.06202311 0.022436345 0.08296433 -0.03584736

weight_hh_l0 f4 [512, 128]
00000000: 3737 8a3d a89d 823d cc3f b6bd 287c 2dbd
00000010: b4c8 adbc 6b2c 563d 3208 583d 5edd b1bd
00000020: 668c 7b3d 1606 2abc b3f4 293d 546d 23bd
00000030: b481 3a3d 94fd a7bd 695c debc 5398 883d
00000040: 4669 243d 779e a3bc c3db 333c 277b 0d3c
00000050: e319 35bd d52e 2f3d 802d 20bd 93af 48bd
00000060: 3c90 d13c 717d 1c3c 72d9 10bd ab7b 41bd
00000070: 6a9a dd3c 1aa7 0a3d fc5c 86bd 7690 953d
00000080: 74bb b13d 6950 51bd 39e1 83bd e89f 333d
00000090: 0e58 0a3d 640a 2e3d 4414 f6bc fcda 1e3d
000000a0: d5ff 843d 74ba af3c 8007 8fbd a4fc 7bbd
000000b0: 197d 65bc d1ef b6bc 481e 513d df0c b5bd
000000c0: 5459 73bd 8054 f1bc 04d4 adbd 1e34 edbc
000000d0: a440 b13c 482e 9cbd fb9c 94bc ef5c f53c
000000e0: e9d0 85bd af69 c6bc 4769 3cbd 4f82 493d
000000f0: 1591 b83c 73d9 24bd 17a7 a4bd 9ee4 4cbd
00000100: a091 3cbd 94a4 133d 424c af3c a84a 1fbd
00000110: 681d a13d 2f67 1c3c 656d 1cbc d8e6 753d
00000120: 0dd7 203d b5b7 913c 1c32 06bd 660b 933d
00000130: 6af9 363c 1dac b73d 0734 533d b445 4ebc
00000140: ce0c 9fbd 58a3 a73c f2ce 65bd 394d 333c
00000150: 98a2 9c3d 46a9 533d e5c0 8fbd 0a27 aebd
00000160: bf87 0cbd a722 08bd 2799 893d b289 88bd
00000170: 05a5 6abd 8139 0bbc 4044 e33c 6037 853d
00000180: 8465 02bd 983f 60bd 9209 a0bb adf8 9b3c
00000190: ba81 a0bd 2059 9e3d c966 b13d 7388 87bc
000001a0: aae2 5a3d 79e8 70bd 2c70 93bd e2ae c3bc
000001b0: 7a2c f6bc e92e c53b 5e5c ac3d cb5c 893d
000001c0: 538a ce3c eb05 873d a639 51bd fbee 8abd
000001d0: 2366 1bbd 7147 c5bc 04e4 823d 8180 943d
000001e0: ec45 5bbc 7bcd 00bd 3622 dabb ef58 67bc
000001f0: 5557 75bd 10e3 36bd c261 dc3b ea1f 8c3c
00000200: 1d61 1fbd 0b30 aebc 4368 8c3c c258 94bc
00000210: b8db 853d 1426 12bd b4cb 893d 52a3 6abd
00000220: ec35 8f3d eab3 a7bb 21e5 a13d 4e13 8a3d
00000230: 6c21 553c 6ccb 393d c7c3 ea3c 8022 b33d
00000240: 6628 1e3d 9cab 6e3d 2f0e a83c 201d 16bd
00000250: e13d 913d 8314 723c 2873 3abd a8e0 f23c
00000260: f044 43bd 0bc1 8d3d 8fe3 af3d 25c6 723b
00000270: 5782 373d 0f89 13bd 1894 4bbd c68d 51bd
00000280: 275d 50bd a025 823c 54e5 46bc 9997 cfbc
00000290: b78c 21bc cd6c e4bc b543 ba3b 11ab 8cbd
000002a0: ffdc 323d 02f2 3fbd 635b 72bd ab7f da3c
000002b0: ebb6 093d f2c4 243d cfa8 84bd c456 8c3b
000002c0: 452e 0d3d 4f01 a2bd fb53 b9bd 1f9d 273c
000002d0: 27ab 31bc 6fa4 9f3c bb59 abbc a440 9abd
000002e0: 9656 d5bc 9844 8f3d f0c5 af3d e157 ab3d
000002f0: d49a acbd c9b0 9a3d 56c1 62bd 7efe 1e3d
00000300: 9c00 20bd 80b1 32bd fc34 a63d 6ff5 203d
00000310: b1a7 9dbd 369b a03d fdfa 9bbd 6679 a7bd
00000320: a14d e93c e083 7cbd e253 4c3d 6b1e 36bd
00000330: 4380 9439 0c5c 66bd 7184 f23b b5e3 e0ba
00000340: b06d 96bd 8339 70bc c529 28bd 3399 2e3c
00000350: 21bc 18ba aca2 663a 0766 ebbb 9fed 8e3c
00000360: 1f60 7d3c 9806 97bd 0da0 c03c e77f a13c
00000370: 98c0 e13c 9d82 7f3d a0d4 613a 2445 053d
00000380: 70e1 8f3d 887c e13c 6a24 6e3d 6de5 a83c
00000390: 60c7 a9bd 2990 d33c a2f7 4f3d 431e 3abd
000003a0: 38ed 943d d28f 303d ddb6 a33d a19c 8ebd
000003b0: a3c3 42bc 6e91 903c cad7 16bd 5f17 13bd
000003c0: 8fb7 9dbc 7753 5b3d f4f7 73bd d674 913d
000003d0: b834 a7bd 9e0d c03d cfc4 a2ba d788 023c
000003e0: 5b06 213d 619a b73d 3843 20bd 16f8 733b
000003f0: 378f a43d 583a 913d 1ac8 3fbd 4cec 72bd
0.06748813 0.06377727 -0.08898887 -0.042354733 -0.021213867 0.052288454 0.05274219 -0.086848006
0.06141319 -0.010377428 0.04149313 -0.039899185 0.04553385 -0.08202663 -0.027143674 0.066696785
0.04013946 -0.019973023 0.010977688 0.008635319 -0.04421414 0.042769272 -0.039105892 -0.048995566
0.025581472 0.009551392 -0.035363622 -0.04723708 0.02705117 0.033850767 -0.06560704 0.07302944
0.08678332 -0.051102076 -0.06439442 0.04385367 0.03377538 0.042490378 -0.03003896 0.03878306
0.064941086 0.021451212 -0.069838524 -0.061520234 -0.014006876 -0.02233115 0.05105427 -0.088403456
-0.05941136 -0.029459238 -0.084877044 -0.028955515 0.021637268 -0.07626015 -0.01814126 0.02995154
-0.06533987 -0.024220316 -0.045998838 0.049196538 0.022530118 -0.04024644 -0.08039682 -0.050022714
-0.046037316 0.036045626 0.021398667 -0.038889557 0.07866937 0.009546085 -0.009547566 0.060034603
0.03926759 0.017787794 -0.03276263 0.071799085 0.011167863 0.08968375 0.05156329 -0.012589861
-0.07766114 0.02046363 -0.05610556 0.010943704 0.076482 0.051675104 -0.070192136 -0.0850354
-0.034309145 -0.033236172 0.067186646 -0.06666888 -0.05728628 -0.008497597 0.027742505 0.065047026
-0.031835094 -0.054748148 -0.0048839534 0.019039476 -0.078372434 0.07731843 0.08662183 -0.016544556
0.05343882 -0.058815453 -0.071991295 -0.023887102 -0.030050505 0.006017555 0.08416055 0.06707152
0.025212443 0.06592926 -0.05108037 -0.06783863 -0.037939202 -0.024081917 0.06391147 0.07251073
-0.01338337 -0.03144596 -0.0066569103 -0.0141203245 -0.05989774 -0.044650137 0.006725521 0.017105062
-0.038910974 -0.021263143 0.01713956 -0.01810873 0.06536049 -0.035680845 0.067283064 -0.05728466
0.06992707 -0.005117883 0.07905031 0.06741963 0.013008457 0.045360014 0.028657807 0.08746815
0.038612746 0.05826913 0.020514576 -0.03664887 0.070918806 0.014775398 -0.045519978 0.02964814
-0.047673166 0.06921586 0.08588325 0.0037044373 0.044802036 -0.03601938 -0.04970178 -0.051160596
-0.050870087 0.015887082 -0.012139637 -0.025340842 -0.009860209 -0.027883912 0.005684341 -0.06868566
0.04366779 -0.046861656 -0.059169184 0.026672205 0.03362171 0.040226884 -0.0647751 0.004282804
0.034467954 -0.07910406 -0.09049221 0.010230332 -0.010844029 0.019487588 -0.02091681 -0.075318605
-0.026042264 0.06995505 0.085826755 0.08366371 -0.084279686 0.0755325 -0.05536016 0.03881692
-0.03906308 -0.04362631 0.08115575 0.039296564 -0.07698 0.07842104 -0.076162316 -0.08177452
0.0284794 -0.061649203 0.049884684 -0.044462603 0.00028324322 -0.056240126 0.007401042 -0.0017157706
-0.0734514 -0.014662149 -0.04105546 0.010656643 -0.0005826373 0.0008798044 -0.0071837935 0.017447291
0.015464812 -0.073743045 0.023513818 0.019714309 0.027557656 0.062380422 0.00086147524 0.03253664
0.07025421 0.027525201 0.058140196 0.020617211 -0.08289981 0.025825577 0.05077327 -0.045439016
0.072718084 0.043105908 0.07993863 -0.06963468 -0.011887464 0.017647471 -0.036826886 -0.03591096
-0.019252567 0.053546395 -0.05956264 0.07102363 -0.08164352 0.09377597 -0.0012418273 0.0079671955
0.0393127 0.08964992 -0.039126605 0.0037226728 0.080351286 0.07091206 -0.04682169 -0.05930738

bias_ih_l0 f4 [512]
00000000: c04f 883d 7be3 503d 02ee 3e3c d3b6 2f3e
00000010: f6eb 773d f67e 113d 6855 8fbc b8a5 46bb
00000020: 80dc 4f3d b1d1 003e 6114 783d 3ea9 eb3c
00000030: af6d bbbc ee66 993e fc6a 383d ed7e 5f3d
00000040: 8379 783e 912c 883d f7a3 423d 0a53 90bc
00000050: 1b16 323e 5868 173e 2035 c53d 9291 4c3e
00000060: c6cc c83d a092 7b3d 2035 ee3d f73e 343c
00000070: 53ca 283e b4b7 2fbb 3302 103e 605e 6d3c
00000080: 3e6a 373e 11cf c23d 8a5f a43d 4ed8 543d
00000090: ca34 6fbd fd8d a7bb 331b 843d b590 4abd
000000a0: 34df a8bc ac47 3f3e 31fe 833d 5a13 ddba
000000b0: 0b4d 873e 0024 183e e99f 2ebc 8cbb 4d3d
000000c0: 6f0e a33c 50fd 923c 73b2 f0bc 83bb d03c
000000d0: 21bd 523e 20f1 9b3d 60a1 243e 59a1 763c
000000e0: e117 813e 52f3 193e 6b39 ff3d e192 b83d
000000f0: 21c6 f2bc baab 263e 9d19 d93d 17fc 2b3e
00000100: f3f2 563d 939d b43d e90c c43c 677d 0f3e
00000110: f2c8 253e 1311 dc3e a57e ef3d 5185 de3c
00000120: 62f3 573c c18a 0b3e 49e3 f03d d4fd 763d
00000130: 03b0 bd3c 1d15 9a3d c4e2 0c3d 6090 fc3d
00000140: 587a fe3c 042e 923d 21f5 ae3d 8b2c dd3d
00000150: 4922 f83d ce73 073e 94ba 403e e1ab 623d
00000160: ca5e 923d 0c0e 7f3d 51ed db3d d4de 103e
00000170: 3c3c e63d 3dcc a2bb e4ab ca3d c692 283e
00000180: 8e33 183e 7523 2a3e c514 7f3d 1818 e43d
00000190: efee 293e ad83 c33d d152 09bd f3c6 103e
000001a0: 2618 a83d 035f 7f3e 1e68 113d 7a57 2f3e
000001b0: 6d1f 8dbd 7a76 0fbc c51d f73d e816 41bd
000001c0: a821 4a3d c539 8e3d dc45 ff3c d5cc a73d
000001d0: c596 7e3d 1ae3 21bd adc8 213c 13a1 f43d
000001e0: e151 353e 6e88 ea3d 3e21 d13d 711e 723d
000001f0: cf15 d63d 7a8d 7a3e 1931 053e 9543 bb38
00000200: 1331 87bc 49ea 103d 5236 383d 0ab8 acbc
00000210: 848a 99bc 225e 6d3c 1863 563c 3d5d aa3d
00000220: f378 fc3c 14d9 cb3b 62bc e23d 7c26 b93d
00000230: ff50 85bc e5a6 343e f9c0 743d 25e6 393d
00000240: 1bd9 213e 82dc 56bc 26dc 803d 6a6a 2b3c
00000250: b234 b93c 3f78 363d f768 ae3d 271e ee3d
00000260: 8766 cd3d a495 0b3d 3f18 673d d1c0 a23d
00000270: 2910 363d 53fe 5a3d 7cf7 35bc a384 333d
00000280: ed53 2fbb aafc cf3c 32f0 633d fa22 59bc
00000290: dbcd 47bd 1fd0 733d 26c3 423d 6732 9e3c
000002a0: 058b bf3d 26ee ef3d 6a8d 3dbd ffa0 b93c
000002b0: e483 123e 842e 56bc 5fad c23d c5b2 4d3d
000002c0: 7367 93bd 0220 febb d7dc 853d cb94 4b3d
000002d0: 07a5 5bbc fa93 273d 74e3 443e a27b b53d
000002e0: 25ff 093e c295 bc3d 98e1 6f3a 35d7 833c
000002f0: a6f8 273d ecfd 033d fd47 21bd c8e3 253e
00000300: a9fd 683d 5570 5ebd a23b 103c 0323 073e
00000310: 3478 f73d 4535 2d3e 87f3 5ebd 93b5 70bc
00000320: c62e 80bd 9080 b33d a3bc 173e a5f2 523c
00000330: c269 dfbb 96a5 b13b e3aa 813d ed61 31bd
00000340: dd5f eabc 87aa 82bc 04ac 773d 6492 e93d
00000350: e075 1e3d 9f2a 443d 5bd4 d23c fff1 dabc
00000360: 181c 3fbd 9031 db3c d29e 9d3d e3a4 b33d
00000370: d750 b53c 94c5 b63d 8ada 1bbd 0dac 6d3b
00000380: d0ae 953d 7acf e53d bc72 583d 9e5f bd3d
00000390: 8bc1 dc3d 0687 3d3d 36f2 fcbc 18ac ab3d
000003a0: 9666 093d 5fb3 c23d dd75 ebbc 1859 053e
000003b0: a132 8ebd 2e2b d0bb 07db ba3d cfdb a1bc
000003c0: 983e 0d3e b8c2 493c 9279 5abd 7aeb 45bd
000003d0: b2ed 2bbd 730a 6d3d 2686 243e f078 843d
000003e0: 96f5 0b3d 9efa 57bc 6e66 d93d 2af5 34bd
000003f0: 0ed5 73bd 2c2d 3f3e dd39 8b3c 4032 743d
0.06655836 0.050998192 0.011653425 0.17159586 0.060527764 0.03552147 -0.01749678 -0.0030311178
0.050747395 0.12579991 0.06056631 0.028767224 -0.02287945 0.29961342 0.045023903 0.054564405
0.24265103 0.06649125 0.04751965 -0.017617721 0.17391245 0.14785898 0.096292734 0.19977406
0.098046824 0.06141913 0.116312265 0.01100134 0.1648343 -0.0026812376 0.14063339 0.014487833
0.17911622 0.09512151 0.08026035 0.051964097 -0.058399953 -0.005113362 0.064505 -0.04945441
-0.020614244 0.18679684 0.064449675 -0.0016866729 0.26425967 0.14857483 -0.010658243 0.050227687
0.019904343 0.017943054 -0.029381966 0.025480038 0.2057996 0.0761435 0.16077185 0.015053117
0.2521353 0.15034226 0.124621235 0.0901239 -0.02963549 0.16276446 0.106005885 0.16795383
0.05247779 0.088191174 0.023931937 0.14012681 0.16189936 0.42981777 0.116940774 0.02716318
0.013180586 0.13627149 0.11762101 0.060300663 0.023155218 0.07523558 0.034395948 0.12332225
0.031064197 0.07137683 0.085428484 0.107995115 0.121159144 0.1322777 0.18821174 0.055339698
0.07146986 0.062269256 0.10738624 0.14147502 0.112419575 -0.0049681948 0.09896067 0.1646224
0.14863417 0.16615088 0.062275667 0.11137408 0.16595052 0.095465995 -0.033526246 0.14138393
0.08207731 0.24938588 0.035499685 0.17123213 -0.068907596 -0.008756274 0.12066225 -0.047140986
0.049348503 0.069446124 0.031161241 0.081933655 0.062155504 -0.03952322 0.009874505 0.11944785
0.17707016 0.11451803 0.102114186 0.059111062 0.104533784 0.24468032 0.1300701 8.929443e-05
-0.016502893 0.03537968 0.04497368 -0.02108385 -0.018742807 0.014487775 0.013085149 0.08318565
0.030819392 0.006220946 0.110710874 0.090405434 -0.016273974 0.1764179 0.059754346 0.0453855
0.15805475 -0.013114097 0.0629199 0.010462383 0.022608135 0.04454827 0.08516114 0.11626845
0.10029321 0.034078255 0.056419607 0.07946933 0.044449005 0.0534652 -0.011106368 0.043827664
-0.0026752905 0.025389034 0.05564899 -0.013252968 -0.048780303 0.05952465 0.04754939 0.019311143
0.09352688 0.11715345 -0.04627744 0.022659777 0.14308125 -0.013072614 0.09505724 0.050219316
-0.07197466 -0.0077552805 0.065362625 0.049702447 -0.013406045 0.040912606 0.19227391 0.08861472
0.13476236 0.092082515 0.00091507426 0.01609383 0.041008614 0.03222458 -0.039375294 0.16200173
0.056882534 -0.054306347 0.00880328 0.1319695 0.12083474 0.16914852 -0.054431465 -0.014691728
-0.06258921 0.08764756 0.14818053 0.012875234 -0.0068180272 0.0054213507 0.06331422 -0.04330628
-0.028610164 -0.015950454 0.06046678 0.11404875 0.038686633 0.04789221 0.025736025 -0.02672672
-0.04665765 0.026757032 0.07696308 0.08771684 0.022133274 0.08924404 -0.038050212 0.003626588
0.073087335 0.11221214 0.052843794 0.09246753 0.10779103 0.046271347 -0.030877214 0.08382434
0.0335451 0.095068686 -0.028742725 0.13022268 -0.069432504 -0.0063528037 0.091238074 -0.019758133
0.13793409 0.012314491 -0.053338595 -0.04832027 -0.04197473 0.057871293 0.16066799 0.064683795
0.034169756 -0.01318231 0.1061524 -0.04417912 -0.059529357 0.18669575 0.016995365 0.059618235

bias_hh_l0 f4 [512]
00000000: f4e9 71bc 1d68 8b3d 37b2 ed3d 34c7 2a3e
00000010: fe49 74bc 01e1 6a3a 07d5 af3d 9a67 123e
00000020: 341d 973d d480 883c 2867 f33d 185e d03d
00000030: 0631 31bc 853f 6e3e 71b8 58bd 106e cb3d
00000040: 8b28 7c3e 8e97 e63d 1c42 213d 7d1e 803d
00000050: ea10 1b3e 4379 8a3c a0f1 46bd 43ac 033e
00000060: cd60 c2bc 9bb7 f93d 991b 903d 74c1 463d
00000070: 5b5c 303e 3460 af3b e60e fe3d 5667 0d3e
00000080: 39f4 373e a793 d43d f810 253e 9842 0c3e
00000090: e75d 4bbd c259 e43d ca22 ff3c ea84 463d
000000a0: 2d78 073e fda2 593e 6060 ef3d 1e88 c83d
000000b0: 562c 993e 4a59 143d 4cab b9bb ade6 f43d
000000c0: c8f4 b23d 28a1 493d e4b3 4cbd de31 083e
000000d0: 24a0 0f3e ce39 043e 01ce 7d3e 716a d73d
000000e0: de3a 7e3e 27ef f33d 063d e83d 4ea0 a03d
000000f0: 5289 d83d c03a 7f3d 7bff c93d 583a e73c
00000100: 9b31 e83d e380 e23d 0cff 4cbd 847e 3c3e
00000110: aa17 8e3e b9eb e53e 1742 d53d 04e5 2a3d
00000120: 8a10 d6bb c471 6f3d 01c2 383e 99c6 bb3c
00000130: 52f7 473d 315f 913d 8077 b03d ebad 29bd
00000140: ca2f e03c 80b0 263d ec5d 10bd a983 ba3d
00000150: 3faf ad3b c2c9 033d cfea 093e 182c 9c3d
00000160: 9af3 bb3c 7e29 523e 6fe9 fbbc 47b2 373e
00000170: efb8 793c 6ea5 33bd f4d4 76bd 0a4f e53d
00000180: c8e0 ed3d 3567 c43d 6ef6 eb3d ecb6 ea3c
00000190: 8a3a fa3d 955b 833d ec9a d4bc cef2 8a3d
000001a0: db7a f4bc 0bff 353e f3de 02bd 42d4 0d3e
000001b0: 2b7b 2d3c 978f 43bd fdd0 f53c fc8a 253d
000001c0: 08d7 9b3d 3057 0f3d 7117 45bd 5024 aebc
000001d0: 3012 5e3d 6154 09bd bcdc 143e 82b8 013e
000001e0: 69c5 073e 9680 8e3c 18e5 ec3d 689c 823d
000001f0: ebd1 f53d 7cf5 5d3e 2c2d dd3d 11c4 ac3d
00000200: 4d78 bc3d cc92 b43d 78f3 993c 2587 af3b
00000210: d3a8 edbc df37 3f3d 1c83 69bb b5e5 e63d
00000220: 1a6f dd3c e62e d83d b1d4 e93d d842 483d
00000230: abdc ed3a e3e6 cb3d 41aa 793d daca 33bd
00000240: d3f0 d73c e55b 803d 55f9 043c cd84 4ebc
00000250: 04ab e83d fc94 9a3d a1dd bd3d e8da 7c3d
00000260: de4f c8bc d618 1d3d b87d 493b d582 c4bc
00000270: 5788 a03c 3c86 d6bc 60ce 803d f91b f13d
00000280: a9d3 fc3d 58e7 bc3d 928e d23c 570d e83d
00000290: 55f7 913d aca8 bcbb 4b4d 49bc 6954 3c3d
000002a0: 478e c23d cd92 eb3d 10c6 103d abef 0f3d
000002b0: 8164 093e 7c05 263d 19bf bb3d bd6d 1e3c
000002c0: d7a5 173d b68b 623d ee07 893a 0ef8 cf3d
000002d0: cc50 063d 6ea3 103e 338d f23c 5e66 843c
000002e0: 352a c03d be8f d43d a474 00bd 04da eb3d
000002f0: f5b7 043d b7d6 203e acb7 ab3b 6471 383e
00000300: 6171 503d 4af5 d63d d026 233d bffb 203e
00000310: fcc2 553e 341e 403e 6f0a 8e3c 90d9 9b3b
00000320: fa1f 403d 6c86 dd3c b43d c5bc b213 403d
00000330: b1fa a73d fb4e 65bd 96ca 023d 1160 81bd
00000340: f368 d83c 8d08 8f3d 0b09 673d 6c9d f7bc
00000350: 758a 603d 6bac 063e 93e3 fa3a af91 9fbc
00000360: 591c 59bd f0a1 2abc 8b56 c93d 1a40 1d3e
00000370: e1d5 fe3d 5fa8 b43d 7a40 a03d 68bc 963b
00000380: cf56 d33d 85eb 013e 55d7 833c 00ac cc3d
00000390: 0b24 113d 8c66 8a3c 7fb0 db3d 9633 383d
000003a0: 0366 d63d 6368 373e 3d70 603c f5c3 c33c
000003b0: 02d2 d4bc 89a2 f1bc 2bec d0bb 3625 99ba
000003c0: 2be5 f13c 2f61 713d efcc 9d3d 5b08 4a3d
000003d0: ccce 173d a07a 4a3c 0b05 2d3e ac56 1f3e
000003e0: 73a2 26bc 5df3 aa3d 7378 22bd c460 4e3d
000003f0: 92b7 a93d 7689 363e 3aff b33b e26c 98bc
-0.014765251 0.068069674 0.116062574 0.16677552 -0.014910219 0.000895992 0.085855536 0.14297333
0.07378617 0.016662993 0.1188491 0.10174197 -0.010814911 0.23266418 -0.052910272 0.09933102
0.24624841 0.112593755 0.039369687 0.06255815 0.15143171 0.016903525 -0.048570275 0.12858681
-0.023727799 0.12193223 0.07036514 0.048524335 0.17222731 0.0053520445 0.124051854 0.13808951
0.17964257 0.10379725 0.16119754 0.13697278 -0.0496501 0.111499324 0.031144518 0.0484666
0.13229437 0.21253581 0.11688304 0.09791587 0.29916638 0.036217965 -0.005666172 0.119580604
0.087380946 0.049225956 -0.049976245 0.13300273 0.14025933 0.12912676 0.24785616 0.10518349
0.24827144 0.11910849 0.11339764 0.07843076 0.10573067 0.062311888 0.09863182 0.028226063
0.113375865 0.110597394 -0.05004792 0.18407637 0.2775243 0.44906405 0.10412996 0.041722313
-0.0065327333 0.058458105 0.18042757 0.022921847 0.048819847 0.070982344 0.08616543 -0.041425627
0.027366538 0.040695667 -0.03524582 0.091071434 0.005300432 0.032174833 0.13468479 0.07625598
0.022943307 0.2052364 -0.030750958 0.17939101 0.0152418455 -0.043858938 -0.06026168 0.11196716
0.11615139 0.09589998 0.11521612 0.028651677 0.12218197 0.06413952 -0.025952779 0.067845926
-0.029843738 0.17773072 -0.031950902 0.13850501 0.010588448 -0.04774436 0.03000688 0.04041575
0.07609373 0.034995258 -0.04811806 -0.02125755 0.054216564 -0.033527736 0.14537328 0.1266804
0.132589 0.017395299 0.11567134 0.063774884 0.12002929 0.21675676 0.107996315 0.08435834
0.09202633 0.08817062 0.018792853 0.0053566867 -0.029011166 0.046684142 -0.0035631126 0.11274282
0.027030516 0.1055582 0.11417521 0.048891872 0.0018147429 0.099561475 0.060953382 -0.043894626
0.026359951 0.062675275 0.008116086 -0.012604904 0.11360744 0.07547948 0.09270788 0.061732203
-0.024452146 0.038353764 0.00307451 -0.023988167 0.019596262 -0.026187055 0.06289363 0.117729135
0.123450585 0.09223813 0.025702748 0.113306694 0.07127253 -0.005757412 -0.0122864945 0.045978937
0.094997935 0.115026094 0.035345137 0.035140675 0.13417245 0.040532574 0.09167308 0.009669718
0.03702339 0.05530902 0.0010454634 0.101547346 0.032791898 0.14124843 0.029608345 0.016162094
0.0938305 0.10378979 -0.031361237 0.115161926 0.032401998 0.15706907 0.0052404013 0.18012005
0.050889377 0.10496004 0.039831936 0.15721034 0.20875162 0.18761522 0.01733896 0.00475616
0.046905495 0.027041636 -0.024077274 0.046893783 0.082021125 -0.055983525 0.031931482 -0.06317151
0.026417231 0.06984053 0.05640511 -0.030226432 0.054819543 0.1315171 0.0019141309 -0.019478647
-0.05300555 -0.0104145855 0.0983096 0.15356484 0.12443138 0.08821177 0.07824798 0.0046000965
0.10319292 0.126875 0.01609389 0.09993744 0.035434764 0.016894601 0.10727023 0.04497107
0.10468676 0.17910914 0.013698635 0.02389715 -0.025979046 -0.029496448 -0.0063758097 -0.0011684063
0.029528221 0.058930572 0.077051036 0.049324375 0.03706245 0.012358338 0.16896455 0.15560406
-0.010170567 0.08347199 -0.03966565 0.05038525 0.082869664 0.17825875 0.005493072 -0.018606607

weight_ih_l1 f4 [512, 128]
00000000: c6d8 273d 58c7 703c 9abb 1cbd c253 85bd
00000010: 6d59 913d a057 47bc c06f f3ba 9e7e 393d
00000020: d020 b03c 68c5 adbc e14b 863d 4a10 2f3d
00000030: 305f 773c 3a28 7c3d d452 94bd 4c0d 123d
00000040: 8009 013b 40d9 a5bd 8e70 28bd a21d 593d
00000050: 5948 b03d 4003 723c 6a55 6d3d 15bf 973d
00000060: 3865 5a3c 00bd 8839 09c3 b4bd c655 1d3d
00000070: b219 5a3d df0c ae3d dab9 e5bc f989 953d
00000080: 50d9 073d 15d7 af3d e7ba 1bbd 6bcd 9c3d
00000090: 68e5 003c 0ed3 32bd 2059 35bc 79de 9cbd
000000a0: 6580 89bd 6cba f53c cc14 c8bc eab2 2b3d
000000b0: 900d 7fbc 40e7 72bc 1574 b23d 8e7a 633d
000000c0: e633 443d caa0 a7bd 5a13 613d 1c77 81bd
000000d0: 6417 3fbd 326a 283d cec8 3e3d 0826 a8bd
000000e0: c3cc b23d 79a7 9cbd 606f d13c 00c2 24bb
000000f0: a58b 9c3d 70da 973b 0581 b03d 8a93 1b3d
00000100: 7ebc aabd b1dc 62bd e07e 063c 0496 adbd
00000110: cae3 15bd 26b0 663d 98ea d3bc dfc6 843d
00000120: 566a a4bd d463 edbc 4ca1 e63c 88bc 59bc
00000130: 80ba ebba 91a3 963d 2e18 313d 26a0 373d
00000140: cc75 90bc c5fd 9b3d ed3b 953d 6ab2 333d
00000150: 6866 33bc 84f7 12bd 005f eb39 bdd5 99bd
00000160: 18b1 47bc 176b 23bd 90df 593c 4cac d0bc
00000170: 7db8 9f3d 44e8 52bd 00ee 1ebc 3861 d53c
00000180: 5e32 b1bd b448 7ebd 5487 9a3c cc95 f53c
00000190: c02d 8ebc f1cb a13d 0e7e 213d a004 adbd
000001a0: 00ed 993a 2063 b1bc 63e8 69bd 57bb 973d
000001b0: 7457 9dbc 83a1 9fbd 04b7 b43c 2910 2bbd
000001c0: 4a6d 72bd 73ad a03d 7519 ad3d 86e7 98bd
000001d0: 5498 993c b0e5 623c c9ce 4abd 7952 873d
000001e0: 547c 86bc a234 3b3d e03d 6a3c 3142 833d
000001f0: 182f c53c 55fc 9b3d 62f4 7e3d ac9a 5abd
00000200: 3120 acbd a0db 61bc 6178 49bd 54df 91bc
00000210: 8865 5bbc c1cd 12bd e6de 283d 20fb 51bc
00000220: 4e5c 9cbd 72ce 353d fe4d 393d 3e9f 793d
00000230: 2ad1 5c3d bce1 3fbd 006c b9b9 d855 0e3d
00000240: 7483 09bd be4c 223d f242 7d3d 9cd1 38bd
00000250: 7c71 a5bd 4471 23bd 6a95 25bd 1475 89bc
00000260: 203b 0a3b e50f 66bd 8d36 af3d 7358 a93d
00000270: 1ada 8abd 5064 84bd e3f4 943d afef 933d
00000280: 3af6 8ebd 6eb9 d9bc f893 893c 8cc6 d93c
00000290: cc6b 97bd 00bb 763b 41fb 99bd 393d 943d
000002a0: 6079 80bd bbec 853d e6ed 213d 148a dcbc
000002b0: e07b c7bb 570a 98bd 621b 653d 3ae7 54bd
000002c0: 0889 f43c ece9 933c 6c6e 153d b08a 703c
000002d0: 1cb8 68bd 1eb2 763d c0d5 0ebb 80c4 673b
000002e0: b307 05bd fe55 703d 03a2 3ebd 006c 013a
000002f0: d9ae b0bd e8c3 8fbc 8a9f 1f3d 0e66 163d
00000300: 4056 edba 5f1d 973d d8f7 94bd 857c b13d
00000310: 7fa3 993d 59b0 9e3d 66f9 afbd b81e 303c
00000320: 355a 21bd 74f4 d4bc 58c8 5f3c eb6c 54bd
00000330: 106c 6c3c ce32 363d 6c40 ea3c 1803 a9bc
00000340: 34db c5bc 8412 c33c 4f0b 96bd ae00 4e3d
00000350: 9b0d 90bd 8631 4a3d 33a0 863d ba82 423d
00000360: 570b 813d 6047 edbb 7524 66bd c48e c53c
00000370: cda4 8c3d d02c 943b 48d3 54bc 8ec0 a9bd
00000380: 0ef3 053d b83a 22bc f105 ad3d a105 0abd
00000390: c8d0 aabd 6e3c 87bd 5a0e 89bd 1fdf 2dbd
000003a0: ae82 493d fc2f 48bd 16c1 dbbc a8f8 6d3c
000003b0: 72c5 2e3d 128b 1c3d 22da 113d 8b16 32bd
000003c0: e8c5 113c 766d 4f3d 65ab 2fbd 1d97 3dbd
000003d0: 5aba 3a3d f26b 273d b225 213d 7800 24bc
000003e0: 705b 1d3c c210 1cbd b068 0b3d cda7 993d
000003f0: 38bc 37bc e0ae 49bb 44b6 c53c deb0 f0bc
0.040978216 0.014695965 -0.03826485 -0.06510116 0.07097135 -0.0121668875 -0.0018572733 0.045286767
0.021500021 -0.021212295 0.065574415 0.042740144 0.015098378 0.0615618 -0.07242361 0.035657212
0.00196895 -0.08098078 -0.041122966 0.053006776 0.08607549 0.014771283 0.057942785 0.07409493
0.0133297965 0.00026080757 -0.088262625 0.038411878 0.05324716 0.08498549 -0.028042722 0.07301707
0.03316623 0.085859455 -0.03802004 0.07656368 0.007867195 -0.04365831 -0.011068612 -0.07659621
-0.067139424 0.02999612 -0.02442398 0.041918673 -0.015567198 -0.014825642 0.08713547 0.0555368
0.047901057 -0.08184965 0.054950096 -0.063215464 -0.046653166 0.0411169 0.04657822 -0.08210379
0.087304614 -0.076491304 0.025565803 -0.0025140047 0.076438226 0.004634194 0.086183585 0.0379825
-0.08336733 -0.05538625 0.00820896 -0.08475879 -0.03659419 0.056320332 -0.025868699 0.06483244
-0.080280945 -0.028978266 0.028153084 -0.013289578 -0.0017984658 0.073554166 0.04323595 0.044830464
-0.017634295 0.07616762 0.072868206 0.04387132 -0.0109497085 -0.03588058 0.00044893473 -0.075114705
-0.0121882185 -0.03989705 0.01329793 -0.025472783 0.0779886 -0.051491037 -0.009700298 0.026047334
-0.08652185 -0.062081054 0.018863358 0.029978655 -0.0173558 0.07900227 0.039426856 -0.08448148
0.0011743605 -0.021653712 -0.057106387 0.07408779 -0.01920674 -0.07794478 0.022059925 -0.04176346
-0.059186257 0.07845583 0.08452121 -0.074660346 0.018749394 0.013848707 -0.049513612 0.06607527
-0.016416706 0.04570449 0.014296979 0.064091094 0.024070308 0.07616488 0.06224478 -0.053370163
-0.084045775 -0.013785273 -0.049187068 -0.017806686 -0.013390906 -0.035840753 0.041228198 -0.0128162205
-0.07634793 0.044386335 0.045240395 0.06094288 0.053910412 -0.046846136 -0.00035366416 0.034749836
-0.03357263 0.03962397 0.061831422 -0.045121774 -0.08078286 -0.03990294 -0.040425695 -0.01677946
0.002109237 -0.056167502 0.085553266 0.082688235 -0.06779881 -0.064644456 0.07273271 0.072234504
-0.06980558 -0.026577678 0.01679419 0.026583932 -0.073936075 0.0037648082 -0.07518626 0.0723824
-0.062731504 0.065392934 0.03953352 -0.02692131 -0.006087765 -0.07423847 0.055934317 -0.051978327
0.029850498 0.018055879 0.03648226 0.014681503 -0.056816205 0.06022846 -0.0021794885 0.0035364926
-0.032478046 0.05867576 -0.046541225 0.0004937053 -0.086270995 -0.01754947 0.038970508 0.03671842
-0.001810737 0.07378649 -0.07273835 0.08666328 0.075018875 0.077484794 -0.08592491 0.010749511
-0.03939267 -0.02599547 0.0136586055 -0.051861685 0.014430061 0.044482045 0.028595172 -0.020631358
-0.024152376 0.02381254 -0.07326376 0.050293617 -0.07033845 0.049363635 0.06573524 0.04748795
0.06300991 -0.0072411746 -0.056187112 0.024115928 0.06867371 0.0045219436 -0.0129898265 -0.0828868
0.0327025 -0.009901695 0.08448399 -0.033696774 -0.08340603 -0.06603323 -0.066921905 -0.042449113
0.04919689 -0.048873886 -0.026825469 0.014524616 0.042668767 0.038218565 0.03560842 -0.04347853
0.008897282 0.0506415 -0.042888064 -0.04628669 0.045587875 0.04087443 0.03934259 -0.010009877
0.00960432 -0.03810192 0.034035385 0.075027086 -0.011214308 -0.00307744 0.024134763 -0.029381212

weight_hh_l1 f4 [512, 128]
00000000: 9771 a2bd 158f 54bd b285 233d 8aad ffbc
00000010: 7257 593d ecb5 ce3c a518 81bd d4c8 b63c
00000020: 28ed 8abc a32c 0bbd c05e acbc e958 923d
00000030: 00ab e43c 726c 423d a4a3 c3bc 736f 85bd
00000040: 285c 35bd 56d3 3c3d c492 8fbc 258b 8e3d
00000050: 514e 89bd 02b4 7e3d 4a97 573d 5c22 afbd
00000060: 9e1a 9abd 0df3 32bd 5132 7abd b61d fabc
00000070: 1b13 b43d be64 98bd 9049 413c 2717 a23d
00000080: 6a42 a7bd ff6b 53bd c057 b53b 3eee 5d3d
00000090: 2828 71bd 301b 86bc 8b3b acbd 880b 9c3c
000000a0: 61f8 a13d 8a4f 6a3d 222b 1f3d 7095 3e3c
000000b0: 9377 a13d 40e3 3abb 8ef3 163d e2c1 3dbd
000000c0: 0cc1 b0bc db89 8d3d ca7c 593d 0013 9bbc
000000d0: 7054 863c 9aae 643d bcce ecbc 30d0 c83c
000000e0: f0d3 df3b 80da 43bb bdbb 02bd 1ab8 513d
000000f0: 71ef a43d f838 3dbc a224 2bbd 48b0 13bc
00000100: fdcb 70bd f10d 9f3d c829 e43c d6a3 093d
00000110: 3335 993d 4857 b0bd 9902 4ebd 2043 f03c
00000120: e015 48bd bfdc 60bd fc78 7ebd 57cb a03d
00000130: 1060 8abd 0c34 51bd d44e e73c 60fb ecbc
00000140: 3ab1 16bd e0e9 48bd 809a 33bd 54a2 c93c
00000150: 8868 02bc ebd8 a93d f7a7 b1bd 20b7 2dbb
00000160: 043d fbbc 44de 063d 9e73 5a3d 93e0 76bd
00000170: 6e06 4f3d 23c6 5cbd 10ce 7e3c 704a 773c
00000180: b493 ff3c faf6 53bd 00f1 33bc bb4e 0dbd
00000190: 00e5 543a be11 82bd 8f06 27bd c068 31bc
000001a0: 96c3 9dbd 3779 7cbd 243e df3c a6df 9ebd
000001b0: 5d02 55bd 5e28 7b3d f35e ac3d 608e c53c
000001c0: 26a5 763d 4de9 903d c28a 2b3d 290c 8b3d
000001d0: 328b 2e3d 8798 a53d 0ef5 733d c888 61bc
000001e0: 4c2a 9dbd ede5 1dbd 9cc8 e63c b1ee a4bd
000001f0: cfc1 8d3d c887 a93c 802b 5fba 05d8 33bd
00000200: f809 dfbc 7ae2 7b3d 70bf 61bc 9031 583c
00000210: 6086 0f3d a048 743c 6d2f a93d 282a 9dbc
00000220: 9ea5 133d 408e aabd a2f9 113d 22c7 023d
00000230: d8a2 153c f4ad 89bd d7cb 5cbd 80fc 70bc
00000240: c480 0a3d ecae b13c ea9c 6fbd 806a 9c3c
00000250: c8b5 ee3c 0326 32bd 9aff 1a3d 7889 48bc
00000260: 4400 11bd 3762 9bbd 009d b3bd 231c ad3d
00000270: e5aa b03d 6836 0cbc 0e19 513d 7006 f73c
00000280: 8dcd 5cbd d20f 403d b999 a43d 7490 c1bc
00000290: 3035 04bc 8a26 203d 04f3 c6bc c8cc 363c
000002a0: 821a 92bd d8fd 3fbc c63e 573d 115c a3bd
000002b0: 876e 85bd 7f39 9b3d f605 413d e591 813d
000002c0: 98f6 4ebd cab7 99bd bc0d c23c 40a5 993b
000002d0: 71c5 a43d 9d80 1ebd fe60 4c3d 21ea 5dbd
000002e0: 0496 9abd 3ac6 4bbd d0af c8bb be26 323d
000002f0: 80c9 993c d3bc 89bd 98c5 be3c b169 93bd
00000300: e6e6 73bd a5da 9e3d a1ef 87bd c00d b93c
00000310: 32a0 453d b014 2abc 5047 103d 2297 0f3d
00000320: 5b10 99bd a9d7 ac3d a0bb 19bc 004c 54bb
00000330: d291 a8bd 4b64 8f3d 79f7 23bd fcb8 85bc
00000340: 46be 403d 8835 17bc e073 5fbc c8c5 673c
00000350: 80f8 823b f45e c53c d885 9bbc ea86 433d
00000360: 1017 cfbc f65f acbd 00f4 97bb 5c65 ac3c
00000370: bccd 813c ae89 7f3d bee5 79bd 0ad0 79bd
00000380: c6a8 563d fcf4 febc 40ca 66bb 40d3 1bbd
00000390: 76b5 733d 6ba3 57bd 96bd 78bd 786c 87bd
000003a0: 602a 54bc 3a6d 153d 2067 cc3b 75b1 9a3d
000003b0: b501 963d 6b34 5abd 1835 b7bc dc17 953c
000003c0: 671e 8f3d bb2e 77bd 48e3 34bc a6e4 4b3d
000003d0: 644f d63c 3064 113d 167a 9ebd 9836 a0bd
000003e0: e948 5dbd 5470 81bc 4f35 8ebd 7e97 173d
000003f0: d0f9 86bc ac8d 2bbd 7255 4c3d 0d02 a63d
-0.07931822 -0.051894266 0.039922424 -0.03121068 0.05306191 0.025233231 -0.06303529 0.02231256
-0.016958788 -0.033978116 -0.021041274 0.071458645 0.02791357 0.047466703 -0.02388174 -0.06515398
-0.04427734 0.046099983 -0.017526038 0.069601335 -0.06704391 0.062183388 0.052634515 -0.085514754
-0.07524608 -0.043688823 -0.06108314 -0.030531745 0.087927066 -0.0744109 0.011797324 0.07914572
-0.08166964 -0.051616665 0.0055341423 0.054182284 -0.058876187 -0.016370386 -0.084097944 0.019048467
0.07908703 0.05720476 0.038859494 0.011632308 0.07884135 -0.00285168 0.036853366 -0.04632748
-0.021576427 0.069110595 0.053097524 -0.018929958 0.016397685 0.055830576 -0.028907172 0.024513334
0.006830685 -0.0029884875 -0.031917322 0.051200964 0.08053482 -0.011549227 -0.041782983 -0.009014197
-0.05878829 0.07766331 0.027851954 0.03360351 0.0748085 -0.086103976 -0.050295446 0.029328883
-0.048848987 -0.05489802 -0.0621271 0.07851284 -0.06756604 -0.051075026 0.02823583 -0.028928459
-0.03679011 -0.049051166 -0.043848515 0.024613537 -0.0079594925 0.08293327 -0.08674615 -0.0026506856
-0.030668743 0.032926813 0.053332917 -0.060272764 0.05054324 -0.053899895 0.015552059 0.015093431
0.03119836 -0.051749207 -0.010982752 -0.03449891 0.0008121282 -0.0635104 -0.04077774 -0.010828197
-0.07703321 -0.061639037 0.02725131 -0.07757501 -0.052004207 0.061317794 0.084165476 0.024115741
0.06021609 0.070757486 0.041880377 0.06789429 0.042613216 0.08085733 0.059559874 -0.013765521
-0.07674083 -0.038549352 0.02817183 -0.08053339 0.06921732 0.020694628 -0.0008513257 -0.043907184
-0.027226433 0.06149528 -0.013778552 0.01319541 0.03504026 0.014909893 0.08260999 -0.01918514
0.036046617 -0.08327913 0.03563846 0.03192819 0.009133063 -0.06722632 -0.053905334 -0.014708638
0.033814207 0.021689855 -0.058499254 0.019093752 0.029139414 -0.043493282 0.037841417 -0.012239806
-0.035400644 -0.07587092 -0.0877018 0.08452632 0.086263455 -0.008557893 0.051049285 0.030154437
-0.053906966 0.046890087 0.08037133 -0.02362845 -0.0080693215 0.039099254 -0.0242858 0.011157222
-0.07133962 -0.011718236 0.0525501 -0.07976545 -0.06515222 0.07579326 0.047124825 0.06326655
-0.05052814 -0.07505758 0.02368819 0.004688889 0.080454715 -0.038696874 0.049897186 -0.05417836
-0.075481445 -0.04974959 -0.006124474 0.04349398 0.01877284 -0.067254685 0.02328758 -0.071978934
-0.059546374 0.07756547 -0.066375025 0.022589564 0.048248477 -0.010380909 0.03522426 0.03505624
-0.07473823 0.084395714 -0.009383112 -0.0032393932 -0.08230938 0.07001551 -0.04003093 -0.016323559
0.04705646 -0.009229071 -0.013638467 0.014146276 0.0039969087 0.024093129 -0.01898472 0.047736086
-0.025279552 -0.084167406 -0.0046372414 0.021044426 0.015845172 0.06238716 -0.061010115 -0.060989417
0.05240705 -0.031122677 -0.0035215765 -0.03804326 0.059499227 -0.052646082 -0.06072768 -0.06612486
-0.012949556 0.03648112 0.0062378794 0.075533785 0.07324544 -0.053272646 -0.022364184 0.018199854
0.06988221 -0.0603473 -0.011040516 0.049778603 0.026160903 0.035495937 -0.0773813 -0.07822913
-0.05402461 -0.015800633 -0.069437616 0.03700971 -0.016476542 -0.041883156 0.049886174 0.0810586

bias_ih_l1 f4 [512]
00000000: d875 a1bd 06f5 5fbd a2ce fcbc 480b ae3c
00000010: b197 8dbd 58ca 82bc dfd8 1abd a067 2c3c
00000020: 34fe babc 560e 463d 07f2 89bd 23be ad3d
00000030: 0758 883d 6cd4 973c 36aa 29bd 466a 7c3d
00000040: 2d85 903d b06b cdbc 9229 6e3d 06e3 59bd
00000050: 19b0 ad3d a855 ac3c 6823 29bd a1fe 973d
00000060: 4829 ce3c 2e6c 663d 7baf 96bd 50ef 8dbd
00000070: 9e32 463d e231 173d 4e3c 02bd aad7 96bd
00000080: 7ea7 093d 800b 60bc 4086 0f3c 6269 28bd
00000090: c05d a13c a85c 41bd dbd9 ac3d 102a 253c
000000a0: 086d b03c 02b3 453d d8f3 cf3c 1073 063d
000000b0: c75a 63bd 58c8 c53c 519f 883d 95c4 80bd
000000c0: e054 e13b d624 92bd a3a6 1fbd b2c6 203d
000000d0: 1d08 8cbd c127 943d 5034 3ebc 2748 91bd
000000e0: fa28 363d 149c eb3c 9e67 56bd 144f b5bc
000000f0: 7aea 163d 10ea 42bd d0b2 0b3d c083 9f3b
00000100: 2f72 9a3d f463 0a3d a855 d23c f3d2 9ebd
00000110: fece 343d 6a61 9ebd 8961 863d 4016 09bb
00000120: 5edc 7ebd 417c 953d af45 833d 38c0 07bc
00000130: 456c 873d 8673 393d 382a 93bd ecae f53c
00000140: d924 853d de1f 4f3d 7a8d 183d ddba b3bd
00000150: 8051 543b 6630 84bd 423b 1fbd 9b7d b23d
00000160: 8491 ee3c 482b 16bc 48c6 0f3d 08a5 cf3c
00000170: b9e1 a93d c876 95bc 9bf3 a13d 47e5 a1bd
00000180: a7b6 5bbd f352 a83d c555 a0bd f2df 26bd
00000190: dda1 aa3d 330f 44bd ed7d a9bd d235 04bd
000001a0: 44ab ee3c dcf5 0e3d 925c 8fbd bdfe 903d
000001b0: 031d 933d 500a c63b e15a ab3d 28ad 5abc
000001c0: b081 ab3b bcb0 a83c 0a6e 0b3d 00cc 743b
000001d0: 13af 8fbd b87d 5c3c ffe0 8c3d e063 303b
000001e0: 0060 3a37 f805 0c3c 5220 753d 6064 cfbc
000001f0: b0e8 193c 98be bbbc f09b b73b 7620 733d
00000200: e0c7 73bd 5d8e 963d 5e1b 043d 13f1 843d
00000210: e5dc 13bd 5610 03bd e082 633c 9eef 64bd
00000220: 5c9d a7bd 606e 17bb 8a48 a5bd f9f8 a93d
00000230: 31a9 a93d c01e 8c3c 4f2b 883d 9043 d13c
00000240: 6419 7ebd 2028 68bd daef 89bd 9bfd 83bd
00000250: cca4 96bd 9159 8a3d 1e5b 93bd 43b5 ab3d
00000260: fa8b 683d d0e9 ea3b 5022 d1bb 3568 983d
00000270: ac74 9ebd aef6 383d 88f6 95bc 774e 5bbd
00000280: d0be f03b 9275 aebd c43a 6cbd 001f a63b
00000290: 2435 cbbc 3896 93bd 0f1e 943d 804f 91bd
000002a0: 705d d3bc b2ca 433d f9c1 9b3d 57d8 09bd
000002b0: e058 fcbc ab37 9e3d 0a7a 77bd 822c 8cbd
000002c0: a379 a23d c3e7 953d 8cde c43c a465 1dbd
000002d0: 93d7 983d 94d2 5ebd 75c5 8b3d 7edc 093d
000002e0: a76d 16bd 4dc7 a13d 1a9a 513d a46a 013d
000002f0: 46fe 313d c5be 9b3d 1411 8fbd 8849 93bd
00000300: cc56 a3bd 5e9e 5d3d 18df 7abd 80f7 1f3c
00000310: 3119 923d 91e5 973d 6083 b7bc 2ed1 77bd
00000320: 40ff 513c b472 12bd 5584 84bd 3811 8ebd
00000330: b0d7 02bc 0863 0e3c 0ad3 0a3d 0bb5 a13d
00000340: 58df 1d3c 0c2d a8bd 48ce 46bc 9200 2dbd
00000350: c897 85bd d83e 483c 109a 9f3c 3cdd c7bc
00000360: c0e3 1bbc 2017 113d 2118 4cbd da08 453d
00000370: 90e0 bebc a359 91bd 5019 0b3d 1d39 8bbd
00000380: 69a6 a13d fde0 863d 1262 593d f44b c63c
00000390: 96a7 233d 4291 00bd cdd8 b33d 0080 23b7
000003a0: 106a 3abc c810 b03c 5883 45bc 1465 16bd
000003b0: 3225 6f3d b498 8c3c 0063 a63a ef2c 44bd
000003c0: cd8e 8abd ba0a 3f3d 78cf 9dbd 705d 263c
000003d0: 7a6f 673d 6e59 173d 7053 003c 2614 673d
000003e0: caa2 8ebd 5be7 87bd f874 79bc 0080 4a39
000003f0: 0c98 77bd 7f94 b03d aef8 9abd 6e67 4a3d
-0.07883805 -0.054677032 -0.030860249 0.021245614 -0.069136985 -0.015965626 -0.03780448 0.010522753
-0.022826292 0.048353516 -0.06735616 0.08483531 0.06657415 0.018533908 -0.04142209 0.061624788
0.07056651 -0.025075763 0.058145113 -0.053195022 0.084808536 0.021036938 -0.04129353 0.074216135
0.025166169 0.056255512 -0.07357689 -0.06930411 0.048388116 0.036912806 -0.031795792 -0.073653534
0.033607 -0.013674617 0.008760035 -0.041116126 0.019698024 -0.047207505 0.0843999 0.010080829
0.021536365 0.04826642 0.025384828 0.032824576 -0.055506494 0.024143383 0.06671012 -0.06287495
0.006876573 -0.07135932 -0.038977277 0.03925199 -0.06837485 0.07234145 -0.011609152 -0.0709384
0.044472672 0.028760947 -0.05234491 -0.022132434 0.036844708 -0.0475865 0.034106076 0.0048680007
0.0754131 0.03378673 0.02567561 -0.07755079 0.044142716 -0.07733424 0.06561572 -0.0020917803
-0.062221877 0.0729909 0.064097755 -0.008285575 0.06612448 0.045276187 -0.07185787 0.029990636
0.06501169 0.0505675 0.037244298 -0.08775876 0.003239721 -0.06454544 -0.038874872 0.087153636
0.029122122 -0.0091655925 0.035101205 0.025347248 0.08295006 -0.018245116 0.07907792 -0.07905059
-0.053640988 0.08218946 -0.07828859 -0.040740915 0.08331654 -0.047866058 -0.082759716 -0.03227789
0.0291344 0.03490244 -0.07000078 0.070798375 0.07183268 0.00604371 0.08366943 -0.013346948
0.005233966 0.020592086 0.03404049 0.0037353039 -0.07015815 0.013457708 0.06878852 0.0026915
1.1108816e-05 0.008546345 0.059845276 -0.025316417 0.009393856 -0.02291803 0.005603306 0.05935713
-0.059516788 0.073513724 0.032252662 0.06491294 -0.036099333 -0.031998 0.0138861835 -0.05589258
-0.08184311 -0.002310656 -0.08070476 0.08299441 0.08284224 0.017104506 0.066488855 0.025544912
-0.062035933 -0.05667889 -0.06735201 -0.06444856 -0.07355651 0.06755365 -0.071951136 0.08384182
0.056774117 0.007168986 -0.006382264 0.07441751 -0.07737097 0.045157127 -0.018306032 -0.053541627
0.0073469654 -0.085185185 -0.05767323 0.0050696135 -0.024805613 -0.07206386 0.07232296 -0.070952415
-0.02580139 0.047800727 0.07605357 -0.033653583 -0.030804098 0.077254616 -0.06041912 -0.06844427
0.079333566 0.07319596 0.0240319 -0.03842701 0.074629925 -0.05440004 0.06824771 0.033657543
-0.036725666 0.07899342 0.051172353 0.03159584 0.043455385 0.07604746 -0.06985679 -0.07191759
-0.079755396 0.05410611 -0.061247915 0.009763598 0.07133711 0.07416833 -0.022401512 -0.060502224
0.012817204 -0.03575392 -0.06470553 -0.06936878 -0.007985994 0.008690603 0.03389267 0.07895859
0.009635769 -0.08211717 -0.012134142 -0.042236872 -0.065230906 0.012222014 0.019482642 -0.024397485
-0.009514749 0.035422444 -0.0498277 0.048104145 -0.02330044 -0.07097175 0.033959687 -0.06798003
0.07893068 0.06585882 0.053072043 0.02420614 0.039954744 -0.03138853 0.08781586 -9.745359e-06
-0.011377826 0.021492377 -0.012055241 -0.03671749 0.05838508 0.017162658 0.0012694299 -0.047894415
-0.06765518 0.04664109 -0.07705587 0.010154113 0.056502797 0.03695052 0.007832393 0.0564157
-0.06964643 -0.066359244 -0.015225641 0.00019311905 -0.060447738 0.086220734 -0.07566963 0.049415044
