models/LSTM_model_3.pt (torch_old, 738256 bytes, 7 tensors)

params f4 [512, 186]
000000 f0 35 23 bd 8d d6 b1 3d aa 38 c1 3d 42 be 9b bd
       -0.03984636 0.086835004 0.09434636 -0.07604648
000010 5f 0c 5b bd 87 d9 15 bd 05 47 d1 3c 28 14 bd 3c
       -0.053478595 -0.036584403 0.02554656 0.0230809
000020 8a 37 9d bd fa d6 94 3d a7 b6 4f bd 08 6e 00 bd
       -0.07676609 0.07267566 -0.0507113 -0.031354934
000030 92 43 98 3d d7 1c 63 bd ba bc 7f bc 73 3f 1e bd
       0.07434763 -0.055447426 -0.015608961 -0.03863473
000040 29 75 98 3d fa 24 89 3c 19 9e b4 3d 06 48 9a bd
       0.074442215 0.016741265 0.08819217 -0.07533269
000050 8a 10 d1 3c c1 f6 4d bd e7 15 3b 3c ea f9 8c 3c
       0.025520582 -0.05028415 0.011418796 0.017209012
000060 65 71 b1 3b a3 f0 82 bc f9 e5 d1 bc 1a 8c 91 3d
       0.005415129 -0.015983885 -0.025622355 0.071068004
000070 14 cf 32 3c 36 5f 86 3d 95 99 8b bc e6 56 f4 bc
       0.010913629 0.06561129 -0.017041007 -0.029826593
000080 36 e7 cf bb 7e 40 03 bc 39 62 a8 bd 8d 9e 92 bd
       -0.006344701 -0.008010982 -0.082218595 -0.071591474
000090 b5 6b 2e ba b2 ee 39 3d 51 ea a0 bd f8 1a 72 3c
       -0.0006653623 0.045393653 -0.07857192 0.014776938
0000a0 a2 a0 91 bc 92 bb 89 bd 58 23 8b bb 29 c4 32 bd
       -0.017776791 -0.06725229 -0.0042461567 -0.043644104
0000b0 f4 24 40 bd 7d b2 80 3c 6f 9f 9b bd 52 be b5 3d
       -0.04691024 0.01571011 -0.07598769 0.08874191
0000c0 dc ed 2d 3d 10 d2 6c bd 45 d1 11 bd 58 d1 82 3d
       0.04246317 -0.05781752 -0.035599966 0.063875854
0000d0 7b 93 8a 3b c5 eb 38 bd b9 ba a2 bd 87 48 9e 3d
       0.004229007 -0.045146722 -0.07945771 0.07728677
0000e0 3f e5 56 3c 39 3b 3c bd 85 fb cd bc f9 a9 59 bd
       0.01311618 -0.045954917 -0.025144348 -0.053140614
0000f0 fc 61 9d 3d 73 76 b0 3c a3 98 98 bc 33 a1 52 bd
       0.07684705 0.021540856 -0.01862747 -0.051423263
000100 39 c4 58 3d d3 60 46 bd 03 09 94 3d 9b a9 6c bc
       0.052921508 -0.048432183 0.07228281 -0.014444734
000110 f2 66 aa 3b 7a 12 85 bd b8 d9 59 3c 33 ae a6 3c
       0.0052002603 -0.06497665 0.013296537 0.020346737
000120 7a 13 22 3d b1 59 c6 3b d8 80 36 ba dc 34 f9 bc
       0.039569356 0.0060531725 -0.0006961948 -0.030420713
000130 f9 65 57 bd 19 0f e0 3c 04 95 44 bd d3 73 a7 3d
       -0.052587483 0.02735095 -0.047993675 0.081763886
000140 97 1a 31 bd 9a 0b 86 bd b5 d9 91 bd b7 0d a6 bd
       -0.04323825 -0.065451816 -0.071216024 -0.08108085
000150 6d 16 9a 3d 4a be f8 3c 6f 3e f5 3b e1 6e 5b bd
       0.07523809 0.030364174 0.0074842493 -0.05357254
000160 ff 75 a2 bd ab 2c a4 3d 34 2c 99 3c 11 47 23 bc
       -0.07932662 0.08016332 0.018697836 -0.009965674
000170 cc 00 42 3d 29 b6 85 bb 2a 53 42 bc 3c dd 2f bd
       0.04736404 -0.004080553 -0.011860648 -0.042935595
000180 c3 83 06 3d a5 3d 19 bb 90 8f 98 3c 12 c7 c0 bd
       0.0328405 -0.002338269 0.018623143 -0.0941297
000190 e9 40 03 bd d2 02 b0 3d 89 d3 d4 bc 1c 78 2f 3d
       -0.032044325 0.08594288 -0.025979774 0.042839155
0001a0 6e 5f 4c bd 59 aa 8a 3d 46 eb 59 bd a8 30 a5 bc
       -0.049895696 0.067707725 -0.05320289 -0.020164803
0001b0 ea 2c c8 bc ac 99 b9 bc b5 ad e5 bc 7b 0c 93 b9
       -0.02443548 -0.022656284 -0.028036932 -0.00028047324
0001c0 b5 3f a7 bd d5 dd 5c 3d 63 a7 b8 bc 79 f1 2d 3b
       -0.08166448 0.053922493 -0.022540754 0.0026541634
0001d0 33 eb 95 bd 68 12 7c bd 6b c9 f2 3b dc a2 2d 3d
       -0.07320251 -0.06154099 0.007409265 0.042391643
0001e0 a1 21 8f bd 29 38 a3 3d 65 70 b1 bd 2b f3 50 3c
       -0.06988836 0.07969696 -0.08664016 0.012753288
0001f0 08 58 a4 3d 8f 25 ef 3c ee 07 a3 3a a3 d2 4e bd
       0.08024603 0.029192714 0.0012438276 -0.050493848
000200 1f 91 b6 bd e3 1f 7a bc 30 22 ce 3c 27 f6 8e bc
       -0.089143984 -0.015266391 0.025162786 -0.017451359
000210 37 b4 94 3d be a6 ab 3d 8e e5 4d bd 63 52 a2 3d
       0.07260936 0.08381413 -0.05026775 0.0792587
000220 5b 20 31 bc 8b a2 f7 3c 75 04 17 bb 64 5b 83 bd
       -0.010810937 0.030228874 -0.0023043428 -0.06413916
000230 f0 33 6f ba 74 08 a5 bd 20 57 29 3c 41 d4 b0 bd
       -0.0009124866 -0.08058253 0.010335714 -0.08634234
000240 3d 2d 0c bd 67 98 30 3d 56 31 a7 3c e8 5d a1 3c
       -0.03422283 0.043114092 0.020409267 0.019698098
000250 cb 43 f7 3c 7f 38 74 bd ca 1c 84 bd 6b 22 1d 3d
       0.030183693 -0.05962419 -0.064508036 0.0383629
000260 d9 c8 13 3d d9 e2 71 bd 61 e2 49 3d 08 54 a0 bd
       0.036080215 -0.05905423 0.049288157 -0.07828528
000270 77 de 8f bd 5a f4 19 bc 65 9c 1e 3c 52 0f bc 3c
       -0.07024854 -0.009396637 0.009680842 0.022956524
000280 81 8a 40 bb 38 ab 6c 3d 16 cc 8c bd f1 53 94 3d
       -0.002937943 0.057780474 -0.06874864 0.07242573
000290 f8 c3 3c 3d 94 0a 8e 3d 67 d6 be bb fd 06 19 bd
       0.046085328 0.06935611 -0.0058238986 -0.03736018
0002a0 c0 74 a6 3d 52 69 95 bd c2 2f 45 bc 26 01 a4 bd
       0.08127737 -0.07295479 -0.012035312 -0.080080315
0002b0 1b d7 26 bc 2b d5 19 3d 0d cf a1 bd b6 c3 b0 3d
       -0.010183121 0.03755681 -0.0790082 0.08631079
0002c0 58 86 13 bd 90 e1 bf 3c d3 5d 58 bd 3a c1 c5 bb
       -0.036016792 0.023422986 -0.052823853 -0.0060349973
0002d0 57 3f d2 bc d0 48 0a 3d 3e 01 91 3d ba 48 69 bd
       -0.025664968 0.033760846 0.07080315 -0.056954123
0002e0 d3 36 74 3d 3e 7d ad 3c 93 09 80 bd 63 3e 7f 3d
       0.059622597 0.021177884 -0.06251826 0.062315356
0002f0 d2 5b 59 bd 5e 8c 3b 3d df c3 57 3c c6 67 8b bc
       -0.053066082 0.04578816 0.013169258 -0.017017256
000300 0c b6 85 bd 39 b2 3d 3d 1d 20 94 bd a6 7b 5c 3d
       -0.06528863 0.046312544 -0.072326876 0.053828858
000310 11 87 ac bd 19 fa 70 3d 60 2a 7d bd 0b 9c ab bd
       -0.084241994 0.05883226 -0.06180799 -0.08379372
000320 cd 94 92 3c f2 59 24 3d 54 ec 44 bd 20 26 6e 3d
       0.01789322 0.04012484 -0.048076943 0.058141828
000330 c3 ab 6a 3c 2e 4e 63 3d 62 38 65 3c 90 84 35 3d
       0.014323178 0.05549448 0.0139904935 0.044315875
000340 5e f7 63 3d 24 18 65 bd ec eb 33 bd 3c 5b 94 bd
       0.05565583 -0.055931225 -0.043926165 -0.07243964
000350 3e 93 8a 3c 95 77 c7 3c b9 c0 43 bd 67 5d 53 bd
       0.016915914 0.024349013 -0.047791217 -0.051602747
000360 49 ea e8 39 cc 5f d9 bb dc c2 f0 3c ce b2 99 3d
       0.00044425044 -0.0066337343 0.029389791 0.075048074
000370 65 e2 f7 3c 8c 78 6c bc 41 8c 91 bd ad 69 28 bd
       0.03025932 -0.0144330375 -0.071068294 -0.041116405
000380 6c 3c c3 3c 8a fc 81 3d 6f 33 40 bd 74 95 dd bb
       0.023832522 0.06346996 -0.04692405 -0.006762201
000390 9e f7 8a 3d 6b 60 a1 3d 3f 60 9e 3d e2 20 49 bd
       0.067855105 0.078797184 0.07733201 -0.049103625
0003a0 b0 45 7a 3d 6f 91 84 bd 24 4c b6 3c 22 b3 9d 3c
       0.061101615 -0.06473052 0.022253104 0.019250456
0003b0 22 12 54 3d b2 98 82 bd c4 34 6c 3d f9 26 9a bd
       0.051775105 -0.063767806 0.05766751 -0.07526965
0003c0 34 cb 9b 3d ae ef 26 3d 85 29 a1 bd 95 a5 25 3d
       0.07607117 0.04075592 -0.07869247 0.040441114
0003d0 2b 5c 7a bd 69 df 50 bd 85 47 16 bd 39 24 b2 3d
       -0.061123054 -0.05099431 -0.0366893 0.08698315
0003e0 1c 81 47 bd 92 c5 a3 3c 16 1f 8b bd 43 4d 6b bd
       -0.048707113 0.01999167 -0.067930385 -0.05744673
0003f0 7f 65 8d 3d c2 dd c6 bc 13 35 14 bc ef 8f dd 3c
       0.069041245 -0.024275664 -0.009045857 0.027046172

params f4 [512, 128]
000000 19 62 d6 bc 61 4c 1b 3d 68 09 50 bd 4b 48 a2 bd
       -0.026169823 0.037914637 -0.05079022 -0.07923945
000010 a0 ba 93 bc 4d dd 8e 3d e9 da 42 3d 3a b9 fc bc
       -0.018033326 0.069758035 0.04757205 -0.030850042
000020 4d 78 be 3d c1 ab 53 bd f9 13 9c 3d 56 cf 45 bd
       0.09300289 -0.05167747 0.07620997 -0.048293434
000030 61 85 b1 3c cd e5 3d 3c 1e 93 3e 3d 53 e4 1d 3c
       0.021670045 0.011590433 0.04652702 0.009636956
000040 30 15 2a 3b be 51 e2 3c c8 52 88 bc 60 dc 1c bc
       0.002595257 0.027626868 -0.016641036 -0.009574026
000050 3c a9 ae bd 51 8a 9a 3d ed 6c 4a 3d 3e 91 ea 3c
       -0.08528373 0.07545913 0.049420286 0.02863371
000060 dc 79 95 3d 05 7b 13 bd 05 f5 5d bd 1b e9 ad bd
       0.072986335 -0.036005992 -0.054188747 -0.08491727
000070 de 84 42 3b 1f 54 08 3d 44 ea 07 bc 5f f8 76 3d
       0.0029681246 0.03328335 -0.008295599 0.06029546
000080 74 38 bd bc 98 ee 82 bc 0d 5d 85 3d 9e 45 a1 3d
       -0.023098208 -0.015982911 0.06511889 0.078746065
000090 2e 0f 87 3d 65 a2 17 bc e2 a1 de bc 82 e8 ef 3c
       0.06594692 -0.0092550265 -0.027176801 0.029285673
0000a0 1e 52 9f bd 47 0e 0a 3c 43 87 84 bd 81 10 40 3d
       -0.077793345 0.008426256 -0.064711116 0.04689074
0000b0 e7 51 8a 3d da 09 df bc 5a a0 77 bd 10 38 6f 3d
       0.06753903 -0.027226377 -0.060455658 0.058403075
0000c0 0c a5 6a 3d e8 7f 8a bc b6 b1 18 bd c8 3f 48 bd
       0.057286307 -0.016906694 -0.037278853 -0.04888895
0000d0 8e c3 ae bd 59 54 0a bd d9 43 a2 bb 5e 1d 9f 3d
       -0.08533393 -0.033771846 -0.0049519357 0.07769273
0000e0 60 7a 0e 3c 04 e1 5b 3d 71 4d 81 bc ab 39 a8 3d
       0.008696169 0.05368139 -0.015783997 0.08214124
0000f0 16 0a a0 bd fb 7c e7 3c 87 4a 88 3b 6f 45 a0 3d
       -0.07814424 0.028257838 0.004159275 0.078257434
000100 86 3a 63 bb 04 0b a0 bd 1c b7 54 3d 86 7c ac bd
       -0.0034672334 -0.07814601 0.05193244 -0.084221885
000110 63 14 c5 3c 51 13 b7 3b 43 1d 5a 3c b5 5c 71 3d
       0.024057573 0.0055870195 0.013312641 0.058926303
000120 34 25 fd b8 99 a8 78 3d df 7e 55 bc 05 37 28 bd
       -0.0001207091 0.060707662 -0.013030737 -0.041068096
000130 02 58 8c bd e2 e6 54 39 38 5f c1 3c 5d 2a af bb
       -0.06852724 0.00020303906 0.023604974 -0.0053456263
000140 d5 e9 c8 3c b0 17 48 bd 46 fd f1 3c e3 2f bf bc
       0.024525562 -0.048850715 0.029539715 -0.023338264
000150 db aa 01 bd 2c 20 97 3d 7e 2a a3 3b 32 c8 80 bc
       -0.03165708 0.07379183 0.0049794307 -0.01572046
000160 5d f0 2d 3c b0 6c bf bc ec 2f 0d bd d8 85 b8 bd
       0.010616389 -0.023367256 -0.03446953 -0.09009904
000170 26 92 02 3d fa e6 f9 bc c3 e0 16 3d b9 10 a5 3d
       0.03187766 -0.030505646 0.036835443 0.0805983
000180 c7 19 88 bd 98 18 ab bd aa c9 9b 3d c0 ce ae 3d
       -0.06645542 -0.083543 0.07606824 0.08535528
000190 9c c3 88 3d c2 e9 fb 3c 59 b2 af 3d 39 83 97 3d
       0.066779345 0.030751113 0.08578939 0.073980756
0001a0 11 9b 65 bd 96 fd 85 3d 44 e2 25 3d 24 6e a0 bd
       -0.056056086 0.06542508 0.040498987 -0.07833508
0001b0 53 97 47 3d dd ee 73 3b c1 48 4f bd b7 92 8d 3d
       0.0487283 0.003722123 -0.050606493 0.06912749
0001c0 04 fa 81 bd 81 d7 9c bd 6d b5 2a 3c a6 4c 00 bd
       -0.06346515 -0.076582916 0.010419232 -0.031323098
0001d0 0f 85 07 bd 1e 09 6f bd fd 5a b3 3d 63 2a 72 3c
       -0.03308588 -0.058358304 0.08757589 0.014780614
0001e0 6f 06 9d bc d3 0e 89 3d 39 cc a0 3d 7d 34 1c bc
       -0.019168107 0.066922806 0.078514524 -0.009533999
0001f0 e5 2a 75 bd a5 b0 5c 3d 23 7e 6c 3d 18 d6 91 3d
       -0.05985536 0.0538794 0.05773748 0.07120913
000200 93 af 9e 3b 4c 36 02 37 40 0d f9 bc da 12 62 3d
       0.0048427074 7.761246e-06 -0.030401826 0.05519376
000210 c9 43 a0 3d 3f ad 13 3c 4c 46 1f bd 62 43 be 3c
       0.07825429 0.009013473 -0.0388854 0.02322549
000220 d4 03 8a bd 38 9e 9b 3d 0d d6 00 3d 6d a9 92 bc
       -0.067390114 0.07598537 0.031454135 -0.017903054
000230 ce 9c a6 3d 03 1b d7 bb d7 7a 21 3d e8 77 4c 3d
       0.08135377 -0.0065644993 0.03942379 0.04991904
000240 4a c4 99 3d e2 50 12 3d 54 bb 17 bd 7e aa 84 3c
       0.07508142 0.035721667 -0.037043884 0.016194578
000250 c7 73 85 bb 5d 83 15 bd 18 ac 0b 3d ae 12 a2 3d
       -0.0040726396 -0.03650223 0.03409967 0.07913719
000260 5b 5c af 3d 86 86 ab 3d 55 19 93 3c 4b 65 43 bd
       0.08562537 0.08375268 0.017956415 -0.047704022
000270 9c e0 7d 3d 09 bb 94 3d 69 d0 6c bc 37 2f 90 3d
       0.061981782 0.072622366 -0.014453986 0.070402555
000280 65 3b 73 3d 91 79 82 3c af 6b a9 bd d8 73 80 bc
       0.059382815 0.015927108 -0.08272492 -0.015680239
000290 39 f7 bf 3c c1 70 b0 3d c2 16 44 ba d3 01 6e bd
       0.023433315 0.08615256 -0.0007480198 -0.05810721
0002a0 93 ca 68 bd b6 58 7d 3d 7a e9 95 3d 7a f9 1e 3d
       -0.056833815 0.06185218 0.07319923 0.03881214
0002b0 a9 ba 09 bd 5e ee 90 3d b1 f0 94 3c 9b c5 49 bd
       -0.03362528 0.07076715 0.018181177 -0.049260717
0002c0 9a 62 8c bd bc 18 89 3d 60 f1 68 3c d5 8c 19 bb
       -0.06854744 0.06694171 0.014217705 -0.002342989
0002d0 18 9a b6 3c 40 f9 93 bc e7 14 89 3d ab b3 98 bd
       0.022290275 -0.018063188 0.0669344 -0.07456144
0002e0 c6 80 54 bc 3e 19 9e 3d c8 e3 34 3b 47 f9 1a bd
       -0.012970155 0.07719658 0.0027601589 -0.037835386
0002f0 55 99 7f 3d 18 06 1f bc 86 26 dc bc 84 3a 5a 3d
       0.06240209 -0.009706043 -0.026873838 0.05327846
000300 e4 75 9c bd 15 6c 7c 3c a5 81 a7 3d 70 c7 8e 3d
       -0.07639673 0.015406628 0.081790246 0.069716334
000310 ad c9 4c 3d fc 78 3a 3c 90 9d 3b 3d 35 76 53 3d
       0.04999702 0.011381384 0.04580456 0.051626403
000320 d9 cd 81 3d a6 d8 51 3d 02 cb 0b 3d a9 04 0e bd
       0.063380904 0.051232003 0.03412915 -0.034672413
000330 0f ac 80 3c ec cc 8c bc b8 4b 56 3d 4f cd 32 3d
       0.015707044 -0.017187558 0.052318305 0.04365283
000340 71 57 3a 3c 75 5b 56 3c ea 38 97 bd 77 23 85 bc
       0.011373387 0.0130833285 -0.07383902 -0.016252263
000350 21 16 04 3c f7 83 0d 3d cd 7b d1 bc 88 96 73 bc
       0.008061917 0.03454968 -0.025571728 -0.014867432
000360 64 70 1a bc 34 e1 39 bd fe 2a 82 3c 99 b4 92 bd
       -0.00942621 -0.045380786 0.01588964 -0.071633525
000370 b3 83 79 bc 48 32 35 3d 15 0c 85 3b 0f c8 6d 3d
       -0.015229153 0.044237405 0.004060278 0.05805212
000380 3a 93 5c bd 6c f9 24 bc 53 9e 62 3d 33 59 80 bd
       -0.053851344 -0.010069232 0.05532677 -0.062670134
000390 86 1b 4c bd 42 2c 59 bd b8 cf c4 bb fc 06 52 bc
       -0.049830936 -0.053020723 -0.0060062073 -0.012819048
0003a0 5e 60 40 bd 4e bd 80 3d 7d b6 a7 3c e1 c5 6d bd
       -0.046966903 0.06286107 0.02047276 -0.05805004
0003b0 5d 64 65 3b e6 ea 92 3b 01 ba 4b bd ed dc 89 bb
       0.0035002448 0.0044835685 -0.049737934 -0.0042072446
0003c0 9c af c1 3b aa 21 db bc 11 1d 47 3d 9c 4e 8a bd
       0.005910827 -0.02674945 0.048611704 -0.06753275
0003d0 8f 1a 47 bd 57 32 7b 3d 1a 69 b0 bd f6 78 88 bc
       -0.048609313 0.061327305 -0.086137965 -0.016659241
0003e0 ec 15 97 bd c0 57 52 bc 06 32 4a 3d 4f bd 18 3c
       -0.07377228 -0.012838304 0.049364112 0.009322478
0003f0 85 a0 a7 bd d9 23 59 bd d2 9a 53 bd 88 f5 83 bc
       -0.081849135 -0.053012703 -0.05166132 -0.01610829

params f4 [512]
000000 4d fa 9a 3d 35 16 74 3a 39 ec 7e bd 45 b0 f1 3d
       0.07567272 0.00093111704 -0.062237 0.11801199
000010 80 9a fe bc f3 89 4b 3d 2d b5 3b bd b1 be f0 3b
       -0.03107953 0.049692106 -0.04582708 0.007346951
000020 64 33 91 3d 85 66 f1 3d 3a 93 c1 3c 62 f1 06 3b
       0.0708988 0.11787132 0.023629773 0.0020590653
000030 a5 8b a0 3d ca 72 86 bd 7f 1a 08 bd c2 7b 55 3d
       0.07839135 -0.06564863 -0.033228394 0.052119978
000040 ce e0 b6 3d e1 2c c9 3d bc 1a 8c 3c 1f 40 3d bc
       0.08929597 0.09823013 0.017102592 -0.011550932
000050 3e 64 f6 bc 53 c2 09 3d 12 36 cb 3a 5c bd 43 bd
       -0.030077096 0.033632588 0.0015503785 -0.04778801
000060 94 62 6c 3d a8 27 ad bc 51 66 63 3d a3 d7 cd 3d
       0.0577112 -0.021137074 0.0555175 0.10050895
000070 d3 b8 a1 bc ce 4d 13 3d 78 2d ef 39 e9 12 0c 3e
       -0.019741451 0.035962872 0.0004561951 0.13679089
000080 83 be 4e 3d d4 ee 82 3d ee ce 11 bd e6 3f f2 3d
       0.050474655 0.06393209 -0.035597734 0.11828594
000090 4f 64 a8 bc 0c 19 8d bd a4 d9 64 bc 1d c7 01 3e
       -0.020555643 -0.06889543 -0.013967905 0.12673612
0000a0 f2 86 d5 3d fa ff 0c 3d e1 39 c7 3d bb ef 58 3c
       0.104261294 0.034423806 0.097278364 0.01324075
0000b0 96 8e 1d 39 51 f2 da 3a d0 e2 11 3d bf 8f 98 3d
       0.00015025804 0.0016704296 0.035616696 0.074492924
0000c0 07 81 94 3c 3d 41 42 bd c3 5f 2c 3e 6e 55 0c 3d
       0.018127931 -0.047425497 0.16833405 0.03426116
0000d0 1a b6 9a bc 17 e8 a2 3d 28 0f 54 3d 57 11 70 bd
       -0.01888566 0.07954424 0.051772267 -0.058610287
0000e0 65 26 6c bc fd ee d4 3d 07 cd 9d 3d 68 c4 0d bc
       -0.014413451 0.10397146 0.077051215 -0.008652784
0000f0 67 68 3d bd 11 7a fc 3d e5 f2 9e 3d c7 5a 89 3d
       -0.046242144 0.1232797 0.07761172 0.067067675
000100 3e 71 35 3d 1d db 73 3c 69 2d d2 3d 9a 3b 84 3c
       0.04429745 0.014883784 0.102625675 0.016141701
000110 0c 37 f1 3d ba dc ac 3d 15 bf 11 bd 7c 40 61 bd
       0.117780775 0.08440538 -0.03558262 -0.054993138
000120 5c 6f db 3d cf a2 2a 3c 6b 45 8f 3c 4d 16 52 bc
       0.107145995 0.010414793 0.017489156 -0.0128227
000130 29 6d 9a bc 1d 35 21 3e 4f 8f 9b bd 6b bf af 3d
       -0.01885088 0.15742917 -0.07595693 0.08581432
000140 91 73 7a bc dd cf ba 3d 25 c8 8b bd 97 28 13 3d
       -0.015286342 0.09121678 -0.06825284 0.03592738
000150 40 fa aa 3d ca 26 9b 3d 19 f0 85 3b 6d f7 a5 3d
       0.08348513 0.07575758 0.0040874598 0.08103833
000160 2a 0d 40 bd 8e 69 93 3d 0e 34 08 3d b8 b4 38 bd
       -0.046887554 0.07197867 0.03325277 -0.04509422
000170 d8 94 62 3d f1 10 1f bd c9 b2 71 3d b6 3a 2b bd
       0.05531773 -0.038834516 0.059008393 -0.041804038
000180 66 a8 c3 3d ba 2f 11 bd fb 9e 43 3c 76 47 42 3d
       0.09553604 -0.035445906 0.011939759 0.04743143
000190 52 fa 11 3d 5a 7e e8 3c 13 cc 3c 3e fd 66 83 3d
       0.035639115 0.028380562 0.18437223 0.06416128
0001a0 89 cb 07 3d de c4 fb 3b 4e f5 8c 3d 67 c2 f8 3d
       0.03315309 0.0076833805 0.06882726 0.12146454
0001b0 55 95 58 3c e7 56 ba 3c 1d 06 5f 3d 79 52 9a 3d
       0.013219197 0.022746516 0.05444919 0.07535262
0001c0 f3 e4 89 3d 1b 31 5b 3c 2f 04 89 3d 0b 84 2f 3d
       0.06733122 0.013378407 0.06690251 0.042850535
0001d0 c9 37 2f bd 7f 79 ec 3d a0 85 44 3c 3c b5 e3 3d
       -0.04277781 0.11546611 0.011994749 0.11118552
0001e0 eb 49 90 3d 8c e5 3f 3d a5 31 14 3e d0 0c 2a 3d
       0.07045349 0.046849772 0.14472063 0.041516125
0001f0 65 0b 4e 3d 1b 89 84 3d 45 d7 b5 3d be 87 66 bb
       0.050303835 0.06471463 0.0887895 -0.0035176123
000200 df dc b0 3d e9 ec 94 bd 76 e0 06 3d 71 6c e9 3d
       0.08635878 -0.072717495 0.032928906 0.11397637
000210 89 e9 9a 3d a4 10 1f 3d dc 0d b6 3d 4a e4 ad 3d
       0.075640745 0.03883423 0.08889362 0.08490808
000220 5e c0 e0 3d 05 dd fb 3d ec 1d c9 3d 85 9a cc 3d
       0.10974191 0.122980155 0.0982016 0.0999041
000230 d0 71 f7 3d 44 99 9d bc 8b f8 82 bd 0b 05 b5 3d
       0.12082255 -0.019238122 -0.06395062 0.088388525
000240 3c db c1 3d df c8 a0 3d 3c e1 9d 3d 32 d5 1f 3d
       0.09465644 0.07850813 0.07708976 0.03902168
000250 63 4c 2e bd a2 23 6d 3d 39 f9 22 3d 45 dc d5 3a
       -0.042553317 0.05789531 0.03978846 0.0016316256
000260 5f 81 06 3e cc 59 27 3d ee a2 f7 3c b5 5c 92 3c
       0.13135289 0.04085712 0.030229058 0.017866472
000270 be c8 1e bd 4e ba 8c bc 77 90 86 bd 26 6c 46 3d
       -0.03876566 -0.01717868 -0.06570523 0.048442982
000280 a7 df bc 3c a3 bc 9a 3d ae 7c cd 3d 86 cc 2e 3d
       0.023055864 0.07555511 0.100335464 0.042675517
000290 6e 2e a8 3d ef 8a b1 3d a8 51 f8 3c cd 9d 3c bd
       0.08211981 0.086690776 0.030312374 -0.046048928
0002a0 e9 de 9a 3d 03 f9 83 bc 51 82 59 bd c4 d9 55 3d
       0.07562048 -0.016109949 -0.053102795 0.05220963
0002b0 bb 43 66 3d 66 8e 97 3d 24 21 fe bc 00 ba 2d 3c
       0.056216937 0.07400207 -0.031021662 0.010603428
0002c0 43 c1 99 3d a5 1c 4e bd 50 f2 ac 3d 74 58 ed bc
       0.07507565 -0.050320286 0.08444655 -0.028972842
0002d0 99 a3 0e bd 4d ca 1f bd 07 76 0d 3d c1 1b 19 bd
       -0.034823988 -0.03901129 0.034536388 -0.037379984
0002e0 bd 22 aa 3d f4 57 cb 3d bd 79 06 3e f8 1a 45 3d
       0.08307407 0.09928885 0.13132377 0.048121423
0002f0 12 a7 32 3d 87 96 94 3d 6a 3c 87 3d 64 ee 03 bb
       0.043616362 0.07255273 0.0660332 -0.0020131106
000300 d6 cc 74 3d 3a 0d 1f 3d 7d 97 73 bd 48 8f ce 3d
       0.05976566 0.038830973 -0.059470642 0.100859225
000310 ad 0c 22 3b 5a 00 62 bd 41 cd 80 3c 9d 87 4a 3b
       0.0024726794 -0.055176117 0.015722873 0.0030903586
000320 d1 66 fe 3c bb 61 9f bc d5 bf 73 3d 9b f2 32 bc
       0.031054886 -0.019455781 0.059509117 -0.010922099
000330 78 36 19 bd ab b9 f8 3d c0 f8 27 3d e0 c7 ba 3c
       -0.03740546 0.12144788 0.04100871 0.022800386
000340 e9 52 99 3c 5b e4 f0 3c 73 14 9a 3d 74 c6 fb 3d
       0.018716292 0.029405763 0.07523432 0.12293711
000350 00 75 35 3b da 6a 0c 3e de 82 4e 3d aa f5 2b bd
       0.0027688146 0.13712636 0.050417773 -0.04198233
000360 02 81 f9 3c 33 d5 8e 3b 8f c6 c2 3d 95 5d fe 3c
       0.030457024 0.0043589114 0.09510528 0.031050483
000370 ed 97 7e 3d 4c c3 a9 3d 40 7d f4 3d 96 5a 55 bd
       0.062156606 0.08289203 0.11937952 -0.052088343
000380 8a aa 15 bd e2 0a cb bc aa 43 30 3d 3d 5c eb 3d
       -0.03653959 -0.024785463 0.04303328 0.114922024
000390 27 90 dc 3d 53 da d6 3c 1f 80 55 3d b4 48 f6 bc
       0.107696824 0.026227152 0.05212414 -0.030063964
0003a0 5d b5 bf 3d 18 48 6d 3c a6 fb 88 3c 1d e8 7a bc
       0.09360764 0.0144825205 0.016721558 -0.015314129
0003b0 35 e3 32 bd df 44 41 3d 63 84 69 3d 52 19 38 3d
       -0.043673713 0.04718482 0.05701102 0.044946022
0003c0 c0 7f c5 3d 0e d1 04 3d ea 62 9a 3d 76 58 54 3d
       0.09643507 0.032425933 0.075383976 0.051842175
0003d0 9a 04 9a 3d d6 25 3e 3d ea 3f 34 3c 32 5d ce 3d
       0.07520409 0.046422802 0.011001566 0.10076369
0003e0 03 99 b2 3d 10 f8 ee 3d 50 78 77 3d 69 45 00 bd
       0.08720591 0.11668408 0.060417473 -0.031316195
0003f0 f4 0a 1f 3d a9 fb 38 3d c8 e8 9e 3d 13 b3 34 3d
       0.038828805 0.045161877 0.07759243 0.04411609

params f4 [512]
000000 43 db ac 3d a2 24 05 3c 17 f8 30 3d 8a b2 56 3d
       0.08440258 0.00812641 0.043205347 0.052416362
000010 df e4 93 bd 0e 1d cf 3d c3 89 87 3c 8b 6f e0 bc
       -0.07221388 0.101129636 0.016545182 -0.027396938
000020 89 1d d8 3d e7 7c 2f 3e f7 52 0e 3d 17 82 6c 3d
       0.105525084 0.1713749 0.03474709 0.05774125
000030 d6 8d a4 3d 45 72 e8 3b b3 2c 8b 3c f0 61 eb bc
       0.080348656 0.0070937 0.016989088 -0.028733224
000040 32 64 d2 3d 67 71 00 3e fb 59 7b bd 68 df e9 3c
       0.10273017 0.1254326 -0.06136511 0.028548911
000050 4f c6 da 3d fe 5b 81 3d 64 f8 e5 3d 5b 49 7a 3c
       0.106823556 0.06316374 0.112290174 0.015276278
000060 50 10 7d bd 44 6a fa 3c 92 ad d8 3d d1 af 28 3c
       -0.061783135 0.03056825 0.10579981 0.010295824
000070 74 43 c7 bc 23 27 97 3d f7 0d 99 3d 0f 37 0e bd
       -0.024324156 0.073805116 0.07473367 -0.034720477
000080 6d 5a ce 3d 85 c6 1a 3e 66 f1 90 3d 0d bb 59 3c
       0.10075841 0.15114792 0.07077293 0.013289225
000090 2b 0c b7 3d e9 03 9b bd d3 2f c1 3d 31 c5 1c 3d
       0.08937868 -0.07569105 0.0943295 0.038273994
0000a0 7c d1 8e 3d 90 45 e8 3d 4c 37 0f 3d 0e 3b be 3d
       0.0697355 0.11341393 0.034964845 0.092886075
0000b0 be 21 30 3d 14 f1 8d 3c 20 1a a5 3d 3e 99 dc 3c
       0.04300093 0.01732687 0.080616236 0.02692854
0000c0 47 0e b7 3d f0 cd 81 bd 78 9d 8b 3d a0 33 0b 3d
       0.0893827 -0.063381076 0.06817144 0.03398478
0000d0 97 6f a1 3a f0 9c 8d bc 6d de 9e 3d 49 c4 a1 3d
       0.0012316582 -0.017286748 0.07757268 0.078987665
0000e0 28 08 9b 3c f1 6b df 3d 7f f6 6f 3d 3b e0 63 bd
       0.018924788 0.1090926 0.058584686 -0.055633765
0000f0 de 66 1c bd b1 ca cb 3c 80 db 4d 3d 46 60 45 bd
       -0.03818404 0.024876924 0.05025816 -0.048187517
000100 76 67 d3 3d 4d 12 50 bc b8 14 73 bb ee 2f 95 3c
       0.10322468 -0.012699676 -0.0037091207 0.018211331
000110 3a 5a d1 3d e4 84 3c bd 41 13 20 bd 36 e3 33 3b
       0.102222875 -0.046025172 -0.039080862 0.002744866
000120 82 ac ad 3d 86 32 92 3d 4c 52 90 bc 97 67 c5 3d
       0.08480169 0.07138543 -0.017617367 0.09638899
000130 99 34 0c 3d 34 7d 16 3d 9d 67 49 3d ef 21 b1 3c
       0.03422985 0.036740497 0.04917108 0.021622626
000140 3c f1 e1 3d 36 2a f6 3d 58 1e e0 bc 4b 08 ae bc
       0.1103234 0.1201977 -0.027358219 -0.021244189
000150 50 2e 40 3d 3a 34 ec 3d d0 b2 6c 3c 92 21 30 bd
       0.046919167 0.11533399 0.014446929 -0.043000765
000160 8d 02 8c bd 2a e9 1e bd 95 a3 ed bc d3 be f7 bc
       -0.06836424 -0.03879658 -0.029008666 -0.03024236
000170 91 8a b1 3d b8 6b d7 3b 39 1e 63 3c 4c fd dc 3d
       0.086690076 0.0065741204 0.013862186 0.107905
000180 f8 dd 3a 3e 54 25 d3 3c 0b 6c 1f bd 1a 18 9f 3c
       0.18248737 0.025774635 -0.038921397 0.019420672
000190 c7 c7 c5 bc 8d 7f ba 3d 74 23 e9 3d 33 ac b0 3d
       -0.024143113 0.0910636 0.11383715 0.086265944
0001a0 b2 b7 96 3d 92 6b 37 bd 3a 5f 17 3e b2 b5 aa 3d
       0.07359256 -0.04478032 0.1478242 0.08335437
0001b0 23 db f1 3c 8a 7d 5a 3d fc 6e 78 bc d9 2f ea bc
       0.029523438 0.05334238 -0.0151631795 -0.028587269
0001c0 61 c5 58 bd 90 36 52 3d e3 0b a7 3c af 35 db b9
       -0.05292261 0.051321566 0.02039141 -0.00041810932
0001d0 39 c7 a8 3d 96 7b e5 3c 08 f8 b6 3d 9c 83 13 3e
       0.08241124 0.028013032 0.08934027 0.14405674
0001e0 26 eb 83 3c a6 6a e7 3c c2 a1 a8 bb 8b 2e 17 bd
       0.016103338 0.028249096 -0.005146236 -0.03690962
0001f0 dd 68 c4 3d 98 52 64 bd de 4c c3 3d d1 26 1f 3d
       0.095903136 -0.05574283 0.09536146 0.038855378
000200 6a 31 3c 3d e1 57 bf 3c 85 8a 18 bd 36 eb 25 bc
       0.045945562 0.023357334 -0.037241478 -0.010126879
000210 ce 30 67 bd 95 a3 c0 3c d4 7d 94 3d 0a 40 a2 bc
       -0.05644303 0.023515502 0.07250562 -0.019805927
000220 a7 8e 80 3a 31 6c 9f 3d 64 dd 39 3b 6a 00 b6 3d
       0.0009808139 0.07784308 0.002836072 0.08886798
000230 8c 37 47 3d 87 52 8e 3d 85 f7 8f bc ad d6 e9 3d
       0.048636958 0.069493346 -0.017574081 0.11417899
000240 79 26 86 3d 06 6f 53 ba c4 5f 17 bc 59 aa b4 3c
       0.06550307 -0.0008065555 -0.009239141 0.022053884
000250 03 43 1c 3d d5 92 72 bc 1c f7 b3 3d d0 01 c7 3d
       0.038149845 -0.014805515 0.08787367 0.097171426
000260 29 dc d7 bc 5c 09 10 bd 64 96 ea bb 44 bb d5 3d
       -0.026350098 -0.035165176 -0.0071590412 0.10436109
000270 8a 53 67 bd 70 7a a0 3d 1e 4f 14 bd 82 d3 ed 3d
       -0.056476153 0.07835853 -0.036208265 0.116126075
000280 64 6f 39 3c 3c a6 69 3d f7 b4 95 3d c3 4d 65 3d
       0.0113180615 0.0570433 0.07309907 0.055982362
000290 c9 62 23 ba 6c 4f 83 bd 65 14 2d bd 52 fa cb bc
       -0.00062326767 -0.06411633 -0.042255778 -0.024899635
0002a0 98 66 3d bc 9f 06 17 3e 80 10 88 bd 5a 75 f1 bc
       -0.011560105 0.1474862 -0.06643772 -0.029474903
0002b0 cb 60 2c 3c 02 8d ba 3c f3 d8 ce 3d ba e8 0d 39
       0.010521124 0.022772316 0.100999735 0.00013533505
0002c0 14 b4 3f 3d a9 39 f0 bc da 15 24 3c c3 00 98 3d
       0.046802595 -0.02932437 0.010014975 0.0742202
0002d0 72 ad 76 bd 4f 08 31 bc 8b 2b 95 3d 9d f9 8d bd
       -0.060224004 -0.010805204 0.07283696 -0.069323756
0002e0 e8 fb 20 3d 8b 39 21 3b 64 4a 6f 3d 9b 0e c2 3d
       0.039302737 0.0024600949 0.058420554 0.09475442
0002f0 d5 19 7e 3d 87 24 bb 3d 19 6c 47 3d a3 22 c1 3d
       0.062036354 0.091378264 0.048687074 0.094304346
000300 cb af 44 3d 56 bc 5d 3c 50 b2 79 3d 76 cd ba 3d
       0.04801921 0.013533672 0.060961068 0.0912122
000310 9e e7 e4 bc b7 db e4 3c f6 d3 0e bd cf 47 8a bd
       -0.027942475 0.0279368 -0.03487011 -0.06751978
000320 e8 69 44 3d 52 a2 b8 3d 90 b5 3b bd 70 76 80 bd
       0.047952563 0.09015335 -0.04582745 -0.0627259
000330 72 68 40 bc 23 2f 9d 3d 9e a3 79 3d 3f b9 c4 3d
       -0.011743652 0.07675006 0.060947053 0.096056454
000340 d0 18 8d 3d d6 7e cd 3c d5 24 9c bd 78 a6 78 3c
       0.06889498 0.025084894 -0.07624213 0.015176408
000350 e7 d9 7a 3c 2d ab 80 3d b5 4d cd 3c a1 c9 35 bd
       0.015310741 0.06282649 0.025061468 -0.04438174
000360 99 b8 14 bc c4 02 64 bc 9d cd 8f 3d 9d 92 a3 3d
       -0.009077215 -0.013916675 0.070216395 0.07986949
000370 35 a1 83 3d 16 8b e2 3a f7 05 1a bc ed 22 82 bc
       0.06427232 0.0017283882 -0.009400836 -0.015885795
000380 3b aa 54 3b ff 42 1f bd 37 5f 99 bc fb 9c 2a bd
       0.0032450098 -0.03888225 -0.01872216 -0.041653614
000390 ad 70 e7 bb 57 52 4f ba 0b be f4 3d 1f 52 52 3d
       -0.0070629925 -0.0007908693 0.1195031 0.051347848
0003a0 62 02 8f 3d b3 cd c7 bc 07 d6 d8 3d 05 65 c7 3d
       0.06982876 -0.024390077 0.105876975 0.09736065
0003b0 df b3 76 bd d4 6c 28 3d 5e 8b 84 3d 35 ab ae 3d
       -0.060230132 0.04111941 0.06471895 0.08528749
0003c0 b9 0a 8c bc 8f ef 67 3d cd a1 1a 3e e7 09 6b bd
       -0.017094957 0.056624945 0.15100785 -0.05738249
0003d0 5e a5 f8 3c 0f 14 4d bd 01 cc 3a bd f2 64 4f bd
       0.03035229 -0.050067957 -0.04560471 -0.05063338
0003e0 3c 61 33 bb 2e 07 df 3c 86 e7 99 3c 22 4d 64 3d
       -0.0027371189 0.027225103 0.018787157 0.055737622
0003f0 0a 84 ad 3d d3 ac 67 bd 26 0e d5 3d f2 38 a9 bc
       0.0847245 -0.056561302 0.10403089 -0.020657036

params f4 [99, 186]
000000 f9 7e 2b bf 11 4c fb 3d a3 f5 cb bd 3b 9a 8f 3e
       -0.6699062 0.12270368 -0.09958961 0.28047356
000010 6f 95 da be df 7f 8d 3d bd d5 0e be d7 b2 03 3f
       -0.42692134 0.06909155 -0.13948722 0.5144476
000020 b0 41 7a 3d a7 5b e1 3d aa e5 0e 3e e8 68 51 3e
       0.0610978 0.110038094 0.13954797 0.20450175
000030 c3 d3 af 3d 51 95 36 3e 30 d7 c4 be 91 e1 8f bd
       0.08585312 0.17830397 -0.38445425 -0.07025445
000040 a9 cb 27 3a c7 52 51 3e 5c d3 8a be 4a e7 52 3c
       0.0006400892 0.20441733 -0.2711438 0.012872526
000050 34 1c c8 bd 6d 6e 92 bc be 1f 15 3d 56 d2 28 3d
       -0.09771004 -0.01787492 0.036407225 0.041216217
000060 ec 01 f7 3d f0 b5 00 bd 4b b6 2d bd 73 96 23 3d
       0.120609134 -0.03142351 -0.042410176 0.0399384
000070 0b 84 58 bd 70 74 5c bc 4f 16 91 3c 5b 07 1a bd
       -0.0528603 -0.013455495 0.017710833 -0.03760467
000080 64 97 8d bd 41 6e ab bb a7 73 85 bd a4 83 be bc
       -0.06913641 -0.005231649 -0.065161996 -0.02325613
000090 10 b7 22 bc 88 6a 91 bc e6 ba 5f 3d 2a cd 22 bd
       -0.009931341 -0.017750993 0.0546216 -0.03974644
0000a0 4a 25 65 bd 38 6e 03 bd 00 d0 4e 39 d2 9d 6f 3d
       -0.055943765 -0.032087535 0.00019723177 0.05850012
0000b0 e7 29 de 3c 81 dc 0a bd a6 a1 59 3d 48 89 8f 3d
       0.02711959 -0.033901695 0.053132676 0.07008606
0000c0 21 9e 82 bd fe f7 e0 bc 58 ee 7e bd 26 ea 82 bd
       -0.06377817 -0.027462002 -0.06223902 -0.063923165
0000d0 a6 83 4d 3d 45 b3 87 3d e0 be bf 3c 2c b3 30 bd
       0.050174378 0.0662599 0.023406446 -0.04313962
0000e0 67 d6 48 3d 08 6b 04 bd 8e fd cd 3d ec 86 05 3d
       0.049032595 -0.032328635 0.10058127 0.032599375
0000f0 de d4 99 3d 4c 3c bd bd 27 66 92 bc c1 f2 0e be
       0.07511304 -0.09240016 -0.017870976 -0.13959791
000100 25 2d cd 39 fc 00 21 bd c9 8a ae bd 92 3b c6 3d
       0.00039134282 -0.03930758 -0.08522565 0.09679331
000110 39 25 0b bb 05 da 0e be 7b 06 53 bc 5b 5a e9 bc
       -0.0021231903 -0.13950355 -0.012879963 -0.028485468
000120 70 5c 36 bd 43 d6 16 3d aa d5 3b be 05 a3 cf 3c
       -0.04452175 0.03682543 -0.18343225 0.025346288
000130 10 f3 92 bc 38 cd 3d bd 18 9b 46 3d 90 4a 10 3d
       -0.017938167 -0.04633829 0.048487753 0.03522736
000140 d6 74 6a bb 1e a1 03 bd 60 b1 e2 bc 08 3d 71 bc
       -0.0035775206 -0.032136075 -0.02767247 -0.014724024
000150 cb b1 21 3e 7e d7 35 3d c8 79 1e 3d c3 f7 ed bb
       0.15790479 0.044394962 0.03869036 -0.0072622015
000160 ce d0 dc bc a8 83 72 bd 13 e7 27 3c 73 39 8a 3c
       -0.026955035 -0.05920759 0.0102479635 0.016873097
000170 81 b7 fd bc 26 40 d5 bd 44 88 30 bd 22 41 8c 3d
       -0.03097129 -0.10412626 -0.043098703 0.068483606
000180 9d 08 a2 3c 3e 5a 5a 3d a1 59 3c bd 2f a1 5b 3e
       0.019779498 0.053308718 -0.045983914 0.21448205
000190 85 ca b5 bd ff 15 e6 bd cc 1c f3 bc ba 2a 3b 3d
       -0.08876518 -0.11234664 -0.029676817 0.045695044
0001a0 0f cc 81 3d c0 68 b1 bd f4 fa 39 3d 81 de d2 bd
       0.06337749 -0.086625576 0.045405343 -0.102963455
0001b0 3c ac a7 3d 42 04 80 bd 2f 91 ac 3d 2f a4 11 be
       0.08187148 -0.06250812 0.08426129 -0.14222787
0001c0 3d f2 86 bb 00 2b 30 3d 20 56 00 3d a0 74 e1 3d
       -0.0041182325 0.043009758 0.031332135 0.110085726
0001d0 46 ba 1c 3e 64 e2 7f bd c5 70 d7 3d 53 e8 04 be
       0.15305433 -0.062471762 0.10519556 -0.1297925
0001e0 c8 8c 97 3c c1 b7 90 3d 57 25 7d 3d ef 87 fc bd
       0.018499747 0.07066298 0.06180319 -0.12330615
0001f0 c1 0c a5 bd 7a b1 5a 3d a3 b7 49 3d cb f1 74 bd
       -0.08059073 0.05339191 0.049247395 -0.059800904
000200 3b 8c 48 3d a1 e4 c9 3c 3e 97 a2 bd b9 40 95 3d
       0.04896186 0.024645152 -0.079390034 0.072877355
000210 38 a6 0c bb 45 15 20 3d 3d 5e 35 3d 21 c1 b9 bc
       -0.0021461379 0.039082784 0.044279326 -0.022675099
000220 35 5d 0c 3b 93 ea b9 bc 54 f7 f3 bc fc 9d 47 bd
       0.002141786 -0.022694862 -0.029781021 -0.04873465
000230 e5 c6 04 3d df 92 f8 bd 10 e3 3e be 2a 4e 2c 3e
       0.032416243 -0.121373884 -0.18641305 0.16826692
000240 16 78 cb 3d 9d 68 ed bd cb 1e 2a 3d fb 50 7c 3d
       0.09935014 -0.11592219 0.041533273 0.061600666
000250 3f a3 23 bd b6 9b e7 bb 19 52 07 be 4a 8c c4 3d
       -0.039950605 -0.0070681227 -0.13214912 0.095970705
000260 eb 5c 35 3d 26 64 00 3d 6a 1d c9 bd 45 fc 8b 3d
       0.044278067 0.03134551 -0.098200634 0.06835226
000270 2f da d0 bd 3e f4 f5 3d 49 84 a7 bd c4 04 3a 3d
       -0.10197865 0.12009476 -0.08179528 0.0454147
000280 40 12 e2 bd ae d3 4e 3d ef 1f b3 3d 50 4d a0 bd
       -0.11038637 0.050494842 0.08746325 -0.07827246
000290 44 1e 84 3d 75 9c 60 bc 5b e0 74 3c 5d b1 81 bd
       0.06451085 -0.013709177 0.014946069 -0.063326575
0002a0 3c 63 16 be 23 01 d0 3d ca 73 5f 3d 20 3e bb bd
       -0.14686292 0.10156467 0.054553784 -0.09142709
0002b0 e1 22 ce 3b 18 59 cc 3d 9f 90 40 bd e1 4b c0 3c
       0.006290779 0.09977931 -0.04701292 0.023473682
0002c0 3e 8a a4 3d 43 1f e1 3d f5 85 6d 3c 01 dd 0a 3e
       0.0803418 0.10992291 0.01449727 0.13560869
0002d0 35 73 a0 bd e9 a8 48 3d dc 56 0c bd dd 4b 4e bc
       -0.07834474 0.04898921 -0.034262523 -0.012591329
0002e0 92 19 96 3d 43 47 fa 3b 18 db 24 bf 44 65 da 3c
       0.07329096 0.0076378896 -0.6439681 0.026659615
0002f0 65 b7 1e 3e 67 df 00 be e8 1e 53 3f 1c 43 bb 3c
       0.15499647 -0.12585221 0.82469034 0.022859149
000300 5e 12 1a be 2f 9f 3e 3d a6 58 a6 be 72 dd a8 3e
       -0.15046069 0.046538528 -0.32489508 0.3298145
000310 84 df b2 bc ee c8 98 3d 19 3d e6 bc 97 54 a0 3d
       -0.021835096 0.07460199 -0.028105306 0.07828634
000320 49 ac b7 be 0e d0 8d 3d 8b 44 be 3d 75 fd e6 3d
       -0.3587363 0.06924449 0.09290417 0.11278812
000330 f2 9b b3 3d e7 4c 56 3e 4b ac 1c be 2b a4 1a bd
       0.087699786 0.20927773 -0.153001 -0.03775422
000340 9a fb 20 bd c2 9d 65 bb 7b c1 d1 bd 27 89 0b 3b
       -0.039302446 -0.0035036658 -0.102419816 0.0021291466
000350 a6 fc 8e 3d 33 55 90 bd 66 92 d4 bc 6a d4 c3 bc
       0.069817826 -0.070475005 -0.025948714 -0.023904998
000360 32 92 a0 3b 1c 96 df bc a2 34 82 bc be 7a 20 3b
       0.0049002403 -0.027293257 -0.015894238 0.0024487223
000370 34 6b 38 bd f2 27 49 3d 9a 38 34 bd 00 75 29 ba
       -0.045024112 0.04911036 -0.043999292 -0.0006464273
000380 f3 84 92 3d f4 83 74 bc c0 37 4c 3d 9d 3d 8b bd
       0.07154264 -0.014924038 0.049857855 -0.06798861
000390 d6 96 11 3d a8 ae 7b 3c 29 4f 24 bd b1 fe f6 bc
       0.03554424 0.0153614655 -0.040114556 -0.030150743
0003a0 22 0c 0a 3d 7b c2 19 bd b0 6d 2c bd 1b 18 23 bd
       0.033702977 -0.037538987 -0.042096794 -0.03981791
0003b0 5c 3f a8 bc 20 4c ee 3b f8 0f 79 3c 20 b6 18 3c
       -0.020538025 0.0072722584 0.015201561 0.009320766
0003c0 cc da a2 3c 27 0b 84 3d ad c6 cc bc 53 4f e2 3c
       0.019879721 0.0644744 -0.02499708 0.027625715
0003d0 c1 fe 04 3d a5 8c 01 bd 47 9f 0a 3d f3 7f 03 be
       0.032469515 -0.03162827 0.033843305 -0.12841778
0003e0 0f f3 1c bc 86 de 9a 3d 93 5c 48 3d e6 35 b3 3d
       -0.009579434 0.07561974 0.04891641 0.08750515
0003f0 73 f9 01 be 47 c4 09 bc 93 8f 70 3c 39 b1 49 3d
       -0.12692814 -0.008408613 0.014682668 0.04924128

params f4 [99]
000000 29 b1 21 3b 5e 4c 5c 3e 8b a2 66 3d 1b 77 a1 bd
       0.0024672246 0.21513507 0.056307357 -0.07884046
000010 2d 49 94 bd 07 46 0a 3d f8 3f eb 3d 9f 65 93 3d
       -0.0724052 0.03375819 0.114868104 0.07197117
000020 f7 5f 39 3d 46 02 0a 3d 8e 5f 96 3d 91 62 4a be
       0.045257535 0.033693574 0.07342444 -0.19764163
000030 d0 20 a9 bd ee f8 08 3e 34 2d 1b bc e4 f0 61 bd
       -0.082582116 0.13376209 -0.0094712265 -0.05516137
000040 f0 c4 ad 3d 96 3b 61 bd 7e 5c 93 3d 22 eb 01 3e
       0.084848285 -0.054988466 0.07195376 0.12687352
000050 bc ee b3 bb fc 69 f4 3c c8 c4 23 be 17 4e e5 bc
       -0.005491106 0.029835694 -0.15993035 -0.027991338
000060 f1 6f 8c 3c 06 d3 f5 3d b1 1a 46 be 9d 0b 41 bd
       0.017143222 0.1200314 -0.1934612 -0.047130216
000070 1c 7e f9 bc 0f 96 f9 3d 5f e2 f8 bc 76 a0 0d be
       -0.030455641 0.121868245 -0.03038138 -0.13830742
000080 41 42 58 3e 48 08 88 3d 4b 97 cc bd c2 ab 97 3d
       0.21119024 0.066422045 -0.09989794 0.07405807
000090 ea 7e ed bd af bc 8b bc 2a f6 8a be 38 4d 2d be
       -0.115964726 -0.017057745 -0.27140933 -0.16923988
0000a0 96 a9 07 3e 53 95 df ba 1b e2 d9 3d c7 57 f4 3d
       0.13248286 -0.0017058052 0.10638829 0.11930805
0000b0 68 8a 77 bd f6 e2 8b bd d0 a3 e1 3d 43 36 23 bd
       -0.06043473 -0.06830399 0.11017573 -0.03984667
0000c0 7e f4 d0 3d 0b 19 0d be cb 26 e0 bd c7 89 ee bc
       0.10202883 -0.13779084 -0.10944899 -0.029118432
0000d0 04 c0 0c 3e 06 cd 7f bd a5 b9 23 3e e0 55 ce 3d
       0.13745123 -0.062451385 0.15988787 0.10074973
0000e0 d0 a2 50 3d 05 5b f7 bc de f1 37 3d 04 3f be 3d
       0.05093652 -0.030194769 0.044908397 0.09289363
0000f0 f1 3f 5d be 32 9c 91 3c b8 b5 26 3e d6 d3 58 be
       -0.21606423 0.017774675 0.16280258 -0.21174559
000100 ae 44 67 bb 87 1c 5f 3e ed 8c 54 be c8 82 d3 3c
       -0.003528874 0.21788226 -0.20756884 0.025819197
000110 cf b7 c6 3d 0a 34 bd bb 2d 8c 1f be 8f c0 ef bd
       0.097030275 -0.005774026 -0.15580817 -0.117066495
000120 44 fc 14 3d d0 aa 7b 3d aa 6b be 3b 88 fd d5 bc
       0.03637339 0.061442196 0.0058111744 -0.02612187
000130 cd 8b d0 bd 91 bc 56 bd 4f 00 21 be 82 da e2 bc
       -0.10182915 -0.052425925 -0.15722774 -0.027692083
000140 98 ca a5 3d 6d 5c 1b 3d 70 db 2c 3d e8 68 30 3d
       0.08095282 0.03792994 0.04220146 0.043068796
000150 e0 1e 1a 3d 73 0f f9 bd e5 9c 30 be cf e1 33 3d
       0.0376271 -0.1216115 -0.1724735 0.04391652
000160 9c 98 37 3e 10 49 3b 3d c0 0b a1 3c b7 df 58 3e
       0.1792931 0.045723975 0.019658923 0.2117909
000170 b0 1d ae bd 19 b8 fb bd 0c be 8b 3d e1 95 16 be
       -0.08501756 -0.12290973 0.06823358 -0.14705612
000180 1c 5a af 3a f9 94 86 bd 5f d3 ea 3d
       0.0013378295 -0.06571383 0.11466097

weight f4 [99]
000000 00 00 54 42 00 00 3c 42 00 00 54 42 00 00 88 41
       53.0 47.0 53.0 17.0
000010 00 00 10 41 00 00 10 41 00 00 be 42 00 00 7c 42
       9.0 9.0 95.0 63.0
000020 00 00 0f 43 00 00 f0 41 00 00 64 42 00 00 02 43
       143.0 30.0 57.0 130.0
000030 00 00 00 41 00 00 7c 42 00 00 98 41 00 00 30 41
       8.0 63.0 19.0 11.0
000040 00 00 12 43 00 00 e8 42 00 00 07 43 00 00 c0 40
       146.0 116.0 135.0 6.0
000050 00 00 88 41 00 00 02 43 00 00 b8 42 00 00 40 41
       17.0 130.0 92.0 12.0
000060 00 00 00 40 00 00 44 42 00 00 a0 42 00 00 80 42
       2.0 49.0 80.0 64.0
000070 00 00 08 43 00 00 14 43 00 00 f0 42 00 00 00 40
       136.0 148.0 120.0 2.0
000080 00 00 18 43 00 00 10 42 00 00 80 3f 00 00 40 40
       152.0 36.0 1.0 3.0
000090 00 00 1b 43 00 00 70 41 00 00 40 42 00 00 1c 42
       155.0 15.0 48.0 39.0
0000a0 00 00 b8 41 00 00 23 43 00 00 98 41 00 00 00 41
       23.0 163.0 19.0 8.0
0000b0 00 00 3c 42 00 00 d0 42 00 00 80 40 00 00 e8 42
       47.0 104.0 4.0 116.0
0000c0 00 00 18 42 00 00 80 3f 00 00 f2 42 00 00 70 41
       38.0 1.0 121.0 15.0
0000d0 00 00 13 43 00 00 fa 42 00 00 98 42 00 00 78 42
       147.0 125.0 76.0 62.0
0000e0 00 00 08 43 00 00 f2 42 00 00 f8 42 00 00 86 42
       136.0 121.0 124.0 67.0
0000f0 00 00 08 43 00 00 a6 42 00 00 4c 42 00 00 40 40
       136.0 83.0 51.0 3.0
000100 00 00 c2 42 00 00 90 41 00 00 02 43 00 00 30 41
       97.0 18.0 130.0 11.0
000110 00 00 f0 41 00 00 f0 42 00 00 d0 41 00 00 40 41
       30.0 120.0 26.0 12.0
000120 00 00 40 40 00 00 14 42 00 00 a0 40 00 00 98 42
       3.0 37.0 5.0 76.0
000130 00 00 4c 42 00 00 b8 41 00 00 ea 42 00 00 40 40
       51.0 23.0 117.0 3.0
000140 00 00 24 42 00 00 40 40 00 00 a0 41 00 00 5c 42
       41.0 3.0 20.0 55.0
000150 00 00 d8 42 00 00 68 42 00 00 88 41 00 00 e8 42
       108.0 58.0 17.0 116.0
000160 00 00 00 41 00 00 68 42 00 00 20 41 00 00 f0 42
       8.0 58.0 10.0 120.0
000170 00 00 80 3f 00 00 07 43 00 00 be 42 00 00 34 42
       1.0 135.0 95.0 45.0
000180 00 00 d8 41 00 00 58 42 00 00 44 42
       27.0 54.0 49.0
