models/model_9.pt (torch_old, 149092 bytes, 5 tensors)

weight f4 [128, 186]
0	0x3df92e67	0.12167054
1	0xbe0cc9ee	-0.13748905
2	0x3e682056	0.22668585
3	0xbe78f098	-0.24310529
4	0xbd91fdd0	-0.07128489
5	0xbe85619c	-0.26051033
6	0xbddc15b6	-0.107463285
7	0x3f18df2a	0.5971552
8	0xbe87e628	-0.26542783
9	0xbdb67f42	-0.08910991
10	0x3d3cf06e	0.04612773
11	0xbc43abbb	-0.011942799
12	0xbd15f3f8	-0.03660962
13	0x3e465e4b	0.19371907
14	0x3da69b66	0.08135109
15	0x3e9e8f9d	0.30968943
16	0x3e858f51	0.26085904
17	0xbda44747	-0.080214076
18	0xbdf9c6d7	-0.12196129
19	0xbe8140a6	-0.25244635
20	0x3d80629c	0.06268808
21	0x3e70b3b9	0.23506059
22	0x3d81e8e3	0.06343248
23	0x3e8788dc	0.26471603
24	0x3f1dc27a	0.6162487
25	0x3f051f89	0.52001244
26	0xbe83c613	-0.25737056
27	0xbe941920	-0.2892542
28	0xbe9c3b92	-0.305142
29	0x3b8766c5	0.004132124
30	0xbeb1203d	-0.34594908
31	0xbe006835	-0.12539752
32	0x3cab1876	0.020885687
33	0x3b95ed12	0.00457538
34	0xbe83d800	-0.25750732
35	0x3e19f4fd	0.15034862
36	0x3e5a691f	0.21329163
37	0xbe99e14e	-0.30054706
38	0xbe839ba5	-0.25704685
39	0xbd8832a1	-0.06650282
40	0xbe57c660	-0.21071768
41	0x3d86626c	0.06561741
42	0x3d5017da	0.050803997
43	0xbe8161bb	-0.25269875
44	0xbe3221ec	-0.17395753
45	0xbc2437b4	-0.010023046
46	0x3de70c34	0.112816244
47	0xbe8c66be	-0.27422136
48	0xbcf174a8	-0.029474571
49	0x3e3a3ba5	0.18186815
50	0x3e586676	0.21132836
51	0x3e77d665	0.24202879
52	0x3ea4b404	0.3216859
53	0x3cd70e3e	0.026251908
54	0x3ccbf1c2	0.024895553
55	0xbd6d5541	-0.057942633
56	0x3d9cd4da	0.07657786
57	0xbe19532e	-0.14973137
58	0xbe2147c9	-0.1575004
59	0x3c88b53e	0.016687986
60	0xbcb45514	-0.022013225
61	0xbdc6dfd4	-0.097106606
62	0x3d37eaba	0.044901587
63	0xbc081afd	-0.008307216
64	0x3d38bc6f	0.04510158
65	0xbd73018c	-0.059327647
66	0xbcf553ab	-0.029947123
67	0x3ce45ec8	0.027877226
68	0x3d421556	0.04738363
69	0x3d1b2512	0.03787715
70	0xbc1189cb	-0.00888295
71	0x3d0730a5	0.033005375
72	0x3d5625ae	0.052282028
73	0xbba5da3d	-0.0050614164
74	0x3c5f7c89	0.013640531
75	0x3ca3d868	0.020000651
76	0x3d6ddeab	0.05807368
77	0xbd8e5a80	-0.06950855
78	0x3cc0e4e6	0.023546647
79	0x3d1f6b13	0.038920473
80	0x3cf9465e	0.030429062
81	0xbc8fa948	-0.017536774
82	0xbc3bcea6	-0.011462843
83	0xbbf1d917	-0.0073806155
84	0x3dd8d5d1	0.10587657
85	0xbd505466	-0.05086174
86	0x3e08a867	0.1334549
87	0x3d233a13	0.039850306
88	0xbbbeccc7	-0.005822751
89	0xbd6bf37c	-0.05760525
90	0xbd125304	-0.0357237
91	0xbd682a07	-0.056680705
92	0x3c847aef	0.0161719
93	0x3ce54d80	0.027991056
94	0x3c17244c	0.009224962
95	0xbd8cbc69	-0.06871874
96	0x3b7fc318	0.0039026197
97	0x3d5d353e	0.054005854
98	0x3d681589	0.056661163
99	0xbd1a71a4	-0.037706032
100	0xbdd0799f	-0.101794474
101	0x3cf01764	0.029308029
102	0x3bad7893	0.0052939146
103	0x3c35529f	0.011067062
104	0xbc5d1aee	-0.01349519
105	0x3c21f686	0.009885436
106	0x3c89ad2b	0.016806206
107	0xbd026fe2	-0.03184498
108	0x3de97b1f	0.114004366
109	0xbdc90bfb	-0.09816738
110	0xbc760af6	-0.015017262
111	0x3c6297c5	0.01383013
112	0x3d090178	0.033448666
113	0xbd76b34a	-0.060229577
114	0xbbc073a3	-0.00587316
115	0x3cf5c5c2	0.030001525
116	0x3d1b7a8d	0.03795867
117	0x3d239a7a	0.039942242
118	0x3d3cf126	0.046128415
119	0xbb55a731	-0.0032600875
120	0x3b68d073	0.0035524636
121	0xbc0ce386	-0.008599168
122	0xbdcd25c9	-0.100169726
123	0x3ce2535c	0.02762764
124	0xba5693f4	-0.0008185499
125	0xbe1317da	-0.14364567
126	0xbd1295de	-0.035787456
127	0x3d910f39	0.070829816
128	0x3cb032bf	0.021508573
129	0xbd4240f7	-0.047425237
130	0x3d3e493a	0.046456553
131	0xbded00f1	-0.11572445
132	0xbd503cd9	-0.05083928
133	0xbca813f3	-0.020517325
134	0x3db57ca3	0.08861663
135	0x3d5763cf	0.05258542
136	0xbd6cd305	-0.05781843
137	0x3ddda158	0.108217895
138	0xbbc48c4e	-0.005998171
139	0x3cfab412	0.030603442
140	0x3db6b25e	0.089207396
141	0x3d810b34	0.06300965
142	0xbc17cb87	-0.009264833
143	0xbbc15a03	-0.005900623
144	0xbc9e7eb3	-0.019347524
145	0x3e004452	0.12526062
146	0xbc29f9c8	-0.010374494
147	0xbcbc44ff	-0.022982119
148	0xbe05239a	-0.13001862
149	0xbc18ddb9	-0.009330207
150	0xbd884bc3	-0.066550754
151	0x3c819350	0.015817314
152	0x3ce272ba	0.027642597
153	0xbd652cf4	-0.055951074
154	0xbe2033ba	-0.15644732
155	0xbd9e0552	-0.077158585
156	0x3bf44cc4	0.0074554402
157	0x3c490354	0.01226886
158	0xbddd74cf	-0.10813295
159	0x3d721897	0.059105482
160	0xbd84bf51	-0.06481803
161	0x3c8048ea	0.015659768
162	0xbd6ebed8	-0.05828747
163	0xbd75f8f5	-0.060051877
164	0x3d95479b	0.07289048
165	0xbd6148ab	-0.055000942
166	0x3b8a18c1	0.0042143767
167	0xbb05b2f1	-0.0020400847
168	0x3d7d5c4f	0.06185561
169	0x3d189742	0.037253626
170	0xbd994bcc	-0.0748516
171	0xbe2a7643	-0.16646676
172	0x3c8e6fd2	0.017387304
173	0x3c3f21cc	0.011665773
174	0xbda409ed	-0.08009706
175	0xbdc49d2a	-0.09600289
176	0xbdbf8012	-0.09350599
177	0xbdc75dca	-0.09734686
178	0xbd064fdf	-0.032791015
179	0x3d8c1008	0.06838995
180	0xbd3cef0b	-0.046126407
181	0x3d3c830d	0.046023417
182	0x3d6a3468	0.057178885
183	0x3a6e5998	0.000909233
184	0x3cda6d51	0.026663454
185	0x3d004144	0.031312242
186	0xbe782b31	-0.24235226
187	0xbe5a4da5	-0.21318682
188	0x3ebb1087	0.36536047
189	0x3d2af896	0.041740976
190	0x3d269357	0.040667858
191	0x3e6de4f6	0.23231873
192	0x3e05abd3	0.13053827
193	0xbe39b796	-0.18136439
194	0xbe07e6f2	-0.13271692
195	0xbebfe0a9	-0.3747609
196	0x3eabb76f	0.33538386
197	0x3e22a179	0.1588191
198	0xbda90b3d	-0.08254097
199	0xbe95c015	-0.2924811
200	0xbdd3a467	-0.10334092
201	0x3e18405e	0.14868304
202	0xbdc5475b	-0.096327506
203	0x3e131866	0.14364776
204	0xbcf0bc9b	-0.02938681
205	0x3e8bb156	0.27283734
206	0x3d9f18a9	0.077683754
207	0xbda961ae	-0.08270584
208	0x3ebd9455	0.3702723
209	0x3e23c3a3	0.15992598
210	0xbd51ffee	-0.051269464
211	0x3da50e84	0.08059409
212	0xbce407fa	-0.027835835
213	0xbd3a0d7c	-0.045423016
214	0xbd904673	-0.07044687
215	0xbdef6e3c	-0.116909474
216	0x3e6306ce	0.22170565
217	0x3d0be8a9	0.03415743
218	0xbdda4345	-0.10657362
219	0xbafb9515	-0.001919421
220	0x3dad0b75	0.08449451
221	0xbe888336	-0.26662606
222	0xbe801907	-0.25019094
223	0x3ddeade2	0.10873009
224	0xbe75a87c	-0.23990053
225	0xbe72c073	-0.23706226
226	0x3e0996b4	0.13436395
227	0xbe8d1017	-0.27551338
228	0xbdc101ad	-0.09424148
229	0x3e114950	0.14188123
230	0xbe1a1e26	-0.15050563
231	0xbe97fe0a	-0.29686004
232	0xbe69abde	-0.22819468
233	0xbccfd619	-0.025370644
234	0x3d8c18da	0.068406776
235	0xbdf7290f	-0.12068378
236	0xbc74e745	-0.014947717
237	0x3e1c72d3	0.15278177
238	0x3df8e9cc	0.12153968
239	0x3bbf2974	0.005833799
240	0xbd2c0637	-0.041998114
241	0xbd284a20	-0.041086316
242	0x3d6a7556	0.057240807
243	0x3f67ada1	0.9049931
244	0xbd339b52	-0.043849297
245	0xbd02b09b	-0.031906705
246	0xbdeec5b0	-0.116588
247	0x3c973e05	0.01846219
248	0x3c8d9980	0.017285109
249	0xbcbd8bbc	-0.02313792
250	0x3d252fe1	0.040328864
251	0xbd86fe90	-0.06591523
252	0xbb8a36b6	-0.004217948
253	0xbd54c95e	-0.05194985
254	0xbd7f6bad	-0.062358547
255	0x3cae99b6	0.02131353

bias f4 [128]
0	0xbd8abe23	-0.06774547
1	0x3d415786	0.04720261
2	0xbdf9e38b	-0.122016035
3	0xbd04b179	-0.032395814
4	0xbca81501	-0.020517828
5	0xbd46797a	-0.048455693
6	0xbcb37ad2	-0.021909151
7	0x3d5c540e	0.0537911
8	0x3c5283da	0.012848819
9	0xbbc7cdb0	-0.006097518
10	0x3e0c7656	0.13717017
11	0xbcaaba2e	-0.02084073
12	0x3d0d1198	0.034440607
13	0xbd299acd	-0.041407395
14	0xbdac11d7	-0.0840184
15	0xbd1afb75	-0.037837464
16	0x3cd3402c	0.025787435
17	0xbc8b7144	-0.017021783
18	0xbdb93736	-0.09043734
19	0xbcb3db99	-0.021955298
20	0x3c4e8d68	0.012606956
21	0xbd1b763d	-0.037954558
22	0x3b81d1bb	0.0039617694
23	0x3da78c5e	0.0818107
24	0x3dcc2d19	0.09969539
25	0x3d3e54be	0.046467535
26	0x3d2a5f66	0.041594885
27	0xbcd8ad58	-0.026449844
28	0x3e1a2dfd	0.15056606
29	0x3d29f641	0.04149461
30	0x3d3e093f	0.046395537
31	0xbca42ab4	-0.020039894
32	0xbda3d810	-0.08000195
33	0x3dbd8d61	0.092554815
34	0x3e22391f	0.15842102
35	0x3cb61823	0.022228306
36	0xb9103508	-0.00013752666
37	0xbc30d7f2	-0.010793673
38	0x3bea3263	0.00714712
39	0x3d929399	0.07157058
40	0x3e0e2a0c	0.13883227
41	0x3d92e89b	0.07173272
42	0xbd9969b0	-0.074908614
43	0x3cc0c507	0.02353145
44	0x3d09d75a	0.03365264
45	0x3da305eb	0.07960113
46	0xbd04e0f9	-0.032441113
47	0xbc647914	-0.013944883
48	0x3c435f31	0.011924551
49	0xbd90a137	-0.07061999
50	0x3d3d21e1	0.046174888
51	0x3ce95bf9	0.028486239
52	0xbdb29dd6	-0.08721511
53	0x3d5bc40a	0.053653754
54	0xbd360a56	-0.04444345
55	0xbd75cefd	-0.060011853
56	0xbd06e32a	-0.032931484
57	0xbab7f14f	-0.0014033708
58	0x3b7a8790	0.0038227774
59	0x3e0e356a	0.13887563
60	0xbd45469e	-0.04816305
61	0x3d99bf02	0.07507135
62	0xbdb40f42	-0.08791973
63	0x3d1b1cb8	0.037869185
64	0x3d04ced0	0.032423794
65	0xbcd5e15e	-0.02610844
66	0x3db96b8c	0.09053716
67	0xbd68450a	-0.056706466
68	0x3d7e3f0d	0.06207185
69	0xbdff316e	-0.124606
70	0x3b226f8f	0.0024785732
71	0xbd54736c	-0.051867887
72	0x3c98cd79	0.018652664
73	0xbe0f09c4	-0.13968569
74	0x3dbde393	0.09271922
75	0x3e012448	0.12611496
76	0xbdb22a71	-0.08699501
77	0xbc8a2cfc	-0.016867153
78	0xbd6cef24	-0.05784525
79	0x3cea27a7	0.02858336
80	0xbda234ab	-0.07920202
81	0x3e083311	0.1330073
82	0xbba14be9	-0.0049223793
83	0x3d3bb7a6	0.045829438
84	0xbe0c5967	-0.1370598
85	0x3d74a694	0.059729174
86	0xbd323b0d	-0.043513346
87	0xbd27df0a	-0.04098419
88	0xbc5a7d6e	-0.013335569
89	0x3de1fccc	0.11034545
90	0xbcb992f9	-0.02265309
91	0x3bc20410	0.0059208944
92	0x3cc6a6db	0.024249485
93	0xbb54b19f	-0.0032454503
94	0xbc9af2a9	-0.018914538
95	0x3d379ff5	0.04483028
96	0x3d432ca2	0.047649987
97	0x3d50d449	0.0509837
98	0x3d9a49b5	0.0753359
99	0xbd0654ed	-0.032795835
100	0xbd5d4ac9	-0.0540264
101	0x3d0001e6	0.03125181
102	0xbc6f36d1	-0.014600472
103	0xbda73f2e	-0.081663474
104	0xbd98d84a	-0.07463129
105	0x3c84fba5	0.016233275
106	0xbb58d086	-0.0033083274
107	0xbd588968	-0.052865416
108	0xbdad9a65	-0.08476714
109	0x3a491ec2	0.0007672125
110	0xbc50f349	-0.012753316
111	0x3db484c8	0.088143885
112	0x3d92d1ba	0.071689084
113	0x3e304c78	0.1721667
114	0x3d96b837	0.07359355
115	0xbdeddc46	-0.116142794
116	0xbdce2306	-0.10065274
117	0x3e06a6cd	0.13149567
118	0x3de1565a	0.110027984
119	0xbdb643cb	-0.08899649
120	0xbd598c13	-0.0531121
121	0x3d7702d8	0.060305446
122	0x3da7f93e	0.08201836
123	0x3d583321	0.052783135
124	0x3dc1b3e1	0.09458137
125	0x3b588407	0.0033037679
126	0xbd641fc2	-0.05569435
127	0xbddde428	-0.10834533

weight f4 [55, 186]
0	0xbf0d1281	-0.5510636
1	0x3e73ea71	0.23819901
2	0xbe559e16	-0.20861086
3	0x3ef58775	0.47954908
4	0xbed578b5	-0.41693655
5	0x3e4e38b5	0.2013882
6	0xbe8131e2	-0.2523337
7	0x3f8951a5	1.0728041
8	0xbdd6c748	-0.10487229
9	0x3d64fb14	0.05590351
10	0x3e746f46	0.23870572
11	0x3da68a07	0.081317954
12	0xbe9f3279	-0.31093195
13	0xbf09e7e6	-0.53869474
14	0xbef43c2c	-0.47702157
15	0xbdfa436d	-0.12219892
16	0x3b4473b4	0.002997619
17	0x3d223508	0.039601356
18	0xbf051c78	-0.51996565
19	0xbd53f6d3	-0.05174906
20	0xbea3ad7b	-0.31968293
21	0xbdd6b1a9	-0.10483105
22	0x3ba1dcbf	0.004939645
23	0xbdc3398c	-0.095324606
24	0x3d4d1102	0.050065048
25	0x3b92883c	0.004471807
26	0x3d244a53	0.040109944
27	0xba371f28	-0.00069855386
28	0x3d75ec4a	0.060039796
29	0xbcab496e	-0.020909037
30	0xbd681277	-0.056658234
31	0x3d28748c	0.041126773
32	0x3cac9660	0.021067798
33	0xbd506851	-0.050880734
34	0x3c44d9d5	0.012014826
35	0x3b87e910	0.0041476563
36	0x3c3b8c68	0.01144705
37	0x3ce7b22c	0.028283201
38	0xbcc73bed	-0.024320567
39	0xbd294f0f	-0.04133516
40	0x3c9b5543	0.018961554
41	0x3be73620	0.0070560127
42	0xbbf0fd40	-0.0073544085
43	0xbc4c7bec	-0.012480717
44	0x3cab1a01	0.020886423
45	0x3d951701	0.07279778
46	0xbc8513e6	-0.01624484
47	0xbce87387	-0.0283754
48	0xbce65502	-0.028116707
49	0xba9a3722	-0.0011765698
50	0x3c66fee8	0.01409886
51	0x3d63f2d6	0.05565151
52	0x3d406fbe	0.046981566
53	0xbd833154	-0.06405893
54	0x3d0c5ac0	0.034266233
55	0xbd83fe88	-0.06445032
56	0x3d27a4a3	0.040928494
57	0xbd53295b	-0.05155311
58	0x3ebe4ce7	0.37168047
59	0xbc9fcd96	-0.01950721
60	0x3dd28a55	0.10280291
61	0x3d113340	0.035449266
62	0xbda348f3	-0.07972898
63	0x3d0e7ef3	0.034789037
64	0x3d9b1a47	0.075733714
65	0xbdd5f608	-0.10447317
66	0x3cae0cb0	0.021246284
67	0x3d3f5abc	0.04671739
68	0x3d535294	0.051592425
69	0xbddb719d	-0.107150294
70	0x3ec9e761	0.3943434
71	0x3e189320	0.14899874
72	0x3e513413	0.20430021
73	0xbe6aaa87	-0.22916614
74	0xbd77f6fd	-0.06053828
75	0x3e0f57c8	0.1399833
76	0x3dcaab8b	0.098960005
77	0xbd9ca6b6	-0.07648985
78	0x3dca19d4	0.098682076
79	0xbc2d1124	-0.010563169
80	0xbe61face	-0.2206833
81	0xbe4394d8	-0.19099748
82	0x3de9952d	0.11405406
83	0x3cc24b1c	0.023717456
84	0xbdb736af	-0.08945977
85	0xbed75f99	-0.42065123
86	0x3dd1158b	0.10209187
87	0xbd0733fe	-0.033008568
88	0xbd88e765	-0.0668476
89	0xbcb51590	-0.022105008
90	0x3e7d505b	0.24737684
91	0x3dd2d59c	0.10294649
92	0xbe9453dc	-0.2897023
93	0xbd95a500	-0.07306862
94	0xbe39e6f6	-0.18154511
95	0xbe10b19d	-0.14130254
96	0x3e9d112f	0.30677173
97	0xbda2970b	-0.079389654
98	0xbc2addd1	-0.010428862
99	0x3e311407	0.17292796
100	0x3d864add	0.06557248
101	0xbdc344a4	-0.095345765
102	0xbc425f8e	-0.011863602
103	0xbe918370	-0.2842059
104	0x3e831254	0.2559992
105	0x3e3c4a06	0.18387613
106	0x3ca937bc	0.020656459
107	0x3dd2fca4	0.103020936
108	0x3e2ef963	0.17087321
109	0xbd975f62	-0.0739124
110	0x3ddfc88d	0.10926924
111	0x3c4947a1	0.012285144
112	0xbe918af1	-0.28426316
113	0x3ebb29ef	0.3655543
114	0x3dc35167	0.09537011
115	0x3e11b78c	0.14230174
116	0x3ea36c20	0.3191843
117	0xbdbc4363	-0.091925405
118	0x3e3438eb	0.17599837
119	0x3d90acce	0.0706421
120	0x3e65b630	0.2243278
121	0x3b83def5	0.0040243813
122	0xbda2ca5f	-0.079487555
123	0xbe59a1cf	-0.21253131
124	0x3dc96978	0.0983457
125	0x3e9b41ff	0.3032379
126	0xbeb8c434	-0.3608719
127	0x3e15adcd	0.14617081
128	0x3c4c5a23	0.012472662
129	0xbbc9ab6f	-0.0061544697
130	0xbec0cf78	-0.37658286
131	0x3d95a1c0	0.07306242
132	0x3eced5aa	0.40397388
133	0xbe988155	-0.29786173
134	0xbd8008a7	-0.0625165
135	0x3e11f3f7	0.14253221
136	0x3edc6ac0	0.43050194
137	0x3ea05f7e	0.31322855
138	0x3e309df4	0.17247754
139	0x3d175594	0.036946848
140	0x3de012e4	0.10941103
141	0xbc284fc5	-0.010272925
142	0xbd98c494	-0.07459369
143	0x3e2969fc	0.16544336
144	0x3e3c7fb8	0.18408096
145	0x3e584830	0.21121287
146	0x3b1c83d7	0.0023882294
147	0xbe15e15f	-0.14636753
148	0x3dab0352	0.08350243
149	0x3bba5f7c	0.005687652
150	0x3d90947c	0.07059571
151	0x3ecaf2fb	0.39638504
152	0x3d3d93c3	0.046283495
153	0xbe0af1e5	-0.13568838
154	0xbeb672ae	-0.3563437
155	0x3d89d808	0.06730658
156	0xbe3d8230	-0.18506694
157	0x3da36013	0.07977309
158	0x3e15948d	0.14607449
159	0x3e1df1f3	0.15424328
160	0x3ea58da9	0.3233464
161	0x3e3daa7c	0.18522066
162	0xbe22bc19	-0.15892066
163	0x3e3b8750	0.18313336
164	0xbeb06cf5	-0.34458128
165	0x3e077751	0.1322911
166	0x3e598c96	0.21245036
167	0xbe081c7f	-0.1329212
168	0x3d1ff70a	0.039053954
169	0x3c028ff0	0.007968888
170	0xbee027c4	-0.4378034
171	0x3e29aea0	0.1657052
172	0xbee52374	-0.4475361
173	0x3e43b1c5	0.19110782
174	0x3dde6d5a	0.10860701
175	0x3d70f139	0.058823798
176	0xbe7f2fd3	-0.24920587
177	0x3e1f9015	0.15582307
178	0x3e9abacc	0.3022064
179	0xbe32a210	-0.17444634
180	0xbe610c21	-0.21977283
181	0x3d44d3b1	0.048053447
182	0xbdf6ca87	-0.12050348
183	0xbd9ce0aa	-0.07660039
184	0xbe0a2a96	-0.13492808
185	0xbdc66d75	-0.09688846
186	0xbf17c252	-0.59280884
187	0xbd1fcbb5	-0.03901263
188	0x3e396957	0.1810659
189	0xbe42bee8	-0.19018137
190	0x3ea04017	0.31298897
191	0x3d21b91a	0.039483167
192	0xbe229ba9	-0.15879692
193	0xbbf08cbe	-0.0073409965
194	0xbea62dee	-0.32456917
195	0x3ece0924	0.4024135
196	0xbe360c0e	-0.17778036
197	0xbc456ce6	-0.012049889
198	0xbd35982c	-0.044334576
199	0xbda0e802	-0.07856752
200	0xbecc6795	-0.39922777
201	0xbd8381b0	-0.0642122
202	0x3e0269cd	0.12735672
203	0xbd8a33ca	-0.06748159
204	0x3d4896b4	0.048971847
205	0x3e1d241f	0.1534581
206	0xbe47cc5d	-0.19511552
207	0xbbf50624	-0.0074775387
208	0x3ca5a190	0.02021864
209	0x3c56abda	0.013102496
210	0xbe8cbe73	-0.2748905
211	0xbd408f73	-0.047011804
212	0xbd692a76	-0.05692526
213	0x3ccc1c4f	0.024915842
214	0x3c29f471	0.010373221
215	0x3d83245b	0.06403419
216	0xbc8d6dd0	-0.017264277
217	0xbd557f50	-0.052123368
218	0xbc8494be	-0.016184207
219	0xbcc6309d	-0.024193102
220	0xbd45abd8	-0.048259586
221	0xbc1cf698	-0.009580277
222	0xbc30c808	-0.010789879
223	0x3c92d4e8	0.017923787
224	0xbd938de9	-0.072048016
225	0xbceceeac	-0.028922401
226	0x3d8a5945	0.06755308
227	0xbaf67a80	-0.0018804818
228	0xbd0d8aab	-0.034556072
229	0x3d13bee6	0.036070727
230	0x3cf1795c	0.029476814
231	0xbd35038e	-0.044192843
232	0x3c5d19b8	0.013494901
233	0x3bc3e278	0.005977925
234	0xbc27e8b0	-0.010248348
235	0x3d0a8ad4	0.033823803
236	0x3ca37985	0.019955406
237	0xbd3a4e82	-0.045485027
238	0x3d8e29a1	0.06941534
239	0x3c903e91	0.017607959
240	0x3d29e1c0	0.041475058
241	0x3d891953	0.06694283
242	0xbc7878be	-0.015165506
243	0xbd98d2b2	-0.07462062
244	0x3db51337	0.088415556
245	0xbd3ee4d6	-0.046604954
246	0x3e378552	0.17921951
247	0x3eaad6de	0.33367056
248	0xbe7c0c43	-0.24614052
249	0x3ded236c	0.11579022
250	0xbee654fb	-0.4498671
251	0xbe92efd6	-0.28698605
252	0x3e6c00f2	0.23047236
253	0x3dfd41d6	0.12366073
254	0x3e1b8a35	0.1518944
255	0xbe34bb8c	-0.17649668

bias f4 [55]
0	0xbfbdb85f	-1.482189
1	0xbfa7d1e6	-1.3110931
2	0xbfd05a2c	-1.6277518
3	0xbfb3abb2	-1.4036772
4	0xbfadc09b	-1.3574404
5	0xbfb523ac	-1.4151511
6	0xbfcfb873	-1.6228164
7	0xbf869ec2	-1.0517199
8	0xbf9a4d79	-1.2054893
9	0xbfd24963	-1.6428646
10	0xbf8dd25b	-1.107982
11	0xbfba9600	-1.4577026
12	0xbfcb380f	-1.5876483
13	0x3e2d4388	0.16920292
14	0xbfa619d7	-1.2976636
15	0xbf2f5b9a	-0.6849915
16	0xbfddf8ce	-1.7341554
17	0xbe7a968e	-0.24471495
18	0xbf56a9ca	-0.8385283
19	0xc0096308	-2.1466694
20	0xbfc0ba30	-1.505682
21	0xbfc4aafc	-1.536468
22	0xbfae4151	-1.3613683
23	0xbfab12b4	-1.3365083
24	0xbf6cf6eb	-0.92564267
25	0xbfc81502	-1.5631411
26	0xbf27886b	-0.6544253
27	0xbfa5481a	-1.2912629
28	0xbfcb95c9	-1.5905086
29	0xbfc57cc1	-1.5428697
30	0xbfa1908b	-1.2622236
31	0xbf7f4452	-0.99713624
32	0xbf9f410f	-1.2441729
33	0xbf96bad9	-1.1775771
34	0xbfb7272f	-1.4308833
35	0xbfd45007	-1.6586922
36	0xbfc28a50	-1.519846
37	0xbe9659ec	-0.2936548
38	0xbfa7de09	-1.3114635
39	0xbfb73ccf	-1.4315432
40	0xbfbcdf13	-1.4755577
41	0xbfcb4c05	-1.5882574
42	0xbf18f336	-0.5974611
43	0xbfae5acb	-1.3621458
44	0xbefbd3a9	-0.4918492
45	0xbf9d974b	-1.2311796
46	0xbfcc629f	-1.5967597
47	0xbfae112a	-1.3598988
48	0xbf8a76ed	-1.0817543
49	0xbfd4f200	-1.6636353
50	0x3fc05e2e	1.5028741
51	0xbfb23809	-1.392335
52	0xbfc1a57c	-1.5128627
53	0xbfc63999	-1.5486327
54	0xbfbf0ac3	-1.4925159

weight f4 [55]
0	0x42540000	53.0
1	0x423c0000	47.0
2	0x42540000	53.0
3	0x41880000	17.0
4	0x41100000	9.0
5	0x41100000	9.0
6	0x41f00000	30.0
7	0x41000000	8.0
8	0x41980000	19.0
9	0x41300000	11.0
10	0x40c00000	6.0
11	0x41880000	17.0
12	0x41400000	12.0
13	0x40000000	2.0
14	0x42440000	49.0
15	0x40000000	2.0
16	0x42100000	36.0
17	0x3f800000	1.0
18	0x40400000	3.0
19	0x41700000	15.0
20	0x42400000	48.0
21	0x421c0000	39.0
22	0x41b80000	23.0
23	0x41980000	19.0
24	0x41000000	8.0
25	0x423c0000	47.0
26	0x40800000	4.0
27	0x42180000	38.0
28	0x3f800000	1.0
29	0x41700000	15.0
30	0x424c0000	51.0
31	0x40400000	3.0
32	0x41900000	18.0
33	0x41300000	11.0
34	0x41f00000	30.0
35	0x41d00000	26.0
36	0x41400000	12.0
37	0x40400000	3.0
38	0x42140000	37.0
39	0x40a00000	5.0
40	0x424c0000	51.0
41	0x41b80000	23.0
42	0x40400000	3.0
43	0x42240000	41.0
44	0x40400000	3.0
45	0x41a00000	20.0
46	0x425c0000	55.0
47	0x41880000	17.0
48	0x41000000	8.0
49	0x41200000	10.0
50	0x3f800000	1.0
51	0x42340000	45.0
52	0x41d80000	27.0
53	0x42580000	54.0
54	0x42440000	49.0
