models/model_8.pt (torch_old, 149091 bytes, 5 tensors)

params f4 [128, 186]
00000000: 1603 dd3e 9c5e 01bf dcaa c1bd 82dc 55bd
00000010: b8e6 c63e 062a a3bd efb7 21bc 816d 4e3f
00000020: c66c a33d 07fd 993d 6ad0 123e 6bd2 06bf
00000030: 40ce c53c 9feb 8a3c 206c ef3d bd79 e43c
00000040: 3553 d1bb 0a4d 9fbb 922d 2dbe 3f63 93bd
00000050: 6153 b73e 29fb 0dbe caa8 d7be 30e7 c73e
00000060: 1436 5d3e fea9 66be 8bac 043f 1b4c 37be
00000070: 6f6f 53bd c7a2 85be d0e0 c63d 1b52 99bd
00000080: 0b95 b2be b009 84be 4797 713e b59c 553e
00000090: 6b91 84be ca88 38be c501 28be 92a2 403d
000000a0: cf59 a1bc 8f2a d4bd 38e3 e83d 68dd 8cbe
000000b0: d460 e2bd 0559 c33d 04ba ba3d 214f 49bd
000000c0: dff7 28bf 02f7 513e f6a8 603e 36d7 91be
000000d0: 183d 4fbc e6d2 b03c d629 77bb 140d d93c
000000e0: 8357 5b3e 9420 043f 41bc 20bd 917e 543d
000000f0: cce4 a33c 816c 55bd dfce 773d fc0c 96bd
00000100: da1f 003d b003 edbd f3ef 3b3e 1c47 e7bc
00000110: 4c6c e73b 2b6c ed3c 519b 91bd 0976 d03a
00000120: 8d8a 923b 7652 b43c 8e13 a0bc 107d 8ebd
00000130: f957 e5bc be31 14bd deb2 97bd 4e67 7c3d
00000140: cec0 82bc 3516 2a3c abb6 d0bd cdcc 1fbc
00000150: e2e7 64bc 4d68 d4bd cf19 133d 7d82 e1bb
00000160: 7485 e2bc a078 0cbd 4580 9abd 1fec 12be
00000170: 4654 cbbc c5ca bdbd ebdb bfbc 3987 eb3c
00000180: 6f97 08bd 1fb9 debd 46e3 74bd 9f63 b3bc
00000190: 7396 723d ad7f bbbc 17a3 0b3e 659f 7fbc
000001a0: 1e04 a33d f822 3ebd 0dfe a53d 7409 833b
000001b0: b46a 203d b431 353b fa54 d2bd bfd6 e93c
000001c0: f8dd fe3d fe6b 93bb 42d3 9e3c 812b edbc
000001d0: 3523 3dbd de7f 9a3c b870 22bd 6bd3 903d
000001e0: 97f6 073d 02b1 213c d3ed 6bbc 3519 fb3c
000001f0: 3ec5 a93d dbc5 9cbd 8ca0 203d 6290 ccbd
00000200: 5aec a43c ee15 f9bc 8149 d7bd 4c1e c2b8
00000210: 8b2f a03d 0c41 fb3b ee44 86bd 3fa5 79bd
00000220: 238a 84bd 06a4 e439 8f9e 35bd cb4b 33bd
00000230: b1b0 8c3c 5555 c73d c0aa 133d e533 053d
00000240: 043a 073e 29a6 32be a607 853d 898c 99bd
00000250: 4aec a73d 3245 823d 7f13 553a 6e72 0ebd
00000260: e604 c3bd aeb8 0f3d 4c55 4ebc 7955 5abd
00000270: b5ce 623b f957 aebc d2e9 0abd 1d34 e4bd
00000280: 203c cf3d 222c 983d 92c9 3c3d 4798 843c
00000290: a445 8f3d 6fd2 b2bb 59b1 0cbd 36d2 96bd
000002a0: a591 de3d b8df b03c eaca 713d 2c62 ce3d
000002b0: 83f0 bbbc bf25 153e 3307 e5bc e6d0 aabd
000002c0: 8d22 ac3c 8ebb 3d3d 64d0 e1bc 5b8e 5b3d
000002d0: 3bda dabd 41e2 c5bd ad24 0a3e b4e9 2e3d
000002e0: 472a c43d cd72 563c 70a9 403e 322c 7b3e
000002f0: 090d f43e f9e7 863d 28d3 8e3e 9df7 9dbe
00000300: 4997 8a3e c389 15bf 9b8d 21b8 e044 22be
00000310: 1d6b 113f 9013 643e b4b3 a83e 474b 08bd
00000320: 026e b43e dffc 7b3f afb6 22bf f830 cfbd
00000330: 472b b63e 09ec 183e 3382 743d 2c7c 3d3e
00000340: 9204 4aba 4ceb 46be 3a32 573e 9f55 bb3d
00000350: 5829 743e ec8d 133d 8be1 94be 34c0 76be
00000360: 7037 183e 3822 81be 7f3d a2be a4c6 1dbf
00000370: e22b f53e c89d 2b3c a955 90bc c986 e0be
00000380: 5e84 97bd 591b 653d 16c9 703d 997f ee3d
00000390: c440 9ebe 4a7e 8fbe 0d39 a83b 762b 7d3b
000003a0: 65b9 8e3e 8a7e b93e 7167 31bf 2b7e e6be
000003b0: 4eab 56be cda3 7abe f47d 213d 26bb a13d
000003c0: 1357 233c 38a8 dd3c 3688 9fbd 15d3 25be
000003d0: 9e04 7cbc 3120 e13d fea4 653d dc1b 983d
000003e0: d07e 12bc d9e6 08bd a7d8 d9bd 8570 db3c
000003f0: b968 493b bd56 c33c dfc8 a6bc 828a 54bd
0.43166417 -0.5053499 -0.09456417 -0.052212246 0.388479 -0.07967 -0.009870513 0.8063584
0.07979731 0.07518964 0.14337316 -0.5266482 0.0241462 0.016958056 0.11690545 0.02789008
-0.006388093 -0.0048614787 -0.16911915 -0.07196664 0.358058 -0.13865341 -0.42120963 0.3904357
0.2160266 -0.22525784 0.5182578 -0.17900126 -0.051619943 -0.26100752 0.09710848 -0.074863635
-0.34879336 -0.2578864 0.23592864 0.2086056 -0.25892195 -0.18020931 -0.16406925 0.04703004
-0.019696144 -0.1035968 0.113714635 -0.2751267 -0.11053625 0.095384635 0.09117511 -0.04914773
-0.6600322 0.20504382 0.21939453 -0.28484505 -0.012648843 0.02158494 -0.0037714145 0.026495494
0.21420102 0.5161221 -0.039242033 0.051878516 0.02000656 -0.05210543 0.060500022 -0.07326695
0.031280376 -0.11572969 0.18353252 -0.02823215 0.0070624705 0.028982243 -0.071097024 0.0015904318
0.004472083 0.022011977 -0.019540574 -0.069574475 -0.02799605 -0.03618025 -0.07407163 0.061621957
-0.015961077 0.010381271 -0.10191091 -0.009753418 -0.013971301 -0.10371456 0.035913285 -0.0068820105
-0.027651526 -0.034294724 -0.07543997 -0.14347886 -0.024820458 -0.09267191 -0.023420295 0.028751003
-0.033347543 -0.10875153 -0.059787057 -0.021898089 0.05922551 -0.022888029 0.13636433 -0.015601967
0.0795977 -0.046420068 0.08105097 0.0039989296 0.03916426 0.0027648034 -0.10270114 0.028544782
0.12444681 -0.0044989577 0.019387845 -0.028951408 -0.046176154 0.0188598 -0.03965828 0.07071575
0.03319415 0.009868862 -0.014399963 0.030651668 0.08289574 -0.076549254 0.03921561 -0.09988476
0.020132232 -0.030405965 -0.10512067 -9.256284e-05 0.07821568 0.0076676663 -0.06556116 -0.060948607
-0.0647166 0.00043609756 -0.044340666 -0.043773454 0.017174097 0.09733073 0.03605151 0.032520194
0.13205725 -0.17446198 0.064955994 -0.07497508 0.081993654 0.06360854 0.00081282103 -0.034777097
-0.09522419 0.035088234 -0.012593579 -0.05330417 0.003460807 -0.021282183 -0.033914395 -0.11142752
0.1011889 0.07430293 0.04609067 0.016185893 0.06995705 -0.0054572145 -0.03434882 -0.07364313
0.10867623 0.021591052 0.059031405 0.100773185 -0.022941833 0.1456518 -0.027957534 -0.083406255
0.021012569 0.046321444 -0.027565189 0.053602558 -0.106861554 -0.09662295 0.13490553 0.042703345
0.09578376 0.013088894 0.18814635 0.24528578 0.47666195 0.06587214 0.27895474 -0.30852976
0.27068546 -0.5841333 -3.851727e-05 -0.15846586 0.56804067 0.22273088 0.32949603 -0.033274915
0.3524018 0.98432726 -0.63560003 -0.10116762 0.35579893 0.1493379 0.05969448 0.18504399
-0.00077063695 -0.19425696 0.21015254 0.0914719 0.23843896 0.03602402 -0.29078326 -0.24096757
0.14864898 -0.2522142 -0.31687543 -0.61631227 0.47885042 0.01047463 -0.017618971 -0.43852833
-0.07398294 0.055934284 0.05878552 0.11645431 -0.30908787 -0.28026038 0.005133754 0.003863064
0.2787582 0.36229354 -0.69298464 -0.45018134 -0.20963785 -0.24476548 0.03942676 0.07897024
0.009969491 0.027057752 -0.07789652 -0.16193803 -0.01538196 0.10992468 0.056065552 0.07427189
-0.008941367 -0.03342328 -0.10637026 0.026787052 0.0030732586 0.023845071 -0.020359455 -0.051889904

params f4 [128]
00000000: 8e47 cfba 0a9e f0bd 6d5d e13b 5c86 98bc
00000010: c776 213e 5e14 d03c 8555 ba3b fda8 cdbd
00000020: 64a9 2e3d 4faa 82bd 6081 b53d 2db7 b13d
00000030: 168f a53d d8b2 423d d8d8 503d a0c4 a13d
00000040: cb6e 263d 246f 153e b234 fabc a513 893d
00000050: 1519 973d 6cd7 95bb 2c22 9e3d b620 0fbc
00000060: cf48 afbd c35d ba3d 7d5d 723d c34c 1e3d
00000070: 3794 00bc 4e33 553d 799b 4bbd 1dd1 553d
00000080: 75a3 c23d a70e 70bc adc0 933d d78e eabd
00000090: ec62 28bd 6706 77bd 9eb0 e63b ff12 f03a
000000a0: 125f 6ebc 2f91 243c d85a 5f3c ed5e ea3d
000000b0: ee74 173d cff5 f93d e4b0 6bbd 72e9 94bb
000000c0: 89e0 a3bc 89c9 b23d f21f ddbc 29c5 9a3d
000000d0: f31b 42bd 7128 78bc e266 243e e55e 36bd
000000e0: d894 09bd 28c0 bbbd adfc 3cbc 06d0 f83c
000000f0: d3ef 243d 9bdb 8a3d 891e 0c3d 2eae 933d
00000100: d0bd 903d 97c4 cbbd 5c79 25bc 9e4f 9c3d
00000110: 2809 90bd 9e05 063e cc0e 9bbd 9df4 89bb
00000120: e23c 863d 8274 123d d705 153d e144 e93b
00000130: c180 5b3d 7f98 963c f0b1 c13d 6830 fa3d
00000140: 92e6 a13c 0508 e4bd 288c e43c 1b94 26bd
00000150: 32ed b7bc 6cbf 153d 059d c5bc 8360 b53c
00000160: 9d25 4ebe 8b3f fcb9 f5d5 04be aa51 55bc
00000170: 93a5 603d 4390 7a3d eed6 53bd cc2c 6c3d
00000180: 4488 0e3e 6a3c 64bd 4f82 753e 93f9 e3bd
00000190: e871 3a3e 0a9e a0bc dbb1 58bc 7e4b c8bd
000001a0: edeb f23c b436 25bd fcb3 b1bd 6717 ad3c
000001b0: b66e d33c e7a2 d93c ea32 803c 3c81 e53d
000001c0: 40b4 383c 11b3 913d 2c34 843b 4b90 2a3c
000001d0: 4cc0 c93d ea39 203d 017c 203d 8333 05bd
000001e0: 17d4 04be b71c de3b 0582 fabd 210c 0c3e
000001f0: 7a20 743c ee9b bbbc a4d3 3f3c 5a32 073e
-0.0015814172 -0.117488936 0.0068775923 -0.018618755 0.15767966 0.025400337 0.0056864643 -0.100419976
0.042642012 -0.0638014 0.08862567 0.08677516 0.08083932 0.04753384 0.05098805 0.07898831
0.040633004 0.14593178 -0.030542705 0.066932 0.07377831 -0.0045727994 0.077213615 -0.008735826
-0.08558809 0.09099915 0.05917119 0.038647424 -0.007847837 0.05205088 -0.049708817 0.05220138
0.09503833 -0.014651931 0.07214484 -0.11453026 -0.041109964 -0.06030884 0.0070400974 0.0018316208
-0.014549034 0.01004438 0.013632499 0.11443887 0.036976747 0.122050874 -0.057541743 -0.0045444304
-0.020004528 0.08729846 -0.026992772 0.075571366 -0.047389936 -0.015146361 0.16054872 -0.044524092
-0.033589214 -0.0916751 -0.011534852 0.03037263 0.040267777 0.06780168 0.034208808 0.072109565
0.07067454 -0.09949606 -0.010099735 0.07632373 -0.070329964 0.1308808 -0.07571182 -0.0042100684
0.06554581 0.03575564 0.036382522 0.0071188067 0.053589586 0.018383263 0.09457767 0.12216264
0.019763265 -0.11134342 0.027898863 -0.040668588 -0.02245197 0.036559507 -0.024122724 0.022140747
-0.20131536 -0.0004811253 -0.12972243 -0.0130199585 0.054845404 0.061172735 -0.051718645 0.05765991
0.13919169 -0.055721678 0.2397549 -0.11131587 0.18207514 -0.019606609 -0.013225998 -0.09780024
0.029653514 -0.040335372 -0.086769074 0.021129323 0.025809627 0.026566936 0.015649278 0.1120629
0.011273444 0.07114232 0.0040345397 0.010410379 0.09851131 0.03911773 0.03918076 -0.03251983
-0.12971531 0.0067783254 -0.122318305 0.13676502 0.014900321 -0.022901502 0.011708174 0.13202801

params f4 [55, 186]
00000000: 0a6d 24bf b4ec 563e 854b 52be 93e1 0d3f
00000010: e71c eabe c461 0b3e 9a60 16be 692c 903f
00000020: 83fd 4dbd 9839 d23d d37f 853e 21f8 bd3d
00000030: 1837 aebe dcca d9be 4e7a ebbe bd05 99bd
00000040: 9338 febc 84d8 0cbd 6761 0fbf 51a5 51be
00000050: 4826 93be 5535 0fbd 7fff ad3b 7e76 9dbd
00000060: 7a97 f23d 3f25 77bd bb4e eb3c 5f87 0cbc
00000070: 595e 6a3d 987b 91bd d498 493d 8f3d 8abd
00000080: 3869 4f3c bed7 1e3d b73d e53b 362a 49bd
00000090: 5434 853c bcad 513d 24f9 9f3a 7ecb 5b3d
000000a0: 4c19 3abd 65a8 8d3d e8d5 4e3d c037 113d
000000b0: a554 8a3b 94d5 5537 e837 a83c 8fae 983c
000000c0: 784f 3bbd 5209 413d 9a6d fbbc 4f70 2abd
000000d0: 8c8f 3f3d 31e2 9c3b ac3f 953c 9c90 e13c
000000e0: afa1 36bc fd23 8cbc b11b 8bbc f8bb c1be
000000f0: b94e 12be 7544 d73d d4b6 e3bd 4679 49be
00000100: 8e4b 193e 68ab 2f3d 313c be3d be55 babe
00000110: 7b31 c9be 7958 e73c 5bbc 9fbe 2ea1 c23d
00000120: 22a8 44be 1e98 33be 9c48 d2be 5f7f 9d3d
00000130: 1b69 c83d c63d 31be 8a6e 2cbe c291 70be
00000140: f3a3 653d 295b 043e 8ec4 03be 1bef 82bc
00000150: a086 89be eb3e 063e 0fbf 4c3e 3bea 083e
00000160: da05 da3d 2459 8d3e f673 093e b736 983d
00000170: 4bcd 643e f5f8 0c3f 4353 efbd 16d7 27bc
00000180: 90d4 debc ac5b 7dbe 51c0 20be 4c2c 6f3d
00000190: cddb 7c3b e85c c2bc 5334 b0bd 2466 bc3d
000001a0: 25eb 86bd d2d8 16bc e58d 1d3e 8655 26ba
000001b0: 1dfe 623e d5b9 8d3d 14de 613e 6646 f93c
000001c0: 8a5d b8be 8430 18be cb82 723c 0dde 023e
000001d0: e8ad 5bbc ecf5 87be a76d 283e 67e1 483e
000001e0: 690b 11bd 906a 0c3f ff55 003e 8346 343e
000001f0: 3c18 793e efb3 f83c 0c70 44be dbe5 a3bd
00000200: 81e4 da3d 0c29 3d3e 8635 33be e967 783e
00000210: 5cbc 973e 58de 98bd 2400 46be 45ba 1fbe
00000220: 56a4 23bd b5d0 8fbd b03a 25be 7003 f23d
00000230: 22db 83bd 950a a7bb 3200 8c3e eca6 703c
00000240: c0e3 5a3e bed4 dcbe edca d53d 5cb5 0b3e
00000250: 0575 453d cf2c 463e 2748 53be 1733 873e
00000260: 78ba d23c 3113 d93c b1c3 07bd 5ddd 433e
00000270: 11b7 e7be e4fe 303e 7410 a93d 8c23 b93e
00000280: daab aa3d b1aa 3ebd fc1a a1bd ac4b d4bd
00000290: f023 823e 86bf 18bd f7f8 fe3d a011 99bd
000002a0: 33ec adbe 4e80 b3bd c542 1b3e 9f7f 98bd
000002b0: ffe5 593e 917f e93d 5044 88be 4917 c9bd
000002c0: 0846 de3d 134f 86be 404b 71bc e3d3 92bd
000002d0: 9c5f ba3e 8cf0 2bbe 99b4 5bbe 308f 91bb
000002e0: 1a1d dfbd d12c bbbe 4c31 0ebf d2cb b4bd
000002f0: 0ef8 113e 95cb 00be 4cc2 093f 23aa 2dbd
00000300: c66a 59bd fa6c 723d ab3a 9abe 0ef5 a43e
00000310: f087 96bd f09b 8fbc d0df 9cbd 0fcc 95bc
00000320: 10dc b3be 97e6 483c 3fdf 0a3d 2054 35bd
00000330: 0ece bc38 8a8d 2f3e e8b6 1bbe 1a15 a33c
00000340: 4c85 833c d157 023d 872e 8cbe 011d 1fbc
00000350: f3a4 2ebd 87e9 3a3d a5b5 30bd 8e7a 46bd
00000360: 5144 2abd e63d 773d f085 a03c 039c 353d
00000370: fd6b 8b3d c04b 6abb 8a85 40bd f260 02bd
00000380: ed03 873d 247c 00bd 332f abbc b2b4 49bd
00000390: b915 863d f84f 6cbc f009 17bc f082 46bd
000003a0: 28c0 513c ec73 00bd c2d9 333d 9ad0 9f3c
000003b0: de17 e4b9 602e 513d 7869 1f3d dbab 91bd
000003c0: 7412 e23c 46c3 703d 066a f53c 8111 493c
000003d0: 6438 f5bd 4dc9 d4bd deb7 1f3e 2585 8bbd
000003e0: fba3 7ebe 37d5 633d ef17 543e ceea 923d
000003f0: d6c6 fa3d bbc4 393e 071d 79be 03c4 ac3d
-0.6422888 0.20988733 -0.20536621 0.55422324 -0.45725176 0.13611513 -0.14685288 1.1263553
-0.050290596 0.102648914 0.26074085 0.092758425 -0.34026408 -0.42537582 -0.4599175 -0.074717976
-0.031032836 -0.034386173 -0.56008 -0.2047322 -0.28740144 -0.03496297 0.0053099985 -0.07688616
0.11845298 -0.060338255 0.028724065 -0.008577197 0.057218883 -0.07103652 0.049218014 -0.067500226
0.012659363 0.038779967 0.0069958824 -0.04911252 0.016260304 0.051191077 0.0012204987 0.053660862
-0.04543428 0.06916884 0.050496966 0.035453558 0.004221516 1.2745517e-05 0.02053447 0.018637924
-0.045730084 0.04712803 -0.03069191 -0.041611012 0.046767756 0.0047877063 0.018218838 0.027534775
-0.011146947 -0.017107004 -0.016980978 -0.3783872 -0.14287843 0.10511104 -0.11118856 -0.19675168
0.14970228 0.042888075 0.09288824 -0.3639354 -0.39295563 0.02824043 -0.3119839 0.09503399
-0.19204763 -0.17538497 -0.41071022 0.0769031 0.09785672 -0.17308721 -0.16839042 -0.23493102
0.056064557 0.129254 -0.12867948 -0.015983155 -0.26860523 0.13109939 0.19994758 0.13370602
0.10645647 0.2760707 0.13423142 0.07432311 0.22343938 0.5506738 -0.11685803 -0.010244152
-0.027200967 -0.24742001 -0.15698363 0.058391854 0.003858316 -0.023725942 -0.0860373 0.09199169
-0.06587819 -0.009206967 0.1538616 -0.00063451414 0.22167249 0.0692021 0.22057372 0.030429076
-0.36008865 -0.14862257 0.014801691 0.12780018 -0.013408162 -0.2655481 0.16448079 0.19617234
-0.035411272 0.548501 0.12532805 0.17605023 0.24325651 0.030359237 -0.19183367 -0.08002826
0.10688115 0.1847269 -0.17500886 0.24258389 0.29635894 -0.07464284 -0.19335991 -0.155984
-0.039951645 -0.070222296 -0.16135669 0.11817062 -0.06438281 -0.005097697 0.273439 0.014688235
0.21375942 -0.4313106 0.10439096 0.13643402 0.0482073 0.1935303 -0.20632993 0.26406166
0.02572368 0.026498409 -0.03314561 0.19127412 -0.45256856 0.17284733 0.08255091 0.36159933
0.08333559 -0.046549503 -0.07866475 -0.10365996 0.25418043 -0.037292026 0.1244983 -0.07474065
-0.33969268 -0.087647066 0.1516219 -0.07446217 0.21279143 0.114012845 -0.26614618 -0.098188944
0.10853201 -0.26232204 -0.014727414 -0.071693204 0.3640107 -0.1679098 -0.21455611 -0.004442118
-0.108942226 -0.3655763 -0.5554397 -0.08827938 0.14254782 -0.1257766 0.538121 -0.042398583
-0.053080343 0.05918596 -0.30122885 0.32218212 -0.07350147 -0.017530411 -0.07659876 -0.01828578
-0.35128832 0.012262008 0.03390431 -0.04426968 9.002919e-05 0.17143837 -0.15206492 0.019907523
0.016054772 0.03182203 -0.27379248 -0.009711505 -0.042637777 0.045632865 -0.04314198 -0.04845672
-0.041569058 0.060361765 0.019595116 0.044338237 0.068077065 -0.0035750717 -0.047002353 -0.031830736
0.06592546 -0.03136839 -0.02089653 -0.04924459 0.06547112 -0.014423363 -0.009218678 -0.048464715
0.012802161 -0.03136055 0.043908842 0.019508649 -0.0004350533 0.051069617 0.038918942 -0.07112857
0.02759669 0.058779977 0.029957782 0.01227224 -0.11973646 -0.103899576 0.15597484 -0.06812505
-0.24867241 0.05562326 0.20712255 0.07173692 0.12244956 0.18141453 -0.2432748 0.08435824

params f4 [55]
00000000: dc5c bcbf a488 a5bf 6f4f d5bf 3d0d c6bf
00000010: 4b5a 9bbf 81a1 afbf 255d dfbf 2e0d 94bf
00000020: 59bd 99bf e41b dbbf 30f8 9abf 6f58 c0bf
00000030: 4df0 c0bf 88b9 093d 5396 acbf 3d01 22bf
00000040: 57aa d9bf 5ecd 80be ac8f 53bf c52b 04c0
00000050: af25 b9bf 48ce bebf a7b7 b1bf e404 b4bf
00000060: e133 5abf a12b c6bf 15a8 30bf 092f a3bf
00000070: bf47 cebf b934 c4bf 43ff 97bf 1892 85bf
00000080: 745f 9fbf d0ee aebf eac7 b9bf b080 d7bf
00000090: 40ec bfbf c89f afbe 91f3 acbf bac9 b7bf
000000a0: 4511 bfbf 7f59 cebf 143c 27bf ce02 bdbf
000000b0: b652 f8be 12eb 98bf 86f9 c8bf b10a adbf
000000c0: c403 77bf 70c0 d5bf 2161 b53f 7ae7 b9bf
000000d0: bb54 cdbf 82da cdbf cbf7 bfbf
-1.4715838 -1.2932324 -1.6664866 -1.547279 -1.213693 -1.3721162 -1.74503 -1.1566522
-1.2010909 -1.7117887 -1.2106991 -1.5026988 -1.5073334 0.033624202 -1.3483375 -0.6328314
-1.7005109 -0.25156683 -0.826411 -2.0651715 -1.4464625 -1.4906702 -1.3884171 -1.4063993
-0.8523541 -1.5482064 -0.6900647 -1.2748729 -1.6115645 -1.532859 -1.1874775 -1.0435209
-1.2451005 -1.366663 -1.4514134 -1.6836147 -1.4993973 -0.3430159 -1.351183 -1.4358437
-1.4927145 -1.6121062 -0.65326047 -1.4766481 -0.48500603 -1.1946738 -1.5701149 -1.3518888
-0.9649012 -1.6699352 1.4170266 -1.4523766 -1.6041483 -1.6082308 -1.4997495

weight f4 [55]
00000000: 0000 5442 0000 3c42 0000 5442 0000 8841
00000010: 0000 1041 0000 1041 0000 f041 0000 0041
00000020: 0000 9841 0000 3041 0000 c040 0000 8841
00000030: 0000 4041 0000 0040 0000 4442 0000 0040
00000040: 0000 1042 0000 803f 0000 4040 0000 7041
00000050: 0000 4042 0000 1c42 0000 b841 0000 9841
00000060: 0000 0041 0000 3c42 0000 8040 0000 1842
00000070: 0000 803f 0000 7041 0000 4c42 0000 4040
00000080: 0000 9041 0000 3041 0000 f041 0000 d041
00000090: 0000 4041 0000 4040 0000 1442 0000 a040
000000a0: 0000 4c42 0000 b841 0000 4040 0000 2442
000000b0: 0000 4040 0000 a041 0000 5c42 0000 8841
000000c0: 0000 0041 0000 2041 0000 803f 0000 3442
000000d0: 0000 d841 0000 5842 0000 4442
53.0 47.0 53.0 17.0 9.0 9.0 30.0 8.0
19.0 11.0 6.0 17.0 12.0 2.0 49.0 2.0
36.0 1.0 3.0 15.0 48.0 39.0 23.0 19.0
8.0 47.0 4.0 38.0 1.0 15.0 51.0 3.0
18.0 11.0 30.0 26.0 12.0 3.0 37.0 5.0
51.0 23.0 3.0 41.0 3.0 20.0 55.0 17.0
8.0 10.0 1.0 45.0 27.0 54.0 49.0
