models/model.pt (torch_old, 149101 bytes, 5 tensors)

weight f4 [128, 186]
0	0xbe6efade	-0.23337886
1	0xbe1eaea6	-0.1549631
2	0xbecc38e8	-0.39887166
3	0x3e088b1a	0.13334313
4	0xbe87f009	-0.2655032
5	0x3e4d1351	0.200269
6	0xbe8781c4	-0.2646619
7	0x3ea6290d	0.32453194
8	0xbe00afb4	-0.12567025
9	0x3e88997e	0.26679605
10	0xbc8b8898	-0.017032906
11	0x3c1756ee	0.009237034
12	0xbcf4e615	-0.029894868
13	0xbe98eaae	-0.29866546
14	0x3cafd4e9	0.021463828
15	0x3d871d20	0.06597352
16	0x3ed3ceb4	0.4136864
17	0xbe87d610	-0.26530504
18	0xbe3ea198	-0.1861633
19	0xbeaedf46	-0.3415472
20	0x3dd2b35d	0.10288117
21	0x3eccb83e	0.39984316
22	0x3cb779e2	0.022396985
23	0x3e3425e6	0.17592582
24	0x3f3739aa	0.71572363
25	0xbc4eeaaf	-0.012629195
26	0xbe57e783	-0.21084408
27	0x3e13ba09	0.14426436
28	0x3e856ca0	0.26059437
29	0x3c6f729c	0.014614727
30	0x3c893ad2	0.01675168
31	0xbe4281ad	-0.1899478
32	0xbd9b1852	-0.07572998
33	0x3de5e9d8	0.11226243
34	0xbe4892dc	-0.19587272
35	0xbebd26dd	-0.36943713
36	0x3e790688	0.24318898
37	0x3d9015e7	0.070354275
38	0x3d07df38	0.033171862
39	0x3cc0533b	0.023477187
40	0xbd99b644	-0.075054675
41	0xbbfaef23	-0.007657902
42	0x3d96bc8a	0.0736018
43	0xbe3724c5	-0.1788512
44	0xbe32b001	-0.17449953
45	0x3d23a05c	0.039947852
46	0xbe6055e5	-0.21907766
47	0xbe2fbd20	-0.17161989
48	0xbc123366	-0.008923387
49	0x3d48e3be	0.049045317
50	0x3d29523a	0.041338183
51	0xbcd41d30	-0.025892824
52	0x3ecba8ff	0.3977737
53	0xbd273e6c	-0.040831015
54	0x3cc16efb	0.02361249
55	0xbd8fcf26	-0.07021932
56	0x3e5945db	0.21218054
57	0xbd7bdd8c	-0.06149058
58	0xbd4577fd	-0.048210133
59	0xbc4c96b4	-0.012487102
60	0xbd2764a1	-0.04086745
61	0xbd30406d	-0.04303019
62	0xbd9db49d	-0.07700465
63	0xbd9cd5d6	-0.076579735
64	0x3e062920	0.13101625
65	0x3d26ee02	0.040754326
66	0xbd25b5b2	-0.04045648
67	0xbddde48b	-0.10834607
68	0xbd4619e9	-0.048364554
69	0xbd23f711	-0.040030543
70	0x3ca52571	0.020159455
71	0x3d8437e4	0.06455973
72	0x3d4a8fd6	0.04945358
73	0x3c8d789d	0.017269427
74	0xbe0a0009	-0.13476576
75	0xbe09c998	-0.13455808
76	0xbdc91b95	-0.09819714
77	0xbc3951d6	-0.011311015
78	0xbccfbcdc	-0.02535861
79	0x3e105bd6	0.14097533
80	0xbe1798ca	-0.14804378
81	0xbd8ae8b2	-0.06782664
82	0xbd4072a0	-0.046984315
83	0x3a1a997b	0.0005897504
84	0xbdbff7f7	-0.093734674
85	0xbe1c1bfd	-0.15245052
86	0xbcadd76a	-0.021220881
87	0xbce44863	-0.027866548
88	0x3dceb241	0.10092593
89	0xbb04ae6f	-0.0020245572
90	0x3be4d6f3	0.0069836318
91	0xbd13f946	-0.036126398
92	0x3e24123e	0.16022584
93	0x3d1d5cf3	0.03841872
94	0xbe05b11c	-0.13055843
95	0x3d71ee2b	0.059065025
96	0xbb70d096	-0.003674542
97	0x3d4aa447	0.049473073
98	0xbc14e4ba	-0.009087736
99	0x3cbae076	0.02281211
100	0xbc5db695	-0.0135323005
101	0x3d9b1926	0.07573156
102	0x3dfbe674	0.12299815
103	0x3d826fcb	0.06368979
104	0xbd50854f	-0.050908383
105	0x3ce26a2d	0.02763852
106	0xbdbf43c6	-0.09339099
107	0xbaaed8c8	-0.0013339752
108	0x3c22452a	0.009904185
109	0xbd8d7dc2	-0.06908752
110	0xbd0740d8	-0.033020824
111	0xbc3859fd	-0.011251924
112	0x3ca11168	0.01966162
113	0x3dfb0685	0.12257103
114	0x3d14515f	0.036210414
115	0xbd7d9f41	-0.061919454
116	0xbd227426	-0.03966155
117	0x3c795360	0.015217632
118	0xbde2fee2	-0.11083771
119	0xbcb69852	-0.022289429
120	0xbcd76c39	-0.026296722
121	0x3d4c3f98	0.049865335
122	0xbdb58efc	-0.08865163
123	0xbdc0ce90	-0.09414399
124	0xbcdaa898	-0.02669172
125	0xbca09875	-0.019603947
126	0x3da56a0b	0.08076867
127	0xbc25cb3c	-0.010119256
128	0xbdaab008	-0.083343565
129	0xbb455512	-0.003011052
130	0xbd05a6f6	-0.03262993
131	0x3d817739	0.06321568
132	0x3db9d935	0.09074632
133	0xbd563c30	-0.052303493
134	0x3c18b83f	0.009321271
135	0x3db07897	0.08616751
136	0x3d53b1a2	0.051683076
137	0xbda2967c	-0.07938859
138	0xbd4bbf1b	-0.0497428
139	0xbd88910b	-0.0666829
140	0xbd2a54c7	-0.041584756
141	0x3c19ea26	0.009394204
142	0x3d0d69ad	0.03452461
143	0xbb936a23	-0.0044987365
144	0xbce0d5e0	-0.027445734
145	0xbdf39815	-0.11894242
146	0xbd6166c5	-0.05502965
147	0xbdf47154	-0.11935678
148	0xbdaea791	-0.085280545
149	0x3dc3306a	0.095307186
150	0xbca690b8	-0.02033268
151	0x3d16e82d	0.036842514
152	0x3d804e8d	0.06264982
153	0xbc934c4c	-0.017980717
154	0x3dceb37d	0.100928284
155	0x3d13450e	0.035954528
156	0xbd976e92	-0.073941365
157	0x3d9c63fe	0.076362595
158	0x3d753ccf	0.059872445
159	0x3e03d9b3	0.12876014
160	0xbd45d7e6	-0.0483016
161	0x3d4c7691	0.04991776
162	0x3c053c22	0.008132013
163	0x3d5b7199	0.053575132
164	0x3cecf946	0.028927457
165	0xbe0b0ef9	-0.1357993
166	0x3d86adf8	0.06576151
167	0xbc2ff303	-0.010739091
168	0x3d2b252f	0.041783508
169	0x3de2ce5a	0.11074515
170	0x3db01e5f	0.08599543
171	0xbd90abea	-0.0706404
172	0x3d6d0d27	0.05787387
173	0xbe2032d6	-0.15644392
174	0x3decc23b	0.11560484
175	0x3cc3f535	0.023920635
176	0xbd422785	-0.04740097
177	0xbdabeb5a	-0.08394499
178	0x3cf1044c	0.029420994
179	0xbd0b497f	-0.03400564
180	0x3c6ca440	0.014443457
181	0x3d676578	0.056493253
182	0x3d84758c	0.06467733
183	0xbda44adb	-0.0802209
184	0xbca15622	-0.019694392
185	0x3c2d50cf	0.010578348
186	0xbc2f6442	-0.010705056
187	0x3e6352e5	0.2219959
188	0xbf2065c0	-0.6265526
189	0x3df78485	0.12085823
190	0x3dd2b411	0.10288251
191	0x3e8fb5d3	0.28068408
192	0x3eaaf0f6	0.33386964
193	0x3eac4a4a	0.33650428
194	0xbe7ddb75	-0.24790747
195	0x3eb3ac32	0.35092312
196	0x3f0104e7	0.50398105
197	0xbcc98261	-0.024598302
198	0x3d872079	0.065979905
199	0x3e0acb16	0.13554034
200	0xbe6100c4	-0.21972948
201	0xbd623b5a	-0.055232383
202	0xbe900a10	-0.28132677
203	0xbe132c96	-0.14372477
204	0x3e01ce4a	0.1267635
205	0x3e7123e2	0.23548844
206	0xbe570063	-0.20996241
207	0x3db369b4	0.08760396
208	0x3dfd74f3	0.12375822
209	0x3e3c722b	0.18402927
210	0xbe2e99d9	-0.17050876
211	0xbed77106	-0.42078418
212	0x3d09f7fe	0.03368377
213	0xbdb66edb	-0.08907863
214	0xbef26894	-0.47345412
215	0xbd094488	-0.033512622
216	0x3e432937	0.19058691
217	0x3d2bc3f6	0.04193493
218	0xbd7b185c	-0.061302528
219	0x3e3b3fb2	0.18286017
220	0xbd833e2f	-0.06408345
221	0xbe04f6d6	-0.12984785
222	0x3e1ab8c3	0.15109544
223	0xbd556de1	-0.05210674
224	0xbd97ebfd	-0.07418058
225	0xbe038d9b	-0.12846987
226	0xbcd4fb52	-0.025998745
227	0xbf08f5da	-0.5350014
228	0xbe20377b	-0.15646164
229	0x3d8f1044	0.06985524
230	0x3e17c1f3	0.1482008
231	0xbe03113d	-0.12799545
232	0xbe45bc40	-0.19310093
233	0xbe2cdff4	-0.16882306
234	0x3d437d1a	0.047726728
235	0x3c449b0e	0.011999859
236	0xbd2e3a44	-0.042536035
237	0xbc1e4852	-0.009660797
238	0xbe39c938	-0.18143165
239	0xbd82d529	-0.06388313
240	0x3b0e0f5a	0.002167663
241	0x3d7da0ee	0.061921053
242	0x3e3a79e5	0.18210562
243	0x3dcecbb9	0.10097451
244	0x3d72182f	0.059105095
245	0xbd8c9888	-0.068650305
246	0x3cef4f64	0.029212661
247	0xbda932db	-0.08261653
248	0x3d49773f	0.049185988
249	0x3c448834	0.011995364
250	0x3c5a9204	0.013340477
251	0xbc23340c	-0.009961139
252	0x3c934c9b	0.017980864
253	0xbdb7d152	-0.089754716
254	0x3c2a968e	0.010411872
255	0xbd68250b	-0.056675952

bias f4 [128]
0	0xbd73514c	-0.059403703
1	0xbca0fbe8	-0.019651368
2	0xbdee4116	-0.11633508
3	0xbe034b93	-0.12821798
4	0x3cebcd83	0.028784519
5	0xbbb92245	-0.005649837
6	0xbdb65d00	-0.08904457
7	0x3c5b3605	0.0133795785
8	0x3e061986	0.13095674
9	0x3cdffc86	0.027342092
10	0xbd20abbc	-0.03922628
11	0xbd387d33	-0.045041274
12	0x3c18969a	0.00931325
13	0x3b6566e7	0.0035003962
14	0x3cb50937	0.02209912
15	0xbcb50f7d	-0.022102112
16	0x3d64445c	0.055729255
17	0xbd5ae902	-0.05344487
18	0xbd16ec37	-0.036846366
19	0x3da9ed52	0.082972184
20	0xbc6eee2f	-0.014583155
21	0xb9ac1c3d	-0.00032827436
22	0xbd8d487a	-0.068985894
23	0x3dd0c634	0.10194054
24	0xbd501990	-0.05080563
25	0xbd86a4e5	-0.0657442
26	0x3d93ad2b	0.072107635
27	0x3d90c2c4	0.070683986
28	0xbcb1896e	-0.021671977
29	0xbd9010b0	-0.07034433
30	0xbc040e83	-0.0080601005
31	0x3dbc92cf	0.09207689
32	0xbe13b766	-0.1442543
33	0xbd034ca0	-0.032055497
34	0x3df7e0ef	0.121034496
35	0xbbf725d7	-0.0075423527
36	0xbd19fca1	-0.03759444
37	0xbc77934b	-0.015110801
38	0xbcef7e00	-0.029234886
39	0x3d1f5e16	0.038908087
40	0x3d213b58	0.039363235
41	0xbbc28c56	-0.0059371395
42	0xbd2d786a	-0.042351164
43	0x3d1a3ed1	0.037657563
44	0xbd6e514d	-0.058183003
45	0x3d88dfb0	0.0668329
46	0x3c18476c	0.009294372
47	0xbbcc45d5	-0.0062339106
48	0xbd178c50	-0.036999047
49	0xbd987ac7	-0.07445293
50	0xbd79bc59	-0.060970638
51	0x3c00e295	0.007866521
52	0x3d9410db	0.072297774
53	0xbd0a2bbf	-0.033733126
54	0xbe234833	-0.1594551
55	0xbc0bf58b	-0.008542429
56	0x3dba57ce	0.09098779
57	0xbd3f8983	-0.046762
58	0xbd8c1b07	-0.068410926
59	0x3e457bcb	0.19285505
60	0xbd47693d	-0.048684347
61	0xbd2c586e	-0.04207652
62	0xbd7e465b	-0.062078815
63	0xbd46c671	-0.048529092
64	0xbd100fd2	-0.035171337
65	0x3d39d29f	0.04536688
66	0x3c1b2e23	0.009471449
67	0xbd99eacf	-0.07515489
68	0x3d839626	0.06425123
69	0x3dc6378d	0.09678564
70	0xbdfaf198	-0.122531116
71	0x3e2b2c5f	0.16716145
72	0xbd7ac1b7	-0.061219897
73	0xbd9c921c	-0.07645056
74	0x3dfe0f49	0.12405259
75	0x3da08423	0.07837703
76	0x3d3d4e00	0.046216965
77	0x3db1c90d	0.086809255
78	0x3bdc947e	0.006731569
79	0xbd38301d	-0.04496776
80	0xbc7069a2	-0.014673622
81	0x3d1bff11	0.038085047
82	0x3d9aa834	0.075516135
83	0xbe029e81	-0.12755777
84	0x3d4de2ca	0.05026511
85	0xbd09168b	-0.033468764
86	0x3e1a29f5	0.15055068
87	0xbc81f24b	-0.015862605
88	0xbc9b914f	-0.018990187
89	0x3c27ff0f	0.010253682
90	0x3e0090cd	0.12555237
91	0x3dedd1a3	0.11612251
92	0xbdad7dd4	-0.084712654
93	0x3db483e6	0.0881422
94	0xbd72cab9	-0.059275363
95	0x3c4f3197	0.0126461005
96	0xbd97976f	-0.074019305
97	0xbda96371	-0.0827092
98	0x3d819c06	0.06328587
99	0xbd9d8162	-0.076906934
100	0x3c771d67	0.015082694
101	0xbcf195d0	-0.029490381
102	0x3d5a8ed7	0.05335888
103	0xbcb9b970	-0.022671431
104	0x3d2735b6	0.040822707
105	0x3dfa73d8	0.12229127
106	0x3bcbf310	0.0062240437
107	0xba0dc887	-0.0005408604
108	0xbe126f10	-0.1430018
109	0x3d464afc	0.048411354
110	0x3d5a7609	0.053335223
111	0x3ddfa545	0.109201945
112	0x3d570895	0.05249842
113	0x3c0f54ab	0.008748214
114	0xbdd69c7b	-0.10479065
115	0xbd8044cf	-0.06263124
116	0xbc6646aa	-0.014054934
117	0x3d7b5160	0.061356902
118	0xbd9a2c11	-0.07527936
119	0x3d12f373	0.035876703
120	0xbd021bd0	-0.031764805
121	0xbceab1e7	-0.028649284
122	0xbce77dbe	-0.0282582
123	0x3c953eba	0.018218387
124	0xbd52ff05	-0.051512737
125	0xbc8c9700	-0.017161846
126	0xbd4fb5c8	-0.05071047
127	0x3dcfa826	0.10139494

weight f4 [55, 186]
0	0xbf0ed67b	-0.5579602
1	0x3e236784	0.15957457
2	0xbe514ed8	-0.20440233
3	0x3eecd749	0.46258
4	0xbeee87bc	-0.46587932
5	0x3e0b4bcb	0.13603131
6	0xbe66e1be	-0.22547051
7	0x3f8c8397	1.0977658
8	0xbd925c52	-0.07146515
9	0x3da9a156	0.082827255
10	0x3e8abe8a	0.27098495
11	0x3e723b61	0.23655464
12	0xbead873b	-0.33892235
13	0xbed041fa	-0.40675336
14	0xbede7e7b	-0.43455872
15	0xbd49ffec	-0.04931633
16	0xbcd1280e	-0.025531795
17	0xbdd45141	-0.103670605
18	0xbefa00b1	-0.48828653
19	0xbe3abb88	-0.182356
20	0xbeb66a43	-0.35627946
21	0xbd93ec42	-0.07222797
22	0xbcd40eaf	-0.025885908
23	0x3d00b620	0.031423688
24	0x3d55577e	0.052085392
25	0xbd945c08	-0.07244116
26	0x3d8091f9	0.06277842
27	0xbd284379	-0.041079972
28	0x3b0c53dc	0.0021412289
29	0x3d6d50e6	0.05793848
30	0x3cdf4ab8	0.027257308
31	0x3d88f6ef	0.06687724
32	0xbd7a2ec7	-0.061079767
33	0x3c93d86e	0.018047538
34	0xbd562b5d	-0.05228745
35	0xbd55b41c	-0.05217372
36	0x3ceb19c0	0.028698802
37	0x3d88f953	0.0668818
38	0xbd7ec697	-0.06220111
39	0x3d2aa1c6	0.041658185
40	0x3d41c977	0.047311272
41	0x3d1a7016	0.03770455
42	0xbc82dcc4	-0.01597441
43	0x3c99ae0c	0.01875975
44	0x3d2dbf46	0.04241874
45	0xbd45aadb	-0.048258644
46	0x3c8e362c	0.017359816
47	0x3d68023b	0.056642752
48	0xbd4e563e	-0.050375216
49	0x3d2bec9f	0.041973706
50	0x3d0e0750	0.034674942
51	0xbd501180	-0.05079794
52	0xbcc10a3a	-0.023564447
53	0x3cc95b60	0.024579704
54	0xbd00f5f1	-0.031484548
55	0xbc2674e8	-0.010159709
56	0xbd3d7e8d	-0.046263266
57	0xbd63d590	-0.05562359
58	0x3d41e3a9	0.047336254
59	0x3cfd3db7	0.030913217
60	0x3e844c1c	0.25839317
61	0xbe0c048e	-0.13673612
62	0x3cb4cf38	0.022071466
63	0xbd77761b	-0.06041537
64	0x3ddd66c3	0.10810616
65	0xbe1de442	-0.15419105
66	0xbd292d16	-0.041302763
67	0x3cc9474d	0.024570132
68	0xbdac0c87	-0.08400827
69	0x3c19376b	0.009351592
70	0xbd6fd188	-0.058549434
71	0xbe24c291	-0.16089846
72	0xbdc324f5	-0.09528533
73	0xbe23993f	-0.15976427
74	0xbdcf68b1	-0.1012739
75	0xbe13f6b5	-0.1444958
76	0x3cdf8c6d	0.02728864
77	0xbd7f0f14	-0.06227024
78	0xbd8008b4	-0.0625166
79	0x3d3b0177	0.045655694
80	0x3ed66082	0.41870505
81	0xbe8edd56	-0.2790324
82	0xbe7dc28a	-0.24781242
83	0x3d94937b	0.07254692
84	0xbeb3ca07	-0.35115072
85	0x3da96f8b	0.08273228
86	0x3d616007	0.05502322
87	0x3dde0922	0.10841586
88	0xbcbac1b1	-0.022797437
89	0xbd1eb417	-0.038745966
90	0x3d4dcceb	0.050244253
91	0xbd8f419f	-0.06994938
92	0xbd9756d0	-0.07389605
93	0x3e38d58d	0.18050213
94	0x3eaab3ce	0.33340305
95	0xbe64e9ce	-0.22354814
96	0xbd43e4f7	-0.04782578
97	0xbc200cd8	-0.009768687
98	0xbe86115e	-0.26185125
99	0x3e96e40e	0.29470867
100	0x3de21ac8	0.11040264
101	0xbde9c98f	-0.114153974
102	0x3e8a6561	0.2703047
103	0x3e3808b5	0.17972071
104	0x3ca7ee05	0.020499239
105	0x3e1b487f	0.15164374
106	0x3eb84d4d	0.35996476
107	0x3e9d9ab9	0.30782107
108	0xbdb75df3	-0.08953466
109	0x3d8847de	0.066543326
110	0xbd2ff264	-0.04295577
111	0x3e948b2e	0.29012436
112	0x3e0f2082	0.13977244
113	0x3eada5ae	0.33915466
114	0xbec12e15	-0.3773047
115	0x3e79b8eb	0.24386947
116	0x3e8e7706	0.27825183
117	0x3e16685f	0.14688252
118	0xbd36e7b5	-0.044654567
119	0x3d35f11a	0.044419385
120	0xbe7af402	-0.24507144
121	0x3d92c357	0.07166164
122	0xbe2d25e2	-0.16908982
123	0xbe47f17a	-0.1952571
124	0xbc96c201	-0.018403055
125	0xbdad67b7	-0.08467048
126	0xbe6ad345	-0.22932155
127	0xbec8fa3c	-0.39253414
128	0xbe8900b4	-0.2675835
129	0xbe0157eb	-0.12631194
130	0x3e25fb90	0.16209245
131	0x3e90f7cb	0.2831405
132	0xbe3531af	-0.17694734
133	0x3eb80dc5	0.35948005
134	0xbdb93216	-0.09042756
135	0xbcc82ea4	-0.024436302
136	0x3dce676e	0.100783214
137	0x3e237d6b	0.15965812
138	0x3dd1c806	0.102432296
139	0x3b26e0ec	0.0025463654
140	0xbdad241f	-0.08454155
141	0x3d381075	0.04493757
142	0xbe0c2ef9	-0.13689794
143	0xbdf03d99	-0.11730499
144	0xbd0c1985	-0.034204025
145	0x3e0db1ff	0.13837431
146	0x3de015ac	0.109416336
147	0x3ee28bea	0.4424737
148	0x3d0d56ec	0.034506723
149	0xbefe850d	-0.49710885
150	0x3c2dce28	0.0106082335
151	0xbe90a758	-0.28252673
152	0xbe68f67c	-0.22750276
153	0xbcb5a4bb	-0.022173276
154	0xbe685dbd	-0.22692008
155	0xbe4057b4	-0.18783456
156	0x3c943217	0.018090291
157	0x3d2aae67	0.04167023
158	0xbe82655d	-0.2546796
159	0xbe1e7ce9	-0.15477337
160	0xbe6444e4	-0.22291905
161	0xbc875812	-0.016521487
162	0xbd293c45	-0.041317243
163	0xbe684046	-0.22680768
164	0x3d4bc7f9	0.049751256
165	0x3e7596ef	0.23983358
166	0xbc0a941c	-0.008458164
167	0xbea2137a	-0.31655484
168	0x3e8be0f2	0.27320057
169	0xbe161d4c	-0.14659613
170	0xbd832c94	-0.06404987
171	0xbea77407	-0.3270571
172	0xbe05f1cc	-0.1308052
173	0xbe69e6d2	-0.22841957
174	0x3eddba09	0.43305996
175	0xbd881342	-0.06644298
176	0x3ec3d52b	0.38248572
177	0xbe52b63a	-0.20577326
178	0xbd9b2f5b	-0.07577392
179	0x3e5908e7	0.21194802
180	0x3d251870	0.04030651
181	0x3d67d52f	0.056599792
182	0x3bbfa751	0.005848803
183	0x3dbc280d	0.091873266
184	0xbe799e5a	-0.24376813
185	0x3e3c3817	0.18380772
186	0xbf0adc92	-0.54242814
187	0xbd079fa0	-0.033111215
188	0x3e4f59fa	0.20249167
189	0xbe1b2541	-0.1515093
190	0x3ed31cf5	0.4123303
191	0xba8c3022	-0.0010695497
192	0xbd75a52e	-0.05997198
193	0x3d1f74ad	0.03892963
194	0xbecaaefc	-0.39586627
195	0x3f083196	0.5320066
196	0xbdb9284c	-0.09040889
197	0xbd2b1f01	-0.041777615
198	0xbdea57ca	-0.11442526
199	0xbdaf1212	-0.085483685
200	0xbebec65c	-0.3726071
201	0xbd0331a0	-0.032029748
202	0x3c756ccd	0.014979553
203	0xbd7ff5df	-0.06249034
204	0xbd4a2f20	-0.04936135
205	0x3e42d827	0.19027768
206	0xbe3eb983	-0.18625455
207	0xbd2f3c64	-0.042782202
208	0xbd096221	-0.03354085
209	0xbd753306	-0.059863113
210	0xbe996968	-0.2996323
211	0xbc05c84d	-0.008165431
212	0xbd852b4c	-0.06502399
213	0xbd623561	-0.055226687
214	0x3d00ec0c	0.03147511
215	0xbd2a84f8	-0.041630715
216	0x3d70212a	0.058625378
217	0xbc6dad94	-0.014506716
218	0x3d4b4644	0.049627557
219	0x3d80bdc1	0.06286193
220	0x3d528e75	0.05140539
221	0x3bb24680	0.005440533
222	0xbce3f68c	-0.027827524
223	0x3d5302fe	0.051516525
224	0x3cb99167	0.022652341
225	0xbd6a6c55	-0.05723222
226	0xbd255617	-0.040365305
227	0xbc50b648	-0.012738772
228	0xbbe06c10	-0.0068488196
229	0xbd05f302	-0.032702453
230	0x3d6e959f	0.05824816
231	0x3d17c753	0.037055325
232	0xbcce8884	-0.02521158
233	0x3ce1e408	0.027574554
234	0x3d85c6a7	0.065320306
235	0xbd5cdef8	-0.053923577
236	0xbd00a244	-0.03140475
237	0x3cfaa370	0.030595511
238	0xbc450b3c	-0.012026604
239	0x3c8f57bd	0.017497892
240	0xba491e80	-0.00076720864
241	0xbd3c787e	-0.046013348
242	0x3ca4de74	0.020125605
243	0x3bab6094	0.005230019
244	0x3e582875	0.21109183
245	0x3e2725fe	0.16323087
246	0x3d396fe4	0.045272723
247	0x3e348e89	0.17632498
248	0x3e2c79e8	0.16843379
249	0x3d412350	0.047152817
250	0x3d769bd9	0.06020722
251	0x3de56d62	0.11202504
252	0x3d9630f5	0.073335566
253	0xbde5df76	-0.112242624
254	0xbd6237e3	-0.05522908
255	0xbd0856be	-0.03328585

bias f4 [55]
0	0xbfbe3a07	-1.4861459
1	0xbfa61acc	-1.2976928
2	0xbfd8658b	-1.6905988
3	0xbfbfe47e	-1.4991605
4	0xbfa401d9	-1.2813064
5	0xbfb093e6	-1.3795135
6	0xbfd12d7e	-1.6342008
7	0xbf93b78d	-1.154039
8	0xbf9b7d8b	-1.2147688
9	0xbfd894c8	-1.6920404
10	0xbfa19ce3	-1.2626003
11	0xbfc03fca	-1.5019467
12	0xbfbdd56a	-1.4830754
13	0xbd10be58	-0.035337776
14	0xbfb0aa5c	-1.380199
15	0xbf204001	-0.6259766
16	0xbfda544b	-1.7056974
17	0xbe6b5813	-0.22982816
18	0xbf54bb99	-0.8309875
19	0xc003be67	-2.0584962
20	0xbfba223d	-1.4541699
21	0xbfc2fb93	-1.5233024
22	0xbfb1b674	-1.3883805
23	0xbfaa5e21	-1.3309976
24	0xbf740f83	-0.9533617
25	0xbfc7c9e4	-1.5608487
26	0xbf4303c3	-0.76177615
27	0xbfae5746	-1.3620384
28	0xbfd3ebda	-1.6556351
29	0xbfc5bd3c	-1.5448375
30	0xbf95716c	-1.1675239
31	0xbf903aeb	-1.126798
32	0xbf99f50f	-1.2027911
33	0xbfac6127	-1.3467149
34	0xbfba3925	-1.4548689
35	0xbfce2742	-1.610573
36	0xbfc06a94	-1.5032525
37	0xbea14e39	-0.31504992
38	0xbfa223b7	-1.2667149
39	0xbfb1148b	-1.3834394
40	0xbfc0e332	-1.5069335
41	0xbfce334e	-1.6109407
42	0xbf321a40	-0.69571304
43	0xbfc9dfa5	-1.5771376
44	0xbedf33b8	-0.43594146
45	0xbf8f1a23	-1.1179851
46	0xbfc0ae78	-1.5053244
47	0xbfb15e88	-1.3856974
48	0xbf7fed23	-0.99971217
49	0xbfdbf2cd	-1.7183472
50	0x3fba6dfd	1.4564816
51	0xbfb966bd	-1.4484478
52	0xbfd026f1	-1.6261884
53	0xbfc70c60	-1.5550652
54	0xbfc029be	-1.5012739

weight f4 [55]
0	0x42540000	53.0
1	0x423c0000	47.0
2	0x42540000	53.0
3	0x41880000	17.0
4	0x41100000	9.0
5	0x41100000	9.0
6	0x41f00000	30.0
7	0x41000000	8.0
8	0x41980000	19.0
9	0x41300000	11.0
10	0x40c00000	6.0
11	0x41880000	17.0
12	0x41400000	12.0
13	0x40000000	2.0
14	0x42440000	49.0
15	0x40000000	2.0
16	0x42100000	36.0
17	0x3f800000	1.0
18	0x40400000	3.0
19	0x41700000	15.0
20	0x42400000	48.0
21	0x421c0000	39.0
22	0x41b80000	23.0
23	0x41980000	19.0
24	0x41000000	8.0
25	0x423c0000	47.0
26	0x40800000	4.0
27	0x42180000	38.0
28	0x3f800000	1.0
29	0x41700000	15.0
30	0x424c0000	51.0
31	0x40400000	3.0
32	0x41900000	18.0
33	0x41300000	11.0
34	0x41f00000	30.0
35	0x41d00000	26.0
36	0x41400000	12.0
37	0x40400000	3.0
38	0x42140000	37.0
39	0x40a00000	5.0
40	0x424c0000	51.0
41	0x41b80000	23.0
42	0x40400000	3.0
43	0x42240000	41.0
44	0x40400000	3.0
45	0x41a00000	20.0
46	0x425c0000	55.0
47	0x41880000	17.0
48	0x41000000	8.0
49	0x41200000	10.0
50	0x3f800000	1.0
51	0x42340000	45.0
52	0x41d80000	27.0
53	0x42580000	54.0
54	0x42440000	49.0
